01_rnn/logs/GRU/GRU_epoch_70_acc_0.8154.pth (torch, 299249 bytes, 6 tensors)

gru.weight_ih_l0 f4 [384, 57]
00000000: d551 5f3e f060 bb3e f046 e13e aa00 2f3f
00000010: 18f3 3e3e 2e95 183e ac26 163d 7118 343e
00000020: a6e6 37bf 8f4d 34bf 2402 c5be 5c8e cb3e
00000030: 15e5 603d 0865 013f cc7d bcbc d0bd f03c
00000040: e54d f83e c326 b6bc c030 21bd 9e70 033f
00000050: c8bc 73be 2269 01be 9b92 d83d 2d17 fabc
00000060: 45c2 333f 3e25 e4bd 6cd8 4abe d633 25be
00000070: 282e 793e f463 543e 901c 1e3e c994 febd
00000080: ec15 71be 63be 24be be35 8dbe 2b78 63be
00000090: 7847 97be 4f6d 193e c82e 4d3b 17e5 09bd
000000a0: 8797 5ebb cefb 123e 7291 a33e 39dd eebc
000000b0: b82e 623c 81ad acbe 04bb 5abe 3474 c4bd
000000c0: 0f52 26bc 378e 8dbe 48d6 95be 2c80 d23c
000000d0: 14ee 753d 705a 6e3c 47d4 9b3d cd24 91bb
000000e0: fec3 c5be 5c83 4d3f 7ced 073f c652 0f3f
000000f0: e9fd e0be 70b6 913e 88ed 093b d73d 94bf
00000100: 31cb a3be 1426 313d 7a13 34bf 54fd c8be
00000110: aedc 3f3d 8db8 dfbe 329d f03d 9807 4bbe
00000120: e9e6 8abc d619 d33d e504 113f b61e 8bbe
00000130: cfed 003f 180a 063e e348 ecbb fa59 91be
00000140: 17f6 ee3e d129 dc3e 80eb babe 6a1a 03be
00000150: 4f94 1f3e 737f 003d 8f38 6a3e 53cd 1e3e
00000160: 6f8a 953e e957 dabd 3963 543e f3be 5a3e
00000170: 0dee 86ba cf6e 653e 177d 5bbd 7a68 7d3d
00000180: 75fc 9dbe 3e76 143e 0c06 a2bd 8310 98be
00000190: df54 8ebc 0243 16bd 188e 90bd 6d22 733e
000001a0: b192 523e 290c 63be fd46 37be 96b1 c63d
000001b0: e8d4 9b3d 4b62 56bf 9aa4 0cbc 898b eabd
000001c0: d68f 0a3d b080 e93e 51b3 463f aadb 87bf
000001d0: cbca e43e 6893 a73c 86d3 21bf e378 a23e
000001e0: 805e 1abf 2115 0bbe dbf1 6f3e 0676 56be
000001f0: 1e98 6f3e 0e4a f13e 29ec 0abe 4912 c03e
00000200: 080e 43bd c00f 63be 57f0 76be e8c0 d33e
00000210: b63b 2cbf 607c 30bf 2056 2abe be4a b03d
00000220: ac5c 40be 1fc8 f4bd f7e4 e7bd d396 303e
00000230: 75bc 193f 656f b63e 06b4 93bc 231c f53e
00000240: 5dc9 4a3e 5f28 a1be b3b4 2a3e 2fd1 fc3d
00000250: 83d7 dc3e bdbe 52bd f52e 44be 0c06 91be
00000260: 0bf3 11be 5a9e e83d 40a4 d2bd 74fd 32bf
00000270: e33b 94bd d912 87bb 5fd5 c93d deb1 be3d
00000280: b6ec e73e a59f bf3a d753 9a3e caaf 8f3d
00000290: e15f 06bf 1280 c4be 1477 03bf fd7c 17bc
000002a0: 8ccb e83d e2c9 a83d 4d20 283e ddf5 c23e
000002b0: 68d4 c2be afa5 58bf 88b0 68be edf5 2cbd
000002c0: 60e3 533e 4fe4 bf3e 31f3 eabd c887 9fbd
000002d0: b331 343f 7dbe 243f 69bf 243f 5df7 c73d
000002e0: 2f20 5a3e 2e82 9fbc a0a6 f3be 29e2 2fbf
000002f0: 48f2 76be 3d48 ba3d 7ad8 1cbf 976e 623d
00000300: 5a73 34be 3b65 073c 8b43 b2be e9e8 62bf
00000310: 1dcb 8abd 3176 07bd e2b5 ad3e d4e4 973c
00000320: acac 3a3b 42a2 90be 20c6 ad3d 91b1 58bd
00000330: 741c 56be 9256 2238 8abf acbe 5cc7 cd3e
00000340: 7d46 38be 9932 1abe 7886 3f3c b082 6e3e
00000350: 7126 7fbe 4d37 563e b827 973b 8b7f 0d3e
00000360: c341 9c3e 75b8 bb3e 9c1c 03be d9d8 c9be
00000370: eebc 083e f24d fbbe fcba 503c 5a47 40bf
00000380: e6bd 89bd 096d 2cbe 8434 18bd 2eaf 403f
00000390: e653 a23e 21cb 68bf 8fee b43d 154d 063f
000003a0: 0bc1 fabd 5325 553d aa1e 1bbd 085c 063f
000003b0: 7709 b63d c82b ed3c 9da6 bc3e 572c f1bd
000003c0: 013a 7a3d 7566 353f 7834 7dbf c2b0 0fbf
000003d0: 61e3 eebd 23d2 543f 247c 963e 7c80 42bf
000003e0: 4d10 ad3e 4176 0fbf 6dcb ad3e 0826 02be
000003f0: d701 273b b315 1f3d a40d 623d 811b 91be
0.2180856 0.36597395 0.43999434 0.6836039 0.1864742 0.14900658 0.036657974 0.17587449
-0.71836317 -0.70430845 -0.38478196 0.3975705 0.05490597 0.50544786 -0.023009203 0.029387385
0.4849693 -0.02223528 -0.039353132 0.51343715 -0.23802483 -0.12637761 0.10574838 -0.03052863
0.70218307 -0.11139916 -0.19809121 -0.16133055 0.24334013 0.20741254 0.15440583 -0.12430722
-0.23543519 -0.16088252 -0.27580065 -0.22213809 -0.29546714 0.14983104 0.0031308401 -0.033665743
-0.003396483 0.14353868 0.31946903 -0.029158222 0.013805084 -0.33726123 -0.21360403 -0.095924765
-0.0101514 -0.27647564 -0.29265046 0.025695883 0.060041502 0.014547929 0.07608848 -0.004429436
-0.38626093 0.80278563 0.5309675 0.5598568 -0.43943718 0.284595 0.002104612 -1.1581372
-0.3199096 0.043249205 -0.7034222 -0.39255774 0.046841316 -0.4369549 0.117487326 -0.19827116
-0.01695581 0.10307662 0.56648093 -0.27171868 0.5036287 0.13089788 -0.007210837 -0.2838896
0.46672127 0.43000653 -0.36507797 -0.12803045 0.15583919 0.031371545 0.22873138 0.15508012
0.2920718 -0.10661299 0.20740975 0.21361904 -0.0010294333 0.22405551 -0.05358609 0.061867215
-0.30856672 0.14498231 -0.079113096 -0.29700097 -0.017374454 -0.036684997 -0.07058352 0.23743601
0.20563771 -0.22172607 -0.17898174 0.097018406 0.07608968 -0.83743733 -0.008584166 -0.114523955
0.03382858 0.45605993 0.77617365 -1.0613911 0.4468597 0.020456031 -0.63213384 0.31732854
-0.60300446 -0.13582279 0.23432104 -0.2094346 0.23397872 0.47126812 -0.1356665 0.3751395
-0.047620803 -0.22173977 -0.2411512 0.41358113 -0.6727861 -0.6893978 -0.16634417 0.08608006
-0.18785352 -0.119522326 -0.113229685 0.17245035 0.6005319 0.35631862 -0.018030178 0.4787303
0.19803376 -0.31476113 0.16670494 0.12344586 0.43133172 -0.051451433 -0.19158538 -0.28324926
-0.1425287 0.11358328 -0.102852345 -0.6991799 -0.07237985 -0.00412212 0.098551504 0.09311269
0.45297784 0.0014619721 0.3014209 0.07015951 -0.5249005 -0.3837896 -0.51353574 -0.009246108
0.113669485 0.08241631 0.16418572 0.38078204 -0.38052678 -0.84627813 -0.22723591 -0.04222672
0.20692205 0.37478873 -0.11472166 -0.0778957 0.70388335 0.6435316 0.6435457 0.09763978
0.2130134 -0.019471254 -0.47588062 -0.6870447 -0.2411586 0.090958096 -0.6126782 0.055281248
-0.17622128 0.008263881 -0.34817156 -0.8863664 -0.06777022 -0.0330717 0.33927828 0.018541731
0.0028484268 -0.28248793 0.08485055 -0.052903716 -0.20909292 3.8704435e-05 -0.33739883 0.40191162
-0.17995639 -0.15058364 0.011689775 0.23292041 -0.24917008 0.20919533 0.004612889 0.13818185
0.30518922 0.36664167 -0.12803882 -0.39423254 0.13353321 -0.49082905 0.012739893 -0.75108874
-0.067256734 -0.16838469 -0.037159458 0.75267303 0.31704634 -0.9093495 0.08834564 0.5246137
-0.12243851 0.05203755 -0.03787104 0.5248418 0.08888524 0.02895154 0.36845866 -0.11776035
0.061090473 0.7085946 -0.98908186 -0.56129086 -0.11664463 0.83133143 0.29391587 -0.759773
0.338015 -0.56039816 0.33944264 -0.1270982 0.0025483274 0.038839053 0.05518879 -0.28341296

gru.weight_hh_l0 f4 [384, 128]
00000000: 37cb dfbc 2654 e0bd d256 ddbc 167a 1bbd
00000010: 1486 30be 0265 e3bd 5f60 c13d 4b11 2c3e
00000020: 601e 44be a021 273c 61cd d03d 0898 d93e
00000030: 704e 2d3e c56c 5e3d 91c3 463d 1a65 fa3d
00000040: 3b9e acbd f120 f7bb 63ab a2bd f456 4fb9
00000050: f4cd 213b 3c25 f43d 1633 b8bd 622c 39be
00000060: 1593 88bd a0c4 fe3c 20df 34bd f9a0 0ebe
00000070: 8c99 8b3d 21e5 943e 1b11 3bbb 4694 f43d
00000080: 143d 4fbe 9c07 d0bd c4ec c8bd 4aa3 28bd
00000090: 13b8 a93b b802 b6bb e7a8 ecbc fd47 c5bd
000000a0: 1358 983d 9e0b 9ebd 4ddc 13bd ab91 18be
000000b0: 35ed 593c 2116 d43d ea5f b83b 6c83 6b3d
000000c0: 09f7 96bc 9cc2 863d 9e46 143d 79e5 fdbd
000000d0: f503 c73d 2820 cbbc c88d ce3c 6d44 60be
000000e0: 1896 9bbd 4922 3b3c 5935 ba3c e339 883d
000000f0: 66ad bfbc 97af a53d d9aa 5fbd ed16 6cbd
00000100: 2bf5 4a3d f71b 4e3e 4e05 0c3e 88db 1fbe
00000110: b5a9 6fbe 9cad fbbd 2de6 69bc 1ae6 b13b
00000120: 8a3a d6bd c629 8bbd 6ad5 7d3e eab6 c93b
00000130: 82db c1bd 8c7f 13bd 84ab 1abd 9e72 13be
00000140: c959 a8bd 7e40 873c 328c 3dbe f9f3 afbd
00000150: d821 793d c819 e13d e784 333e e21b debd
00000160: a89c 873e 90f5 8f3b 9127 163e 1a7e 23bd
00000170: 9df0 943d b6bc 0a3e f480 2d3d d18a 833d
00000180: 5f4c 21be 9657 413e cf6a e6bc 1d04 92bc
00000190: 489f 36bd a0db 57bd d566 0ebe ab6c 11be
000001a0: a6a8 b03b 4caf 43bd 95a9 ddbc 1205 f73a
000001b0: 63ea 5dbe 8b8c 093c 9a04 053d 4cc8 143e
000001c0: 9789 283d b481 52bd 9762 013e fa27 0abd
000001d0: d21d 1a3e 0969 843d 799b 043d 230b 323d
000001e0: 818f b8bc 551d 5d3d 329b 703c a7b9 01be
000001f0: 1052 53be 338e d5bd 9969 393d 6ffc 3d3b
00000200: a711 babc 593a f9be e016 0d3e 7dc7 3e3d
00000210: 5a41 9c3e 5858 07be 22a8 a63a 1985 5f3e
00000220: a1ac 133f 9d71 fcbd d536 1fbe 438e febc
00000230: d553 823d 0c5d 073e 46b6 f33d b157 25bd
00000240: 1ed2 5c3e 0006 62bb 9a87 23be ae51 923d
00000250: 462f 67bd 1404 c2be cd3e 82be 744f 523e
00000260: 71d9 8a3d c931 dcbe 516c 39be fec4 56be
00000270: 831a 59be 13a7 b7be 2987 a73d 428f da3d
00000280: 14b8 abbd 265a 7f3d b1ac bf3e 7ccd f83c
00000290: bc61 5abe d492 8cbd 4718 bcbe ff11 fabc
000002a0: 6fd7 52be 57c4 293e 8b6b 103e a825 763e
000002b0: e8a3 043e ad28 61be 1621 3c3e b867 7d3b
000002c0: ec03 1bbd e737 5fbd 4ebe 17bd cb21 9dbe
000002d0: edf3 e1bc 369d 87be 5e27 4e3c af06 e13e
000002e0: 02ed 99be 4fa6 2a3e dd5a 403d 9c09 64bd
000002f0: 37f9 673d 487f 6cbc 96dd f63d 4074 81bc
00000300: b749 afbe 1e27 25be 06f7 89be 8dda 0d3d
00000310: 054a ae3d 6ede 5ebe 5233 a9be 89a4 d0be
00000320: 8acd cbbd 2653 2cbe ff7e 2e3e 8761 70bd
00000330: 3b5d e53c 9323 533d 76b4 cf3c 73e5 fd3e
00000340: 5e08 97bc 1b83 bebd b77a 893e a5a8 2ebd
00000350: 2a7f f4bd 6397 48be 8065 aa3e 88e7 e73e
00000360: 0cb5 a2be e7a0 0dbc 562d 473d a8a1 5a3e
00000370: 912b 563e 3936 143e 5e6f 853e e4bb 2d3e
00000380: 10dd 53be c0ae bbbc 786c 093e 4ca8 92bc
00000390: 37d0 ce3d cf1b d1bd 0a49 07be 9a50 a53c
000003a0: ab5c cb3e 0494 64be 83cb 46bd 4486 103c
000003b0: 5475 15be 6feb 54be f189 ee3d 82e0 3abe
000003c0: 2f24 0ebe d599 00be ba4b aabd d2d5 8ebd
000003d0: 9264 87be 8d29 a8bd 7f09 27be 2505 6b3e
000003e0: 4209 a53e f308 a73d e579 b93b 5064 9e3a
000003f0: c681 853d 4e74 56bd e8e2 56be d33b 8fbe
-0.02731858 -0.1095355 -0.027018938 -0.037958227 -0.17238647 -0.1110325 0.094422095 0.16803472
-0.19152212 0.010200888 0.10195423 0.42498803 0.16924453 0.05430295 0.04852635 0.12226315
-0.084286176 -0.0075417687 -0.07942846 -0.00019773451 0.0024689408 0.119211644 -0.08994119 -0.18083337
-0.06668679 0.031099617 -0.0441581 -0.13928594 0.06816396 0.2908106 -0.0028544131 0.119423434
-0.20238143 -0.101577014 -0.098107845 -0.04117135 0.005179414 -0.0055545233 -0.028889133 -0.09632871
0.07438674 -0.077170596 -0.036098767 -0.14899318 0.0133011835 0.10355783 0.005626668 0.05749838
-0.018428342 0.065800875 0.03620016 -0.12397284 0.097175516 -0.024795607 0.025214091 -0.21901102
-0.075969875 0.011421748 0.022730516 0.06651666 -0.023398113 0.08090132 -0.054606292 -0.05763905
0.049550217 0.20127855 0.13673899 -0.15611088 -0.23404582 -0.12288973 -0.01427607 0.0054290416
-0.10460384 -0.06795077 0.24788442 0.0061558383 -0.09465696 -0.03601031 -0.037761226 -0.14399192
-0.0822025 0.016510244 -0.18510512 -0.08591456 0.06082329 0.109912455 0.17531167 -0.10845162
0.26486707 0.004393287 0.14663531 -0.03991518 0.07272456 0.1354855 0.042359307 0.064229615
-0.1575179 0.18881068 -0.028127102 -0.017824227 -0.044585496 -0.052699685 -0.13906415 -0.1420161
0.005391198 -0.047774598 -0.027058402 0.0018846116 -0.21671443 0.008395324 0.03247509 0.14529532
0.04114684 -0.051393226 0.12635265 -0.03372953 0.15050438 0.06465346 0.032374833 0.043467652
-0.022529365 0.05398305 0.014685439 -0.12668477 -0.20636773 -0.10427513 0.04526672 0.0028989573
-0.022713495 -0.48677328 0.13778257 0.046576966 0.3051861 -0.13217294 0.0012714902 0.21828116
0.57685286 -0.123263575 -0.1554826 -0.031073695 0.06363646 0.13219088 0.119 -0.040366832
0.21564528 -0.003448844 -0.15969697 0.071444854 -0.056441568 -0.37893736 -0.25438538 0.20538121
0.06779755 -0.43006733 -0.18107726 -0.20973584 -0.2120152 -0.35869655 0.08180077 0.106718555
-0.083847195 0.06234183 0.3743644 0.03037142 -0.21326345 -0.06863943 -0.36737272 -0.03052616
-0.20589994 0.16578804 0.14103524 0.24037802 0.1295315 -0.21988173 0.18371996 0.0038666558
-0.037845537 -0.054496672 -0.037046723 -0.30689844 -0.027582133 -0.2648713 0.012582628 0.43950412
-0.30063635 0.16665004 0.046961654 -0.055673227 0.056634154 -0.014434643 0.12053983 -0.015802503
-0.34235927 -0.16128203 -0.26946276 0.034632254 0.08510212 -0.21764538 -0.33046967 -0.4075053
-0.09951313 -0.16828594 0.17040633 -0.05868676 0.027998557 0.051547598 0.025354605 0.49589118
-0.018436607 -0.0930235 0.26851436 -0.0426413 -0.11938317 -0.19589 0.33280563 0.45293832
-0.31778753 -0.008644319 0.04862722 0.2135073 0.20915057 0.1447381 0.2606153 0.16966206
-0.20689797 -0.022910476 0.13420284 -0.017902516 0.100983076 -0.10210382 -0.13211456 0.020180035
0.39719138 -0.22322088 -0.048533928 0.008821074 -0.14595538 -0.20792936 0.11647404 -0.18249705
-0.1388099 -0.12558682 -0.08315225 -0.06974377 -0.26443917 -0.0821105 -0.16312216 0.22951181
0.32233626 0.08156004 0.005660283 0.0012084339 0.06518893 -0.05235701 -0.20984995 -0.2797533

gru.bias_ih_l0 f4 [384]
00000000: db03 a23d e8e5 9bbd 0f07 e23d fcb2 16bd
00000010: 31b9 bc3d a88c 123e d12e 0d3e 22b6 a53d
00000020: 1d08 b13d 6e37 4a3e 71c3 7fbd 5240 463e
00000030: 6708 123e 969a 873d 1514 b83d 0513 de3d
00000040: 3983 553e da0a 083e dfdb 6c3d 1b62 913c
00000050: 6058 1f3e 24d3 a5bd 2761 193d c990 7f3d
00000060: b94d 973d f2c8 083e e8dd 3f3e 55d7 293d
00000070: 7ecb edbc 1cdc b83d 2abe 383e 22a6 b4bc
00000080: 146b dfbb eb2e de3c 2663 31bb 7184 5d3e
00000090: f355 813d 5b60 2c3d 26c0 0b3d 556e 9c3d
000000a0: f09c c63d 3a1d dd3c b085 313e de0e a73d
000000b0: d82c 043c 6a70 1a3e d631 673e f5a3 de3d
000000c0: 43d1 8a3d 78ad 083e 6d3e 1b3d e13b 62bb
000000d0: bdef ec3d d42e 003c 7a0b b23d ff91 bfbc
000000e0: 38f3 743d a07b db3d 6c2e 303e 4564 943d
000000f0: c3a3 dd3d 5006 e23c 4d36 f83d 5fb9 5e3d
00000100: a6d1 183c c3a4 f3bc 9bb6 7b3c 9f3d d53d
00000110: d539 b23d 9565 463e 0205 e73d 1903 373e
00000120: dc2b 923d 5a45 5c3d e601 08bd 015e e53d
00000130: e3fd 123e 80f5 553e 77a5 6a3e 3e3f 1c3e
00000140: 5ef3 a83d e213 773e b7e5 efbc a787 ce3d
00000150: 73e8 003d 5ae0 ab3d 8b27 133e 6e0b e93d
00000160: a3f5 1d3d ec7e 223e 1fc7 403e f195 2cbd
00000170: ece7 353d 5892 ae3d f592 c13b 3a30 4fbc
00000180: c0d8 bfbc f71f f83d dde9 8e3d 0340 673e
00000190: 8fd8 e33d 1a34 1a3e 69c6 0a3e a33b cb3d
000001a0: 95da 4bbd 8c3f 4e3e c997 0f3e 35dc d63d
000001b0: f624 9abc e4e9 c13c 1f42 2fbb a1bd 253e
000001c0: 3406 393d f5fa 933b f2a5 9bbc 02d4 223e
000001d0: 3e55 353e cebe 423d ee19 cd3d 4495 373e
000001e0: c1b2 013e 78b2 ca3b fc51 353e 93a4 cf3d
000001f0: ba64 ab3d cce2 203e 26d3 133e d177 e33d
00000200: 704b 8abd b7ea 7ebe 6f26 22bf 380b d6bd
00000210: 0bdb b3be 2dc1 c9be cbfe 6bbe 8937 75bd
00000220: e392 0ebf f4cf 58be 4c03 18bf 218d 6bbf
00000230: ab9a aebe 41ab 76be c105 1dbf 2f60 95be
00000240: 8d5d 48be 9820 91be 8b0f e5bd 3a12 e4be
00000250: 6b9b 9cbe 0189 2ebe 8b17 0ebe fbb8 4dbe
00000260: 5638 54be 5017 ddbe 2803 39be ae0e c7be
00000270: 7d9a c4be e01b efbe d1d4 acbe 5eca 85bd
00000280: 4b2c cbbe 05f8 3cbe 5d00 6bbd 653a b0be
00000290: 1425 5fbe 4406 abbe c6a4 95be 6017 46be
000002a0: ef2c c5be 4939 b3bd b455 8cbe 5f5b 8abd
000002b0: 1739 bfbe 103f fcbe 3ede afbe beb0 acbe
000002c0: 73a0 16bf 985a 8abe 29b7 1bbe 012e a0be
000002d0: b0a5 01bf c9e6 b8bd 40db 6cbe d948 19be
000002e0: 2d9c 8bbe b774 82bf 9ad2 ccbe ccd7 8cbe
000002f0: 244e c3be 8423 abbe 5c30 aebe 4db7 24bd
00000300: f288 6ebe f315 28be f005 e2be c042 b6bd
00000310: cac6 00bf 1b3c 4dbe ced6 81be e1a1 aebe
00000320: a7a9 52be b12a 4ebd 4100 a4be 902c 0ebd
00000330: 5afb cabd 3e69 cbbd 515d 4dbe 252e 0cbf
00000340: cf36 b7bd 1bc3 dabe 3efa b6be ff6e 11be
00000350: 5364 e1be b579 58be bff0 9abe e6f7 7abe
00000360: 7cb8 39be b43e 9dbd a6cb 9cbe af9d 6fbe
00000370: a235 f3be 9e65 40be c054 aebe 3717 19be
00000380: c24d 01bf cb72 c1be e4d8 cabe b473 cdbe
00000390: a265 97be 3f52 e6bd e6e1 adbe 083a 75bd
000003a0: dbfb adbe c890 8fbe 6cf7 e0bd 9bea 1ebf
000003b0: e3eb 2bbf 29ff babe 4c87 eabd bf71 26be
000003c0: 4920 57be 6c40 c1be a5d8 5abf db32 11be
000003d0: 90ff 8fbe 7f7d 6fbe 1a30 05be 74d0 bbbe
000003e0: 93d2 3dbe 7c6d 93be 9cb6 5cbe 5db6 83be
000003f0: 304d 38be 9fe5 d9be c049 41be 9378 91be
0.079108916 -0.076122105 0.110365026 -0.036791787 0.0921501 0.14311469 0.1378739 0.0809138
0.086441256 0.19747707 -0.062442247 0.19360474 0.14261018 0.06621282 0.08988205 0.108434714
0.20850839 0.1328539 0.057826873 0.017746976 0.15561056 -0.080969125 0.037446167 0.062393937
0.07387871 0.13357905 0.18736994 0.041465122 -0.029027697 0.090263575 0.18041292 -0.022051875
-0.0068181846 0.027121982 -0.0027067154 0.21632554 0.06315222 0.04208408 0.034118794 0.07638232
0.09697902 0.026991475 0.17336154 0.081571326 0.008067332 0.15081945 0.22577605 0.10871116
0.06778195 0.13347423 0.03790133 -0.0034520554 0.11569164 0.007823665 0.08693595 -0.023385046
0.059802264 0.10716939 0.17205209 0.072456874 0.10822251 0.0275909 0.12119732 0.054376002
0.009327328 -0.02974165 0.015363361 0.10412144 0.08702437 0.19374688 0.11280252 0.17872275
0.07137272 0.053777076 -0.033204935 0.111995704 0.14354663 0.20894432 0.22914682 0.152585
0.082495436 0.24128678 -0.029284341 0.100844674 0.03147168 0.08392401 0.14370553 0.11379133
0.038564336 0.1586873 0.18825959 -0.042135183 0.04441063 0.085240066 0.005907411 -0.012645775
-0.023418784 0.12115472 0.069782 0.22583012 0.1112529 0.15058938 0.1355225 0.09923484
-0.049769003 0.20141429 0.14022745 0.1049122 -0.018816452 0.023671098 -0.0026742292 0.16185619
0.04517193 0.0045160004 -0.019000027 0.15901187 0.17708299 0.047545247 0.10014711 0.17928034
0.12665845 0.006185826 0.17707056 0.10138812 0.083688214 0.15711516 0.14436015 0.111068375
-0.0675267 -0.24894224 -0.63339895 -0.104513586 -0.35128054 -0.39405194 -0.23046415 -0.059867416
-0.5569288 -0.21173078 -0.5938003 -0.9201222 -0.34102377 -0.24088766 -0.61336905 -0.29174945
-0.19566937 -0.2834518 -0.11184605 -0.44545156 -0.30587325 -0.1704445 -0.13876168 -0.20090096
-0.20724615 -0.4318185 -0.1806761 -0.38878387 -0.38399115 -0.46700954 -0.33756116 -0.06532739
-0.3968223 -0.18453987 -0.057373393 -0.34419551 -0.21791488 -0.33403218 -0.29227275 -0.19344854
-0.38510844 -0.08751161 -0.27409136 -0.06755709 -0.37348244 -0.49266863 -0.34349245 -0.33728594
-0.58838576 -0.27022243 -0.15206589 -0.31285098 -0.50643444 -0.09028394 -0.23130512 -0.14969195
-0.2726759 -1.0191869 -0.40004426 -0.2750839 -0.38145554 -0.33425534 -0.3402127 -0.04021387
-0.23294428 -0.16414623 -0.44145155 -0.0889945 -0.5030333 -0.2004246 -0.25359195 -0.3410788
-0.2057253 -0.050333682 -0.32031444 -0.034710467 -0.09911223 -0.09932183 -0.20055129 -0.5475791
-0.08946001 -0.4272698 -0.35737795 -0.14202498 -0.44021854 -0.21140178 -0.302618 -0.24508628
-0.18136781 -0.07677975 -0.3062412 -0.23399995 -0.47501856 -0.18788764 -0.34049034 -0.14950262
-0.50509274 -0.37782893 -0.396186 -0.40127337 -0.29569727 -0.11246156 -0.3396141 -0.059869796
-0.33981213 -0.28040147 -0.10984692 -0.6207673 -0.6715681 -0.36522797 -0.11451587 -0.16254328
-0.2100841 -0.37744462 -0.85486823 -0.14179556 -0.28124666 -0.23387717 -0.1300663 -0.36682475
-0.18537359 -0.28794467 -0.21554035 -0.2572507 -0.17998195 -0.42558 -0.1887579 -0.28412303

gru.bias_hh_l0 f4 [384]
00000000: 4379 123e 5183 b43c 8656 a33d 7d61 e83d
00000010: 1a20 9c3d 41b4 293e f7fb 1e3e c5ad 1abc
00000020: 14f0 b53d 051b 1d3e 09f0 d43d 2a57 e53d
00000030: 28ae 993d f089 143c 7812 2c3d 96f2 bd3c
00000040: ecf2 343e fe29 343e 0aee 313e 1cd1 533d
00000050: 4de9 f73d 2532 023c 4ece c33b 2b03 483d
00000060: adf3 e03c 5ab8 123e fdcd 133e acb3 80bd
00000070: 5c2c 103d 46f0 a2bc 15b0 2b3e e6b8 7c3d
00000080: a7ff 043c 8170 073e 5912 e83c 5f15 623e
00000090: 63c4 cd3c f550 b63d d3fa 873d fec8 1a3e
000000a0: 2a22 873d 9e3d 823d 6614 d73d 2a96 0bbd
000000b0: 473a 0ebd 495e 5c3d faa5 5d3e 27de e13d
000000c0: 8149 1c3d 2798 9e3d 8d11 843d 8eca cd3d
000000d0: bc27 673e f199 a13d 5f1c 133e cbcd a0bd
000000e0: 22c6 973d 29c5 11bc d4b7 453e 6eb7 d83d
000000f0: f701 cc3d ef7c 813d 7146 ed3c 2f25 ba3d
00000100: bfe4 833d 8139 123d 5c7b 053e f18b ff3d
00000110: b52a 0a3e a861 743d 0f34 16bc 779c 0d3e
00000120: 38d9 cf3d 16a1 f73d 1a61 223d a4c6 443e
00000130: 7dbd 1b3e 1ac6 323e 654c 2d3e 5784 c43c
00000140: ab70 c93d 627d 443e d434 7e3b 158e b33a
00000150: dc1c 9dbb 2978 02bd 23e2 6f3d 89d0 563e
00000160: dbb0 ab3d 580b b93d a286 463e abe3 bb3d
00000170: 6b8b 923c e1c3 f83d 7a3b d83d 0f27 a039
00000180: d6db 683d f8cd 753d 3a1c 523e 17e5 8c3e
00000190: 7ce7 8d3d 9d40 9d3d 7174 283e 5139 1f3d
000001a0: f2b9 6e3d 88dc 693e 09fb d23c 937f 46bc
000001b0: f53b a73c 524e 12bd 1622 0abd 3047 143e
000001c0: f15d 053e 21b9 7a3d ae5b 983d cae7 fa3d
000001d0: aac7 da3c 6b6f 203d 98be 1b3e bbda 2a3e
000001e0: c645 54bc 0845 9dbd af7e 0f3e 47b2 943d
000001f0: 94eb 133e 127d 993d 3ab3 e53d 9906 843c
00000200: b5f6 a9bd 918a 39be 02c4 06bf 87c7 42be
00000210: d878 7abe f07b c5be bbe2 6bbe e810 953c
00000220: 3204 1dbf c296 99be 191c 01bf c438 76bf
00000230: 7a0d 8dbe 4f69 3fbe 78bb 1dbf 37a2 7fbe
00000240: 01fb 54be d457 c2be 0d2f e2bd 6455 f8be
00000250: 4aef b0be 6fec 0ebe ac76 bdbd b078 a2be
00000260: 8126 62be ba68 bfbe 9ac4 43bd 29fc 99be
00000270: 0ea9 f7be 8737 c7be dd45 97be edff 11be
00000280: 781f a6be 1c54 08be c1f9 dbbd 54ea ccbe
00000290: 18b4 41be 5fba 9abe c2ac e2be e61f bcbd
000002a0: 88fa b6be 5dd9 49bd 8802 c9be 3176 8bbd
000002b0: b70d 95be 1ff1 dfbe 4f1d aebe 3f90 b6be
000002c0: 77bb 1cbf 51f9 c9be 1ce5 8dbe c8b2 a7be
000002d0: c95c 06bf 3280 d5bd ead6 38be ab55 0ebd
000002e0: e085 8bbe c188 69bf bede b1be 4744 a5be
000002f0: e599 97be 4dec acbe 4850 cebe c112 01be
00000300: 33b1 9ebe 4482 d1bd e3f4 02bf 64b8 eabd
00000310: ba79 03bf 6419 a5be c63d a0be db71 aabe
00000320: 0292 51be 5a2b 4fbe beb8 d2be 8793 bebd
00000330: 6b5e 21be 3002 83bd 7313 abbe 88a3 10bf
00000340: 627c edbd c4cf edbe 3b33 a3be 1c59 88bd
00000350: d8a5 c0be ab81 69be cffa dabe bd82 8abe
00000360: 7a70 50be 06a6 f5bd 3122 c8be 48da 79be
00000370: b1e1 cabe a43d 22be 1fe9 adbe 0349 7cbe
00000380: 928d 04bf d623 00bf aebb a7be e371 d5be
00000390: 10b9 bcbe 4fdc 8ebd 6115 9ebe 667f 49be
000003a0: 1449 cabe a35f b5be fc9f 04be cb28 20bf
000003b0: b0c1 21bf bbc5 b6be 8c32 e3bd 3719 38be
000003c0: 784d 50be 9235 bcbe aeaa 3fbf fa99 a6bd
000003d0: 2c67 62be 64c8 80be 5d8d d2bd 2d67 abbe
000003e0: c141 63be 35b3 21be 3b8f 60be 8146 0ebe
000003f0: 59bf 39be 4578 adbe 8a55 87be 87f8 39be
0.1430407 0.022035273 0.079754874 0.113467194 0.076233104 0.16572668 0.15525804 -0.009440844
0.08883682 0.15342338 0.103973456 0.11198266 0.07503921 0.00906609 0.0420098 0.023186963
0.17670792 0.17594144 0.17375961 0.051713094 0.121050455 0.007946526 0.005975521 0.048831146
0.027459944 0.14328137 0.14434047 -0.0628427 0.035198554 -0.019889962 0.16766389 0.06169977
0.008117593 0.1322651 0.028329061 0.22078465 0.025118059 0.0890216 0.06639638 0.15115735
0.06598313 0.06359409 0.105019376 -0.034078754 -0.034723546 0.053800855 0.21645346 0.110287
0.038156036 0.077438645 0.0644866 0.100484 0.22573751 0.0789069 0.14366291 -0.07851752
0.07410838 -0.008897104 0.19308406 0.105818614 0.09961312 0.06322657 0.028964253 0.090891235
0.06440114 0.03569937 0.13035339 0.124778636 0.13492854 0.059663445 -0.009167685 0.13829218
0.10148853 0.120912716 0.039643385 0.192164 0.15209003 0.17458382 0.16923673 0.023988886
0.09835943 0.19188455 0.0038788812 0.001369896 -0.0047947 -0.031852875 0.05856527 0.20977987
0.08383342 0.09035367 0.19387296 0.091742836 0.017888745 0.12146736 0.10558219 0.0003054668
0.056850277 0.06001088 0.2051858 0.27518532 0.06928918 0.0767834 0.16450669 0.03887302
0.0582828 0.22838032 0.025754469 -0.012115377 0.020414332 -0.035719223 -0.033723913 0.14480281
0.13024117 0.06121171 0.074393615 0.122512415 0.026706535 0.039168756 0.15209424 0.16685002
-0.012956088 -0.07679182 0.1401317 0.07260566 0.14445335 0.074945584 0.112158254 0.016116427
-0.08299009 -0.18119265 -0.52642834 -0.19021426 -0.2446016 -0.3857112 -0.2303571 0.018196538
-0.61334527 -0.29997832 -0.504335 -0.9618037 -0.27549344 -0.18692516 -0.6161418 -0.24964224
-0.20798875 -0.37957633 -0.110441305 -0.48502648 -0.34557563 -0.1395738 -0.092511505 -0.31732702
-0.22085 -0.37384588 -0.047794916 -0.30075195 -0.48371166 -0.38909552 -0.2954549 -0.14257784
-0.32445884 -0.13313335 -0.10740996 -0.40022528 -0.18916357 -0.30220315 -0.4427243 -0.09185772
-0.35738015 -0.04927956 -0.39259744 -0.068096526 -0.29112026 -0.43738648 -0.34006736 -0.35656926
-0.6122355 -0.39448026 -0.2771386 -0.32753587 -0.5248533 -0.10424842 -0.18050733 -0.034749668
-0.27250576 -0.91224295 -0.3474025 -0.32278654 -0.296096 -0.33774033 -0.40295625 -0.1260481
-0.30994567 -0.10229924 -0.5115492 -0.11460951 -0.51357615 -0.32245934 -0.3129713 -0.3328999
-0.20465854 -0.20231381 -0.41156572 -0.09305482 -0.15758674 -0.063969016 -0.33413276 -0.5649953
-0.1159599 -0.46447575 -0.31875023 -0.06657621 -0.3762653 -0.2280337 -0.42769477 -0.2705287
-0.20355406 -0.11994557 -0.39088586 -0.24399674 -0.39625314 -0.15843827 -0.3396692 -0.24637227
-0.5177852 -0.5005468 -0.32760376 -0.4168845 -0.3685994 -0.06975614 -0.30875686 -0.19677505
-0.3950888 -0.35424528 -0.12951654 -0.62562245 -0.6318617 -0.3569773 -0.110936254 -0.17978369
-0.20342052 -0.3675962 -0.7486981 -0.081348374 -0.2210967 -0.25152886 -0.10280869 -0.33477154
-0.22193052 -0.15791018 -0.21929638 -0.13894083 -0.181394 -0.3388082 -0.2643245 -0.18161212

fc.weight f4 [18, 128]
00000000: d33b 9ebe d16c c3bd 2bf7 c23e e672 dc3e
00000010: 8659 8f3d 96cd e0bc 6ef2 5bbe f6e7 7abc
00000020: 9bde 5abe 4303 c83e c9c8 bebe ba0b 053f
00000030: 29b5 9e3e 3f0f f53d 4911 ab3d c418 61be
00000040: adb7 ce3e 79da e6bd 755e 02bd 4fd1 12be
00000050: d38a 563c d041 61bd e10e 823e e377 85be
00000060: c40d 35be 8f7e 903e 26e5 0ebe 6356 cabe
00000070: d5a1 313f b547 b23d e7dd 9a3e 5b23 2bbf
00000080: 86ea 963e 0504 b8be 659c b93e 0f22 4d3f
00000090: e231 903e 2b23 2e3e 8bb0 343c b119 6b3e
000000a0: d321 dc3e 99bb cdbd eefd 71bd a68a c13d
000000b0: ffeb 0dbf d166 c8be 7f6e d23e 0750 2ebe
000000c0: 6e86 433f 19a3 6bbd 8753 fe3c bb9b 9c3d
000000d0: 749a bebe 9c88 1abf 6db5 3fbe 2d7a 423e
000000e0: a8bd debd 8ba4 f6be 1977 e83e 1f0e df3e
000000f0: b788 c73e 2ccc cfbe 7126 4fbf 4468 dbbd
00000100: 8bb4 753f 5009 90be 052e f0be e4d8 85be
00000110: ef3c f4be 7e7f 013f 8a07 883c 758b e4be
00000120: 28ba 9a3e bdb1 983d e6a2 1dbd e8f9 04be
00000130: 1d26 873c 7222 633e a155 55bc 0c54 9fbd
00000140: 43f9 a8be 10ce 10bf 2d05 aa3d ef79 b83d
00000150: 79ad edbe 5668 65be e579 e33e 642c a5be
00000160: 6ea5 40bf 47e9 993e d3b5 2dbd c9a3 823e
00000170: f140 5abc 94db 0b3e 3a56 a63e c6f2 133f
00000180: 9818 293f 817b 9abe edcf aabb 1b68 da3d
00000190: 5364 70be f432 f63e 5c23 0d3f 964d a43d
000001a0: 987f aa3d 0505 533f 2c2f 423d 64bb d83e
000001b0: 7bb1 efbe e560 dfbe 31e5 25bf ab9c e33e
000001c0: 12fb 693e 5303 1fbe f0d0 1ebe ff3e cebd
000001d0: 79c7 f7bd 0359 2f3e 7b19 e2bc 5399 86be
000001e0: 5b7b 6ebe bb79 b73d bf0f 86bc e26e 4cbe
000001f0: 1595 54be 6593 a8be 63fe 08be b973 a93e
00000200: 515f f73e 8fec b53e 89ce 2cbe 8051 72be
00000210: d10b c8bd c506 10be aec7 663e a18a e93e
00000220: f80d b03e 114c 02bf 9c8c f83e 05f6 68be
00000230: 0dfe 403e fded d13d a920 8d3e 9b3c 3f3e
00000240: a549 f3be 3b14 00bf e0e8 8dbd feca 853d
00000250: 2059 d53e 5c0d 84be 207d 1a3f 229e 823e
00000260: 995b 9abe 5f55 023e 8544 8dbd bdd0 a13e
00000270: 2cef 5fbe 5ac7 a83e edf9 a93e 7d6f da3e
00000280: c0f9 85be 4a8b afbe e7d7 66be bd48 e13d
00000290: d916 003f 4d9b b53c e6ba bebe 2035 b4be
000002a0: 9cff f7bd aad7 3d3e 0cbf 06bf b419 bebd
000002b0: a58a 28be e596 093e 0ba6 793e 25c9 18be
000002c0: db41 51be 94fe 43bd 96d4 003e 5f44 babe
000002d0: 5fa7 933e 39b1 b6bd 720d bbbd 1639 13bf
000002e0: 1d19 103e 5bb6 dd3e 971d 033f 2686 e6be
000002f0: 6c30 213f e13e a7be 8583 0abe dbbc d9bd
00000300: 76b1 babe ad7b 733d 4214 9b3e fe43 59bc
00000310: decc f53e c2f4 95bd bcbb 54be 89d1 233e
00000320: 302a 93be fad7 6d3e 6924 2fbe bd49 7bbd
00000330: 7ea3 ab3d 1b6b 3e3d b147 0a3f da76 bdbe
00000340: b9cb 9c3e d551 96bd 5a49 e63d 1182 293e
00000350: 8203 8e3e 5e67 103f fc1a 2c3e 6b79 a6bd
00000360: 82d4 f3be fec4 3bbd 62f5 c63e f9be 263e
00000370: c67b febe 49a9 29bf a766 b2be bfb7 96be
00000380: 14cf 643e 8fea e53e f2da 083d aa00 b73d
00000390: 740e 85be 31d0 24be 8422 a23e 23df 75be
000003a0: c65c d23d 7c0a cb3c 5ffa 7dbe caac 54be
000003b0: 419a 7e3e 658e 5a3d 0d7a 323e fedb 203f
000003c0: b3cc 923b 982c 0fbe 90da 173e 29ea 02bd
000003d0: eb8e a5be d31f 033f af11 80be b0cc 16be
000003e0: 6f14 76be 87cc 473e 617c c43e 24f1 38be
000003f0: 2523 3bbf a02b 3dbe 6a80 403e 6e9e c0be
-0.30905017 -0.095422395 0.380792 0.4305641 0.06999497 -0.027441781 -0.21479198 -0.015314093
-0.2137398 0.39064988 -0.37262562 0.5197102 0.3099759 0.119657986 0.08352906 -0.21982104
0.40374509 -0.11272139 -0.031828362 -0.14337657 0.013094622 -0.054994404 0.25401977 -0.2606803
-0.17681032 0.28221557 -0.139546 -0.39519033 0.6938756 0.08705083 0.30247423 -0.66850823
0.29475802 -0.35940567 0.36252132 0.80130094 0.28163058 0.17005603 0.011028419 0.22959019
0.42994556 -0.10045547 -0.059080057 0.09450273 -0.55438226 -0.39140943 0.41099927 -0.17022716
0.76377 -0.05752859 0.031045688 0.07646891 -0.37227213 -0.603647 -0.18721552 0.18991919
-0.10876018 -0.4817241 0.45403364 0.4356546 0.38971493 -0.40585458 -0.8091803 -0.107132465
0.9597861 -0.28132105 -0.4691011 -0.26142037 -0.4770274 0.5058516 0.016605157 -0.44637647
0.3022015 0.07455776 -0.03848543 -0.12985957 0.016497666 0.22181109 -0.013020904 -0.077797025
-0.33002672 -0.56564426 0.083017685 0.09007632 -0.46421412 -0.22403082 0.44428936 -0.3226043
-0.75252426 0.3006079 -0.04240973 0.25515583 -0.013321147 0.13657981 0.3248766 0.5779232
0.6605315 -0.3017235 -0.005212775 0.10664388 -0.2347577 0.4808575 0.5513208 0.08022611
0.08325118 0.82429534 0.047408268 0.42330468 -0.46815094 -0.43628612 -0.64802843 0.44455466
0.22849682 -0.15528612 -0.15509391 -0.10070609 -0.12098593 0.17123799 -0.02760004 -0.26288852
-0.23289244 0.08958765 -0.01636493 -0.19964173 -0.20759995 -0.32924953 -0.13378291 0.33096102
0.48314908 0.35532042 -0.16875662 -0.23663902 -0.09767879 -0.14065082 0.2253711 0.45613578
0.34385657 -0.5089732 0.48544776 -0.22750099 0.18846913 0.10250471 0.2756398 0.18675463
-0.47517124 -0.5003087 -0.06929183 0.06532858 0.4166956 -0.25791442 0.60347176 0.2551127
-0.30148008 0.12727879 -0.06897835 0.31604567 -0.2186858 0.32964593 0.3319849 0.42663184
-0.26167107 -0.34285957 -0.22543298 0.11000202 0.5003486 0.02216878 -0.37251967 -0.3519678
-0.121093005 0.185393 -0.52635264 -0.09282246 -0.16459139 0.13436468 0.24379747 -0.1492048
-0.20435278 -0.047850206 0.12581095 -0.36380288 0.28838632 -0.08920521 -0.09133424 -0.5750898
0.1407208 0.4330319 0.51217026 -0.45024222 0.6296451 -0.3266516 -0.13526733 -0.106317244
-0.36463517 0.05944412 0.30288893 -0.0132608395 0.48007864 -0.073220745 -0.2077474 0.159979
-0.28743124 0.2322692 -0.17103733 -0.06134962 0.08380793 0.046488862 0.5401564 -0.3700474
0.30624178 -0.07339827 0.112444595 0.16553523 0.2773705 0.56407726 0.16807169 -0.081286274
-0.47623068 -0.045842163 0.38859087 0.16283788 -0.49703807 -0.66273934 -0.34843943 -0.29437062
0.22344619 0.44905517 0.033411928 0.089356735 -0.2598759 -0.16095044 0.31666958 -0.24010901
0.102716014 0.024785273 -0.2480254 -0.20769039 0.2486353 0.053358454 0.17429371 0.6283568
0.0044799685 -0.13981855 0.14829469 -0.031961594 -0.323356 0.51220435 -0.25013492 -0.1472652
-0.24031232 0.19511615 0.38376144 -0.18060738 -0.731005 -0.18473673 0.18798986 -0.37620872

fc.bias f4 [18]
00000000: e515 a4bd 5175 093e 068d 8ebe bfa7 3d3d
00000010: 767b 7bbd 91f3 d43b 5463 f63c 3954 b03d
00000020: f83b 44bd bd72 a3bc 319f 1bbe 3fbf 523d
00000030: 2a45 823e d189 87bd b7d6 4abc 80e1 183d
00000040: 426f c73c acb0 cd3d
-0.080119886 0.13423659 -0.27841967 0.046302553 -0.06139704 0.006498762 0.03007666 0.08609814
-0.047908753 -0.019952172 -0.15197445 0.051451918 0.25443393 -0.06618083 -0.012380294 0.03732443
0.024345044 0.10043463
