01_rnn/logs/GRU/GRU_epoch_90_acc_0.8072.pth (torch, 299249 bytes, 6 tensors)

gru.weight_ih_l0 f4 [384, 57]
0.240403 0.41226837 0.40964767 0.78970504 0.21359628 0.19985451 0.068478994 0.14983618
-0.8258221 -0.7556026 -0.4350376 0.42167008 0.043627746 0.53086287 -0.04314505 0.053188346
0.54102546 -0.078393735 0.004630994 0.5792793 -0.28480625 -0.032170147 0.12926923 -0.07013528
0.8103135 -0.19207501 -0.18589538 -0.15695713 0.265979 0.21039024 0.16367957 -0.13519843
-0.24774669 -0.18550363 -0.28466356 -0.21424046 -0.29300857 0.1610978 -0.0059064976 -0.050341528
-0.022687417 0.13764626 0.3414876 -0.04556246 0.0021751681 -0.32304057 -0.21498899 -0.08479688
-0.031237995 -0.28099003 -0.3278032 0.028416255 0.12601504 0.014365518 0.07666185 -0.004373915
-0.39413974 0.957976 0.5332523 0.644671 -0.46106204 0.2967076 -0.04509087 -1.258079
-0.46751454 -0.012686009 -0.77731335 -0.46320572 -0.04299753 -0.45096597 0.13464057 -0.19044454
-0.09307661 0.09797717 0.6400893 -0.30895913 0.5653216 0.1550626 -0.0427174 -0.21848309
0.5059688 0.45290855 -0.29525116 -0.15330245 0.13494632 0.04591704 0.27553672 0.19644871
0.28677878 -0.14030696 0.2279618 0.22829565 0.018260883 0.2601164 -0.0420913 0.04654744
-0.3131234 0.16125937 -0.13803428 -0.31730443 -0.033623766 -0.052290387 -0.06913421 0.23814058
0.2062599 -0.22630449 -0.1695674 0.15290189 0.0724639 -0.85885996 -0.008476574 -0.113483615
0.033404365 0.43939954 0.80705124 -1.0859009 0.41524717 0.017662538 -0.575363 0.30086222
-0.6704358 -0.14775299 0.25360963 -0.266048 0.25811854 0.4586809 -0.20109183 0.41427788
-0.05682875 -0.24885826 -0.2638438 0.48424497 -0.667612 -0.7654932 -0.11321235 -0.010207678
-0.23123002 -0.097400546 -0.07926027 0.19177407 0.6754386 0.35779825 -0.02900635 0.4870959
0.19232175 -0.31016147 0.15512924 0.11461797 0.43182108 -0.052250966 -0.20475739 -0.29437646
-0.16099054 0.10494558 -0.10851766 -0.69189173 -0.07552609 0.0009895042 0.09426091 0.082909785
0.45292163 -0.006574168 0.30321637 0.06902584 -0.60759634 -0.39272052 -0.4398584 -0.009130249
0.11236226 0.08138269 0.12400299 0.42471775 -0.38877758 -0.86670667 -0.27467558 0.0033999314
0.17193009 0.4076219 -0.118740894 -0.023579849 0.7234253 0.67477 0.6759467 0.053770803
0.24253829 0.006447101 -0.40525293 -0.5898382 -0.26164946 0.11893587 -0.6933529 0.048735585
-0.2070166 -0.015524719 -0.43508768 -1.0152694 -0.06270252 0.0061030705 0.34878528 0.0067054797
0.001179242 -0.28789598 0.08019078 -0.047683746 -0.22455111 0.012555206 -0.3408516 0.40970367
-0.22694911 -0.15605873 0.0030402814 0.2515886 -0.24929643 0.213412 -0.0055988277 0.15074389
0.2985677 0.38679668 -0.13961747 -0.4302468 0.13770549 -0.61066055 0.022044428 -0.81354266
-0.06641384 -0.16679181 -0.03669333 0.7388484 0.3226529 -1.0020814 -0.023749825 0.5134204
-0.09113886 0.022371188 -0.13480735 0.5216926 0.07244155 -0.02606776 0.22022027 -0.11525917
-0.0092350915 0.8149354 -1.0928417 -0.62147266 -0.115241304 0.9304952 0.37156877 -0.85012496
0.42806375 -0.52214324 0.39333957 -0.094312504 0.07530989 0.10872176 0.07581532 -0.2856536
00000000: 342c 763e d714 d33e 57bd d13e 1c2a 4a3f
00000010: fcb8 5a3e a9a6 4c3e b73e 8c3d a86e 193e
00000020: 1469 53bf 2c6f 41bf 40bd debe 24e5 d73e
00000030: 02b3 323d a1e6 073f ddb8 30bd 06dc 593d
00000040: a580 0a3f e58c a0bd 98bf 973b a64b 143f
00000050: 20d2 91be d8c4 03bd 275f 043e 16a3 8fbd
00000060: b570 4f3f 50af 44be 5c5b 3ebe 5fb9 20be
00000070: 662e 883e 8a70 573e 9e9b 273e 7571 0abe
00000080: 4fb1 7dbe aaf4 3dbe 6cbf 91be da61 5bbe
00000090: 3805 96be d2f6 243e 4b8b c1bb eb32 4ebd
000000a0: f6da b9bc 24f3 0c3e 76d7 ae3e b49f 3abd
000000b0: 448d 0e3b 9365 a5be 1326 5cbe fda9 adbd
000000c0: d3e6 ffbc eddd 8fbe d2d5 a7be 35c9 e83c
000000d0: 160a 013e 5a5d 6b3c e300 9d3d 0f53 8fbb
000000e0: afcc c9be ea3d 753f 3983 083f 2909 253f
000000f0: 5310 ecbe 0fea 973e 34b1 38bd bc08 a1bf
00000100: 115e efbe fad8 4fbc 02fe 46bf 4d29 edbe
00000110: 2e1e 30bd 03e5 e6be 38df 093e e503 43be
00000120: f39e bebd 41a8 c83d e4dc 233f e42f 9ebe
00000130: ebb8 103f bbc8 1e3e 71f8 2ebd 08ba 5fbe
00000140: 2c87 013f a1e3 e73e 292b 97be 51fb 1cbe
00000150: 5e2f 0a3e 8213 3c3d 2613 8d3e da29 493e
00000160: abd4 923e a1ac 0fbe d16e 693e 56c6 693e
00000170: d997 953c fa2d 853e ed67 2cbd 87a8 3e3d
00000180: b651 a0be 2d21 253e dc58 0dbe ba75 a2be
00000190: 13b9 09bd 722e 56bd 3d96 8dbd 20db 733e
000001a0: cc35 533e 5dbc 67be 14a3 2dbe 5092 1c3e
000001b0: f467 943d 3fde 5bbf 54e1 0abc 196a e8bd
000001c0: 04d3 083d faf8 e03e e99a 4e3f cdfe 8abf
000001d0: 479b d43e 07b1 903c fd4a 13bf 9d0a 9a3e
000001e0: aea1 2bbf 8f4c 17be 1fd9 813e 7237 88be
000001f0: 1d28 843e 39d8 ea3e 04eb 4dbe 3b1c d43e
00000200: 43c5 68bd b3d4 7ebe 8916 87be f5ee f73e
00000210: 9fe8 2abf 5df7 43bf e0db e7bd 1b3e 27bc
00000220: 90c7 6cbe f079 c7bd 3553 a2bd 6c60 443e
00000230: 8be9 2c3f 5531 b73e ba9e edbc a264 f93e
00000240: feef 443e 7ccd 9ebe 33da 1e3e d4bc ea3d
00000250: a717 dd3e 1c05 56bd ecab 51be 83b8 96be
00000260: b4da 24be b5ed d63d 823e debd d11f 31bf
00000270: 6cad 9abd 40b2 813a dd0b c13d 9bcc a93d
00000280: 58e5 e73e 1e6c d7bb 2d3f 9b3e 6b5d 8d3d
00000290: 6f8b 1bbf aa12 c9be 1f35 e1be 0a97 15bc
000002a0: 2f1e e63d f8ab a63d 48f5 fd3d 9b74 d93e
000002b0: db0d c7be 7de0 5dbf 47a2 8cbe 62d1 5e3b
000002c0: 710e 303e d1b3 d03e 6d2e f3bd 872a c1bc
000002d0: 6732 393f babd 2c3f d80a 2d3f c63e 5c3d
000002e0: f55b 783e 3442 d33b 507d cfbe a3ff 16bf
000002f0: ebf6 85be a694 f33d 937f 31bf f79e 473d
00000300: 29fc 53be 645b 7ebc d0c3 debe 59f4 81bf
00000310: 2e6a 80bd 44fc c73b fc93 b23e a4b9 db3b
00000320: cc90 9a3a 1a67 93be 103b a43d 0850 43bd
00000330: baf0 65be 5ab4 4d3c 1a84 aebe aec4 d13e
00000340: 5965 68be dccd 1fbe 753f 473b 39d0 803e
00000350: 9047 7fbe ad88 5a3e 5f76 b7bb 9b5c 1a3e
00000360: dedd 983e 370a c63e e2f7 0ebe 4f49 dcbe
00000370: ab02 0d3e 4054 1cbf 8496 b43c 5544 50bf
00000380: fb03 88bd 79cb 2abe bf4b 16bd 2b25 3d3f
00000390: c332 a53e 3444 80bf fe8e c2bc 856f 033f
000003a0: 03a7 babd c843 b73c f00a 0abe a58d 053f
000003b0: 3c5c 943d 0e8c d5bc 6c81 613e 000d ecbd
000003c0: c84e 17bc 9b9f 503f 3de2 8bbf d518 1fbf
000003d0: a203 ecbd ef34 6e3f 433e be3e caa1 59bf
000003e0: 2c2b db3e 2eab 05bf ce63 c93e ea26 c1bd
000003f0: 123c 9a3d 84a9 de3d 1045 9b3d 3041 92be

gru.weight_hh_l0 f4 [384, 128]
-0.043514106 -0.10678887 -0.03869439 -0.04653125 -0.18454199 -0.11221594 0.13651477 0.16346222
-0.22908425 0.0033430052 0.11171166 0.39388284 0.23506355 0.037386324 0.04186439 0.14789495
-0.09822496 0.014642808 -0.100297 -0.02771281 -0.025139552 0.13356467 -0.10774337 -0.19460335
-0.06488604 0.0009110771 -0.018085951 -0.12654841 0.094299495 0.28969342 -0.04357105 0.130152
-0.2293156 -0.09636799 -0.10753211 -0.03469229 0.0029886642 0.008260763 0.007708927 -0.0650914
0.066395216 -0.09885565 -0.048181918 -0.16375089 0.009033434 0.13906723 -0.006251552 0.07314163
-0.026970504 0.07040187 0.05904762 -0.12918052 0.13104121 -0.022884434 0.02121434 -0.22885284
-0.056736443 0.016736979 0.03132006 0.07776328 -0.015091075 0.089242324 -0.033937737 -0.06904388
0.094708055 0.2569426 0.14058252 -0.15588464 -0.2881528 -0.14186125 -0.013246342 0.0064188917
-0.09564093 -0.07952933 0.22942972 0.046970394 -0.110110946 -0.049080744 -0.06786244 -0.12320026
-0.08584711 0.014465089 -0.17796552 -0.07172971 0.066156745 0.11990122 0.20148975 -0.11591657
0.26532888 0.0018289449 0.10336547 -0.07986268 0.08044109 0.16411768 0.07838589 0.07297673
-0.17529814 0.1777075 -0.030378982 0.030096391 -0.069181174 -0.040854298 -0.14379428 -0.1518546
-0.015456189 -0.057427663 -0.049596872 0.0048156017 -0.21222652 0.06894401 0.015480213 0.10229753
0.051287413 -0.042178888 0.10579546 -0.033093527 0.1693946 0.05420617 0.032566052 0.0434984
-0.008594597 0.05640074 0.024265746 -0.121329114 -0.21880935 -0.09765015 0.009407194 0.039545275
-0.015728217 -0.4890521 0.086826414 -0.006634194 0.29594317 -0.19515064 -0.023224603 0.23506056
0.63916117 -0.12017319 -0.17489189 -0.04331799 0.06780846 0.14916232 0.1154861 -0.03973385
0.26966727 -0.006721152 -0.15690967 0.118885726 -0.10987474 -0.43670732 -0.31146222 0.25331414
0.06864242 -0.4533713 -0.18668792 -0.2380722 -0.17400923 -0.32987615 0.12168273 0.11517053
-0.090141654 -0.0068354616 0.41587174 0.030019617 -0.25558028 -0.12812506 -0.39194164 -0.022005398
-0.27624977 0.19126706 0.15358694 0.2561377 0.17526919 -0.2184694 0.2087359 0.033707622
-0.021194296 -0.012629727 -0.02678742 -0.32310772 -0.0066374773 -0.32321477 -0.034871023 0.49017256
-0.34238645 0.21813439 0.024474608 -0.15209346 0.055779915 -0.045940608 0.14999944 0.036859266
-0.38780722 -0.10345823 -0.31507787 0.09929663 0.072155595 -0.20494607 -0.3320189 -0.41094103
-0.13209459 -0.1870394 0.26077092 -0.009954424 -0.01901528 0.062107127 0.077496484 0.55546206
-0.02431223 -0.102150545 0.30894664 -0.094741225 -0.16541085 -0.21617587 0.33228487 0.51939243
-0.32916296 0.021384649 0.115357414 0.26146495 0.2597859 0.15780936 0.2802124 0.16098107
-0.2491324 -0.022697505 0.1312312 0.06287058 0.13371502 -0.15362224 -0.14891733 -0.044366803
0.41540524 -0.2623354 0.022382427 0.021292556 -0.15244041 -0.19381444 0.17072624 -0.24279173
-0.20480531 -0.09566796 -0.105402976 -0.11720867 -0.33702818 -0.058923803 -0.14739977 0.3153117
0.35322732 0.038189407 -0.009891022 -0.016251052 0.069046296 -0.13922183 -0.20883454 -0.32774627
00000000: d93b 32bd 20b4 dabd 027e 1ebd 8d97 3ebd
00000010: 93f8 3cbe 79d1 e5bd 87ca 0b3e a462 273e
00000020: 1095 6abe 5216 5b3b 15c9 e43d 03ab c93e
00000030: 80b4 703e 6722 193d ff79 2b3d c671 173e
00000040: 2b2a c9bd 63e8 6f3c 8368 cdbd fa05 e3bc
00000050: 76f1 cdbc 2dc5 083e 8ea8 dcbd 1a46 47be
00000060: f9e2 84bd 59d5 6e3a fd28 94bc e895 01be
00000070: 1820 c13d b252 943e 8f77 32bd 9146 053e
00000080: b5d1 6abe 955c c5bd cb39 dcbd 8119 0ebd
00000090: 77dd 433b 2758 073c 2b9b fc3b a44e 85bd
000000a0: 37fa 873d d574 cabd 675a 45bd 50ae 27be
000000b0: f800 143c a467 0e3e d2d9 ccbb 47cb 953d
000000c0: 3ff1 dcbc db2e 903d ebdb 713d e647 04be
000000d0: ab2f 063e 2378 bbbc b2c9 ad3c 6658 6abe
000000e0: 7964 68bd fd1b 893c 7749 003d 5b42 9f3d
000000f0: 8e40 77bc aec4 b63d 4c02 0bbd e166 8dbd
00000100: 4cf6 c13d fb8d 833e ddf4 0f3e 39a0 1fbe
00000110: c488 93be 1344 11be 2f07 59bc 9155 d23b
00000120: 64df c3bd 46e0 a2bd a0ef 6a3e 0764 403d
00000130: d981 e1bd e408 49bd 77fb 8abd 6b50 fcbd
00000140: 9cd0 afbd fbfe 6c3c 983c 36be 07e7 92bd
00000150: 307d 873d c58e f53d 5453 4e3e ab65 edbd
00000160: 30d9 873e 35b9 ef3a 47b1 d33d 0b8f a3bd
00000170: 4cbe a43d 770e 283e c888 a03d d374 953d
00000180: 5b81 33be f4f8 353e 58dd f8bc b58c f63c
00000190: dcae 8dbd d656 27bd cf3e 13be c67f 1bbe
000001a0: f53b 7dbc 4539 6bbd 1726 4bbd 32cc 9d3b
000001b0: e951 59be 8432 8d3d b8a0 7d3c 5e81 d13d
000001c0: c012 523d c5c3 2cbd 4aab d83d 148d 07bd
000001d0: c775 2d3e 4a07 5e3d fb63 053d 612b 323d
000001e0: 5ad0 0cbc 7604 673d f5c8 c63c 667b f8bd
000001f0: 8f0f 60be cdfc c7bd a220 1a3c 3afa 213d
00000200: 76d8 80bc 0965 fabe 0cd2 b13d a763 d9bb
00000210: dd85 973e 92d5 47be 8641 bebc b7b3 703e
00000220: 11a0 233f 5d1d f6bd dc16 33be 346e 31bd
00000230: 29df 8a3d 02be 183e fa83 ec3d f6bf 22bd
00000240: d411 8a3e 1c3d dcbb eeac 20be 5c7a f33d
00000250: 0206 e1bd 1a98 dfbe fa77 9fbe 64b2 813e
00000260: 6694 8c3d 4820 e8be 1e2b 3fbe 33c9 73be
00000270: 7a2f 32be 87e5 a8be cc34 f93d 87de eb3d
00000280: 309c b8bd 02fc dfbb 24ed d43e b3eb f53c
00000290: 6bdb 82be 3733 03be 93ac c8be aa44 b4bc
000002a0: 9c70 8dbe 83db 433e e545 1d3e 7b24 833e
000002b0: c479 333e 71b6 5fbe ddbe 553e 0111 0a3d
000002c0: a99f adbc eaec 4ebc 4b71 dbbc 606e a5be
000002d0: 327f d9bb 687c a5be ebd4 0ebd e6f7 fa3e
000002e0: 474d afbe 9f5e 5f3e f97e c83c 63be 1bbe
000002f0: 7b79 643d 382c 3cbd 7499 193e bef9 163d
00000300: ab8e c6be e9e1 d3bd e351 a1be 085c cb3d
00000310: 50c6 933d 62dd 51be 62fe a9be dd66 d2be
00000320: ce43 07be 4287 3fbe c483 853e e117 23bc
00000330: efc5 9bbc 0b64 7e3d 7ab6 9e3d c332 0e3f
00000340: 712a c7bc 4e34 d1bd 412e 9e3e b007 c2bd
00000350: 7661 29be 355d 5dbe 3e21 aa3e e7f6 043f
00000360: 0c88 a8be dc2e af3c 8240 ec3d bcde 853e
00000370: a802 853e c798 213e 0078 8f3e 39d8 243e
00000380: 901c 7fbe 1ef0 b9bc 7961 063e 4ac2 803d
00000390: 97ec 083e 264f 1dbe c97d 18be f7b9 35bd
000003a0: ffaf d43e d350 86be 5a5b b73c ba6d ae3c
000003b0: 5719 1cbe 4b77 46be dcd2 2e3e 659e 78be
000003c0: 7cb8 51be 90ed c3bd 84dd d7bd 190b f0bd
000003d0: f58e acbe 165a 71bd f7ef 16be 8970 a13e
000003e0: 36da b43e 7f6c 1c3d f40d 22bc ed20 85bc
000003f0: 2568 8d3d 2b90 0ebe b9d8 55be 5cce a7be

gru.bias_ih_l0 f4 [384]
0.07245999 -0.08253919 0.12448777 -0.023650225 0.09521329 0.14017461 0.1429625 0.08308897
0.09427379 0.20394684 -0.073448874 0.20794398 0.16605556 0.068346635 0.07281645 0.11542694
0.20310518 0.1454918 0.05858866 0.012106909 0.16982734 -0.09364588 0.01733363 0.092462555
0.08980619 0.14575942 0.1876372 0.028388148 -0.029640248 0.109104134 0.18739629 0.015867755
0.0042456686 0.025878888 -0.0013827496 0.21915422 0.05624302 0.05667263 0.034123592 0.11131509
0.104610756 0.019385504 0.1777528 0.09027343 0.004611775 0.15218624 0.22958504 0.12212549
0.069445916 0.13077639 0.054591514 0.025922706 0.119672276 0.01960791 0.11901391 -0.024793101
0.072711 0.087402895 0.17704152 0.08776536 0.11409291 0.025015796 0.10479132 0.05464716
0.0055066035 -0.019556446 0.043666624 0.08624829 0.06616098 0.17555614 0.10614341 0.18060003
0.080082834 0.0458952 -0.046285205 0.120611005 0.14732772 0.22459282 0.2540199 0.17046186
0.08173394 0.25384298 -0.03925073 0.090078644 0.03301638 0.07636438 0.18551552 0.108462125
0.014279158 0.16046327 0.18316904 -0.050202012 0.055914033 0.08850528 -0.0046038614 -0.04505922
-0.02967379 0.12808444 0.06839111 0.22442472 0.11027605 0.14930655 0.13197096 0.101434
-0.05122549 0.21025267 0.16060029 0.10958636 -0.026045173 0.048692077 -0.010553379 0.15124106
0.043809813 0.0093653295 0.0005419054 0.14571655 0.19427335 0.06875868 0.102392994 0.16782166
0.1347095 -0.03072559 0.1678719 0.10083503 0.07783848 0.16339071 0.15013146 0.109073326
-0.0700393 -0.24819759 -0.6648952 -0.123381734 -0.3702211 -0.4363263 -0.26831925 -0.07431045
-0.6199573 -0.21873412 -0.5823137 -0.9498562 -0.37514213 -0.28829578 -0.6742078 -0.3285016
-0.22284493 -0.31086546 -0.12936178 -0.5048387 -0.3483527 -0.20199268 -0.1804506 -0.25397554
-0.23483956 -0.44466463 -0.17927997 -0.44219816 -0.39681488 -0.49152943 -0.3676769 -0.13418283
-0.41276917 -0.21014485 -0.0736687 -0.38584232 -0.25426635 -0.38469043 -0.3232574 -0.215468
-0.39767018 -0.103788756 -0.28668383 -0.090705626 -0.38409832 -0.5499038 -0.39056912 -0.36045673
-0.6178316 -0.29995477 -0.18361874 -0.3599751 -0.58042777 -0.10669148 -0.3028287 -0.16060351
-0.2807907 -1.052945 -0.46662053 -0.30347782 -0.4112431 -0.34935048 -0.4009941 -0.054155875
-0.29095367 -0.16843909 -0.46414188 -0.103723854 -0.5353547 -0.26567417 -0.2865583 -0.3803781
-0.21614283 -0.08251963 -0.39638075 -0.035380524 -0.12090447 -0.14401892 -0.2492002 -0.5636239
-0.06529508 -0.46863702 -0.40421498 -0.16375296 -0.5280274 -0.23640525 -0.36202675 -0.27259272
-0.19481264 -0.09573886 -0.31167936 -0.2895143 -0.49292696 -0.20663466 -0.34665516 -0.15097871
-0.52996296 -0.41090307 -0.4603981 -0.4377176 -0.35770884 -0.108108744 -0.3585211 -0.09343058
-0.3508926 -0.29961723 -0.12170163 -0.6165313 -0.6847628 -0.39345586 -0.12036938 -0.17104585
-0.22024874 -0.40843856 -0.94414884 -0.14146383 -0.3088494 -0.2631138 -0.1595103 -0.39947307
-0.2554251 -0.30820346 -0.22887124 -0.27838367 -0.18207365 -0.43794242 -0.19600855 -0.3132851
00000000: e765 943d 4f0a a9bd 72f3 fe3d 1ebe c1bc
00000010: 2fff c23d ef89 0f3e c364 123e 8d2a aa3d
00000020: 9e12 c13d 71d7 503e 5d6c 96bd 44ef 543e
00000030: 780a 2a3e 52f9 8b3d ca20 953d f664 ec3d
00000040: cefa 4f3e cdfb 143e aafa 6f3d 0f5c 463c
00000050: 38e7 2d3e 69c9 bfbd 42ff 8d3c 025d bd3d
00000060: 4fec b73d f541 153e f723 403e 438e e83c
00000070: 1bd0 f2bc fd71 df3d d0e4 3f3e 18fd 813c
00000080: 401f 8b3b f6ff d33c 613d b5ba f769 603e
00000090: 155f 663d 8f21 683d 2ec5 0b3d 2af9 e33d
000000a0: 2a3e d63d 59ce 9e3c d404 363e 47e1 b83d
000000b0: 5f1e 973b b6d6 1b3e 5718 6b3e ee1c fa3d
000000c0: a939 8e3d 3fea 053e 5a9b 5f3d db5b d43c
000000d0: bd16 f53d c5a0 a03c 91bd f33d e71a cbbc
000000e0: 81e9 943d 4a00 b33d 5f4a 353e 53be b33d
000000f0: 8ba9 e93d eded cc3c d59c d63d b3d5 5f3d
00000100: bd70 b43b d734 a0bc c6db 323d f2a2 b03d
00000110: 687f 873d fdc4 333e b761 d93d 37ef 383e
00000120: 7802 a43d 9bfc 3b3d 8e95 3dbd e702 f73d
00000130: 14dd 163e a9fb 653e e50e 823e 8e8d 2e3e
00000140: 2064 a73d b5f7 813e 60c5 20bd 277b b83d
00000150: 2f3c 073d ee64 9c3d c8f7 3d3e 6421 de3d
00000160: 21f3 693c 7c50 243e aa90 3b3e a0a0 4dbd
00000170: 1d06 653d 4242 b53d fddb 96bb 0490 38bd
00000180: 7316 f3bc 9128 033e a310 8c3d 98cf 653e
00000190: 69d8 e13d d1e3 183e 6523 073e a1bc cf3d
000001a0: d2d1 51bd 7a4c 573e 6774 243e d06e e03d
000001b0: b05c d5bc 5871 473d 14e8 2cbc f0de 1a3e
000001c0: eb71 333d 0a71 193c a80e 0e3a b836 153e
000001d0: 98ef 463e 5ad1 8c3d 6bb3 d13d 71d9 2b3e
000001e0: 4af1 093e 3cb4 fbbc 9de6 2b3e 9982 ce3d
000001f0: c869 9f3d e54f 273e 10bc 193e d661 df3d
00000200: c470 8fbd 8227 7ebe 9236 2abf 90af fcbd
00000210: 9f8d bdbe 2966 dfbe 2461 89be 1430 98bd
00000220: 86b5 1ebf d6fb 5fbe 8312 15bf c729 73bf
00000230: a112 c0be 819b 93be e298 2cbf 5d31 a8be
00000240: 7631 64be c229 9fbe 6a77 04be 1c3d 01bf
00000250: 495b b2be 2bd7 4ebe 0bc8 38be 1509 82be
00000260: c879 70be 15ab e3be 2b95 37be cc67 e2be
00000270: 522b cbbe bfa9 fbbe 2640 bcbe 3967 09be
00000280: 7b56 d3be 3630 57be 9edf 96bd 208d c5be
00000290: 332f 82be 25f6 c4be fe81 a5be a5a3 5cbe
000002a0: 6d9b cbbe 338f d4bd 39c8 92be dfc3 b9bd
000002b0: 89a8 c4be 7fc6 0cbf adf8 c7be c98d b8be
000002c0: 362a 1ebf ac93 99be 8d06 3cbe a84e b8be
000002d0: ea96 14bf 1081 dabd 5d0c 9bbe 3f75 24be
000002e0: ccc3 8fbe e7c6 86bf e3e8 eebe 7261 9bbe
000002f0: 758e d2be 11de b2be 194f cdbe 8dd2 5dbd
00000300: e1f7 94be 4c7b 2cbe 01a4 edbe 2c6d d4bd
00000310: 010d 09bf 7206 88be c5b7 92be ebc0 c2be
00000320: 8c54 5dbe 0d00 a9bd 6bf2 cabe 2beb 10bd
00000330: c39c f7bd b279 13be 562e 7fbe a849 10bf
00000340: 6db9 85bd 31f1 efbe 44f5 cebe dbae 27be
00000350: ce2c 07bf 3814 72be 925b b9be 4691 8bbe
00000360: f77c 47be bc12 c4bd 7094 9fbe 383b 94be
00000370: ec60 fcbe 0998 53be c97c b1be 2a9a 1abe
00000380: a7ab 07bf e361 d2be 4db9 ebbe 851c e0be
00000390: 9d25 b7be 1e68 ddbd 1490 b7be 8858 bfbd
000003a0: 32a8 b3be 6e67 99be b43e f9bd ffd4 1dbf
000003b0: 9d4c 2fbf 0c73 c9be 3984 f6bd a526 2fbe
000003c0: e388 61be dc1e d1be bdb3 71bf e5db 10be
000003d0: 8221 9ebe dab6 86be ab56 23be bc87 ccbe
000003e0: 14c7 82be d8cc 9dbe 395d 6abe 4e88 8ebe
000003f0: 8471 3abe fd39 e0be 77b6 48be e866 a0be

gru.bias_hh_l0 f4 [384]
0.13559064 0.014387315 0.0942614 0.1247248 0.079495735 0.16250308 0.16012886 -0.006133001
0.09663926 0.16044492 0.09088072 0.12734513 0.09933157 0.011916167 0.025544532 0.031247992
0.17170352 0.18803895 0.17306773 0.045647155 0.13570035 -0.005844932 -0.013742445 0.079069674
0.04396938 0.15533987 0.14514726 -0.074611835 0.033780757 0.00033165264 0.17480752 0.09856943
0.018994173 0.12970346 0.029263917 0.2235574 0.018685704 0.10302153 0.06599649 0.18515286
0.07400364 0.05552911 0.11026716 -0.023926884 -0.037642613 0.056384034 0.22037947 0.12368148
0.040191222 0.07544365 0.0808434 0.12855576 0.22833851 0.08979978 0.17502981 -0.07923426
0.086837664 -0.027208352 0.19780974 0.12070882 0.10559126 0.06020479 0.013714726 0.09070463
0.059889976 0.04506402 0.15721488 0.10664655 0.11346458 0.04315386 -0.014297724 0.14067662
0.1098211 0.11218916 0.02564969 0.19977377 0.15576454 0.19066301 0.1948604 0.043478087
0.09739913 0.20506158 -0.0065032775 -0.008149011 -0.0027953242 -0.03796085 0.10144299 0.20324697
0.058980543 0.092986085 0.18871225 0.08199747 0.029724672 0.12427864 0.09382095 -0.03227036
0.049588837 0.06770741 0.20209754 0.27316087 0.06883848 0.076425895 0.16059157 0.041829064
0.055471618 0.23688051 0.047562547 -0.005974163 0.012693686 -0.009953559 -0.04121381 0.13440187
0.12781201 0.0653501 0.09276448 0.10967502 0.045781866 0.060487248 0.15368885 0.15554738
-0.0031548378 -0.112662815 0.13139659 0.07241363 0.13784204 0.08225131 0.11833294 0.015312035
-0.085308366 -0.1812966 -0.559268 -0.20800771 -0.26487887 -0.4280903 -0.268214 0.0027746947
-0.67566776 -0.30587527 -0.4939698 -0.99101555 -0.3104328 -0.23500948 -0.67693967 -0.28692186
-0.23501 -0.40578434 -0.12797476 -0.543918 -0.38755617 -0.17150885 -0.1347805 -0.3689415
-0.24827278 -0.38742054 -0.048065152 -0.35527092 -0.4952854 -0.41459265 -0.3260982 -0.21046482
-0.34131318 -0.15938216 -0.12307799 -0.4411688 -0.22587468 -0.353259 -0.47182345 -0.11515128
-0.37029043 -0.066036224 -0.40370563 -0.09123839 -0.3027693 -0.49531668 -0.3871864 -0.37949815
-0.64138275 -0.42265356 -0.30712375 -0.37447572 -0.5986151 -0.1204809 -0.25266758 -0.04710285
-0.28062242 -0.9473383 -0.41463846 -0.35058194 -0.3269535 -0.35279125 -0.4629503 -0.13891399
-0.36699006 -0.107367694 -0.5333589 -0.12901776 -0.54576445 -0.38617787 -0.34519297 -0.37230054
-0.21508937 -0.23259431 -0.4864898 -0.09299338 -0.17864569 -0.10910981 -0.3811073 -0.58082104
-0.091462806 -0.50537837 -0.36607227 -0.08924995 -0.46487573 -0.25282902 -0.4855338 -0.29771805
-0.21672094 -0.13836297 -0.39526293 -0.2993844 -0.4151474 -0.17755464 -0.34584486 -0.24663472
-0.54249525 -0.532086 -0.39267626 -0.45313156 -0.42969653 -0.065938845 -0.3280507 -0.22861895
-0.40547583 -0.37253466 -0.14112486 -0.62132466 -0.64555097 -0.38530743 -0.11683462 -0.18806988
-0.21366973 -0.39871243 -0.8393087 -0.081774615 -0.24945432 -0.28054273 -0.13259444 -0.36782
-0.2915244 -0.17980057 -0.23257974 -0.1615567 -0.18346798 -0.35225964 -0.27062848 -0.21205989
00000000: 46d8 0a3e c6b8 6b3c 1f0c c13d b76f ff3d
00000010: a9ce a23d 3567 263e d2f8 233e 57f7 c8bb
00000020: ceea c53d ac4b 243e ac1f ba3d c366 023e
00000030: 5a6e cb3d 073c 433c c442 d13c cafb ff3c
00000040: 0cd3 2f3e 488d 403e ab38 313e 83f8 3a3d
00000050: 08f5 0a3e d886 bfbb fe27 61bc 48ef a13d
00000060: 3d19 343d 6a11 1f3e 7ca1 143e 17ce 98bd
00000070: b15d 0a3d aae1 ad39 be00 333e c5de c93d
00000080: ab99 9b3c fcd0 043e e2ba ef3c 3bec 643e
00000090: c312 993c f4fc d23d 2b29 873d b698 3d3e
000000a0: 388f 973d 7e72 633d c0d3 e13d 5002 c4bc
000000b0: 242f 1abd f2f2 663d 28ab 613e b74c fd3d
000000c0: 8d9f 243d 3382 9a3d 3991 a53d 1fa4 033e
000000d0: 92d1 693e f2e8 b73d 043b 333e 9245 a2bd
000000e0: f2d7 b13d 0de4 debc a38e 4a3e 3036 f73d
000000f0: 3b40 d83d 4c99 763d bbb3 603c 59c3 b93d
00000100: 314f 753d 0d95 383d f0fc 203e 8269 da3d
00000110: 1e60 e83d 1ac2 303d 0041 6abc 880d 103e
00000120: e3e9 e03d 6ec3 e53d 4c1f d23c 7f91 4c3e
00000130: bd80 1f3e 2a3d 433e 7c89 473e 1416 323d
00000140: 3279 c73d aafb 513e 7219 d5bb 6e83 05bc
00000150: c231 37bb d67c 1bbd 58c1 cf3d f91f 503e
00000160: 9595 713d 7d6f be3d c93d 413e 4aee a73d
00000170: 2881 f33c cd85 fe3d 3325 c03d ed2d 04bd
00000180: aa1d 4b3d 2faa 8a3d a8f2 4e3e bedb 8b3e
00000190: 30fb 8c3d 2e85 9c3d 1e72 243e f454 2b3d
000001a0: 3536 633d ce90 723e f2d0 423d e9c2 c3bb
000001b0: 2ef9 4f3c 4114 23bc d0cf 28bd a5a0 093e
000001c0: 27e1 023e 46d6 853d 4efb bd3d 4c9d e03d
000001d0: c485 3b3d 7ac1 773d 9c60 1d3e d047 1f3e
000001e0: 65c1 4ebb c3bb e6bd d48c 063e 994d 943d
000001f0: 7726 0d3e 6073 a83d 8a58 f23d 54df 7a3c
00000200: 27b6 aebd d1a5 39be 302c 0fbf f9ff 54be
00000210: 349e 87be a72e dbbe 5853 89be a7d7 353b
00000220: 90f8 2cbf af9b 9cbe 9ce9 fcbe 32b3 7dbf
00000230: 0cf1 9ebe 53a6 70be eb4b 2dbf 6ce7 92be
00000240: 76a6 70be f7c2 cfbe d10b 03be 363e 0bbf
00000250: c36d c6be 04a0 2fbe e603 0abe e6e5 bcbe
00000260: 383b 7ebe fc5b c6be f7df 44bd 12e6 b5be
00000270: 0c96 fdbe 7d45 d4be 58f6 a6be 1784 57be
00000280: 9ac0 aebe 1435 23be 5010 fcbd e1e0 e1be
00000290: b14b 67be 5dde b4be d892 f1be 6fd4 ebbd
000002a0: b596 bdbe 003e 87bd 81b2 cebe 31db babd
000002b0: 9404 9bbe 269a fdbe 4c3d c6be 954d c2be
000002c0: a931 24bf 0c66 d8be 533f 9dbe 48bb bfbe
000002d0: d73e 19bf b1be f6bd a55d 81be ebee 40bd
000002e0: bead 8fbe c384 72bf 7e4b d4be 7a7f b3be
000002f0: 7366 a7be 0ea1 b4be d207 edbe 783f 0ebe
00000300: 1fe6 bbbe 98e3 dbbd 358a 08bf 3b1d 04be
00000310: 38b7 0bbf 1bb9 c5be 22bd b0be 2d9e bebe
00000320: 6340 5cbe 342d 6ebe 3115 f9be 5073 bebd
00000330: e5ee 36be f774 dfbd 7f20 c3be b0b0 14bf
00000340: da50 bbbd 7a60 01bf d36d bbbe aec8 b6bd
00000350: 3104 eebe ce72 81be e397 f8be 806e 98be
00000360: 18ec 5dbe 06af 0dbe e75f cabe e948 99be
00000370: 338e d4be e2d0 35be 9412 b1be d08d 7cbe
00000380: f8e0 0abf ca36 08bf dd0c c9be dc00 e8be
00000390: 2f01 dcbe f20a 87bd 43f6 a7be 161b 6abe
000003a0: 879a cfbe ddbc bebe 0983 10be 220f 1fbf
000003b0: d442 25bf 0447 c5be fd46 efbd 6495 40be
000003c0: 3dcc 5abe 0924 ccbe efdc 56bf 7379 a7bd
000003d0: f470 7fbe 4ca3 8fbe d6c6 07be e752 bcbe
000003e0: b042 95be a41d 38be 6229 6ebe 1f6f 25be
000003f0: 08df 3bbe 605b b4be d18f 8abe 3a26 59be

fc.weight f4 [18, 128]
-0.3908204 -0.12819785 0.41173926 0.52056706 0.12233227 -0.025473604 -0.23770238 0.0033453912
-0.2791322 0.40815118 -0.43877095 0.5352999 0.36492848 0.17117503 0.034063607 -0.28619653
0.5123181 -0.15136011 -0.008701436 -0.13794509 0.034711592 -0.07958632 0.27038726 -0.32325348
-0.19780588 0.32164508 -0.13261694 -0.4360161 0.81452537 0.11787298 0.3403685 -0.7131988
0.3594662 -0.40871024 0.43654883 0.94107527 0.3656347 0.16449708 0.016028259 0.2782698
0.5091049 -0.1094102 -0.040378086 0.11399008 -0.64963406 -0.4622176 0.49260536 -0.18799512
0.91430306 -0.081424974 0.017503526 0.035461508 -0.4675016 -0.7174635 -0.28242242 0.23156907
-0.09904978 -0.5421298 0.5546599 0.53302824 0.40760422 -0.43973595 -0.9771325 -0.11382327
1.07094 -0.32165575 -0.5390469 -0.31489906 -0.51738614 0.5452199 0.08916366 -0.49734575
0.33464986 0.07626922 -0.072261415 -0.11130735 0.012169854 0.23842584 0.014173824 -0.097115554
-0.36960816 -0.62173635 0.12858771 0.09479368 -0.59229875 -0.299762 0.508439 -0.3410925
-0.79754275 0.38178217 -0.044442594 0.3227118 0.0009234141 0.1388387 0.3277446 0.70246464
0.7457297 -0.36297306 0.01855189 0.16321343 -0.25064722 0.49743944 0.613734 0.056340717
0.1018479 0.94405925 0.042492688 0.45543566 -0.50114 -0.4764959 -0.7228721 0.4816821
0.2595746 -0.16758755 -0.14490823 -0.16141286 -0.12106307 0.24269046 -0.055588383 -0.30483276
-0.2616818 0.07777973 -0.021996245 -0.21963422 -0.23025203 -0.44122297 -0.1094771 0.3990297
0.546548 0.46929547 -0.16235815 -0.27958995 -0.12680313 -0.18978727 0.271621 0.510355
0.41882902 -0.57488036 0.53166157 -0.26935306 0.2173703 0.10354459 0.31069955 0.20636806
-0.569837 -0.6042145 -0.0768788 0.07714584 0.51626843 -0.3111738 0.7019456 0.28691995
-0.40760526 0.19113822 -0.08242506 0.36695686 -0.24299961 0.3388028 0.41289106 0.44372958
-0.26181063 -0.41644415 -0.26306462 0.14052343 0.6026721 0.024521757 -0.4527756 -0.43999872
-0.12810852 0.20478174 -0.6290499 -0.096675925 -0.17315274 0.18456976 0.32975954 -0.17405057
-0.21486335 -0.079961486 0.19520816 -0.41829696 0.27962157 -0.0955971 -0.1563669 -0.69613093
0.1301965 0.4994361 0.58755285 -0.58195275 0.75318 -0.34961683 -0.14911066 -0.13240495
-0.41837665 0.05528941 0.3147828 -0.05031991 0.6397972 -0.046260815 -0.23028599 0.18596919
-0.31339255 0.3055727 -0.1385654 -0.07902879 0.13479781 0.036357597 0.67171097 -0.4205897
0.37157834 -0.092128634 0.13781425 0.17391148 0.38745764 0.6856427 0.24900694 -0.08618958
-0.58669573 -0.07861562 0.51857126 0.1438667 -0.5976341 -0.7830347 -0.35208386 -0.3364291
0.2620568 0.5033834 0.032059878 0.07803925 -0.305265 -0.20160142 0.3730563 -0.2694497
0.09369637 0.013088582 -0.30832785 -0.20432636 0.25388178 0.092436664 0.21920581 0.66256505
0.037862252 -0.1528114 0.14535505 -0.019884678 -0.39002877 0.5884937 -0.3179387 -0.1347825
-0.27425516 0.23246817 0.42919427 -0.17473917 -0.8606316 -0.20718223 0.24077152 -0.4381078
00000000: 9d19 c8be 4c46 03be 7dcf d23e e243 053f
00000010: 5789 fa3d 05ae d0bc 4168 73be 5a3e 5b3b
00000020: 6aea 8ebe 31f9 d03e 96a6 e0be 6a09 093f
00000030: e8d7 ba3e 8248 2f3e 4886 0b3d 5a88 92be
00000040: 4727 033f 25fe 1abe 7890 0ebc 7a41 0dbe
00000050: be2d 0e3d 27fe a2bd 3370 8a3e 7b81 a5be
00000060: a08d 4abe aaae a43e bccc 07be 813d dfbe
00000070: bc84 503f 6467 f13d c844 ae3e 3294 36bf
00000080: f40b b83e 7842 d1be 5483 df3e 4fea 703f
00000090: 7934 bb3e ec71 283e b24d 833c 6179 8e3e
000000a0: b354 023f 7412 e0bd 7e63 25bd a273 e93d
000000b0: 6b4e 26bf c9a7 ecbe c536 fc3e cb81 40be
000000c0: c40f 6a3f 23c2 a6bd 8e63 8f3c 1640 113d
000000d0: 5f5c efbe b0ab 37bf ac99 90be 7120 6d3e
000000e0: 9cda cabd 05c9 0abf 31fe 0d3f 8a74 083f
000000f0: 80b1 d03e 1225 e1be 5b25 7abf 2d1c e9bd
00000100: 9014 893f 10b0 a4be fafe 09bf 733a a1be
00000110: 6b73 04bf 8893 0b3f 709b b63d 1aa4 febe
00000120: 3a57 ab3e 0933 9c3d cbfd 93bd 1cf5 e3bd
00000130: 1164 473c e725 743e 5439 683c 85e4 c6bd
00000140: 483d bdbe 1d2a 1fbf 7fac 033e 3023 c23d
00000150: e4a0 17bf 687a 99be 0f29 023f ada3 aebe
00000160: c32b 4cbf f478 c33e 7009 36bd 7b3a a53e
00000170: 4511 723a bb2b 0e3e 24ce a73e b9d4 333f
00000180: 24e8 3e3f 9bd7 b9be 22fa 973c 6c21 273e
00000190: d554 80be 62b0 fe3e ac1d 1d3f 86c5 663d
000001a0: a295 d03d dead 713f d00c 2e3d dd2e e93e
000001b0: b64a 00bf 45f7 f3be 250e 39bf 099f f63e
000001c0: f6e6 843e 129c 2bbe d362 14be 6a49 25be
000001d0: eaef f7bd d983 783e a5b0 63bd 0a13 9cbe
000001e0: 28fb 85be fb4a 9f3d 7831 b4bc cbe7 60be
000001f0: 30c7 6bbe fae7 e1be 8835 e0bd 9f4d cc3e
00000200: 92ea 0b3f 7f47 f03e 3741 26be 6a26 8fbe
00000210: aed8 01be 9857 42be e811 8b3e a0a6 023f
00000220: c270 d63e 5c2b 13bf f91a 083f a5e8 89be
00000230: 5296 5e3e 300f d43d 0314 9f3e 2652 533e
00000240: d6e0 11bf cdad 1abf a272 9dbd a3fe 9d3d
00000250: 2b2a 043f 2c52 9fbe b5b2 333f 2ce7 923e
00000260: a3b1 d0be bdb9 433e 78ce a8bd c5e1 bb3e
00000270: e4d4 78be 9077 ad3e 7566 d33e 8630 e33e
00000280: 0b0c 86be 2b38 d5be 68b0 86be 60e5 0f3e
00000290: b848 1a3f dae1 c83c 34d2 e7be 8347 e1be
000002a0: e12e 03be 4eb2 513e 6a09 21bf 07fe c5bd
000002b0: f44e 31be dbff 3c3e 3ed6 a83e 503a 32be
000002c0: 2305 5cbe d9c2 a3bd a6e4 473e 052b d6be
000002d0: 8f2a 8f3e 6ac8 c3bd a51e 20be a335 32bf
000002e0: 3b52 053e 17b6 ff3e dd69 163f dbfa 14bf
000002f0: 68d0 403f fa00 b3be 77b0 18be 2a95 07be
00000300: 7735 d6be 2677 623d 362b a13e 401c 4ebd
00000310: c0c9 233f fb7b 3dbd 17d0 6bbe b56e 3e3e
00000320: fd74 a0be 0674 9c3e 17e4 0dbe d9d9 a1bd
00000330: 7008 0a3e b4eb 143d 40f5 2b3f 8857 d7be
00000340: 843f be3e f0ad bcbd 2e1f 0d3e da15 323e
00000350: d960 c63e 4886 2f3f adfb 7e3e 2a84 b0bd
00000360: b131 16bf 3a01 a1bd 16c1 043f cb51 133e
00000370: 8cfe 18bf f674 48bf 5644 b4be 6f40 acbe
00000380: 4f2c 863e bcdd 003f 3851 033d 0bd3 9f3d
00000390: b24b 9cbe 9a70 4ebe 3c01 bf3e 50f5 89be
000003a0: e2e3 bf3d 7e71 563c 26dd 9dbe ee3a 51be
000003b0: cbfc 813e 6f4f bd3d 7d77 603e dd9d 293f
000003c0: 7315 1b3d 977a 1cbe f4d7 143e 31e5 a2bc
000003d0: dab1 c7be 86a7 163f dcc8 a2be 6c04 0abe
000003e0: 2c6b 8cbe 230c 6e3e 5abf db3e d3ee 32be
000003f0: 5a52 5cbf 9427 54be cf8c 763e aa4f e0be

fc.bias f4 [18]
-0.081072114 0.11858623 -0.33299804 0.04414622 -0.025610367 -0.0072429264 -0.0017555734 0.12245953
-0.082908325 -0.015685873 -0.18537249 0.057590794 0.31875232 -0.03901273 -0.008857863 0.03200812
0.03714537 0.11815421
00000000: 2309 a6bd 56dd f23d b87e aabe abd2 343d
00000010: d5cc d1bc 1256 edbb 451b e6ba 10cc fa3d
00000020: d7cb a9bd a97f 80bc 49d2 3dbe 53e4 6b3d
00000030: 8133 a33e d0cb 1fbd 9220 11bc f21a 033d
00000040: be25 183d d6fa f13d
