01_rnn/logs/GRU/GRU_epoch_20_acc_0.7940.pth (torch, 299249 bytes, 6 tensors)

gru.weight_ih_l0 f4 [384, 57]
000000 18 c1 b8 3d 82 59 31 3e 4b 64 b2 3e 48 45 89 3e
       0.09021205 0.17319301 0.34842142 0.2681067
000010 1e ae b7 3c 2a 48 ac bd 2a 71 6d 3d 24 b1 d1 3d
       0.022421893 -0.08412202 0.05796925 0.10238865
000020 92 3b c4 be 48 97 c0 be d1 58 34 be b3 05 cf 3e
       -0.383267 -0.37615418 -0.17612006 0.40434036
000030 8b cf 1e 3e 9e e5 8c 3e 94 24 13 bc 1a c6 09 3e
       0.15508859 0.27518934 -0.008980889 0.13454476
000040 b6 ee d4 3e 47 9d 0c 3e 43 29 b0 bc d8 6b ba 3e
       0.41588372 0.13731872 -0.02150405 0.36410403
000050 74 a2 96 be 2e cc a5 be 22 56 96 3e b3 78 00 3e
       -0.29420817 -0.3238234 0.2936259 0.12546043
000060 16 f1 68 3e 91 ee 91 3d 72 a3 cb bd 05 bc ea bd
       0.22748217 0.07125581 -0.09943284 -0.11461643
000070 9e 5e 46 3e 3c 1b 01 3e 01 31 c5 3d 8c 10 b6 bd
       0.19372031 0.12608045 0.096284874 -0.08889875
000080 20 34 2c be c9 2e 90 bd 1b a5 4e be 19 e0 32 be
       -0.16816759 -0.070401736 -0.2018017 -0.17468299
000090 c5 b0 85 be 90 e1 b9 3d 0e 69 17 3c dd 6e 7a 3c
       -0.26111427 0.09076226 0.009241356 0.015285221
0000a0 bf 37 1b b8 d4 12 17 3e 6a 5e 1e 3e 08 39 bb 3d
       -3.7006797e-05 0.14753276 0.15465704 0.09141737
0000b0 5e 35 0c 3d e0 f8 7e be 50 f5 40 be 8c ed ca bd
       0.034230582 -0.24899626 -0.1884358 -0.0990859
0000c0 c2 20 29 3e 85 de 98 be e3 39 11 be aa 26 db bd
       0.16516402 -0.2985727 -0.14182238 -0.10700734
0000d0 c1 34 a7 3c cf fd 75 3c 86 97 f0 bc 72 cb 95 bb
       0.020410897 0.015014126 -0.029369127 -0.0045713717
0000e0 35 c8 8b be ff 1b fb 3e a7 c8 97 3e f9 8e ff 3d
       -0.27301183 0.49044797 0.29645273 0.12478442
0000f0 b8 5c 5e 3d 0c c9 bc 3d e0 a9 d0 3e 8a 8c 4f bf
       0.054287642 0.09218034 0.40754604 -0.8107382
000100 3d 1f 1d bd d4 8b 68 3d b0 6c 2f be 73 2d f5 bd
       -0.03835987 0.056773975 -0.17131305 -0.119715594
000110 d3 0d 77 3e c5 ec 44 be 63 d6 01 be 98 66 48 be
       0.24126367 -0.19230945 -0.12679438 -0.19570386
000120 59 5c cc 3d 92 12 bc 3c a4 58 9b 3e 66 16 6e 3d
       0.099785514 0.022958074 0.30341065 0.05812683
000130 87 f8 84 3d 34 5d c9 3d 3c 26 10 3e 08 19 eb be
       0.06492715 0.0983223 0.14077085 -0.45917535
000140 61 3d 41 3e 6e 29 8a 3e 5a 4a 93 be a9 01 81 bc
       0.1887107 0.26984733 -0.28767663 -0.015747862
000150 fe 93 8d 3d ef f3 46 bc 31 f3 8d 3a 25 f3 ad bc
       0.06912993 -0.012143119 0.0010829923 -0.021234104
000160 ac 3b d4 3d e1 7f 22 3c 12 d2 0e 3e 78 f0 49 3e
       0.10362944 0.009918184 0.13947323 0.19720638
000170 40 75 c2 3b ab 4e 98 3d 69 9f 6d bc db 80 02 3d
       0.0059343874 0.0743688 -0.014503338 0.031861167
000180 af 02 8b bd 71 78 6b 3d 63 11 cc 3b 75 1b 8d be
       -0.06787621 0.05748791 0.0062276586 -0.2756001
000190 a5 89 0c 3d 39 ad 80 3d b7 b2 d8 bc 8d b2 3b 3e
       0.034310956 0.062830396 -0.026452405 0.1832983
0001a0 6d c4 49 3e 95 e7 1c be ba b5 78 be b2 50 e0 bd
       0.19703837 -0.15322717 -0.24288073 -0.109528914
0001b0 ff 9c 4f 3d 6d e6 04 bf 6e 26 11 bc f4 62 9d bc
       0.050686833 -0.519141 -0.00885926 -0.019212224
0001c0 7e 00 0f 3d 4b c4 bf 3e 2c 43 0c 3f 07 93 03 bf
       0.03491258 0.37454447 0.54789996 -0.5139622
0001d0 56 7a a2 3c f4 c5 fa bc 5b 8e 02 bf 57 fe d6 3e
       0.019833725 -0.03061197 -0.5099847 0.4199092
0001e0 35 9c c3 be 26 96 1b 3d 26 6e 69 3e da 73 46 be
       -0.38205114 0.03798499 0.22795925 -0.19380131
0001f0 60 43 66 3e 98 ab 46 3e ca 20 91 be 60 3f a0 3d
       0.22486639 0.19401395 -0.2834533 0.07824588
000200 df a3 cf bc 16 28 ae be 52 2a d1 bd de 1d 93 3e
       -0.025346695 -0.34014958 -0.1021315 0.28733724
000210 68 33 1d bf cb 43 14 bf c7 a2 8e be 37 0b b2 3e
       -0.61406565 -0.57915944 -0.27858564 0.3477418
000220 66 a4 d5 bd aa 30 8f be 4a 6d 4d be e4 77 7c 3e
       -0.10431747 -0.27966815 -0.20061222 0.2465511
000230 40 13 d6 3e b6 ab 9a 3e 0c 57 81 3d df a7 84 3e
       0.41811562 0.3020913 0.06315431 0.25909325
000240 00 86 b9 3e 37 9a 9b be a6 f7 f3 3d 88 75 26 3e
       0.36235046 -0.30391094 0.119124696 0.16255772
000250 21 fc b7 3e 63 2f e2 bd 6b 33 1f bd bc d4 43 be
       0.35934547 -0.110441945 -0.038867395 -0.1912412
000260 c1 24 a2 3c ae 56 31 bb 95 a7 94 3d d3 9c 14 bf
       0.019792916 -0.0027059722 0.07258526 -0.58051795
000270 60 bf d7 bc 7c d8 23 3d f7 cf 4d 3d 71 d3 f6 3d
       -0.026336372 0.040001377 0.05024716 0.12052048
000280 6d 4f b5 3d 94 a0 27 3d 64 8c e9 3d dd 43 43 3c
       0.0885304 0.040924624 0.114037305 0.011918035
000290 e8 1b 26 be 04 0f 97 be 1d 1d 6c be c6 57 1c bc
       -0.16221583 -0.29503644 -0.23057981 -0.009542411
0002a0 2d 33 f9 3d 7c 32 ae 3d b3 d5 e2 3d ee 61 97 3e
       0.12167964 0.08505723 0.11075916 0.29566902
0002b0 22 71 5c be 48 ea e1 be b6 b3 82 bd 27 50 dd bd
       -0.21527532 -0.44124055 -0.063819334 -0.108063035
0002c0 60 b9 3c 3e f7 61 8c 3e 26 7e 8f be 19 07 21 bd
       0.1843009 0.2741849 -0.2802593 -0.03931341
0002d0 e7 2f b5 3e 1b 72 84 3e c5 ba e5 3e 75 a2 42 3d
       0.3538811 0.25868306 0.44869056 0.047518212
0002e0 ab 80 9f 3d 67 17 4d be 69 66 53 be 98 ae a4 be
       0.07788213 -0.20028459 -0.20644535 -0.32164454
0002f0 64 47 88 be 34 80 e6 3c 99 23 8e be 45 4f 84 3d
       -0.26616967 0.028137304 -0.27761534 0.06460432
000300 94 e0 53 3c 65 05 af 3e 9f fc 67 bd 84 ae 06 be
       0.012931962 0.34183803 -0.056637403 -0.1315251
000310 1f 14 0c be c5 00 97 bd 5f 30 16 3e 65 76 0c 3e
       -0.1367955 -0.07373194 0.1466689 0.13717039
000320 bf 68 08 bc cd 6e 82 be 62 56 0e 3d fc 1c 53 bd
       -0.008325755 -0.2547516 0.03475035 -0.051541314
000330 c8 b4 0e be d8 f5 ed 3d ff 24 85 be a1 df 62 3e
       -0.1393615 0.116191566 -0.26004788 0.2215562
000340 3f 52 8f bd 52 6e 1d bd 77 b2 6d bd 86 25 3b 3e
       -0.06998109 -0.038435288 -0.058031525 0.18276033
000350 f3 4e 92 be 10 17 51 3e 95 be a7 3c 79 3d bc 3d
       -0.28575858 0.20418954 0.020476619 0.091914125
000360 b7 ea 4d 3e 8b 98 74 3e 31 b0 29 be 87 22 6d be
       0.20109068 0.23886316 -0.16571118 -0.23157702
000370 6e fc 95 bc 12 99 91 be 37 23 93 bd 6a 2e 10 bf
       -0.018308844 -0.28437096 -0.07184451 -0.5632082
000380 09 28 8e bd 80 37 e8 bd 27 15 1d bd f9 72 f7 3e
       -0.0694123 -0.11338711 -0.03835025 0.48329905
000390 e6 3d 13 3b 09 b6 d7 be 52 e0 d4 3e 7f 3c 82 3e
       0.0022467314 -0.4213107 0.41577393 0.2543678
0003a0 e9 3a 85 bd 13 69 f1 3d 0a f7 95 3e 7a c0 c2 3e
       -0.06505377 0.117876194 0.29290038 0.38037473
0003b0 e7 f9 ba 3e 64 b8 cd 3d 66 b4 0f 3f e6 2a 2d be
       0.36518785 0.10044935 0.5613464 -0.16910896
0003c0 39 1a b2 bd 29 62 d5 3d 00 93 cc be 3e 41 a8 be
       -0.08696408 0.10419113 -0.39955902 -0.32862276
0003d0 7b 80 39 3d af 5a 05 3f ed 3d f9 3c 1f 5e a4 be
       0.045288544 0.520915 0.030425036 -0.3210306
0003e0 cc 65 c0 3d c3 f9 d8 bd d4 27 23 3e 8a 10 24 bd
       0.09394416 -0.10594513 0.15933162 -0.040054835
0003f0 60 0a f9 bc 58 1e 3e be ff 4a 09 3d 66 73 82 be
       -0.030400455 -0.18566263 0.033518787 -0.25478667

gru.weight_hh_l0 f4 [384, 128]
000000 85 ba 0c bd 04 9a 94 bd 52 a9 92 3c f1 40 8e bd
       -0.034357566 -0.07255939 0.017903004 -0.0694598
000010 61 04 b7 bd 91 0f 6e bd 59 3c c7 bc 67 8b 25 3e
       -0.08936382 -0.058120314 -0.024320768 0.16166459
000020 64 d8 69 bd c6 f2 39 bd bf 1b 90 3d b1 84 a1 3e
       -0.05709113 -0.045397542 0.07036542 0.31546548
000030 af c6 f2 3d c2 24 17 bc 4f 18 ac 3a 98 2d ae bb
       0.11854302 -0.009225072 0.0013129803 -0.005315494
000040 b9 c4 54 bd 9d 5e 9c 3d 74 8d 4d bd 2e 48 c6 3b
       -0.05194542 0.076352336 -0.05018373 0.006051085
000050 ad d0 92 3d 97 92 85 3d b3 35 34 bc ae 7c f8 3c
       0.07168708 0.065221004 -0.010999131 0.03033289
000060 09 a3 80 bd 15 af 40 3d fe 93 26 bd 5a d7 99 bd
       -0.062810965 0.04704197 -0.04066848 -0.07511778
000070 37 2b c8 bc 65 d7 25 3e a7 a1 e0 bc c6 4c 3b 3d
       -0.024434669 0.16195448 -0.027420832 0.045727514
000080 75 d6 7f bd f1 56 e2 bd 46 6a 91 bd 69 c5 66 bd
       -0.06246038 -0.11051739 -0.07100348 -0.05634061
000090 71 2d be 3c 27 67 4f bd 78 de 60 bd fb ae 8b bd
       0.023215028 -0.050635483 -0.054899663 -0.06820484
0000a0 61 83 22 bd 78 3b a5 bd 86 b0 42 3c f2 ab 2e bd
       -0.039676074 -0.080679834 0.011882907 -0.04264445
0000b0 07 b0 3f bc 8a 9a 96 3d 48 e7 7b bd 08 c9 e4 bc
       -0.011699683 0.07353695 -0.061499864 -0.02792789
0000c0 1a 57 5c 3a f9 e7 07 3d f0 a1 09 3d a6 b9 b9 bc
       0.0008405313 0.03318021 0.0336017 -0.022671532
0000d0 97 b6 fe 3c 6c ff 68 bd 14 a1 91 3d 8e 66 a8 bd
       0.031092925 -0.056884214 0.07110801 -0.08222686
0000e0 ad 0c a5 bc f2 0c 97 3d 45 64 08 bc 6d 6e 8a 3c
       -0.020147646 0.07375516 -0.008324687 0.016898358
0000f0 06 9d e8 bc 9f aa 42 3d d7 32 ae bd ef bb d5 3b
       -0.028395187 0.047526 -0.08505791 0.0065226476
000100 08 1e 9a 3d a9 e9 dc 3d 3d 2b 88 3d f8 bf cf bd
       0.07525259 0.10786755 0.06648872 -0.10144037
000110 64 c9 d8 bd 78 37 63 bd 7e 12 67 bd 3a ba 25 3d
       -0.10585287 -0.05547282 -0.05641412 0.040460803
000120 8a 1b d5 bd 7b 7c 77 bd 6e 51 a9 3d ec 20 ea bc
       -0.10405643 -0.06042145 0.082674846 -0.028580151
000130 ef 74 90 bd 85 41 bd bb e0 b3 89 bd 1e 5b f5 bd
       -0.07053553 -0.005775633 -0.067237616 -0.1198027
000140 a5 09 57 bd 52 28 9a 3d 4f e3 f2 bd e3 ca 7c bd
       -0.052499432 0.07527222 -0.11859762 -0.061716925
000150 bd 83 1b 3d 7f a7 b5 3d f6 59 86 3d e9 fc 8b bc
       0.037967432 0.08869838 0.065601274 -0.01708837
000160 ca 64 38 3e 09 e0 1c 3d 91 88 06 3e de ce c4 39
       0.18007198 0.038299594 0.13138033 0.0003753816
000170 89 d5 92 3c be 62 73 bd 9d aa f4 3c 87 eb 61 3d
       0.017924087 -0.05942034 0.029866511 0.055156257
000180 97 a9 c7 bd 0f 92 f7 3d 78 71 fa bc 3f 39 b5 bc
       -0.097491436 0.12088405 -0.030571684 -0.022122024
000190 79 2a 45 3d a1 1a 33 bd 5b 3c b6 bd a2 0b e5 bd
       0.04813621 -0.043726567 -0.08898231 -0.111838594
0001a0 28 73 a8 3b 0f 4f 2c bd 1c d3 14 3d 37 1a df bc
       0.005140681 -0.042067584 0.036334142 -0.02723418
0001b0 f9 12 e1 bd af 4c 80 bd c1 5e 31 3d 68 eb 0d 3e
       -0.10989947 -0.06264626 0.043303255 0.13859332
0001c0 60 0e ce 3c 20 b5 67 bd 47 3b c1 3d 9d 1f a0 bd
       0.025153339 -0.05656922 0.094351344 -0.0781853
0001d0 ea f7 72 3d 18 a5 90 3d 69 33 dd 3c 18 e7 f8 3c
       0.05931846 0.07062739 0.027002053 0.030383632
0001e0 40 5c e6 bc d6 bc 8b bd 81 0f e1 bc 68 77 1b be
       -0.02812016 -0.06823127 -0.027473213 -0.15182269
0001f0 b1 c2 8a bd 5e d0 12 bc f9 3b 84 bb 2a 29 33 bd
       -0.06775416 -0.008960811 -0.0040354696 -0.04374043
000200 30 58 99 bc 50 d6 4b be cd 60 61 3d 6f 26 b5 3d
       -0.018718809 -0.19905972 0.055023957 0.08845221
000210 50 06 b6 3d 0a 14 65 bd 7b aa 99 3d 90 cf a4 3d
       0.08887923 -0.055927314 0.0750322 0.08047402
000220 22 3f c5 3d 01 82 02 be a7 f2 f8 3b a7 89 7e bc
       0.09631182 -0.12744905 0.007597286 -0.015535749
000230 5b 32 dc bd d0 02 a8 3c cc 2f bd 3c 52 e6 a8 bd
       -0.10751792 0.020509154 0.02309408 -0.08247055
000240 1c c3 63 3c ff 24 13 3d 66 e1 dd bd cc 8f ae bd
       0.013901498 0.035923954 -0.10834007 -0.08523521
000250 a6 5b 5a 3d a9 a0 0e be 41 44 2a bd 03 da 87 bb
       0.05331006 -0.13928474 -0.041569 -0.004145862
000260 32 ae 3f 3d bc 8f 4c be 05 dc ac bd 42 26 34 3d
       0.046796985 -0.19976705 -0.08440403 0.043981798
000270 cc 0c e9 bd 0f c5 39 be 0d 9c ea bb 9a a8 b5 3c
       -0.11379394 -0.18141578 -0.007159716 0.022175122
000280 f4 9b ea bd 74 4e 05 3e 0e 00 49 3d ef 0e 34 bd
       -0.11455527 0.13018209 0.049072318 -0.043959554
000290 56 68 af bd 0e 9e 5e 3d a7 38 ba 3a 7e 8c 93 bd
       -0.085648224 0.05434995 0.0014207558 -0.07204531
0002a0 63 7d e7 bd 21 5e da 3d 8c 37 a6 3c b4 67 11 3e
       -0.113032125 0.10662485 0.020290159 0.14199716
0002b0 52 ad 35 be 51 ce 99 3d 97 71 8a 3d fc 95 d8 3c
       -0.17741898 0.07510055 0.06759947 0.026438706
0002c0 6f 08 42 bd 6c c7 74 bd 05 10 41 bc e4 44 f7 bd
       -0.047371324 -0.059760496 -0.0117836045 -0.12073687
0002d0 20 49 51 bd a6 54 98 bd 0a 21 ea 3b 33 75 65 3e
       -0.051095128 -0.074380204 0.007145052 0.22407989
0002e0 b9 df d6 bd d4 3e a9 3d f4 ac a8 bc ea 5c 47 bc
       -0.104918905 0.08263937 -0.020590283 -0.0121681485
0002f0 7a 0f 59 bd ee 3b 8a 3d d0 ed 8d 3d e1 c5 22 3d
       -0.052993275 0.06749712 0.06930125 0.039739493
000300 e6 13 f4 bd ce 50 11 be ac fe 6e be 36 f8 01 3e
       -0.11917858 -0.14190981 -0.23339337 0.12692341
000310 f1 04 ca 3d a3 76 ff bd 8f 15 0e bc b7 0f 08 be
       0.09864224 -0.124738 -0.008672132 -0.13287245
000320 e5 b0 01 be a2 06 cc bd d7 39 3c 3b 90 3e 3f bd
       -0.12665136 -0.099622026 0.0028720999 -0.046690524
000330 99 cc ca bc 6e dd c9 bd 1e d5 68 3d 24 bf 8d 3e
       -0.024755763 -0.098566875 0.05684387 0.2768489
000340 31 cf 88 bd 21 c5 24 bd fa 7c ac 3d 6a ac 01 3e
       -0.066801436 -0.04022706 0.08422275 0.12663427
000350 ca 8d ac bd c0 ff 5a bc 7b f0 be bc 6b c2 04 3e
       -0.084254816 -0.01336664 -0.02330803 0.1296479
000360 36 9b 5e be 84 84 f8 3c d3 8c ac bd f5 73 fa 3c
       -0.21738896 0.030336626 -0.084252976 0.03057287
000370 24 c5 1c 3d 82 fe 16 3d 6c 64 80 3d 98 a4 9d 3d
       0.038273945 0.03686381 0.06269154 0.076974094
000380 50 64 8e b9 5e 8c 17 3c 83 3c 84 3d 85 fd 7f 3d
       -0.0002715909 0.009249775 0.06456854 0.062497634
000390 1e 2f b1 3d c5 9c 30 bd 57 5c ce bd dc 10 b6 3d
       0.08651565 -0.043118257 -0.10076206 0.088899344
0003a0 eb a7 97 3d f6 12 17 be 82 f6 c3 3c 28 4e 6d 3d
       0.07405075 -0.14753327 0.023921255 0.057935864
0003b0 1d 9e 2a be f0 a2 fe ba 5b 5b 8b bc 58 c1 b5 bd
       -0.16661878 -0.0019427221 -0.017011335 -0.08874768
0003c0 04 8e b5 bc 01 a8 15 bd 3e 57 22 3d c9 bc 34 bd
       -0.022162445 -0.036537174 0.039633982 -0.044125352
0003d0 21 91 17 be 7e 32 e6 bc 7c 8b 9f bb 3a 6a ad 3d
       -0.14801456 -0.028100248 -0.0048689228 0.08467527
0003e0 9b 76 22 3e b8 aa ef 3c 8a 6b c3 3c 2b aa 65 3d
       0.15865557 0.02925621 0.02385499 0.056070488
0003f0 df be 31 3c 02 b2 50 3d 7b 6b 63 3c 5f 13 69 bd
       0.01084873 0.05095101 0.013880606 -0.05690324

gru.bias_ih_l0 f4 [384]
000000 8a dc 8a 3d f6 82 1a 39 dc 85 52 3d f2 49 40 bd
       0.06780346 0.00014735371 0.05139719 -0.04694552
000010 3f 5c 5b 3d 75 25 66 3d 69 4b b3 3d 49 c7 82 3d
       0.05355477 0.056188066 0.08754618 0.06385667
000020 93 82 35 bd f4 db 0f 3e c8 cb aa bd 7b f8 15 3e
       -0.04431398 0.14048749 -0.083396494 0.14645569
000030 98 f0 b5 3d b7 4f 70 3d d8 76 73 3d 17 76 79 3d
       0.0888378 0.058669772 0.05943951 0.060903635
000040 6e 74 04 3e 46 d1 82 3d 63 e6 85 3d 6d a1 91 bc
       0.1293504 0.06387572 0.065380834 -0.01777717
000050 b6 ed 83 3d 0d eb 86 bd 43 a6 65 3d 06 5d df bc
       0.06441824 -0.06587801 0.056066763 -0.027266037
000060 80 6b 4f 3c f5 7b d6 3d 71 fe 41 3e de 9c 2a 3d
       0.012659907 0.10472862 0.18944718 0.041653506
000070 b1 ec 3e bd bb 89 13 3d 45 36 a4 3d e1 75 a9 bd
       -0.046612445 0.036020022 0.080181636 -0.08274437
000080 20 a5 40 bd 02 85 02 bd 2e 46 20 bd 9c 82 14 3e
       -0.047032475 -0.031865127 -0.03912943 0.14502949
000090 b0 e4 9e 3d e8 c9 4a 3c 9a ee 85 bc 36 29 22 bc
       0.077584624 0.01237724 -0.016349126 -0.009897521
0000a0 96 82 e8 3c 4d b5 66 3c 5b 4f 28 3e 1c 41 93 3d
       0.02838258 0.014081311 0.16436522 0.07190153
0000b0 86 46 06 3c 1c 18 66 3d 34 28 e0 3d 27 f2 a5 3d
       0.008195525 0.056175336 0.10945168 0.081028275
0000c0 09 67 af 3b bd 30 d7 3d 21 af 71 bd 32 87 5e bc
       0.005352859 0.10507343 -0.059004907 -0.013582038
0000d0 93 12 27 3d a5 98 00 bd 28 86 d4 bc 22 08 e1 bc
       0.040789198 -0.031395573 -0.025942877 -0.027469698
0000e0 e4 01 1d 3d 69 b6 c7 3d d7 d5 13 3e 4b 28 f4 bc
       0.03833188 0.09751589 0.14437042 -0.02980437
0000f0 c4 24 8d 3d 06 14 09 bc cb 13 a0 3d 9c 04 1c 3d
       0.06891778 -0.00836659 0.07816275 0.038090333
000100 4d af 02 bd fd 9d 22 bb 4d b3 4d bd ea 45 03 3e
       -0.03190546 -0.0024813407 -0.050219823 0.12819639
000110 a6 7d 4b 3d 88 c6 3b 3e 1c 58 c6 3d 5d be a7 3d
       0.049680375 0.18337452 0.09684774 0.08190606
000120 21 77 80 3b 2f 85 9b 3d 96 58 b9 bc 9b 4d 98 3d
       0.0039204513 0.07593762 -0.022625249 0.07436677
000130 f7 e1 db 3d 0b 90 e4 3d 88 b3 0d 3e 05 00 d6 3d
       0.10736459 0.111602865 0.13838017 0.104492225
000140 03 31 48 3c 26 c7 49 3e 4a ab e0 bc a8 58 dd 3d
       0.012218717 0.19704875 -0.027425427 0.108079255
000150 f6 30 7d 3d 1d ca a3 3d 4a da 4a 3d b6 0b 0b 3d
       0.06181427 0.079975344 0.049524583 0.033946715
000160 06 1f be 3c 74 d0 ca 3d 52 fe ab 3d a1 54 27 bd
       0.023208153 0.099030405 0.08398117 -0.040852193
000170 19 db 38 bc 5c f5 36 3c f8 d7 40 bd 51 d4 1a bd
       -0.011282706 0.011166897 -0.047080964 -0.037800137
000180 b9 b4 12 bd 0f ef ed 3d 50 03 15 bc 1d ee 94 3d
       -0.03581688 0.116178624 -0.009095028 0.07271979
000190 02 8e c9 3d 10 20 a7 3d 86 fc f4 3d 3f 12 87 3d
       0.09841539 0.08160412 0.119622275 0.06595277
0001a0 69 42 6c bd 76 3e de 3d 72 92 81 3d c7 73 aa 3d
       -0.05768052 0.10851757 0.0632676 0.08322864
0001b0 ce 92 a2 3c b6 4a f8 bb 57 57 2c bc 4e 5e 2f 3e
       0.019845393 -0.0075772656 -0.01051887 0.17125818
0001c0 25 c3 b9 bb 5a c6 07 bd 2d dc 57 bd 0a 1e 9c 3d
       -0.005669015 -0.033148147 -0.05270021 0.07622917
0001d0 27 a3 a6 3d 7d 29 8d bb 0e 62 50 3d 05 d6 3b 3e
       0.081365876 -0.0043079243 0.050874762 0.1834336
0001e0 a4 d6 f4 3d 99 dd 2d 3d a7 59 0b 3e dd 08 f9 3d
       0.11955002 0.04244766 0.13608418 0.12159894
0001f0 7f 4d 09 3e 53 6c 83 3d d9 84 c7 3d 7b 22 87 3d
       0.13408469 0.064171456 0.097421356 0.065983735
000200 67 82 e7 bd 66 5e 4b be 9b 8d aa be 2c 0d 44 bd
       -0.11304169 -0.19860229 -0.3331116 -0.047864124
000210 b4 79 7a be c7 7a dc bd 8f f0 ee bd 15 7b 70 bd
       -0.24460489 -0.107656054 -0.11666977 -0.05871113
000220 9f 63 2e be 21 93 25 be 76 23 cd be d2 29 2e bf
       -0.1703019 -0.16169406 -0.40066117 -0.6803256
000230 a5 56 0e be 73 9e ce bd 79 38 e5 be f2 45 17 be
       -0.1390024 -0.100888155 -0.44769648 -0.14772776
000240 cd b1 89 bd 66 8a 58 bd 54 73 1b bd f1 7c 02 be
       -0.06723366 -0.052866362 -0.037951782 -0.12742974
000250 58 8b ed bd 7b 12 ec bd a1 9e 7e bd ea 28 eb bc
       -0.11598843 -0.11526962 -0.062163 -0.028706033
000260 d6 67 a7 bd 4b 73 5a be 14 c9 28 be bc 1e 6f be
       -0.08174102 -0.21333043 -0.16482955 -0.23351568
000270 00 e4 00 be ec 9a 9e be cb 6b 71 be ff 05 3c bd
       -0.12586975 -0.3097757 -0.23576276 -0.045904156
000280 0c 6a 23 be 35 d5 b6 bd 37 3f 35 bd 6f 94 f3 bd
       -0.15958422 -0.08927385 -0.04424974 -0.11893546
000290 d5 86 3f bd 02 a9 28 be a8 f2 d7 bd 2d 45 b4 bd
       -0.046759445 -0.16470721 -0.1054433 -0.08802257
0002a0 6d eb 81 be 4c d0 35 bd 40 47 c5 bd a5 4e d6 3c
       -0.25374928 -0.0443881 -0.096327305 0.026160548
0002b0 e9 a9 92 be 76 7e 87 bd dd ea d6 bd e2 72 fb bd
       -0.28645256 -0.066159174 -0.10494015 -0.122777715
0002c0 5a 0b e8 be 2b 46 f5 bd 16 35 a3 3b 5e b2 f7 bd
       -0.4532116 -0.11976274 0.0049806936 -0.12094568
0002d0 21 51 19 be 6c 65 0a bc 27 9b cb bc 6d 3d 16 be
       -0.14972354 -0.008447032 -0.024854256 -0.1467187
0002e0 15 d0 42 be d4 08 18 bf a9 f5 51 be 91 4a 1c bd
       -0.1902469 -0.5938847 -0.20503868 -0.03815705
0002f0 1d 70 80 be 0d 47 74 be ea 79 28 be e0 de b4 3c
       -0.25085536 -0.23855229 -0.16452757 0.022078931
000300 af 99 b8 bd 4b 5b 42 be dd a1 07 be 88 69 98 bd
       -0.09013688 -0.18980138 -0.1324534 -0.074420035
000310 50 8c 86 be 6f 28 05 be 6a 8c 62 bd d1 be 09 be
       -0.26278925 -0.13003705 -0.05530969 -0.13451697
000320 40 92 19 be 93 cf e4 3c 57 2b 04 be 27 21 38 bd
       -0.14997196 0.02793101 -0.12907158 -0.04495349
000330 1a 0e 6d bb 99 51 ab bc 48 6f a2 bd 14 b3 91 be
       -0.0036171735 -0.020912932 -0.079313815 -0.28456938
000340 9a a2 a3 bd c7 2d 5d be 98 cd 9f bd 1a ab f7 bd
       -0.07989998 -0.21599494 -0.07802886 -0.12093182
000350 56 2b 84 be 02 2e e4 bc 02 2b 7d bc d8 5d c5 bd
       -0.25814313 -0.02785397 -0.015452148 -0.0963704
000360 27 5d 31 be f1 c6 1b bd e7 9b 1f be ae 14 d7 bd
       -0.17320691 -0.038031522 -0.15586816 -0.10501991
000370 24 af 8a be 5c 15 9b bd 51 9d 69 be f1 25 5e bd
       -0.27086747 -0.07572433 -0.22813918 -0.054235402
000380 57 d3 91 be b0 58 ef bd b0 82 2d be 78 63 be bd
       -0.28481552 -0.11686838 -0.16944385 -0.09296316
000390 d0 2b 22 be 61 0a 15 be 49 04 7f be e8 b0 c7 3b
       -0.15837026 -0.1455474 -0.24903978 0.006094087
0003a0 48 bb cf bd 04 82 c1 bd 66 ea ae bd 1b d4 20 bf
       -0.10143143 -0.09448627 -0.08540802 -0.6282365
0003b0 e1 90 09 bf 4c e4 24 be 4d 71 71 bd ca ba 10 be
       -0.5373669 -0.16102713 -0.058945943 -0.14133754
0003c0 49 17 dd bd 5f 7f 7a be a9 14 b6 be e3 56 00 bd
       -0.10795457 -0.2446265 -0.35562637 -0.03133286
0003d0 26 af a9 bc d0 20 65 be 4c eb 98 3b d4 d2 03 be
       -0.0207134 -0.22375798 0.0046667214 -0.12873393
0003e0 10 e5 0e bd e5 6d f2 bd d2 92 07 be 48 0b 53 be
       -0.03488642 -0.11837367 -0.13239601 -0.20609772
0003f0 71 1a 12 be f3 25 49 be d9 3a b2 ba 12 34 25 be
       -0.14267899 -0.19643383 -0.001359786 -0.16133144

gru.bias_hh_l0 f4 [384]
000000 a8 fe 08 3e 36 c5 cf 3d dd 40 a2 3c 7d 72 dd 3d
       0.13378394 0.10145037 0.01980632 0.108128525
000010 0a 13 18 3d e2 dd a2 3d 98 09 d8 3d 71 ca f0 bc
       0.037127532 0.07952477 0.10548705 -0.029393407
000020 4a 62 2b bd 10 9b c2 3d f9 f1 b4 3d 48 d8 7e 3d
       -0.041841783 0.09502232 0.08835215 0.06221798
000030 1f 7c 9c 3c 5e 7d a1 b9 ad 61 24 3c 72 ce dd bc
       0.019102154 -0.0003080172 0.010033053 -0.02707598
000040 2c b2 c5 3d ac e3 dd 3d 0d 78 3d 3e 17 89 8d 3c
       0.09653124 0.108344406 0.18502827 0.017277284
000050 74 85 eb 3c 40 11 d4 3c 92 3a c1 3c d7 03 29 bd
       0.028750159 0.025887132 0.023587499 -0.041263428
000060 a1 5e 10 bd 8c fd ea 3d 06 85 14 3e 9a 29 87 bd
       -0.035246495 0.114741415 0.1450387 -0.06599732
000070 57 27 a1 3c 0b 0e 9f bd c2 43 89 3d bf e7 71 3b
       0.019672079 -0.0776635 0.06702377 0.0036911813
000080 fa 81 01 bd 2c f9 9c 3d ab 9e e8 bb fc 38 19 3e
       -0.031618096 0.07664713 -0.007098993 0.14963144
000090 84 01 1d 3d 0e 1d 79 3d 45 f5 8a 3c a1 c6 89 3d
       0.038331524 0.060818724 0.016962657 0.067273386
0000a0 cb 5f 6c bb d5 67 54 3d 17 2c c0 3d bc 5f 42 bd
       -0.003606784 0.051856834 0.093834095 -0.04745458
0000b0 d3 51 13 bd 5a 07 34 bd 07 74 cc 3d c1 46 a9 3d
       -0.035966706 -0.043952323 0.09983068 0.08265448
0000c0 2f 9f ce bc 6f 81 41 3d 0c 4d 01 bd cc dd bf 3d
       -0.025222389 0.047242578 -0.03156762 0.09368476
0000d0 cc 10 1e 3e 42 e4 2b 3d a3 89 05 3d 90 c9 ac bd
       0.15436095 0.04196573 0.032601964 -0.084368825
0000e0 a1 7b 59 3d 02 71 b6 bc 0d 10 2a 3e 64 9a 97 3b
       0.053096417 -0.022270683 0.16607685 0.004626559
0000f0 8e e4 75 3d 74 be e8 3c 93 79 8b bc 3b 30 9b 3d
       0.06003242 0.028411128 -0.017025745 0.075775586
000100 76 41 cc 3c 7e 3c 85 3d 26 32 8c 3d c2 1a 19 3e
       0.024933558 0.065056786 0.068455026 0.14951614
000110 ba ff ca 3d d5 4b 38 3d 0c d3 ed bc e9 93 24 3d
       0.09912057 0.044994194 -0.029031299 0.04018012
000120 98 5d 0f 3d 97 b5 14 3e 88 46 57 3d ce df 20 3e
       0.035001367 0.14522396 0.0525575 0.15710375
000130 eb f0 ed 3d 39 f0 9b 3d 95 c6 9c 3d f1 37 e7 bc
       0.11618217 0.07614178 0.07655064 -0.028224917
000140 32 38 ea 3c c2 91 15 3e 18 d8 de 3b d7 80 b1 3b
       0.02859125 0.14606383 0.0068006627 0.0054169702
000150 a5 c4 c7 3c 9b d6 21 bd 75 0e 1d bd 6b 34 08 3e
       0.02438576 -0.039511304 -0.038343865 0.13301246
000160 89 36 8f 3d 9c 87 e9 3c c7 db b7 3d ae 4d c7 3d
       0.06992824 0.028507046 0.08977466 0.09731613
000170 4d 54 1e bd fc e1 46 3d f8 81 64 3d 90 29 c8 bc
       -0.038654614 0.04855536 0.05578801 -0.024433881
000180 b0 9c 40 3d 61 65 59 3d 99 c8 05 3e 3f 3f fd 3d
       0.04702443 0.053075198 0.13064803 0.12365579
000190 d4 b7 61 3d 36 04 b2 3b dc 1f 19 3e 84 9d 6f 3b
       0.055106953 0.005432631 0.1495356 0.0036562392
0001a0 a8 80 5c 3d d5 9e 0b 3e 2a c3 60 bd f6 cc 19 bd
       0.053833634 0.13634808 -0.054873623 -0.03754898
0001b0 27 20 77 3d 25 0c 8d bd 12 57 2e bd 63 58 1d 3e
       0.060333397 -0.06887082 -0.042563505 0.15365748
0001c0 d8 31 a8 3d ad c8 cf 3c 7b f0 32 3d d6 f0 1d 3d
       0.08212632 0.025364244 0.04368637 0.038559757
0001d0 32 34 97 bd 52 37 54 bc 3b fd d5 3d 15 b3 2e 3e
       -0.07383002 -0.0129526425 0.104486905 0.17060502
0001e0 93 04 c9 bc 06 e7 30 bd b8 a0 c8 3d d4 32 bc 3d
       -0.024538314 -0.04318907 0.0979628 0.09189382
0001f0 1c 85 49 3e 35 04 a9 bc 9d 74 83 3d ed 1d 03 bd
       0.19679683 -0.020631889 0.064187266 -0.03201096
000200 b9 18 04 be 70 c5 03 be dd 0e 64 be 6d 95 0b be
       -0.12900056 -0.12868285 -0.22271295 -0.1363122
000210 64 bc 09 be 00 da ca bd a8 b6 ee bd ee 07 b3 3c
       -0.13450772 -0.099048615 -0.11655933 0.021854367
000220 bd 02 6a be cf 6a 81 be 39 dd 9d be d4 2c 39 bf
       -0.22852607 -0.252768 -0.30832842 -0.7233403
000230 44 2a 92 bd 4e 20 39 bd 6f af e6 be 60 8c d5 bd
       -0.07136968 -0.045196824 -0.4505572 -0.10427165
000240 ce bb a3 bd fb b8 1b be 17 83 15 bd d4 4f 2c be
       -0.07994805 -0.15207283 -0.03650197 -0.16827327
000250 45 bb 20 be 81 d2 aa bd 3b 6f 6c bc c6 6f 18 be
       -0.15696438 -0.08340932 -0.014430816 -0.14886388
000260 b1 28 c4 bd 22 2f 1d be 6b d5 e2 bc ad 15 12 be
       -0.09578074 -0.15350011 -0.027689656 -0.14266081
000270 5c 47 6a be 63 de 6a be 54 ed 44 be 4f a5 00 be
       -0.22878784 -0.22936396 -0.19231158 -0.1256306
000280 65 e0 ad bd 11 5b 14 bd e2 61 c4 bd 26 01 35 be
       -0.084900655 -0.03621966 -0.09588982 -0.1767622
000290 47 f9 8b bc c3 05 07 be a2 7c 85 be 1b d2 89 3c
       -0.017086638 -0.13185792 -0.2607165 0.016823819
0002a0 69 89 66 be 2e 94 a1 bb c3 e0 5f be ef be d1 3c
       -0.22513355 -0.0049309945 -0.21863084 0.02560374
0002b0 21 49 4e be fc 2d 15 bc 67 ad cf bd 27 1a 12 be
       -0.20145084 -0.009105202 -0.10140496 -0.14267789
0002c0 9e a5 f4 be a5 f4 7d be 44 28 fe bd 12 5e 0b be
       -0.47782606 -0.24800356 -0.12410024 -0.13610104
0002d0 79 c7 2c be 16 43 bb bc 21 dd e1 3c 32 23 e6 bc
       -0.16872968 -0.022859138 0.027571263 -0.028092954
0002e0 07 a2 42 be 8a 8f f7 be 95 53 1a be 32 f8 b2 bd
       -0.19007121 -0.483517 -0.15070947 -0.08738746
0002f0 b3 aa 26 be 2b f6 77 be 12 c9 6a be 3b 34 88 bd
       -0.16276054 -0.24215 -0.22928265 -0.06650587
000300 5f ad 2d be da fe 00 be 34 b6 51 be 99 8d ce bd
       -0.16960667 -0.12597218 -0.20479661 -0.10085601
000310 be 1e 8c be 6a 10 83 be c2 c7 ee bd 89 1a 01 be
       -0.27367204 -0.2559846 -0.116591945 -0.12607779
000320 b5 71 18 be 5a 03 04 be ca 9a 64 be 17 62 d7 bd
       -0.14887126 -0.12891904 -0.22324672 -0.10516756
000330 fd ff 82 bd 51 25 7f 3c 9f 63 5e be d9 e6 9a be
       -0.06396482 0.015572862 -0.2171769 -0.30254248
000340 6d a5 db bd 1f 40 82 be 64 51 1c bd a9 64 30 bd
       -0.10724912 -0.25439546 -0.038163558 -0.043064747
000350 d0 bf 44 be 0d 65 38 bd c8 01 14 be 3a 24 fb bd
       -0.19213796 -0.045018245 -0.14453804 -0.12262769
000360 aa cf 48 be 17 20 a9 bd 48 10 79 be dd 35 ec bd
       -0.19610468 -0.08258074 -0.24322617 -0.11533711
000370 05 20 42 be 84 ad 39 bd 5a bf 68 be 1b e9 1d be
       -0.18957527 -0.045331493 -0.22729245 -0.15420954
000380 83 88 98 be 2b 5d 79 be ad 0f ca bd ad 61 df bd
       -0.2979165 -0.24351947 -0.09866271 -0.10907302
000390 29 37 6f be 3a d1 cf bd ac 68 5e be 57 71 0a be
       -0.23360886 -0.10147329 -0.21719617 -0.13519798
0003a0 5c 48 22 be a7 ca 2e be 63 7d d8 bd 7f 1c 22 bf
       -0.15847915 -0.17069493 -0.105707906 -0.6332473
0003b0 eb 25 fe be 4a 2c 1c be 94 4f 62 bd 13 f3 22 be
       -0.49638304 -0.1525127 -0.055251673 -0.15913038
0003c0 ee 01 cf bd 39 17 70 be c0 f5 7b be 84 5f fe 3c
       -0.1010779 -0.23446359 -0.24605465 0.031051405
0003d0 0a 6d 29 3d 48 c8 77 be c1 56 06 3d 39 e6 c3 bd
       0.041363753 -0.24197495 0.03279758 -0.09565396
0003e0 34 b7 94 bd a2 a9 81 3c b7 8a 0b be 42 06 ac bd
       -0.07261506 0.015827958 -0.13627134 -0.08399631
0003f0 7f 98 13 be be e4 da bd 60 81 a2 bd 0c 79 63 bd
       -0.14413641 -0.1068816 -0.079348326 -0.05553536

fc.weight f4 [18, 128]
000000 ff 72 33 be 60 ee 12 bd de 43 3e 3e f7 24 5c 3e
       -0.17524336 -0.035871863 0.18580577 0.21498476
000010 ed 4e cb 3d 2d ae 53 bd a0 82 4b bd 49 52 69 bd
       0.09927163 -0.05167978 -0.04968512 -0.05696324
000020 e7 ca c7 bc f9 d2 9c 3e a4 14 67 be 5d 26 e6 3e
       -0.024388744 0.3062971 -0.22566468 0.44951144
000030 f7 3b 42 3e a3 30 82 3d 99 87 17 3e 37 6e ab bd
       0.18968187 0.06356933 0.1479782 -0.08370631
000040 aa e9 9c 3d f9 37 41 bb ac 9d d8 bd d2 aa 35 be
       0.076617554 -0.0029482825 -0.105769485 -0.17740944
000050 85 58 0e bc 40 06 cf bb 14 f2 33 3e 4d 93 b1 bd
       -0.008688097 -0.0063178837 0.17572814 -0.086706735
000060 b0 b0 94 bd b6 12 3d 3d 64 bf 1d be 6b e7 96 be
       -0.07260263 0.046160422 -0.15405041 -0.29473433
000070 d0 42 ab 3e b2 fe 4a bd 0b a3 15 3e 22 4f 07 bf
       0.3344941 -0.049559303 0.14612977 -0.5285512
000080 86 6c e6 3d b1 c9 09 be f6 4d 20 3e 0a 0d be 3e
       0.11251168 -0.13455845 0.1565474 0.37119323
000090 bf ef 4a 3d 3e 75 0e 3d 8e 02 c6 3c dd 62 b9 3d
       0.049545046 0.03477978 0.02417114 0.0905206
0000a0 d7 1a 63 3e f0 e6 67 bd 99 04 b1 3b c7 be ba 3c
       0.22178207 -0.056616724 0.0054021594 0.022796048
0000b0 3c 55 a4 be d3 34 12 be 73 0e b1 3d 82 2d 1a be
       -0.3209628 -0.14277963 0.08645334 -0.15056422
0000c0 f3 d3 fd 3e 9e 7c 04 3d ee 54 57 3c 86 e2 1f 3e
       0.49575767 0.032345407 0.013142807 0.15613756
0000d0 f4 ec f9 bd 14 9c 76 be 7d 59 2b bd 1e 70 01 3e
       -0.12203398 -0.24082977 -0.04183339 0.12640426
0000e0 0f d2 d3 bd 1f 7b aa be 89 19 f2 3d 78 88 02 3e
       -0.103428 -0.3329706 0.11821277 0.12747371
0000f0 99 34 96 3e 54 58 9b be 61 4f cb be eb 91 9b bd
       0.29337004 -0.30340827 -0.39709 -0.07596191
000100 c2 bf d8 3e af a5 3e be ff 89 9e be 4e a5 28 be
       0.423338 -0.18617891 -0.30964658 -0.16469309
000110 fd 05 be be 27 05 67 3e 90 df 06 bd 53 e5 87 be
       -0.37113944 0.22560559 -0.03292805 -0.26542148
000120 0e 2f e5 3d 06 40 ec bb 1b 46 1e 3d 61 a2 ad bd
       0.111906156 -0.0072097806 0.038641077 -0.08478237
000130 7b ce a3 bc 51 bf b5 3d f7 e7 bd bd 68 00 59 3d
       -0.019995918 0.08874381 -0.092727594 0.052978903
000140 8d 60 83 be 95 a7 a7 be 1d f0 97 3d d3 a0 af 3d
       -0.256596 -0.32745042 0.07418845 0.08575597
000150 0d d3 2c be d4 98 14 bc 2b 17 73 3e 8e 8a 92 be
       -0.16877384 -0.00906964 0.23739307 -0.28621334
000160 8b 50 01 bf aa 73 1a 3e 87 85 b6 bd e3 05 e2 3d
       -0.50513524 0.15083185 -0.08912187 0.11036279
000170 5a 4d 22 bd d9 1a 20 3e 52 34 8c 3e 70 76 54 3e
       -0.03962455 0.15635242 0.27383667 0.20748305
000180 48 c4 02 3f f5 69 48 bd 98 14 b0 bd 60 82 64 3d
       0.5108075 -0.048929173 -0.08597678 0.055788398
000190 1c a4 6b be 51 2c 3f 3e c6 67 9f 3e f3 d2 e5 3d
       -0.23011822 0.18669249 0.3113386 0.11221876
0001a0 ea 2a 1c 3e 55 71 e0 3e c1 cc 02 3e 32 f3 a6 3e
       0.15250745 0.43836465 0.1277342 0.32607418
0001b0 bc 86 ad be a5 aa 9c be f2 09 e1 be f1 1f 10 3e
       -0.33891857 -0.3059894 -0.439529 0.14074685
0001c0 c1 89 76 3d 64 e0 3b be e0 63 c1 bd 56 e9 c4 bd
       0.060189966 -0.18347317 -0.09442878 -0.09614818
0001d0 36 10 fe bd 4a 7f fc 3c a9 ba 39 bd 02 ba 17 be
       -0.12405436 0.030822415 -0.04534403 -0.1481705
0001e0 d5 d7 3d be 1f 12 a2 3d 6d 89 9c 3b cd e6 1b be
       -0.18539365 0.079136126 0.0047771246 -0.15224762
0001f0 cf 1a dd bd 90 84 b0 bd 3d df c7 bd 77 8b 7a 3e
       -0.10796129 -0.08619034 -0.09759376 0.24467264
000200 19 fe 5b 3e 9b d5 54 3d 33 4e 17 be c0 13 17 be
       0.2148365 0.051961523 -0.14775924 -0.14753628
000210 b3 2c d4 bd 39 bb 82 bd 2b 1a 57 3d 71 24 6a 3e
       -0.10360088 -0.06383366 0.05251519 0.22865464
000220 1a 29 ed 3d db a7 4f be 07 a9 c5 3e e1 dd 24 be
       0.11580105 -0.20278876 0.3860552 -0.16100265
000230 f9 d4 8c 3d 6a bc 62 3c c3 e1 b1 3d 2b 45 cf 3c
       0.06876559 0.013838867 0.08685639 0.025301537
000240 bb 10 42 be 30 14 69 be d0 5d b0 3c 06 4d 08 bd
       -0.18951695 -0.22761607 0.021529108 -0.03327658
000250 d6 aa 67 3d 87 f5 05 be 9a 3a cd 3e 4b 2a 34 3e
       0.056559406 -0.13081942 0.40083772 0.17594258
000260 ab 59 1e be 63 08 84 3d 3c e5 da bc a3 12 93 3e
       -0.15463893 0.06446912 -0.026720636 0.28725156
000270 74 01 24 be b4 97 ac 3e 61 da c1 3d a7 0b c9 3e
       -0.1601618 0.3370949 0.094654806 0.39266703
000280 24 53 62 be 74 74 0a be 87 ee fe bd 1d 66 f0 39
       -0.22102028 -0.13520986 -0.12447839 0.00045852448
000290 be 3c 7b 3e e1 68 74 bd ce 03 d0 bd 4f 6e 2d be
       0.2453489 -0.059670333 -0.10156976 -0.1693661
0002a0 52 27 10 bc 90 fb 04 3e c2 13 5c be b8 c1 76 bd
       -0.008798437 0.12986588 -0.21491912 -0.06024334
0002b0 91 c7 21 be 56 08 0f 3d 87 12 c4 3d 98 5a de bd
       -0.15798785 0.03492006 0.09573846 -0.10857123
0002c0 3e 73 72 be fd 27 df bc 37 c5 7e 3c b2 32 56 be
       -0.23676774 -0.027240748 0.015549949 -0.20917776
0002d0 7b 5d 95 3e f6 6c 52 bd 2c 4c 92 3c fe 6b 82 be
       0.29172882 -0.051373444 0.017858587 -0.25473017
0002e0 07 59 9a 3d c0 6b 8f 3e 7c bb 9c 3e db eb a6 bd
       0.07536512 0.28011894 0.3061179 -0.081504546
0002f0 2d 03 5c 3e 8a d6 6c be ea ac ab bd db 43 01 bd
       0.21485586 -0.23128715 -0.0838259 -0.031558853
000300 97 cc 95 be 7b 30 3e 3d dd cd b0 3e e6 2d 91 3d
       -0.29257652 0.046432953 0.3453206 0.070888326
000310 de fa 4b 3e 0a bc 85 bd ba 25 03 be 45 22 36 3e
       0.19919917 -0.06530006 -0.1280736 0.1778651
000320 d5 8c 1d be bd a7 0c 3e 3c 46 3a be a1 66 ba 3c
       -0.15385754 0.13735862 -0.18190855 0.022754015
000330 0f 5d 65 bc 55 68 bc bb 3a 61 23 3e 2b 42 ab be
       -0.013999238 -0.005749742 0.15955058 -0.3344892
000340 da 2b 1f 3e 50 72 e6 bc a7 bf c5 3d 26 da ea 3d
       0.15544072 -0.02813068 0.096556954 0.1146739
000350 a0 c2 54 3d 67 05 8e 3e c7 4f ae 39 3e 14 01 be
       0.05194342 0.27738497 0.00033247305 -0.12605378
000360 6d 8c 89 bd 35 3d bc bc da 7b d2 3d 7f 44 01 3e
       -0.06716237 -0.022978405 0.10277529 0.12623785
000370 f2 e0 89 be 65 38 a3 be 1d fa 83 be 77 2a 1f be
       -0.26929432 -0.31878963 -0.2577676 -0.15543543
000380 8a 3c 10 3e 4e 0b 4c 3e 05 88 2f bc 29 b5 d5 3d
       0.14085594 0.19926187 -0.010713582 0.10434944
000390 e0 05 c3 bd 52 6f e7 bd 94 83 ae 3d bf 20 26 be
       -0.09522605 -0.113005295 0.0852119 -0.16223429
0003a0 8c e4 8d 3d 22 76 4b 3d b2 42 50 bd f6 79 48 be
       0.069283575 0.049673207 -0.050844856 -0.19577774
0003b0 1e 3c 50 3e 9b 21 8c 3d 54 af c6 3d c1 b6 af 3e
       0.20335433 0.06842347 0.0970141 0.34319118
0003c0 78 49 bc bd 6e 23 68 3c 8b 03 46 3e 76 a1 d7 bc
       -0.091937006 0.014168603 0.19337289 -0.026322108
0003d0 7c 12 2d be 21 5d 98 3e d2 25 85 bd a3 7f 47 be
       -0.16901582 0.29758552 -0.06501354 -0.19482283
0003e0 f4 80 c8 bd 51 70 90 3d ef 65 5a 3e 27 45 30 be
       -0.09790221 0.07052673 0.21327947 -0.1721388
0003f0 24 51 92 be cb 66 90 bd ad 6b c5 3c 85 71 7e be
       -0.2857753 -0.07050856 0.024099195 -0.24847992

fc.bias f4 [18]
000000 18 8a 6a bd 82 ae e8 3d b5 5d 9b bd ea dd 28 3c
       -0.057260603 0.1136141 -0.075862326 0.010306815
000010 e9 bb 09 be 79 d6 26 3d 9f 09 06 3e 82 c5 8d 3c
       -0.13450588 0.04073188 0.13089608 0.017306093
000020 4c 97 4b 3d e7 07 cc bb e6 48 b2 bd 16 24 88 bc
       0.049704835 -0.006226528 -0.087053105 -0.01661877
000030 9f 2f be 3d 4e 9b be bd c4 ef a0 ba c9 c3 fc 3c
       0.09286427 -0.09306966 -0.0012278487 0.030855076
000040 6e 14 c3 bc a5 7a 93 3d
       -0.023813453 0.07201127
