01_rnn/logs/GRU/GRU_epoch_10_acc_0.7385.pth (torch, 299249 bytes, 6 tensors)

gru.weight_ih_l0 f4 [384, 57]
000000 ae 72 9c 3d 0f 5d 13 3e 65 01 89 3e dc 0c 85 3e
       0.07639061 0.14390968 0.26758876 0.25986373
000010 6d 8e 83 3d 9a bb ab bd 6d 95 16 3e c7 91 2d bc
       0.0642365 -0.083853915 0.14705439 -0.010593838
000020 d7 15 ab be 14 06 8c be 95 9a 36 be e1 f0 bf 3e
       -0.334151 -0.27348387 -0.17832406 0.37488464
000030 ec 5e 16 3e 12 0d 88 3e 3e 10 90 bd 1a 16 fa 3d
       0.14684647 0.26572472 -0.07034348 0.12211247
000040 9a 8e a2 3e b5 77 0b 3e 57 29 12 bd e8 33 99 3e
       0.3174942 0.13619883 -0.035683956 0.29922414
000050 51 47 8f be d0 86 9a be b2 f3 8a 3e 12 87 24 3e
       -0.27984098 -0.3018098 0.2713905 0.1606715
000060 3f 4b 38 3e 81 cd e8 3d 8e fa b8 bd c4 75 0e bd
       0.17997454 0.11367322 -0.090321645 -0.03478028
000070 1b 5a 18 3e 13 ec 06 3e 57 36 d7 3d ef 5c b4 bc
       0.14878123 0.13175993 0.105084114 -0.02201697
000080 95 0b 1b be 73 1b ba bc 17 4e 08 be 9b 52 c7 bd
       -0.15141137 -0.022718167 -0.13311039 -0.097325526
000090 68 b8 2f be d4 70 c2 3d 77 94 82 bb e4 02 98 3d
       -0.17160189 0.094941765 -0.0039849835 0.07422426
0000a0 31 b5 74 3d 22 18 a4 3d a0 c3 b2 3d 23 4f ec 3d
       0.05974311 0.080124155 0.08728719 0.11538532
0000b0 43 89 6c 3d 48 b3 0f be 0c fd 41 be a3 a3 f7 bd
       0.05774809 -0.14033234 -0.18944186 -0.12091758
0000c0 68 96 74 3e 4e 8d 8c be 6c 3d 05 be 46 9c 42 be
       0.238855 -0.27451557 -0.13011712 -0.19004926
0000d0 61 85 06 bc 51 8c 77 3c 54 b0 81 bd 4c be 96 bb
       -0.008210511 0.015109138 -0.0633246 -0.004600322
0000e0 f4 51 3a be 69 b0 6c 3e 8b 75 5d 3e d4 8b da 3d
       -0.18195325 0.2311417 0.2162687 0.10671201
0000f0 28 e8 f9 3b 90 d9 57 bd ab 26 84 3e 27 bd fd be
       0.007626552 -0.05269772 0.2581075 -0.49558374
000100 ce ae f6 bc 88 0b de 3d 8b fd a4 bc 2b 5c 9f 3d
       -0.03011265 0.10842043 -0.02014043 0.077812515
000110 d8 95 4b 3e 49 63 b3 3d c0 28 4d be d2 6b 44 be
       0.1988138 0.087591715 -0.20035076 -0.19181755
000120 50 73 e7 3d ce 79 be 3c 5d 83 dd 3d b3 96 70 3d
       0.11301291 0.02325144 0.10816071 0.058737468
000130 72 fe 66 bb c0 53 96 3d 61 39 16 3e f8 20 aa be
       -0.0035246876 0.07340193 0.14670326 -0.33228278
000140 0e d8 c4 3d 1b d2 09 3e e8 5b d9 bd a9 41 25 bd
       0.09611522 0.13459055 -0.10613233 -0.04034582
000150 b9 9d 4d bd c3 58 63 bc ed 2b a7 bb 9e c2 33 bd
       -0.050199244 -0.013876143 -0.005101672 -0.043886773
000160 de 9a 52 3d 15 2b 2a bc b9 ec 23 3d 76 09 29 3e
       0.051417224 -0.010386248 0.04002068 0.16507515
000170 4b 40 78 3d 88 0a 16 3d ef 79 2a 3d 42 d0 96 3c
       0.06060819 0.036631137 0.04162019 0.018409852
000180 ae d3 8d bc ea e3 a8 3d 2e fe ed 3c b4 95 97 be
       -0.01731285 0.08246596 0.029051866 -0.29606402
000190 09 05 94 3d 5a 73 69 3d 10 77 51 3b 94 b3 2b 3e
       0.07227523 0.056994773 0.0031961836 0.16767722
0001a0 3c e9 46 3e 4a fb f3 bd ea 25 5b be 2d 7e d8 bd
       0.1942491 -0.11913164 -0.21401182 -0.10570941
0001b0 24 39 b0 3c 16 af 95 be ad 11 12 bc 22 41 b0 bc
       0.021511622 -0.29235142 -0.008915347 -0.021515433
0001c0 d2 e7 0f 3d 0f 99 5b 3e cf 8c a6 3e 19 22 5c be
       0.03513319 0.21445106 0.32529303 -0.21497382
0001d0 f7 4b 2a bc 6a b4 e5 bd 2d 82 af be b8 da b7 3e
       -0.010394088 -0.11216052 -0.34279004 0.35909057
0001e0 f2 ac 54 be b0 76 52 3d de a9 5b 3e 8a 0b 2e 3c
       -0.20769098 0.05138272 0.21451518 0.010622868
0001f0 96 04 53 3e 57 7a e7 bc 18 4a c2 be c0 55 dd bc
       0.20607218 -0.028256578 -0.37947154 -0.027018428
000200 4b 87 a1 3d de 57 7c be a5 61 84 bc 18 6d 4d 3d
       0.07887133 -0.24642894 -0.016159842 0.050152868
000210 b7 8a f1 be 6c 1e dc be 3d 86 4d be a2 46 88 3e
       -0.47176144 -0.4299196 -0.20070739 0.2661639
000220 83 e1 a3 bd 52 01 27 be 46 23 c2 bd 90 9f ea 3d
       -0.08001997 -0.16309097 -0.09479384 0.114562154
000230 be 0c 97 3e 6d 69 77 3e 0d 1d 80 bb 62 d8 da 3d
       0.2950191 0.2416131 -0.003909713 0.10685803
000240 9b 2c 79 3e 1e b1 2b be 4f 6f 86 3d 95 bc 22 3e
       0.24333422 -0.16766784 0.06564199 0.15892251
000250 86 a6 77 3e 57 1d e0 bd 0d 8c 9f 3d 25 ec dc bd
       0.24184617 -0.10943096 0.077903844 -0.107872285
000260 3b eb 45 bc 49 39 4d 3d 75 19 64 bc 5c d2 c0 be
       -0.012080009 0.05010346 -0.013922085 -0.3766049
000270 55 10 d5 bd f2 8b 2e 3c 6c 46 12 bd 52 89 e7 3d
       -0.10403506 0.010653483 -0.03571169 0.11305489
000280 6d e2 1e 3c 08 de 53 3c 22 ee 63 3d be a1 5c bd
       0.009697539 0.012931354 0.055647023 -0.053865187
000290 e9 0f b7 bc 92 76 f9 bd 32 df 08 3c 40 55 1d bc
       -0.022346454 -0.121808186 0.008353995 -0.009602845
0002a0 36 8a e8 3d de 4c af 3d f2 ad 65 bc f1 1b ec 3d
       0.11354487 0.08559583 -0.014018523 0.11528767
0002b0 86 92 02 be d8 37 07 be 09 0f 54 3c 07 43 bf bd
       -0.12751207 -0.13204896 0.012943038 -0.09338956
0002c0 6f a7 a8 3d 72 3d ba 3d 16 61 0a be a1 03 62 bd
       0.082350604 0.09093751 -0.13513598 -0.055179242
0002d0 22 55 2b 3e 52 45 d9 3d b9 c0 92 3e 5a fc 3c 3d
       0.16731694 0.10608925 0.2866266 0.0461391
0002e0 6b 52 59 3d 9f 68 a5 bd cf ad 1c bd 5e e0 54 be
       0.053057116 -0.080765955 -0.038251694 -0.20788714
0002f0 52 54 db bd 7c a5 69 3d a9 ca 6d bd f0 a1 b6 3d
       -0.10709442 0.057042584 -0.0580546 0.08917606
000300 c9 1d bb 3d 25 26 cf 3d 45 80 5c bd ce 89 ca 3d
       0.091365404 0.10114697 -0.053833265 0.098895654
000310 27 0d 58 bd 41 83 0f be 25 8b 0b bd 65 47 f0 3d
       -0.052746918 -0.14014913 -0.034068245 0.117323674
000320 24 ed c5 bd e5 4c 7c be 50 28 ba 3d c6 6e e4 3b
       -0.096643716 -0.24638708 0.0908972 0.006971213
000330 46 67 f2 bd 1b c2 cc 3d 08 d0 87 be 76 bb 22 3e
       -0.11836104 0.0999796 -0.26525903 0.15891823
000340 27 fe 92 bd 5f aa 88 3c 31 c7 5a bc bb ff 40 3e
       -0.07177382 0.016682802 -0.013353155 0.18847553
000350 5c 6c 44 bd 5b f4 6c 3e d5 db 26 bc 8e cf cc 3d
       -0.047954902 0.23140089 -0.010184248 0.100005254
000360 2c 81 07 3e fe dc 0c 3e d4 fe 45 be c3 bc 21 be
       0.13232869 0.13756177 -0.1933549 -0.15794663
000370 bb c3 97 bc 6c e0 59 be 49 52 16 be 9d 71 3d be
       -0.018525949 -0.21277016 -0.14679827 -0.18500371
000380 7c 0e 8f bd 9f 57 61 bd 86 13 1e bd c5 d0 46 3e
       -0.069851846 -0.055015203 -0.038592838 0.19415577
000390 7b 03 0e 3e 4b a9 11 be 71 4e b3 3e fd 5d d1 3d
       0.13868515 -0.14224736 0.35020784 0.10223005
0003a0 1b 33 0b be 1d 00 4f 3d 85 d4 ce 3d 89 6e 12 3e
       -0.13593714 0.050537217 0.10099129 0.14299978
0003b0 bc d8 4f 3e 36 f5 9b 3d ec e9 a2 3e 05 b6 a6 bd
       0.20297521 0.0761513 0.31819093 -0.08140186
0003c0 f8 7e ee bc 82 4f d1 bc 2b ab 69 be 37 22 b6 bd
       -0.029113278 -0.025550608 -0.22819202 -0.08893245
0003d0 a1 94 af 3d b1 47 bc 3e f0 b9 e0 bc 5e a8 19 be
       0.085732706 0.36773446 -0.027432412 -0.15005633
0003e0 f7 f7 b7 39 38 c2 01 3d 67 d6 93 bb a5 51 52 3d
       0.00035089228 0.031679362 -0.0045116427 0.051347394
0003f0 b0 fb f7 3d 54 33 35 be 1d 15 b3 3c 9e 0f d4 bd
       0.121085525 -0.17695361 0.021860654 -0.10354541

gru.weight_hh_l0 f4 [384, 128]
000000 39 d0 bf bc 84 82 a8 bd f6 c4 f2 3c b0 6c c5 bd
       -0.023414718 -0.08228019 0.029634934 -0.09639871
000010 73 76 4a bd 22 2f 55 bd 15 27 d9 bc 3b 6a e5 3d
       -0.04942937 -0.052046902 -0.026507894 0.112019025
000020 32 59 64 bd b1 76 e5 bd e2 f5 57 3d a5 d1 99 3e
       -0.055749126 -0.11204279 0.052724726 0.3004276
000030 7e d1 08 3e 46 14 91 ba 6c 4d 22 3d 41 b6 4d bc
       0.13361165 -0.0011068664 0.039624617 -0.01255566
000040 be 7f 16 bd 41 7e a0 3d f5 07 bf bc ce f7 c4 bc
       -0.03674292 0.07836581 -0.023319224 -0.024043944
000050 7d 4b 9d 3d 17 db 5b 3d 09 af 20 3a 65 41 38 3d
       0.07680414 0.053675737 0.0006129598 0.04498424
000060 3f 42 85 bd 44 3c 52 3c 9f 0a 40 bd 92 9e be bd
       -0.06506776 0.012831751 -0.04688513 -0.09307589
000070 5f f1 d2 bc ee 82 9f 3d 07 52 23 bd 6f f6 dd 3c
       -0.02574986 0.07788645 -0.03987315 0.027095048
000080 3c 86 89 bd b7 6c 05 be e3 4b 6f bd 26 66 f8 bc
       -0.06715056 -0.13029753 -0.05842198 -0.030322146
000090 78 ff ae 3c 89 9e 4e bd 78 56 5f bd 2e 2a 89 bd
       0.021362051 -0.05044416 -0.054525822 -0.06697498
0000a0 52 01 92 bd 47 b1 ad bd d2 07 b8 3c 0f 19 0d bd
       -0.07129158 -0.084810786 0.022464667 -0.034447726
0000b0 a7 06 0e bc 40 4a 88 3d 7b d8 72 bd 08 9e 2e bd
       -0.008668578 0.06654787 -0.059288483 -0.04263118
0000c0 3e 56 c1 3b dc 94 25 3d 8b e2 0c 3d 5b 42 b6 bb
       0.0059001734 0.040425166 0.034395736 -0.0055621094
0000d0 47 f6 38 3d 41 1e 99 bd c6 38 9d 3d d3 f0 b4 bd
       0.045156743 -0.074764736 0.07676844 -0.08834996
0000e0 f3 e2 14 3c 6d 1f d8 3d b6 a7 e5 3c 49 42 ef 3c
       0.009087312 0.10552869 0.028034072 0.029206412
0000f0 3c 90 26 39 45 8b 86 3c 1b f6 cd bd 5a d9 34 b9
       0.00015884725 0.01642383 -0.100567065 -0.00017247107
000100 db c7 29 3d 86 71 4a 3d ef 2a f4 3c 61 d3 97 bd
       0.041450363 0.04942467 0.029805629 -0.07413364
000110 f3 03 c4 bd f5 ef bc 3b 7e fa 74 bd 85 fd 08 3d
       -0.09571066 0.00576591 -0.0598092 0.0334449
000120 44 9f f4 bd 62 fb 64 bd bc f6 41 3d 77 de 34 bd
       -0.1194444 -0.0559038 0.047354445 -0.04415747
000130 8b fa 96 bd 1e 9d c7 3a 37 90 97 bd 6a 38 31 bd
       -0.07372006 0.001522932 -0.07400554 -0.04326669
000140 82 74 70 bd 83 95 fe 3c 4e e4 d3 bd 16 8b 6a bd
       -0.05870486 0.031077152 -0.1034628 -0.05726155
000150 2d e3 43 3d db 04 b3 3d 86 96 91 3d 5d 7e 06 bc
       0.047824074 0.087411605 0.07108788 -0.008208838
000160 ff d3 be 3d 3c 75 1a 3d fb 14 90 3d 57 3b 06 3c
       0.09317779 0.03770946 0.07035252 0.008192859
000170 f3 3e 9a bc 48 4a c1 bd 67 92 25 bd da b0 83 3d
       -0.018828845 -0.09437996 -0.040422823 0.06430216
000180 01 62 8b bd 5c 29 d2 3d 18 22 da bc ef ee c3 bc
       -0.06805802 0.10261795 -0.026627585 -0.023917643
000190 58 e3 86 3d 86 df f7 bc 6f 4d 38 bd c4 79 cd bd
       0.06586331 -0.030257951 -0.04499572 -0.100329906
0001a0 50 7f 9b 3b df 8b e4 bc 1b 9c 19 3d fb bb d3 bc
       0.0047454014 -0.027898727 0.03750239 -0.025846472
0001b0 a5 f3 ef bd e4 d0 86 bd ca 22 3c 3c 45 f8 cc 3d
       -0.117163934 -0.065828115 0.011482904 0.10008291
0001c0 33 c7 cb 3c 0b 7f c5 bd 16 ab 86 3d dc 83 d2 bd
       0.024875259 -0.09643372 0.06575601 -0.102790564
0001d0 d5 3b f6 3c 30 d4 c6 3d 3c 5b e7 3c cd f9 95 3c
       0.030057827 0.0970844 0.028241746 0.01830759
0001e0 1d 71 98 bc f0 f1 87 bd 2d 65 15 bd d1 ec 13 be
       -0.018608624 -0.06637943 -0.036473442 -0.14445807
0001f0 80 14 4c bd 58 eb 1f 3b fb 07 25 bb f8 e5 37 bd
       -0.049824238 0.002440175 -0.0025181759 -0.04489705
000200 13 d2 18 3d 19 2d 08 be 5f 63 f8 3c b0 fc 5a 3d
       0.037309717 -0.13298453 0.030320821 0.053463638
000210 55 89 cf 3d 0e 22 90 bd fe 13 b7 3d df c3 1d 3d
       0.10133616 -0.070377454 0.0893936 0.038516875
000220 7e 99 a9 3d fa 61 ed bd 24 aa a1 bb 5b 40 98 3c
       0.082812294 -0.11590953 -0.0049336124 0.018585375
000230 fa 92 00 be 8b 8a 71 3d ff af 77 3b 58 27 6e bd
       -0.12556067 0.058970015 0.003779411 -0.05814299
000240 cf bd 5d 3d d4 f1 fe 3b b8 27 be bd 35 b9 9c bd
       0.054136094 0.007780293 -0.092849195 -0.07652513
000250 0a 03 55 3d b6 c6 e6 bd ed 93 91 bc b4 67 8e bd
       0.05200485 -0.1126837 -0.017770732 -0.069533736
000260 10 7b 20 3d 65 bd f2 bd ae db 7c bd db 65 24 3c
       0.03917986 -0.118525304 -0.06173294 0.01003405
000270 f7 1e 88 bd 58 27 ab bc 01 93 cf bc b1 a9 8d 3c
       -0.06646531 -0.020892784 -0.025338652 0.01729283
000280 74 af a6 bd b9 6e dd 3d 69 91 e1 3c e6 e8 81 bd
       -0.08138934 0.10812134 0.027535157 -0.0634325
000290 85 da 7d bd 50 50 8b 3d 15 6e b8 3b 57 a8 a4 bd
       -0.061975975 0.06802428 0.005628357 -0.08039921
0002a0 9f d9 1a bd b4 1d d6 3d 6f c3 b5 3c 7c f8 f0 3d
       -0.037805196 0.10454884 0.022187917 0.11766145
0002b0 42 a8 f5 bd 72 d1 a0 3d 5d d3 93 3d 5e 67 6a 3d
       -0.11994983 0.078524485 0.07218049 0.057227485
0002c0 7b 6a 54 bd 75 ef 7c bd c3 49 b2 bb 3e bc dc bd
       -0.05185936 -0.0617518 -0.005440922 -0.10778092
0002d0 6c df 83 bd ff 37 43 bd 57 57 2f bc 37 48 1d 3e
       -0.06439099 -0.047660824 -0.010701976 0.15359579
0002e0 8a b3 7b bb 2a 23 61 3d 41 5d 9a bd c1 b0 21 3c
       -0.0038406574 0.054965176 -0.07537318 0.009868802
0002f0 41 9d dd 3b 9d 72 58 3d a0 72 5b 3d 66 d6 37 3d
       0.006763131 0.05284368 0.05357611 0.0448822
000300 8d 48 2d 3b 11 42 f6 bd 26 28 5a be d0 81 2a 3e
       0.0026440949 -0.1202432 -0.21304378 0.16651082
000310 97 16 96 3d 1b 75 80 bd 7f e2 92 bc a5 5f c0 bd
       0.073285274 -0.06272336 -0.017930267 -0.09393243
000320 4f 91 e1 bd d0 b5 cf bc 25 b9 c5 bb cd aa bd bd
       -0.110140435 -0.02535525 -0.006034034 -0.09261093
000330 51 4d 0b bc 42 83 d0 bd 62 dc c4 3d 79 2d 23 3e
       -0.00850232 -0.101812854 0.09612347 0.15935315
000340 bf c3 7e bd b0 82 67 bd 1a 21 65 3d 08 0d e2 3d
       -0.062198397 -0.056521118 0.05593977 0.11037642
000350 97 cd be bd ff 2c dd 3c 09 4f fd bc 50 2a 46 3d
       -0.09316557 0.026998995 -0.030921476 0.048380196
000360 c0 57 2d be a9 9e ed 3c f6 80 ba bc d7 7e 7a 3d
       -0.16928005 0.02900632 -0.022766571 0.06115612
000370 cd 79 5e 3d 59 eb 98 bb 27 82 12 bd 1c 83 ed 3c
       0.054315377 -0.0046667275 -0.035768654 0.028993182
000380 5c e0 c4 3c 87 6e f5 3c 6f d6 12 3d b1 f8 3c 3d
       0.024032764 0.02995993 0.03584903 0.046135608
000390 9d e4 c0 3d 60 2c 3a bd 5e 2c 04 3d 15 20 67 3d
       0.094186045 -0.045452476 0.032268874 0.05642708
0003a0 cc db 45 3d d2 f9 82 bd 1e be 57 3c 4f cb a8 3d
       0.048305318 -0.06395306 0.013167886 0.08241903
0003b0 4d 9b 2a be a4 ba dd 3c c7 08 83 bd 31 f0 17 bc
       -0.16660805 0.027066536 -0.063981585 -0.009273575
0003c0 86 be 3d bc 2a 6d d8 3b 4a a5 26 3d e9 cd 56 bd
       -0.011581069 0.0066048102 0.040684976 -0.052442465
0003d0 25 92 fd bd cf 71 34 bb 6b 92 22 bd 15 5b a1 3d
       -0.123813905 -0.0027533656 -0.039690416 0.07878701
0003e0 46 4c 06 3e d2 57 b6 3b 71 0f 33 3d 22 78 9a 3d
       0.13115034 0.005564668 0.043715898 0.07542445
0003f0 c4 9d 3b bd 44 96 6c 3d 44 da 6f 3d 6b d1 90 bd
       -0.045804754 0.057760492 0.058557764 -0.07071193

gru.bias_ih_l0 f4 [384]
000000 ae 01 75 3d 49 c5 fa bb 70 d9 13 3d cf 63 f6 bc
       0.059816055 -0.0076529128 0.036096036 -0.03007689
000010 a8 47 fa 3a 66 1a 42 3d 92 20 77 3d f3 91 62 3d
       0.0019094842 0.047388457 0.060333796 0.05531497
000020 bf 58 71 bd 01 01 cc 3d f8 81 99 bd d5 93 15 3e
       -0.058922525 0.09961129 -0.07495493 0.14607175
000030 93 da 8b 3d ff 05 5e 3d fa f6 c5 3c 6e 22 4f 3d
       0.06828799 0.054204937 0.02416562 0.050569944
000040 ee 62 aa 3d b8 74 fe 3c 96 e8 b5 3c d3 fc e7 bc
       0.083196506 0.031061515 0.022205632 -0.028318798
000050 cf 2a 71 3d 46 1d 37 bd 1a 20 4e 3d 10 0f 6f bd
       0.058878716 -0.04470565 0.050323583 -0.058363974
000060 ad 6f a9 3c 9e ec 8e 3c 41 f1 28 3e 51 e6 49 3d
       0.020683134 0.017446812 0.16498281 0.049291912
000070 c1 b8 49 bd 9c 46 fc 3c e2 a6 74 3d b1 98 b2 bd
       -0.04924846 0.030795388 0.059729464 -0.0872053
000080 3e 2b 6a bd d8 5c 71 bd 6c cb 42 bd 7a c6 e0 3d
       -0.057170145 -0.058926433 -0.04755728 0.109753564
000090 68 68 a4 3d c5 d6 d0 39 a1 c9 6e bc 82 84 c4 bc
       0.080277264 0.00039832867 -0.014574439 -0.023988966
0000a0 2f 92 09 ba 57 52 0f 3c 58 1b 08 3e b9 3c 91 3d
       -0.00052479183 0.008747659 0.13291681 0.0709166
0000b0 22 fa 6e 3c 3c e6 75 3d 53 e6 bd 3d 60 99 99 3d
       0.0145860035 0.06003402 0.092724465 0.07499957
0000c0 c9 db 2a bc 64 60 cd 3d d3 5a 90 bd 03 38 f8 b9
       -0.010428377 0.10028151 -0.07048573 -0.00047343978
0000d0 bb a5 ab bc 93 ee 0f bd c0 10 e2 bc 8d 4d bd bc
       -0.02095305 -0.03513963 -0.027595878 -0.023108268
0000e0 c9 70 04 3d cd 04 82 3d be 3d 7c 3d 40 d1 62 bd
       0.032334123 0.06348572 0.06158232 -0.055375338
0000f0 12 c9 62 3d fb 11 ed bc dd a4 96 3d 6e 5a d8 3c
       0.055367537 -0.028939238 0.07355664 0.026410308
000100 ff da 55 bd 76 b7 df bc fa 04 9a bd ec 38 ea 3d
       -0.052210804 -0.02730916 -0.075204805 0.11436638
000110 49 44 09 3c 09 f3 a1 3d a6 dd 74 3d a2 61 6c 3d
       0.008378097 0.079076834 0.059781693 0.057710297
000120 80 17 fb bb 1e 68 87 3d 72 31 c5 bc f6 83 8f 3d
       -0.0076627135 0.06611656 -0.024071429 0.070075914
000130 5e 41 c9 3d 3b fa d1 3d 73 b0 b6 3d 8c b1 bb 3d
       0.09826921 0.10252806 0.08920374 0.09164724
000140 11 dc db ba 8c 0a 1f 3e 2e 86 bb bc d1 66 89 3d
       -0.0016773959 0.15531367 -0.02289113 0.06709064
000150 f9 d4 34 3d f8 6d c1 3d 81 38 11 3d eb 21 01 bd
       0.04414842 0.09444803 0.035454277 -0.031526487
000160 2a 18 62 bd 29 c7 3b 3d 4d 2a 66 3d 88 93 3b bd
       -0.055198826 0.04584423 0.056192685 -0.045794994
000170 88 f9 c2 bc e3 36 06 bb b3 3f 55 bd 3d 4c 4b bd
       -0.023800626 -0.0020479492 -0.0520627 -0.049633253
000180 48 02 77 bd 31 57 cf 3d 76 58 e3 bc f6 46 3e 3d
       -0.06030491 0.10124052 -0.027752142 0.046454392
000190 24 a7 9b 3d c3 4f 4f 3d b1 c8 93 3d 58 52 52 3d
       0.07600239 0.050613176 0.07216013 0.05134806
0001a0 95 b0 89 bd 3e 74 a7 3d 0e 8d 86 3d 97 af 8f 3d
       -0.067231335 0.08176468 0.06569873 0.07015913
0001b0 bf de c6 bc a0 f8 9c ba 2c 04 06 bd 0a d3 fc 3d
       -0.024276135 -0.0011975951 -0.032718822 0.1234494
0001c0 35 6e 2d bc 24 2b 61 bd db 69 46 bd 56 18 5f 3d
       -0.010585357 -0.054972783 -0.048440795 0.054466568
0001d0 74 ee b4 3d f9 53 f4 bc 10 cb 0a 3d 57 2f 1d 3e
       0.08834544 -0.029825198 0.03388506 0.1535009
0001e0 a7 ea c8 3d 7e 08 34 3d f4 f7 aa 3d 80 8a 1b 3e
       0.098103814 0.04395341 0.083480746 0.15189552
0001f0 a0 02 cf 3d 65 bb 2b 3d 6a 23 a2 3d 1c e8 58 3d
       0.101079226 0.04192676 0.07916911 0.05295573
000200 0c 5b 0b be d8 81 cb bd f0 81 51 be 24 20 13 bc
       -0.1360895 -0.09936875 -0.20459723 -0.008979831
000210 ae b9 52 be 75 31 c4 bd b5 9e a5 bd f2 16 81 bd
       -0.20578644 -0.09579746 -0.080869116 -0.063032046
000220 f6 b4 6f bd 3f d0 f0 bd 31 b1 6e be 53 63 d2 be
       -0.058522187 -0.1175847 -0.2330978 -0.41091403
000230 20 a2 b9 bd df d4 8e bd 14 3c 7a be c5 44 c2 bd
       -0.09064126 -0.06974196 -0.2443698 -0.09485773
000240 64 fd ee bc 0f dd 57 3c d5 ae ee bb 7f 78 57 bd
       -0.02917356 0.013175263 -0.007284025 -0.05260515
000250 9e 86 76 bd f8 e8 ed bd 1c 8a 95 bd 13 76 c3 3c
       -0.060186975 -0.11616701 -0.07301733 0.023860013
000260 41 c1 a0 bd b8 30 e1 bd 77 77 10 be 3b 3b 3e be
       -0.0784936 -0.109956205 -0.14108072 -0.18577282
000270 c3 7e 13 bc 33 a0 73 be 4c 3c 29 be 06 8e b5 bd
       -0.00900239 -0.2379158 -0.16526908 -0.088649794
000280 a9 90 a6 bd 96 56 68 bd 53 56 6a bd af 62 a8 bd
       -0.081330605 -0.0567232 -0.05721123 -0.082219474
000290 74 84 2f bd 58 ef d3 bd 61 26 cd bc 01 54 84 bd
       -0.042850927 -0.103483856 -0.025042715 -0.06461335
0002a0 79 75 de bd c6 29 21 bd 91 c9 02 3a ab 06 2a 3d
       -0.1086225 -0.03934648 0.0004989142 0.041510265
0002b0 e7 7f 8a be 17 11 2b bd 1e 0a 58 bd f5 0a 93 bd
       -0.27050707 -0.041764345 -0.052744024 -0.07179824
0002c0 32 6f 88 be f2 a0 bf bc 50 ed 59 3d 00 9a 2a be
       -0.26647335 -0.023392174 0.053204834 -0.16660309
0002d0 70 b3 59 bd d0 a6 8e bc 48 ca 20 bc 01 a9 14 be
       -0.05314964 -0.017413527 -0.009813853 -0.14517595
0002e0 31 a7 cf bd d5 ef 82 be 15 bc ca bd 98 fb 59 3c
       -0.10139311 -0.25573602 -0.09899155 0.0133046135
0002f0 d3 06 3a be 74 0f 4b be 25 19 89 bd 90 b2 64 3d
       -0.18166666 -0.19830114 -0.06694249 0.055834353
000300 3c ba 06 bd 38 fe 0a be f2 bc 34 bd 16 b7 a5 bd
       -0.03289245 -0.1357354 -0.044125505 -0.080915615
000310 d2 cc e5 bd 0d 85 b4 bc c0 4a 9f bc 83 48 aa bd
       -0.11220707 -0.0220361 -0.019444823 -0.08314612
000320 79 76 0a be f7 26 af 3c 80 84 8d bd 5d ee a1 bd
       -0.13521756 0.021380885 -0.06910038 -0.07906792
000330 3e 22 1a 3c 57 5e 88 ba 77 24 ef bb 0a d8 75 be
       0.009407578 -0.0010404092 -0.007298048 -0.24008194
000340 94 45 87 bd 50 af ee bd 9d 29 b2 bc 94 d7 b7 bd
       -0.06605068 -0.11654532 -0.021748358 -0.08976665
000350 31 70 13 be f1 d0 29 bd 89 dc fa 3c 49 3a 28 bd
       -0.14398266 -0.041459028 0.030622737 -0.04107121
000360 dd fe 89 bd 3c 30 d4 bb 81 2a c2 bd b5 9e a3 bd
       -0.067380644 -0.0064754765 -0.09480763 -0.07989255
000370 27 16 34 be 32 34 e4 bc f2 15 ba bd 85 c1 6f bc
       -0.17586575 -0.02785692 -0.09086217 -0.014633541
000380 be f5 23 be 26 d4 e1 3b 6c 9f c3 bd 52 77 2a bd
       -0.16011712 0.006891745 -0.09551892 -0.0416177
000390 ac ae dc bd f5 3c ec bd e1 67 eb bd 60 3c ce 3c
       -0.107755035 -0.11535064 -0.11494423 0.025175273
0003a0 c9 a7 fb bd 5e eb 9e ba c4 b0 6c bd 14 a9 ec be
       -0.12287862 -0.0012124588 -0.057785764 -0.46222746
0003b0 fe f9 9c be 4d 2d 0b be 3d 6e 63 bb 73 1c cd bd
       -0.3065948 -0.135915 -0.0034703158 -0.10015192
0003c0 8e d1 a9 bd 99 1d 02 be d6 a4 69 be 63 4f ab 3b
       -0.082919225 -0.12706603 -0.22816786 0.0052279695
0003d0 c1 da a5 bc c5 4b 4a be 2d 4d 67 3c db 02 b5 bd
       -0.020245912 -0.19755466 0.014117521 -0.08838435
0003e0 8e e1 4b 3c 2c 1a c8 bd f8 15 ed bd ae 26 64 be
       0.012443913 -0.09770617 -0.11576456 -0.2228038
0003f0 c1 04 f9 bd 2e 8d 1b be 22 77 02 3d a7 7a 18 be
       -0.1215911 -0.15190575 0.031851895 -0.14890538

gru.bias_hh_l0 f4 [384]
000000 42 3e 01 3e b0 1b c1 3d 04 13 8d 3b 8b 00 01 3e
       0.12621406 0.09429109 0.0043052454 0.12597863
000010 d4 8f 6f bc bd 25 91 3d 00 8a a0 3d 9d cc 1d bd
       -0.014621694 0.07087276 0.078388214 -0.038525213
000020 15 28 67 bd 2e 9a 5c 3d 9d 75 c8 3d 22 16 7b 3d
       -0.05643471 0.053857975 0.09788058 0.061300404
000030 b4 97 f7 ba 29 a1 a8 bb 92 55 d1 bc ac 82 1b bd
       -0.0018889816 -0.005146165 -0.025553498 -0.037966415
000040 c5 7e 4d 3d 1e 43 9b 3d 6d 08 12 3e cb fb e3 3b
       0.050169725 0.07581161 0.14261027 0.0069575063
000050 c0 4a bc 3c 6c 22 43 3d 32 7f 90 3c a5 60 94 bd
       0.022984862 0.04764025 0.017638776 -0.07244996
000060 17 7f e1 bc b2 77 e1 3c 5f 5c f6 3d 41 d4 71 bd
       -0.027526421 0.027522895 0.12029337 -0.05904031
000070 e5 fe 8e 3c 74 3a ab bd 8c 6a 3e 3d 3a a9 69 b9
       0.017455528 -0.083607584 0.04648833 -0.00022283653
000080 c7 a1 2a bd 79 ea 4d 3d 32 12 7b bc a1 42 ea 3d
       -0.04165819 0.05027244 -0.015324162 0.1143849
000090 5e 04 27 3d ac 4d 49 3d 1d 39 9b 3c 5d d5 5b 3d
       0.04077565 0.04914634 0.018948132 0.053670276
0000a0 e0 01 06 bd cd 89 3f 3d cd b3 7d 3d 70 80 49 bd
       -0.032716632 0.046762276 0.06193905 -0.049194753
0000b0 dc 93 f4 bc 9c d1 26 bd 37 12 aa 3d 5e f3 9c 3d
       -0.029855661 -0.040727243 0.083042555 0.07663606
0000c0 52 be 28 bd fb 60 2c 3d b1 9d 2f bd 65 1a dc 3d
       -0.04119713 0.042084675 -0.042874996 0.10747222
0000d0 c0 27 bf 3d 2b 75 1e 3d d6 48 00 3d c3 97 a4 bd
       0.093337536 0.03868596 0.03131946 -0.08036759
0000e0 75 4c 41 3d 88 b6 69 bd 65 db aa 3d ae ca a9 bc
       0.047192056 -0.05705884 0.083426274 -0.020726528
0000f0 17 29 3e 3d 34 3d 04 3c c1 24 b6 bc a4 c1 83 3d
       0.046425905 0.008071233 -0.022234323 0.064334184
000100 44 72 a3 3b 66 87 26 3d ff 20 35 3d 96 14 0b 3e
       0.0049879868 0.04065647 0.04422092 0.13582072
000110 f2 1a 6e 3d 70 7e 76 bd b2 ff 88 bd 19 c8 80 3c
       0.058131166 -0.060179174 -0.06689395 0.015720414
000120 27 74 c1 3c 09 1a 0b 3e 07 4d 53 3d 34 04 1d 3e
       0.023614956 0.1358415 0.05158713 0.15333635
000130 93 6d db 3d ad e4 88 3d e4 0b dd 3c 99 a9 2b bd
       0.10714259 0.066842414 0.026983209 -0.041909788
000140 5f 76 72 3c 28 01 d5 3d d7 42 3d 3c ca 5c 14 bd
       0.01479873 0.10400611 0.01155158 -0.036221303
000150 32 70 d4 3b a6 4f d3 bc 58 f7 58 bd c2 9a 8b 3d
       0.0064831013 -0.025794815 -0.05297026 0.06816627
000160 78 12 06 bc a5 d3 cd bc 90 0b 7e 3d a0 f8 be 3d
       -0.008183114 -0.025125334 0.062022746 0.09324765
000170 ef 4f 52 bd 53 b9 11 3d d7 c4 52 3d 01 34 14 bd
       -0.051345762 0.03557713 0.051457252 -0.036182407
000180 b2 e9 bc 3c ff 92 1a 3d 41 2b e7 3d 9e 1d c8 3d
       0.023060653 0.037737843 0.11287547 0.09771274
000190 8b ca 04 3d b8 52 d5 bc 18 6f d1 3d 71 d6 39 bc
       0.032419723 -0.02604042 0.102262676 -0.011342631
0001a0 e7 45 38 3d c9 cf e0 3d f3 dd 59 bd b7 76 52 bd
       0.04498854 0.10977132 -0.053190183 -0.051382747
0001b0 12 e8 86 3c ab c6 80 bd 05 0d 85 bd ae 8c d8 3d
       0.016468082 -0.06287893 -0.06496624 0.105737075
0001c0 9d 43 9f 3d 55 1e 80 3b 74 e2 46 3d 4b a6 87 3c
       0.07776568 0.003909866 0.048555806 0.016558787
0001d0 d9 eb 8a bd ee cb 1d bd 8c e3 b3 3d 24 f7 0f 3e
       -0.067832656 -0.03852456 0.087836355 0.1405912
0001e0 9f 16 40 bd 7a f4 2c bd d5 cd 38 3d 70 dc f9 3d
       -0.046896573 -0.04222534 0.04511817 0.12200248
0001f0 ff 20 28 3e 1b d2 31 bd 13 4a 3b 3d 16 05 3b bd
       0.16418837 -0.043413263 0.04572494 -0.045659147
000200 0a cd 1b be b8 9f ed bc ac 7c bf bd c2 ad c8 bd
       -0.15214935 -0.029006824 -0.09349951 -0.09798767
000210 8a 8b c2 bd 25 74 b2 bd 64 64 a5 bd 96 cf 93 3c
       -0.09499271 -0.08713559 -0.080757886 0.01804332
000220 ec d9 ef bd a1 41 56 be 7d 8b 0f be 04 8d e8 be
       -0.11711487 -0.20923473 -0.14018054 -0.45420086
000230 4d fb b8 bc 93 6e 60 bc c9 2e 7d be 22 6a 51 bd
       -0.022580767 -0.013698238 -0.24724878 -0.051126607
000240 33 e7 2b bd 4e 7a b1 bd 9f df be bb 79 e9 bf bd
       -0.041968536 -0.08665906 -0.0058249976 -0.09370703
000250 4c b6 cf bd 40 3f ac bd 11 a9 cc bc 78 c6 c6 bd
       -0.10142192 -0.084105015 -0.02498296 -0.09705824
000260 b5 b0 bd bd 0c c4 4b bd 26 63 49 bb ea 36 c1 bd
       -0.0926222 -0.04974751 -0.0030729263 -0.09434302
000270 20 8c e6 bd 30 c3 20 be 78 eb f8 bd 10 ef 2c be
       -0.112571955 -0.15699458 -0.12154287 -0.1688807
000280 0e 54 ca bb d2 72 5a bb c4 98 df bd 29 c8 0f be
       -0.006174571 -0.0033332598 -0.109178096 -0.14041199
000290 52 d5 54 bc e1 3b 90 bd 60 a6 39 be 2d 83 27 3d
       -0.012990313 -0.07042671 -0.18129873 0.040896583
0002a0 85 7b a3 bd 7c e7 bc 39 86 0a fb bd 28 bb 27 3d
       -0.07982544 0.00036030624 -0.122578666 0.04094997
0002b0 02 68 3d be f2 35 80 3c b5 77 49 bd 67 0e bc bd
       -0.18496707 0.015650723 -0.049186427 -0.091824345
0002c0 da 1d 95 be 75 1a 1c be 2d 11 9d bd 0b 38 3a be
       -0.29124337 -0.15244468 -0.07669292 -0.18185441
0002d0 80 05 94 bd 4e bb 02 bd 79 e5 2f 3d 54 59 d3 bc
       -0.072276115 -0.03191691 0.04294345 -0.02579943
0002e0 75 4a cf bd 4c 24 14 be 32 87 35 bd a3 6d 14 bd
       -0.101216234 -0.14466971 -0.044318385 -0.03623737
0002f0 88 7e be bd 81 c4 4e be 1f 47 07 be 31 71 08 bd
       -0.09301478 -0.20192148 -0.13210724 -0.033311073
000300 d2 25 e7 bd aa 6f 92 bd 3f 77 ef bd e4 32 dc bd
       -0.112865105 -0.071502045 -0.11692666 -0.10751894
000310 b2 3a fc bd fd 59 18 be 95 1f a6 bd 0e e4 98 bd
       -0.12315883 -0.14878078 -0.081114925 -0.07465373
000320 09 54 09 be a6 bc 0b be fa cd 27 be d7 03 0f be
       -0.13410963 -0.13646182 -0.16387168 -0.13966309
000330 fd 36 52 bd 57 21 12 3d dd 89 15 be ae 2e 84 be
       -0.051321972 0.035676327 -0.14603372 -0.25816864
000340 1f a3 bf bd de e9 1e be 2c 7b 96 3c 23 e4 3a bc
       -0.09357285 -0.15518901 0.01836928 -0.011406931
000350 c9 d7 9e bd db 90 70 bd 66 53 cb bd a7 3a 8a bd
       -0.077560015 -0.058731895 -0.09928016 -0.06749468
000360 be 2f b9 bd e0 26 52 bd 95 1a 3b be 19 e2 b8 bd
       -0.09042309 -0.051306605 -0.18271859 -0.090275
000370 d3 a1 c0 bd b7 cc 32 3b 58 57 b8 bd 21 03 ec bd
       -0.094058655 0.0027282664 -0.090010345 -0.11524034
000380 d7 75 31 be 90 e8 f6 bd 80 fb c6 bc a2 de 6c bd
       -0.17330109 -0.120560765 -0.024289846 -0.057829507
000390 83 df 3b be 49 67 91 bd 05 c7 a9 bd 83 a3 ef bd
       -0.18346982 -0.07099778 -0.08289913 -0.11701109
0003a0 4c 9d 38 be c4 8b 9f bd c8 2e a0 bd 18 3e ef be
       -0.18028754 -0.0779033 -0.07821423 -0.4672706
0003b0 14 dc 87 be 1c 67 02 be 49 aa 81 39 01 c8 f1 bd
       -0.26535094 -0.12734646 0.0002473167 -0.11805726
0003c0 70 a5 9b bd 22 49 ef bd 25 77 f1 bd 4d 47 8b 3d
       -0.07599914 -0.11683871 -0.11790303 0.06800709
0003d0 3a f3 2c 3d 8e 11 5d be 49 c7 2d 3d 4e ab 61 bd
       0.042224146 -0.21588728 0.04242638 -0.05509501
0003e0 ba 16 d1 bc db f6 18 3d 9d 12 f5 bd e4 a7 cc bd
       -0.025523532 0.037344795 -0.11966441 -0.0999296
0003f0 aa 05 fc bd 88 14 7d bd 54 ff 3e bd 53 d5 2d bd
       -0.12305768 -0.06178716 -0.04663022 -0.04243977

fc.weight f4 [18, 128]
000000 93 fa 12 be 25 f8 9e bc e3 4c 1c 3e aa b6 0a 3e
       -0.14353399 -0.019405434 0.15263705 0.13546243
000010 02 32 07 3d f4 d5 c4 bd bc 36 fe bc 31 aa 9d bd
       0.033006676 -0.09611121 -0.031031959 -0.07698477
000020 e2 da aa bc 19 96 93 3e 21 d5 3e be 12 3f d9 3e
       -0.020856325 0.28825453 -0.1863599 0.4243093
000030 c9 96 24 3e cb ab db 3d 96 4c 1c 3e 36 dc 0c bd
       0.16073145 0.10726126 0.1526359 -0.034389697
000040 5e b9 ba 3c a8 ec c3 bc 4e 9d c4 bd fe b3 d3 bd
       0.022793468 -0.023916557 -0.09600316 -0.10337065
000050 62 80 cd bb 03 c8 96 3c bb 2f c3 3d 7e 44 ca bd
       -0.006271408 0.01840592 0.09530588 -0.09876345
000060 62 c5 b0 bd 20 2f aa bc 3f 4a 0e be f3 cb 9f be
       -0.08631398 -0.020774424 -0.1389551 -0.31210288
000070 ba 7d 80 3e 18 c0 46 bd 05 1c 23 3e 48 50 e7 be
       0.25095922 -0.04852304 0.15928657 -0.45178437
000080 71 77 57 3d 7d b1 0b be a4 ae e3 3d 7c 6c 74 3e
       0.052604143 -0.13641925 0.111172944 0.23869509
000090 80 d7 2d 3d 94 93 3b bb b2 0e ea bb 19 08 82 3d
       0.042441845 -0.00286219 -0.007142865 0.06349201
0000a0 f7 01 14 3e 6a 94 31 bd 5f 57 85 3b 21 91 79 bc
       0.14453875 -0.04335443 0.0040692533 -0.015232355
0000b0 53 97 90 be fc 84 e4 bd 5c 7f 1d 3d 7a 3e d2 bd
       -0.2824045 -0.11158177 0.038451537 -0.10265823
0000c0 f9 66 da 3e e4 5f 8f 3d f6 df 07 3c d7 d3 14 3e
       0.42656687 0.070007116 0.008293143 0.14533935
0000d0 7e d4 a8 bd 26 78 0b be 95 ea 31 bd a3 04 d8 3d
       -0.08243655 -0.13620052 -0.043436605 0.105477594
0000e0 dd 1c e5 bd 22 9e a1 be ad 1d 96 3c e0 4c 3b 3d
       -0.11187146 -0.31565958 0.018324697 0.04572761
0000f0 04 40 6e 3e 70 d6 81 be 8d 3c 91 be 66 2f 27 bd
       0.23266608 -0.25358915 -0.2836651 -0.040816687
000100 54 ab a8 3e 71 4c 0b be f9 4b 9b be d1 c4 1a be
       0.32943213 -0.13603379 -0.303314 -0.15114142
000110 ee ea ab be e7 7f 08 3e 50 2c 35 bd 70 dd 4d be
       -0.33577675 0.13330041 -0.044231713 -0.20104003
000120 68 6e 60 3d 4c b2 6f bd 67 1c dd 3d 45 cf bc bd
       0.05479279 -0.058519647 0.10796433 -0.09219221
000130 b1 6f 4b bd 77 a7 bf 3d ff 81 d6 bd 4d 28 e0 3c
       -0.049667064 0.09358113 -0.104740135 0.027362967
000140 0a 03 72 be ba c6 5d be 82 4c c3 3c 11 36 92 3d
       -0.23633972 -0.2165784 0.023840193 0.071392186
000150 cc 6c f2 bd 2c ca da 3b 88 b8 20 3e 14 36 8f be
       -0.118371576 0.006676933 0.15695393 -0.27970946
000160 53 c2 b0 be 48 93 06 3e 26 4c 5e bd 08 d1 93 3d
       -0.34523258 0.13142121 -0.05427184 0.07217604
000170 9e 33 35 bc d5 9c 15 3e cc 0a 72 3e 85 c9 c7 3d
       -0.01105967 0.14610608 0.23636931 0.09755234
000180 59 f4 df 3e 73 06 09 bd a9 f3 84 bd ff f7 76 3d
       0.4374111 -0.033453416 -0.06491787 0.0602951
000190 22 d0 67 be 01 de 2f 3e 78 32 82 3e 58 91 c5 3d
       -0.2263799 0.17174532 0.2542913 0.09646863
0001a0 13 cb 29 3e 50 6d a6 3e 60 93 c6 3d 8c e3 a0 3e
       0.16581373 0.32505274 0.09696078 0.31423604
0001b0 12 81 c3 be b3 66 87 be 3d 02 b3 be 43 53 0d 3e
       -0.3818441 -0.2644554 -0.34962645 0.13801293
0001c0 b1 46 3d 3d ec c7 6d be 56 73 3e bd 50 7b a8 bd
       0.046209995 -0.23220795 -0.04649671 -0.08226645
0001d0 d7 3d a9 bd 20 02 a6 3c 9a 94 15 bd 35 02 56 bd
       -0.08263748 0.020264685 -0.03651867 -0.0522482
0001e0 1b 8c 46 be 8e 80 8b 3d 89 10 35 3d 6f dc 03 be
       -0.19389383 0.06811629 0.044205222 -0.12877057
0001f0 48 3f df bd 0d 4d 57 bd 27 e0 5c bd be 7d 76 3e
       -0.10900742 -0.052563716 -0.053924706 0.24071404
000200 93 b1 37 3e 39 04 13 3d c9 bf 1c be 39 11 c3 bd
       0.17938833 0.0358927 -0.15307535 -0.09524769
000210 f1 a4 b3 bd bc 76 57 bd 9d cf 2e 3d 95 22 27 3e
       -0.087716945 -0.05260347 0.042678464 0.16321786
000220 a6 f3 ae 3d 5f b8 f7 bd d6 21 c0 3e a6 ff 1f be
       0.08542566 -0.12095713 0.37525815 -0.15624866
000230 20 f3 93 3d ca 15 3b ba 22 5f 6d 3d a0 d1 73 3b
       0.07224107 -0.0007136731 0.057952054 0.0037203804
000240 1b ab 1a be 49 8c 3e be 35 ad 25 3d 50 5a 8c bc
       -0.15104334 -0.18608202 0.040448386 -0.017132908
000250 77 bc 8f 3c b4 a1 ef bd 77 0b ba 3e 38 17 32 3e
       0.017545922 -0.11700764 0.36336872 0.1739167
000260 4e f0 14 be bc 96 a8 3c 84 84 8c bc c2 0a 85 3e
       -0.14544794 0.020579688 -0.017153032 0.2598477
000270 5e a9 06 be 99 ce a8 3e 1b 6c 7f 3d eb 40 b6 3e
       -0.13150546 0.32970122 0.062358957 0.35596403
000280 e6 89 48 be 33 60 f7 bd 1d ad e6 bd 5b 27 79 bc
       -0.19583854 -0.120788954 -0.112634875 -0.015207137
000290 b7 41 58 3e e5 de 8c bd 81 67 5d bd 9d 91 12 be
       0.21118818 -0.06878451 -0.054053787 -0.1431336
0002a0 42 0b c0 3a 17 aa e5 3d cd 98 1d be 29 ec 4c bd
       0.0014651793 0.11214083 -0.1539032 -0.050029907
0002b0 b6 e6 3b be ff eb f7 3c 97 0b cb 3d 1f c2 de bd
       -0.18349728 0.030263899 0.0991432 -0.108768694
0002c0 67 52 75 be a7 c4 17 bd d0 60 a3 3c bf 83 3f be
       -0.23957215 -0.037052777 0.019943625 -0.18702601
0002d0 3a fd 7a 3e b1 76 5b bd 5f dd 5d bb 1f e2 51 be
       0.24510661 -0.05357999 -0.0033853871 -0.20496415
0002e0 9f d9 98 3d 61 1d 79 3e 53 8a 7c 3e c0 5b 9f bc
       0.07463383 0.24327613 0.24662142 -0.01945293
0002f0 98 40 26 3e 7d a8 5a be c2 d1 81 bd e8 6b f4 bc
       0.16235578 -0.21353336 -0.06338836 -0.02983661
000300 01 49 84 be 83 9d 48 3d dc b3 ab 3e 96 82 cc 3d
       -0.25836948 0.04897834 0.3353566 0.09985845
000310 54 9e 13 3e 5c bf e8 bc 99 17 c8 bd d0 0c 05 3e
       0.14415866 -0.02841156 -0.09770126 0.12993169
000320 75 9b 0e be d0 ad 20 3e 84 fd 24 be 99 51 4e 3d
       -0.1392649 0.15691304 -0.16112334 0.050370786
000330 72 b9 39 bc bd a2 4c bc 28 f4 f8 3d 2a 69 a5 be
       -0.0113357175 -0.012489972 0.12155944 -0.32306796
000340 19 3c 17 3e d6 47 11 bd 29 af b8 3d c6 1f ce 3d
       0.14769019 -0.0354689 0.09017784 0.10064654
000350 e8 81 1b 3d a9 bb 80 3e 48 74 23 3c 8d e8 06 be
       0.037965685 0.25143173 0.009976454 -0.13174649
000360 7b ab b3 3c d6 77 d2 bc 56 83 8e 3d 2e 1e 04 3e
       0.021932354 -0.025691908 0.06958644 0.12902138
000370 af 07 59 be 53 a0 69 be b1 82 48 be 35 1d e7 bd
       -0.21194337 -0.22815065 -0.19581105 -0.11284868
000380 ea 1b a6 3d 28 5f 27 3e 96 c7 82 bc fc ac 9d 3d
       0.08110793 0.16344893 -0.01596431 0.0769901
000390 ca 6d 96 bd aa 7b 00 be 39 66 90 3d ef b1 df bd
       -0.07345159 -0.12547174 0.070507474 -0.1092261
0003a0 c3 24 ab 3c e2 a1 79 3d 09 59 9d bc 31 37 30 be
       0.020891553 0.0609454 -0.019207494 -0.17208554
0003b0 a5 c9 45 3e 53 95 c1 3d da 98 92 3d a0 25 14 3e
       0.19315203 0.094523095 0.0715806 0.14467478
0003c0 17 4e a5 bd c8 2d 29 3d 4e 28 40 3e d9 35 66 bc
       -0.08071535 0.041303426 0.18765375 -0.014050924
0003d0 8d bb 13 be 17 c5 81 3e 25 46 3c bd 23 57 47 be
       -0.14427014 0.2534568 -0.045965333 -0.19466834
0003e0 cf f6 75 bd 64 65 75 3d 23 a8 22 3e 51 d7 3b be
       -0.06004983 0.059911147 0.15884452 -0.18343855
0003f0 a8 94 41 be 93 9e 2a bd 24 cc ff 3c 23 0e 65 be
       -0.18904364 -0.041655134 0.031225272 -0.22368674

fc.bias f4 [18]
000000 0f 89 18 bd 7e 1a f6 3d b1 ca 3c bd df 46 38 3c
       -0.037240084 0.12016772 -0.04609174 0.011247366
000010 06 d2 cd bd 10 47 15 3c 64 1f fb 3d be 1d d3 bb
       -0.100498244 0.009111181 0.12261847 -0.0064427545
000020 28 d1 28 3d 1f 70 ce 3c b0 13 61 bd 12 56 11 bd
       0.041215092 0.025199948 -0.054950416 -0.035482474
000030 56 e5 53 3d b1 bb ac bd d8 ee 26 3c 39 f3 a8 3c
       0.051732384 -0.08434237 0.010188781 0.02062379
000040 1c d3 be bc 6f b0 6a 3d
       -0.023294024 0.057297166
