01_rnn/logs/GRU/GRU_epoch_30_acc_0.8142.pth (torch, 299249 bytes, 6 tensors)

gru.weight_ih_l0 f4 [384, 57]
0	0x3df2a815	0.11848465
1	0x3e460501	0.19337846
2	0x3ed3943e	0.41324037
3	0x3eb5911d	0.35462275
4	0x3d27f836	0.041008197
5	0xbc9c4172	-0.019074176
6	0x3b5f2c53	0.003405352
7	0x3e1bb037	0.1520394
8	0xbee5fe28	-0.44920468
9	0xbf02024b	-0.5078475
10	0xbe6556ad	-0.22396345
11	0x3ec61f9c	0.3869599
12	0x3def807a	0.11694427
13	0x3ea6f0be	0.32605547
14	0x3d0cc0d9	0.0343636
15	0x3e09346a	0.133989
16	0x3ed2df0a	0.4118579
17	0x3dc63122	0.0967734
18	0xbc8c2999	-0.017109679
19	0x3ebca2cc	0.36842954
20	0xbe8474c1	-0.25870326
21	0xbe97eccc	-0.2967285
22	0x3e9073da	0.28213388
23	0x3d950870	0.07277
24	0x3eb3f8ce	0.3515076
25	0x3c3da610	0.011575237
26	0xbe056c3d	-0.13029571
27	0xbe27325b	-0.16327803
28	0x3e56a831	0.20962597
29	0x3e16f91f	0.1474347
30	0x3df29aa5	0.11845902
31	0xbdd00741	-0.101576336
32	0xbe2d7f4f	-0.16943096
33	0xbdadb658	-0.08482045
34	0xbe766efd	-0.24065776
35	0xbe6f91f3	-0.23395519
36	0xbe939b26	-0.28829306
37	0x3de4424b	0.11145457
38	0x3ab98ac8	0.001415574
39	0x3c7e3f69	0.015518048
40	0xbc217e9e	-0.009856848
41	0x3e291d9c	0.16515201
42	0x3e774bae	0.24149963
43	0x3d8fcd68	0.070216
44	0x3d1001d5	0.035157997
45	0xbeabc0a1	-0.33545402
46	0xbe4b3a12	-0.19846371
47	0xbdfd4887	-0.12367349
48	0x3d8d1343	0.068884395
49	0xbe8a23d6	-0.26980466
50	0xbe26e093	-0.16296606
51	0xbd9e64de	-0.07734083
52	0x3d14caba	0.036326148
53	0x3c7471cc	0.014919709
54	0xbb6512e5	-0.003495389
55	0xbb94da46	-0.004542622
56	0xbea9bb5d	-0.3315076
57	0x3f25058f	0.64461607
58	0x3eecb7e7	0.46234056
59	0x3e91ce92	0.28477913
60	0xbe3b43ca	-0.18287578
61	0x3e6868ee	0.22696277
62	0x3ebe3076	0.37146348
63	0xbf752f9d	-0.9577578
64	0xbd6241eb	-0.055238646
65	0x3d79d97c	0.060998425
66	0xbeab4ea5	-0.3345844
67	0xbe82f46a	-0.25577098
68	0x3e7c0dc0	0.2461462
69	0xbecf1b5f	-0.4045057
70	0xbd1d7c63	-0.038448703
71	0xbe51ce0a	-0.20488754
72	0x3dffb351	0.12485374
73	0x3e36e452	0.17860535
74	0x3ec7b412	0.3900457
75	0xbd3bcdfc	-0.04585074
76	0x3e29301a	0.16522256
77	0x3d763b27	0.060115006
78	0x3db72f5d	0.08944581
79	0xbf042c6a	-0.5163027
80	0x3e3fd14a	0.18732181
81	0x3e9be11c	0.30445182
82	0xbec24d79	-0.37949732
83	0xbc45d6ed	-0.012075168
84	0x3e0e94f9	0.13924016
85	0xbd011c28	-0.031520993
86	0x3c5b88cc	0.013399314
87	0x3d8b56ad	0.068036415
88	0x3e195de8	0.14977229
89	0xbbceb94a	-0.0063087093
90	0x3e2662cb	0.16248624
91	0x3e44c6a7	0.19216405
92	0x3d05a17c	0.032624707
93	0x3de2529b	0.11050912
94	0xbd3ab8ca	-0.045586385
95	0x3caafa8a	0.02087142
96	0xbe0505b0	-0.12990451
97	0x3db56542	0.08857204
98	0xbc1ea275	-0.009682287
99	0xbe86d6a0	-0.2633562
100	0x3cb58051	0.022155913
101	0x3d6785e9	0.05652419
102	0xbd66e1e4	-0.05636777
103	0x3e3ece0e	0.18633291
104	0x3e49691d	0.19669004
105	0xbe21646b	-0.15760963
106	0xbe70ae36	-0.23503956
107	0xbc6fd565	-0.01463828
108	0x3d9ccda1	0.07656408
109	0xbf204524	-0.626055
110	0xbc103ca4	-0.00880352
111	0xbd1e7826	-0.0386888
112	0x3d0e1a31	0.034692947
113	0x3f055a7e	0.52091205
114	0x3f247053	0.64233893
115	0xbf56e617	-0.8394484
116	0x3e39b6dd	0.18136163
117	0x3c3b5a22	0.011435064
118	0xbf262230	-0.64895916
119	0x3ebe59c3	0.37177858
120	0xbeeb23b7	-0.45925686
121	0xbbf3b639	-0.007437494
122	0x3e3e5f6e	0.18591091
123	0xbe89bfe3	-0.2690421
124	0x3e49398a	0.19650856
125	0x3eb0a31c	0.34499443
126	0xbe043065	-0.12909086
127	0x3e28504b	0.1643688
128	0x3c8bf95b	0.017086675
129	0xbecd1b40	-0.40059853
130	0xbe50eda0	-0.20403147
131	0x3eab663c	0.33476436
132	0xbf1cf885	-0.6131671
133	0xbf12b9a3	-0.5731451
134	0xbe94d39b	-0.29067692
135	0x3ec5763c	0.38566768
136	0xbe47a8ad	-0.19497938
137	0xbe70d27f	-0.23517798
138	0xbe397656	-0.18111548
139	0x3e8eedcf	0.2791581
140	0x3eeba86e	0.4602694
141	0x3e9eb52d	0.309976
142	0x3d3dce34	0.04633923
143	0x3eb29da5	0.34885898
144	0x3ea6b504	0.3255998
145	0xbeb04738	-0.34429336
146	0x3e12bd33	0.14329986
147	0x3e35dc7d	0.17759891
148	0x3ec87954	0.39155066
149	0xbd7e4aa8	-0.062082916
150	0xbd4d96df	-0.05019271
151	0xbe7a2808	-0.24429333
152	0xbd7a53b2	-0.061114974
153	0x3c9dc98f	0.01926115
154	0x3d543e38	0.05181715
155	0xbf2423d0	-0.64117146
156	0xbd3881a3	-0.045045506
157	0x3d051d18	0.03249845
158	0x3d8882f3	0.066656016
159	0x3dcb1091	0.09915269
160	0x3e58e44b	0.21180837
161	0x3d658fd5	0.056045372
162	0x3e4a8082	0.19775584
163	0x3d430f5f	0.04762208
164	0xbe81c924	-0.2534877
165	0xbeadcad4	-0.33943808
166	0xbede8466	-0.43460387
167	0xbc1b5c61	-0.009482474
168	0x3df16923	0.11787631
169	0x3dad19f0	0.08452213
170	0x3e2d6ea4	0.16936737
171	0x3eaa872c	0.33306253
172	0xbe793242	-0.24335578
173	0xbf0b8a00	-0.54507446
174	0xbdeeeb4d	-0.11665974
175	0xbdde1d8f	-0.108454816
176	0x3e83f770	0.25774717
177	0x3eca6509	0.3953021
178	0xbe4c5161	-0.19952919
179	0xbd870f3c	-0.065947026
180	0x3edc7811	0.43060353
181	0x3eb8555b	0.3600262
182	0x3f06332c	0.5242183
183	0x3d82f3d8	0.06394166
184	0x3e039590	0.12850022
185	0xbe46f766	-0.19430313
186	0xbec5c120	-0.38623905
187	0xbee25de5	-0.4421226
188	0xbeae2c84	-0.34018338
189	0x3c866cda	0.016409326
190	0xbecc0e3c	-0.3985461
191	0x3ccb67c1	0.024829747
192	0xbd233418	-0.039844602
193	0x3e853cae	0.26022857
194	0xbdec838a	-0.115485266
195	0xbecb338d	-0.39687768
196	0xbe064037	-0.13110434
197	0xbc97673c	-0.018481843
198	0x3e824568	0.25443578
199	0x3d8e8f6e	0.06960951
200	0x3c2a1ab4	0.010382343
201	0xbe87464c	-0.2642082
202	0x3d491ddb	0.049100738
203	0xbd7e8fad	-0.06214874
204	0xbe1f30bf	-0.15545939
205	0x3d239c28	0.039943844
206	0xbe856c90	-0.2605939
207	0x3ea9d286	0.3316843
208	0xbde33cd3	-0.11095586
209	0xbde0cc88	-0.10976511
210	0xbc3c8138	-0.0115054175
211	0x3e457c4c	0.19285697
212	0xbea04245	-0.3130056
213	0x3e698176	0.22803292
214	0x3c48901a	0.012241388
215	0x3db6e3d0	0.089301705
216	0x3e8c730b	0.2743152
217	0x3e8cf223	0.27528486
218	0xbe06ec27	-0.13176022
219	0xbe86fb31	-0.2636352
220	0x3d4fa1c9	0.0506914
221	0xbeb82782	-0.35967642
222	0xbd0a28b2	-0.033730216
223	0xbf2d7817	-0.6776137
224	0xbd8d432b	-0.06897577
225	0xbe06e53e	-0.13173386
226	0xbd1c17eb	-0.038108747
227	0x3f31a918	0.6939864
228	0x3da9f958	0.08299512
229	0xbf12205a	-0.57080615
230	0x3e946cdd	0.28989306
231	0x3ed1372c	0.40862405
232	0xbdc4dca0	-0.096123934
233	0x3dd72016	0.10504167
234	0x3e907dd5	0.28221002
235	0x3edfcf1f	0.43712708
236	0x3ec0a2fe	0.37624353
237	0x3decfa0e	0.11571132
238	0x3f2f45a9	0.6846567
239	0xbe668779	-0.22512616
240	0x3d51b75b	0.051200252
241	0x3e6f79ac	0.23386258
242	0xbf140891	-0.5782557
243	0xbf02078f	-0.50792783
244	0x3d4c3c17	0.049861994
245	0x3f185e6e	0.5951909
246	0x3d88b30e	0.06674777
247	0xbee0bd83	-0.43894586
248	0x3dfadea1	0.12249494
249	0xbeb992c9	-0.362448
250	0x3e834c8c	0.25644338
251	0xbe22fe53	-0.1591733
252	0xbd8d911d	-0.06912444
253	0xbddf83d6	-0.109138176
254	0x3d29e317	0.041476335
255	0xbe8cd0a6	-0.27502936

gru.weight_hh_l0 f4 [384, 128]
0	0xbd01f333	-0.031726073
1	0xbdaeee06	-0.08541493
2	0x3c85ea06	0.016346943
3	0xbd7aa7ca	-0.061195172
4	0xbdebbb2f	-0.11510312
5	0xbd957174	-0.0729703
6	0xbab2e6a8	-0.0013649063
7	0x3e305a47	0.17221938
8	0xbd7ca5fa	-0.061681725
9	0xbc9d4133	-0.019196128
10	0x3d6b940f	0.057514247
11	0x3ec18815	0.37799135
12	0x3dd8890c	0.105730146
13	0x3c9dc789	0.019260185
14	0x3c36b1f3	0.011150825
15	0x3c18e150	0.009331062
16	0xbd478f9f	-0.048720952
17	0x3d835e87	0.06414514
18	0xbd90157c	-0.07035348
19	0x3ce700a8	0.028198555
20	0x3d67c2dd	0.05658232
21	0x3d95c577	0.07313054
22	0xbabeec3c	-0.0014566253
23	0xbcc46d35	-0.023977855
24	0xbd7bbca9	-0.061459217
25	0x3d81e32a	0.06342156
26	0xbd38bf72	-0.04510445
27	0xbdc3cb89	-0.095603056
28	0xbc7a719c	-0.015285876
29	0x3e52b037	0.20575033
30	0xbc96e343	-0.018418914
31	0x3d81dc2e	0.06340824
32	0xbda3b999	-0.07994384
33	0xbdd4a06c	-0.103821605
34	0xbda51c16	-0.080619976
35	0xbd7d95c8	-0.06191042
36	0x3c845215	0.016152421
37	0xbd5596bd	-0.05214571
38	0xbd621028	-0.05519119
39	0xbda39cef	-0.07988917
40	0x3a6f10fd	0.0009119658
41	0xbd9c384d	-0.07627926
42	0x3c9455cc	0.018107317
43	0xbd405834	-0.046959117
44	0x3d391e08	0.045194656
45	0x3d5547af	0.052070316
46	0xbd35700c	-0.04429631
47	0xbc3ea75c	-0.011636581
48	0x3c69a703	0.01426101
49	0x3d068472	0.032841153
50	0x3cde967d	0.027171368
51	0xbd29a93e	-0.041421168
52	0x3c998e12	0.018744502
53	0xbd33aadd	-0.04386412
54	0x3d331e57	0.043730106
55	0xbdcd03ff	-0.10010528
56	0xbd2e99e0	-0.042627215
57	0x3d270e16	0.040784918
58	0xbcbac9ce	-0.022801306
59	0x3ca4ebd0	0.020131975
60	0xbd096133	-0.033539962
61	0x3d85c34a	0.06531389
62	0xbd8f86be	-0.07008122
63	0xbbdc8a36	-0.006730343
64	0x3dbb2e4d	0.091396905
65	0x3de128c3	0.10994103
66	0x3da9f0c2	0.08297874
67	0xbe0a40fc	-0.13501352
68	0xbdfbcc23	-0.12294795
69	0xbd9ea3ea	-0.07746108
70	0xbd3b69a3	-0.04575504
71	0x3d220194	0.039552286
72	0xbde7b2e6	-0.11313419
73	0xbd3234c7	-0.043507364
74	0x3e0dfc88	0.13865864
75	0xbccc7c80	-0.02496171
76	0xbd850674	-0.064953715
77	0xbbc921fc	-0.0061380845
78	0xbd5fbdec	-0.054624483
79	0xbdffcdc2	-0.12490417
80	0xbda27baa	-0.07933743
81	0x3de2f16a	0.11081202
82	0xbe058bd2	-0.13041618
83	0xbd9bb448	-0.07602745
84	0x3d02c1cb	0.031923097
85	0x3d859322	0.06522204
86	0x3dbce145	0.09222654
87	0xbc8b8b7d	-0.017034287
88	0x3e5ecac9	0.21757044
89	0x3ce2c55b	0.027681997
90	0x3e325d9a	0.17418519
91	0x3c842ef1	0.016135665
92	0x3d439694	0.047751024
93	0xbb3e7262	-0.0029059877
94	0x3d65c6d2	0.056097813
95	0x3d3df62f	0.046377357
96	0xbe042311	-0.12904002
97	0x3e13455e	0.1438193
98	0xbd2718f7	-0.040795293
99	0xbd5fb4ab	-0.054615658
100	0x3cd08159	0.025452303
101	0xbd5cdd9b	-0.053922277
102	0xbe0a9b1c	-0.13535732
103	0xbe109baf	-0.14121889
104	0xbbbc3725	-0.0057438784
105	0xbd5170f1	-0.0511331
106	0x3d377e16	0.04479798
107	0xbcdb6d4b	-0.026785513
108	0xbe0cb20e	-0.13739797
109	0xbd951d8b	-0.072810255
110	0x3d8446f2	0.06458844
111	0x3e264553	0.16237383
112	0x3caca908	0.021076694
113	0xbd696933	-0.05698509
114	0x3ddf6555	0.109079994
115	0xbd96e144	-0.07367185
116	0x3dac5d1b	0.08416196
117	0x3d6b8956	0.05750402
118	0x3ce6d813	0.028179204
119	0x3cfcf87b	0.030880203
120	0xbc98d9ee	-0.018658604
121	0xbd4f1417	-0.05055627
122	0xbc852eb2	-0.016257618
123	0xbe14f882	-0.14547923
124	0xbdd01855	-0.10160891
125	0xbce4a8f3	-0.027912593
126	0xbc6d7aea	-0.014494637
127	0xbd5b296a	-0.053506292
128	0xbcf69812	-0.03010181
129	0xbe9f66fc	-0.31133258
130	0x3dd9acc4	0.106286556
131	0x3e04c035	0.12963946
132	0x3e23e5fb	0.160057
133	0xbd65e2cf	-0.056124505
134	0x3d99c3ae	0.07508026
135	0x3de0b906	0.109727904
136	0x3e44b156	0.19208273
137	0xbe1f08e6	-0.15530738
138	0x3b571919	0.0032821356
139	0xbcf9dffe	-0.030502316
140	0xbd93750e	-0.07200061
141	0x3dae8dd0	0.08523142
142	0x3dd51381	0.10404111
143	0xbdecaec6	-0.11556773
144	0x3c3e5413	0.011616725
145	0x3b8e3f29	0.0043410254
146	0xbe05ea78	-0.13077724
147	0xbde206d0	-0.11036456
148	0x3d2548e3	0.040352713
149	0xbe52a187	-0.2056943
150	0xbd4c78c9	-0.049919877
151	0x3cab87a5	0.020938704
152	0x3d770b19	0.060313318
153	0xbe902a5e	-0.28157324
154	0xbe03ec25	-0.1288305
155	0xbd29d7b9	-0.041465495
156	0xbe266670	-0.16250014
157	0xbe9224a2	-0.28543574
158	0x3cae0cf1	0.021246405
159	0x3d2883d3	0.041141342
160	0xbe06d748	-0.13168061
161	0x3dd6b201	0.1048317
162	0x3dc7199a	0.0972168
163	0xbc2c0f12	-0.01050164
164	0xbdadb9dd	-0.08482716
165	0x3d0702c8	0.032961637
166	0xbd8fb8ce	-0.070176706
167	0xbdafe0b4	-0.085877806
168	0xbe40b09c	-0.18817371
169	0x3e080725	0.13283975
170	0x3d48c371	0.049014512
171	0x3e18c3d5	0.14918454
172	0xbe22c8b4	-0.15896875
173	0x3cdea9ac	0.027180515
174	0x3dd3a191	0.10333551
175	0xbc71256f	-0.0147183975
176	0xbd59b5d4	-0.05315192
177	0xbd6f7987	-0.058465507
178	0xbd6ffa78	-0.058588475
179	0xbe3481bf	-0.17627619
180	0x3c5d77cd	0.013517332
181	0xbe09e99c	-0.13468021
182	0x3d0c2684	0.03421642
183	0x3e783013	0.24237089
184	0xbe333652	-0.1750119
185	0x3dd807aa	0.10548337
186	0x3c3b2c8d	0.011424196
187	0xbba15f51	-0.0049246927
188	0xbc1b7951	-0.009489373
189	0x3d1db540	0.03850293
190	0x3d6e8c2d	0.05823915
191	0xbab91914	-0.0014121854
192	0xbe2d4b73	-0.16923313
193	0xbe2148f5	-0.15750487
194	0xbe8e3a57	-0.27778885
195	0x3dd274f5	0.10276214
196	0x3dd7557f	0.10514354
197	0xbe40de1b	-0.18834727
198	0xbd60503f	-0.05476403
199	0xbe6c64a9	-0.23085274
200	0xbddf0f1d	-0.108915545
201	0xbe122e04	-0.14275366
202	0xba570bb7	-0.0008203345
203	0xbda7ff60	-0.08203006
204	0xbd0e29df	-0.0347079
205	0xbdc06b51	-0.09395469
206	0x3d2eb716	0.042655073
207	0x3ea16995	0.31525865
208	0xbdc0ac2f	-0.094078414
209	0xbdafb9f3	-0.08580389
210	0x3e0564d4	0.13026744
211	0x3e192a4f	0.14957546
212	0xbd0c3de2	-0.034238704
213	0xbd4761ae	-0.04867714
214	0x3cd35d7a	0.025801409
215	0x3e201618	0.15633428
216	0xbe8778f5	-0.2645947
217	0x3ca7e93f	0.020496963
218	0xbdea6ce3	-0.1144655
219	0x3d1d2686	0.038366817
220	0x3cbc5258	0.022988483
221	0x3d9a5664	0.07536009
222	0x3dd6943d	0.10477493
223	0x3dfd624c	0.12372264
224	0xbc9524dc	-0.018206052
225	0x3c984984	0.018589742
226	0x3dd3d00f	0.103424184
227	0x3d906b84	0.07051757
228	0x3d7b192b	0.0613033
229	0xbd2280b3	-0.03967352
230	0xbde2d303	-0.110754035
231	0x3de9a982	0.11409284
232	0x3e1dec09	0.15422072
233	0xbe510c8f	-0.20414947
234	0xbbc3f531	-0.005980157
235	0x3cc2f5a2	0.023798767
236	0xbe26b223	-0.16278891
237	0xbda254bf	-0.0792632
238	0x3b0555f5	0.0020345424
239	0xbe034f98	-0.12823331
240	0xbcfdb628	-0.030970648
241	0xbe13b070	-0.14422774
242	0x3d3429c4	0.043985143
243	0xbd6cfc6c	-0.057857916
244	0xbe3b5766	-0.18295059
245	0xbc8649c4	-0.016392596
246	0xbbbe99d9	-0.00581668
247	0x3dce82ca	0.1008354
248	0x3e4a7484	0.1977101
249	0x3d7b555d	0.061360706
250	0x3ccf7a71	0.02532694
251	0x3d7c9725	0.06166758
252	0x3d45fe5f	0.04833829
253	0x3c939f5e	0.018020328
254	0xbd66abc6	-0.05631616
255	0xbdbbb492	-0.091653004

gru.bias_ih_l0 f4 [384]
0	0x3d9b5aba	0.07585664
1	0xbc3ed790	-0.011648074
2	0x3d7b0f64	0.061293975
3	0xbd6a303a	-0.0571749
4	0x3d988c2c	0.07448611
5	0x3d83681a	0.0641634
6	0x3da74784	0.081679374
7	0x3d8cf4ad	0.06882606
8	0xbcbb0d33	-0.022833442
9	0x3e2843c7	0.16432105
10	0xbd93ad41	-0.0721078
11	0x3e24fce2	0.16112092
12	0x3dcabc8b	0.09899243
13	0x3d7d3e7f	0.06182718
14	0x3d8ed5a1	0.0697434
15	0x3d81ce04	0.063381225
16	0x3e5055a1	0.20345165
17	0x3dba7b1b	0.09105512
18	0x3d89b600	0.06724167
19	0xbbfdeea6	-0.0077493964
20	0x3db8f1fe	0.09030531
21	0xbda469fd	-0.08028028
22	0x3d73a152	0.05948002
23	0xbc46d976	-0.012136808
24	0x3ca44d8c	0.020056508
25	0x3df44580	0.119273186
26	0x3e475317	0.1946529
27	0x3d2c4c46	0.042064928
28	0xbd1931c8	-0.03740099
29	0x3d38f091	0.045151297
30	0x3ddcb246	0.107761905
31	0xbd9de220	-0.077091455
32	0xbcbb3991	-0.022854598
33	0xbcb0413b	-0.02151548
34	0xbd05eb2f	-0.03269499
35	0x3e29435d	0.16529603
36	0x3d99daa1	0.07512403
37	0x3c9bedc6	0.019034278
38	0xbc8001dc	-0.015625887
39	0xbab1bc65	-0.0013560174
40	0x3d66f5b4	0.056386665
41	0x3c85a182	0.016312364
42	0x3e295e87	0.16539966
43	0x3d9a8da2	0.075465456
44	0xba9718a5	-0.001152773
45	0x3d8a8993	0.067645214
46	0x3e29be10	0.1657641
47	0x3d9f0bac	0.07765898
48	0x3c5731b4	0.013134409
49	0x3df0d26a	0.11758883
50	0xbd3a3c7a	-0.04546783
51	0xbcd0f6af	-0.025508253
52	0x3dd09dbf	0.10186338
53	0xbca1ba86	-0.019742262
54	0x3965899e	0.00021890408
55	0xbcf58059	-0.029968427
56	0x3d64ff16	0.05590733
57	0x3e0d3af1	0.13792016
58	0x3e481750	0.19540143
59	0x3a5def6c	0.00084661576
60	0x3d951ff2	0.07281484
61	0x3c27ec0e	0.010249151
62	0x3da3c69d	0.07996867
63	0x3d0a6986	0.03379204
64	0xbca841a5	-0.020539114
65	0xbc100d9c	-0.008792307
66	0xbd084554	-0.03326924
67	0x3df690ac	0.12039313
68	0x3daf31f1	0.085544474
69	0x3e458209	0.19287886
70	0x3df32c92	0.118737355
71	0x3df7d7a6	0.121016786
72	0x3d040266	0.03222885
73	0x3d7b40db	0.061341148
74	0xbcc103e2	-0.023561422
75	0x3d8bffb3	0.0683588
76	0x3e07ca34	0.13260728
77	0x3e103a5d	0.14084764
78	0x3e18913d	0.14899154
79	0x3ddc2d27	0.107507996
80	0x3d42e1ba	0.04757855
81	0x3e53f977	0.20700632
82	0xbcde9ae0	-0.02717346
83	0x3df7b141	0.120943554
84	0x3d6bfb86	0.05761292
85	0x3db07a3b	0.086170636
86	0x3d852b16	0.065023586
87	0x3d9d575f	0.0768268
88	0x3d7b64db	0.06137548
89	0x3e02ffd6	0.12792906
90	0x3ddbe1e2	0.10736443
91	0xbd1c00c5	-0.03808667
92	0xbb0e5c38	-0.0021722447
93	0x3cdf93cb	0.027292153
94	0xbd0e606b	-0.03475992
95	0xbc8cf09e	-0.017204579
96	0xbcc5cb5a	-0.024144817
97	0x3e11917f	0.14215659
98	0x3b6c65bb	0.0036071378
99	0x3de17443	0.11008503
100	0x3dee119d	0.11624453
101	0x3de400e1	0.1113298
102	0x3df3872a	0.11891015
103	0x3d8314a4	0.06400421
104	0xbd3917bc	-0.04518865
105	0x3e0d3b61	0.13792183
106	0x3d919af2	0.071096316
107	0x3db75013	0.0895082
108	0x3c21a36b	0.009865622
109	0xbc43d71d	-0.0119531425
110	0x3c88c620	0.016696036
111	0x3e44c4cf	0.19215702
112	0xbba13d69	-0.0049206507
113	0xbcbeac5b	-0.023275545
114	0xbd5d4e93	-0.054030012
115	0x3dd1ed6c	0.10250363
116	0x3dbb79cc	0.0915409
117	0x3c3a09c1	0.011354865
118	0x3d886c2e	0.06661259
119	0x3e49ce3c	0.19707578
120	0x3e0b993c	0.13632673
121	0x3d2db6d2	0.04241068
122	0x3e2480a4	0.16064698
123	0x3dcaa2d6	0.0989434
124	0x3df26c62	0.11837079
125	0x3ddf7271	0.109105
126	0x3df2427c	0.11829087
127	0x3dacb754	0.084334046
128	0xbddf0ed3	-0.10891499
129	0xbe730ba7	-0.23734914
130	0xbed0812e	-0.40723556
131	0xbd67fadf	-0.056635734
132	0xbe8e7cf6	-0.27829713
133	0xbe3a2d02	-0.18181232
134	0xbe0d2b11	-0.1378596
135	0xbd76d070	-0.060257375
136	0xbe9ba0be	-0.30396074
137	0xbe31e0fa	-0.17370978
138	0xbf03552e	-0.5130185
139	0xbf4570f2	-0.77125466
140	0xbe42bbf3	-0.1901701
141	0xbded5f86	-0.11590485
142	0xbefc8825	-0.4932262
143	0xbe431877	-0.19052301
144	0xbdd09b49	-0.10185868
145	0xbe18eb51	-0.14933516
146	0xbd4e4c17	-0.050365534
147	0xbe2eb0b1	-0.1705959
148	0xbe3105ec	-0.17287415
149	0xbde62b71	-0.112387545
150	0xbdadf14c	-0.08493289
151	0xbd2274e9	-0.039662275
152	0xbdcb6079	-0.0993051
153	0xbea01008	-0.3126223
154	0xbe2811cd	-0.1641304
155	0xbe8604b9	-0.26175478
156	0xbe7740c9	-0.24145807
157	0xbeaedbb7	-0.34152004
158	0xbe82cd2a	-0.25547153
159	0xbcde5efb	-0.0271449
160	0xbe883db7	-0.26609585
161	0xbdcc60a5	-0.09979371
162	0xbd300c81	-0.042980675
163	0xbe31d237	-0.17365347
164	0xbdd0a70d	-0.101881124
165	0xbe46bbc0	-0.19407558
166	0xbe12289d	-0.14273305
167	0xbddf756c	-0.10911068
168	0xbe994800	-0.29937744
169	0xbd437f42	-0.047728784
170	0xbe2ae78e	-0.16689894
171	0x3c3d0e2a	0.0115390215
172	0xbea43a46	-0.3207571
173	0xbe32ae8a	-0.17449394
174	0xbe20bece	-0.15697786
175	0xbe36ce0b	-0.17852037
176	0xbf043ff5	-0.5166009
177	0xbe332dad	-0.17497893
178	0xbd2b0c5e	-0.04175984
179	0xbe03f5b5	-0.12886699
180	0xbe6e5a29	-0.23276581
181	0xbcc7dd2d	-0.024397457
182	0xbda38ed1	-0.079862244
183	0xbe11979e	-0.14217994
184	0xbe6ace92	-0.22930363
185	0xbf5da1e2	-0.8657514
186	0xbe7cebb3	-0.24699287
187	0xbde62d1d	-0.112390734
188	0xbe9004d0	-0.28128672
189	0xbe904efb	-0.28185257
190	0xbe81a695	-0.25322405
191	0x3c16f278	0.0092130825
192	0xbde8382a	-0.113388374
193	0xbe3bbe2f	-0.18334268
194	0xbe86add7	-0.26304504
195	0xbd870537	-0.065927915
196	0xbeac3272	-0.33632237
197	0xbe0398d2	-0.12851265
198	0xbdda81e6	-0.106693074
199	0xbe4f5880	-0.20248604
200	0xbe3108e1	-0.17288543
201	0x3b1af607	0.002364518
202	0xbe024bb5	-0.12724192
203	0xbcfc8f33	-0.030830001
204	0xbca34db2	-0.019934509
205	0xbd18e66a	-0.037329115
206	0xbddfe8dd	-0.10933087
207	0xbed7a529	-0.42118195
208	0xbdd211a6	-0.102572724
209	0xbe8bf08d	-0.27331963
210	0xbe230edb	-0.15923636
211	0xbe17ee61	-0.14837028
212	0xbea6119f	-0.3243532
213	0xbd7152b0	-0.058916748
214	0xbdbb02e9	-0.091314144
215	0xbe20b981	-0.15695764
216	0xbe403cef	-0.18773244
217	0xbd4ecf72	-0.050490804
218	0xbe56dfaa	-0.20983759
219	0xbdf01699	-0.1172306
220	0xbeb54b90	-0.35409212
221	0xbdc75e85	-0.09734825
222	0xbe9e57d3	-0.3092638
223	0xbdb34cae	-0.0875486
224	0xbeb5aaf5	-0.35481992
225	0xbe5295c8	-0.2056495
226	0xbe66ad61	-0.22527076
227	0xbe3f2a0d	-0.18668385
228	0xbe32e608	-0.17470562
229	0xbe072099	-0.13196029
230	0xbe95c7a6	-0.29253882
231	0x3c17510a	0.00923563
232	0xbe490681	-0.19631387
233	0xbe44ec4d	-0.19230767
234	0xbdd4c1b8	-0.103885114
235	0xbf280855	-0.65637714
236	0xbf1cb34f	-0.61211103
237	0xbe534dad	-0.206351
238	0xbdd8d67e	-0.10587786
239	0xbe28325f	-0.16425465
240	0xbe13fc69	-0.14451756
241	0xbe955558	-0.29166675
242	0xbeeaf4fb	-0.4589003
243	0xbd693032	-0.05693073
244	0xbd9b3673	-0.07578745
245	0xbe5e9deb	-0.21739928
246	0xbc463876	-0.012098422
247	0xbe287b3f	-0.16453265
248	0xbd7c680c	-0.061622664
249	0xbe274d1d	-0.1633801
250	0xbe2150d4	-0.1575349
251	0xbe600047	-0.21875106
252	0xbe3656a3	-0.17806487
253	0xbe8a9733	-0.2706848
254	0xbd99f459	-0.07517309
255	0xbe40e48d	-0.18837185

gru.bias_hh_l0 f4 [384]
0	0x3e10d112	0.14142254
1	0x3db64f11	0.089017995
2	0x3cf4f483	0.029901749
3	0x3dc68015	0.096923985
4	0x3d6e3ba8	0.05816236
5	0x3db2e63e	0.087353215
6	0x3dcbca8d	0.09950743
7	0xbcc3472f	-0.023837654
8	0xbca6ed3d	-0.020376796
9	0x3df400c5	0.11914209
10	0x3dc9da2f	0.09856068
11	0x3d9e8a9a	0.0774128
12	0x3cf3439c	0.029695325
13	0x3b530af1	0.0032202567
14	0x3ca92553	0.02064768
15	0xbcc4fa47	-0.024045123
16	0x3e2ef05a	0.17083874
17	0x3e0a7d5d	0.13524385
18	0x3e3e9a98	0.1861366
19	0x3cdde08b	0.02708461
20	0x3d60b6a5	0.054861683
21	0x3c32b64b	0.01090772
22	0x3cdedcec	0.027204953
23	0xbcd55ebc	-0.02604615
24	0xbce1ada5	-0.02754862
25	0x3e045315	0.12922318
26	0x3e1a22cf	0.15052341
27	0xbd84eee0	-0.06490874
28	0x3ce932f4	0.02846668
29	0xbd8ae3cf	-0.06781732
30	0x3dc1eb12	0.09468664
31	0x3c102f97	0.008800409
32	0xbbf6f9c3	-0.007537098
33	0x3db0c58e	0.086314306
34	0xba63033a	-0.00086598436
35	0x3e2df224	0.169869
36	0x3d13f05a	0.03611789
37	0x3d899105	0.067171134
38	0x3c8f2abb	0.01747643
39	0x3d9a4674	0.07532969
40	0x3cc9828e	0.024598386
41	0x3d5c9224	0.053850308
42	0x3dc332fa	0.095312074
43	0xbd30b386	-0.043139957
44	0xbd387902	-0.045037277
45	0xbd027806	-0.031852745
46	0x3e1ff3ce	0.15620348
47	0x3da25afd	0.07927511
48	0xbc8d4ce7	-0.017248584
49	0x3d76423c	0.06012176
50	0xbc951ed3	-0.018203175
51	0x3da60f53	0.081083916
52	0x3e5bdfc9	0.21472086
53	0x3d59bbe2	0.053157695
54	0x3d6f3049	0.058395658
55	0xbdb12bfc	-0.086509675
56	0x3d908bb3	0.070578955
57	0x3c9ab8e1	0.018886985
58	0x3e5e2ddd	0.21697183
59	0x3d0f9c28	0.03506103
60	0x3d830ad1	0.063985474
61	0x3d3facb9	0.04679558
62	0xbc6f8dcf	-0.014621212
63	0x3d91e66e	0.07124029
64	0x3d133864	0.03594245
65	0x3d6ee21c	0.058321103
66	0x3dad61e7	0.08465939
67	0x3e10fa02	0.1415787
68	0x3e09e7dd	0.13467355
69	0x3d62ca46	0.055368684
70	0xbbd01405	-0.0063500428
71	0x3da2ecd6	0.07955329
72	0x3d81420d	0.06311426
73	0x3e05511a	0.13019219
74	0x3d51811c	0.05114852
75	0x3e1a3080	0.15057564
76	0x3e10c329	0.14136948
77	0x3dd849e2	0.10560967
78	0x3db34dd4	0.08755079
79	0xbcc7ad36	-0.024374586
80	0x3d82c2cf	0.06384813
81	0x3e201803	0.1563416
82	0x3be00be5	0.0068373554
83	0x3c9b0c9c	0.018926911
84	0x3ca7474f	0.020419745
85	0xbd056263	-0.032564532
86	0xbcb69e51	-0.022292288
87	0x3e3379d7	0.17526947
88	0x3ddcc729	0.10780174
89	0x3d6cf342	0.057849176
90	0x3de7ac41	0.11312152
91	0x3dcb300a	0.09921272
92	0xbcf09d77	-0.02937196
93	0x3d83fbff	0.06444549
94	0x3d8a29a3	0.06746223
95	0xbb80878a	-0.0039224075
96	0x3d6e4986	0.058175586
97	0x3da2b6b7	0.07945006
98	0x3e11e3fe	0.14247128
99	0x3e248eba	0.16070071
100	0x3d95ee58	0.07320851
101	0x3d11f892	0.035637446
102	0x3e1833e3	0.14863543
103	0x3b09979e	0.0020994912
104	0x3d866601	0.065624245
105	0x3e298d1d	0.16557737
106	0xbd3da722	-0.04630197
107	0xbcf9efe4	-0.030509897
108	0x3d4d348d	0.050098944
109	0xbd95383b	-0.07286116
110	0xbc782b8b	-0.0151471
111	0x3e32dbe6	0.17466697
112	0x3da898c1	0.082322605
113	0x3d0ed2ac	0.03486888
114	0x3d2b0281	0.041750435
115	0x3d854417	0.06507128
116	0xbd805dcb	-0.062678896
117	0x3b352ce7	0.0027645172
118	0x3df58789	0.11988742
119	0x3e3cc08b	0.18432824
120	0xbbe0a601	-0.0068557267
121	0xbd2ed90d	-0.042687465
122	0x3dfb6c4c	0.12276515
123	0x3d8e2ecb	0.06942519
124	0x3e390678	0.18068874
125	0x3ccb72bd	0.024834985
126	0x3dae9fc5	0.08526567
127	0xbc55b7f0	-0.013044342
128	0xbdff895f	-0.12477373
129	0xbe2be5e1	-0.1678691
130	0xbe9855ef	-0.29753062
131	0xbe13fef3	-0.14452724
132	0xbe2cf1fe	-0.16889188
133	0xbe316ad6	-0.17325911
134	0xbe0d0e59	-0.13775004
135	0x3ca236a0	0.019801438
136	0xbeb9404c	-0.36181867
137	0xbe8746bd	-0.26421157
138	0xbed7b02b	-0.42126593
139	0xbf50626d	-0.81400186
140	0xbdfbd3e1	-0.12296272
141	0xbd7811a0	-0.060563684
142	0xbefdfcbe	-0.4960689
143	0xbe16e075	-0.14734061
144	0xbdea7b57	-0.114493065
145	0xbe7dde1a	-0.24791756
146	0xbd48656f	-0.04892486
147	0xbe584059	-0.21118297
148	0xbe5ab7ee	-0.21359226
149	0xbda55476	-0.0807275
150	0xbd199a7a	-0.037500836
151	0xbe22e1d2	-0.15906456
152	0xbde7f308	-0.113256514
153	0xbe819f3f	-0.25316808
154	0xbce42b8c	-0.027852796
155	0xbe2f9611	-0.1714709
156	0xbeaffd2a	-0.34372836
157	0xbe85f244	-0.26161397
158	0xbe596383	-0.21229367
159	0xbdd9d88a	-0.10637005
160	0xbe447cac	-0.19188184
161	0xbd40cfd3	-0.047073197
162	0xbdc11e4b	-0.09429606
163	0xbe6ca9ca	-0.23111644
164	0xbd9443d0	-0.07239497
165	0xbe254eb4	-0.16143304
166	0xbe981444	-0.2970296
167	0xbba156e4	-0.0049236882
168	0xbe8ab8e8	-0.27094197
169	0xbc0b96d1	-0.008519844
170	0xbe93ad8c	-0.28843343
171	0x3c33fd70	0.010985717
172	0xbe71f5f5	-0.23628981
173	0xbdf14060	-0.11779857
174	0xbe1d25e9	-0.15346493
175	0xbe4b0df9	-0.19829549
176	0xbf0a82f5	-0.54106075
177	0xbe9ad5f1	-0.3024135
178	0xbe2e1c0d	-0.17002888
179	0xbe136198	-0.14392698
180	0xbe80d8a2	-0.25165278
181	0xbd1e97b5	-0.038718898
182	0xbce3767d	-0.02776646
183	0xbcc71188	-0.024300352
184	0xbe6aa0d0	-0.22912908
185	0xbf418e78	-0.75608015
186	0xbe45a31f	-0.19300507
187	0xbe252ed1	-0.1613114
188	0xbe466545	-0.19374569
189	0xbe922382	-0.28542715
190	0xbea298d2	-0.31757218
191	0xbda16992	-0.07881464
192	0xbe44f99a	-0.1923584
193	0xbdf595f3	-0.11991491
194	0xbeab7c69	-0.33493355
195	0xbdbcd20e	-0.09219752
196	0xbeb1bbd8	-0.34713626
197	0xbe81e0ca	-0.25366813
198	0xbe2b9cb6	-0.16758999
199	0xbe46c213	-0.19409971
200	0xbe2fea14	-0.17179137
201	0xbe1d2ef6	-0.15349945
202	0xbe621fef	-0.22082494
203	0xbdb9aecd	-0.09066544
204	0xbda3a400	-0.07990265
205	0xba8c9c99	-0.0010727822
206	0xbe7c3d30	-0.24632716
207	0xbee0ca23	-0.43904218
208	0xbe04dd2e	-0.12974998
209	0xbe9f7a12	-0.3114782
210	0xbdf4fc3c	-0.119621724
211	0xbd9164b7	-0.07099288
212	0xbe847cbf	-0.25876424
213	0xbd9b97ce	-0.07597314
214	0xbe60dbb2	-0.21958807
215	0xbe3b7169	-0.18304981
216	0xbe5789a6	-0.21048602
217	0xbdc2116b	-0.094759785
218	0xbe97e204	-0.29664624
219	0xbe028adc	-0.12748283
220	0xbe8bef83	-0.2733117
221	0xbd89840b	-0.06714638
222	0xbe9de98c	-0.30842245
223	0xbe3f6128	-0.18689406
224	0xbebc555c	-0.36783874
225	0xbea9bad9	-0.33150366
226	0xbe1ea737	-0.15493475
227	0xbe4f8ea8	-0.20269263
228	0xbe7f7542	-0.24947074
229	0xbdb48f14	-0.088163525
230	0xbe859423	-0.26089582
231	0xbe0650e4	-0.13116795
232	0xbe818998	-0.25300288
233	0xbe893c21	-0.26803687
234	0xbdfe11db	-0.124057494
235	0xbf294e93	-0.6613552
236	0xbf12464a	-0.571385
237	0xbe4aa3c2	-0.19789031
238	0xbdd151c4	-0.10220674
239	0xbe3a4d58	-0.18193567
240	0xbe0cfcff	-0.13768385
241	0xbe9029a8	-0.2815678
242	0xbeb33581	-0.35001758
243	0x3ba5d847	0.0050611827
244	0xbc670659	-0.0141006345
245	0xbe712774	-0.23550206
246	0x3c81e382	0.015855554
247	0xbe06d204	-0.13166052
248	0xbdcafc53	-0.09911408
249	0xbcf5f0ef	-0.030022113
250	0xbe254266	-0.1613861
251	0xbdc78295	-0.097417034
252	0xbe37d245	-0.17951305
253	0xbe3a0e80	-0.18169594
254	0xbe1c55d4	-0.15267116
255	0xbdaa7a21	-0.083240755

fc.weight f4 [18, 128]
0	0xbe4dc086	-0.20092973
1	0xbd2c1073	-0.042007875
2	0x3e54ac25	0.20768793
3	0x3e83f845	0.25775352
4	0x3da039b5	0.07823507
5	0xbc8e616a	-0.017380435
6	0xbd95daba	-0.073171094
7	0xbd47c5de	-0.048772685
8	0xbd4e70e7	-0.05040064
9	0x3e95bad8	0.29244113
10	0xbe7f6633	-0.2494133
11	0x3eee431d	0.46535578
12	0x3e454744	0.19265467
13	0x3d28e7a7	0.041236546
14	0x3e22fb51	0.15916182
15	0xbdd4661c	-0.10371038
16	0x3de956ad	0.11393485
17	0xbc552fd3	-0.01301189
18	0xbdbf3715	-0.09336678
19	0xbe5a4d5b	-0.21318571
20	0x3b72b066	0.0037031411
21	0xbc298581	-0.010346771
22	0x3e3ce068	0.18444979
23	0xbdeed30d	-0.116613485
24	0xbd96dbea	-0.07366164
25	0x3e094001	0.13403322
26	0xbe1ea027	-0.15490781
27	0xbe95e8d1	-0.29279187
28	0x3ecccc33	0.39999542
29	0xbcb51381	-0.022104027
30	0x3df6b2b4	0.12045804
31	0xbf106869	-0.5640932
32	0x3e1d34cf	0.15352176
33	0xbe033128	-0.1281172
34	0x3e43b160	0.19110632
35	0x3ee5fee8	0.4492104
36	0x3d9ece75	0.07754222
37	0x3d930f72	0.0718068
38	0x3d32df2f	0.043669876
39	0x3dc3c686	0.0955935
40	0x3e96c8c5	0.2945005
41	0xbdab78d2	-0.08372654
42	0x3b9e2f5c	0.004827423
43	0x3d500a8b	0.050791305
44	0xbeafb8cb	-0.34320673
45	0xbe264ce0	-0.16240263
46	0x3e06818c	0.13135356
47	0xbe1bda28	-0.15219939
48	0x3f0553e5	0.5208114
49	0xbc0a8651	-0.008454875
50	0x3cf0b09b	0.029381087
51	0x3e2895db	0.16463415
52	0xbe14b8ae	-0.14523575
53	0xbea27c6a	-0.31735545
54	0xbd4b0c7d	-0.049572457
55	0x3e069a41	0.1314478
56	0xbdd026de	-0.10163663
57	0xbeaedc1b	-0.34152302
58	0x3e304b3e	0.17216203
59	0x3e42b563	0.19014506
60	0x3e9edc85	0.31027618
61	0xbea2c03f	-0.31787297
62	0xbeef3349	-0.46718815
63	0xbdae3aab	-0.08507284
64	0x3f087222	0.5329915
65	0xbe571fd1	-0.21008231
66	0xbea636aa	-0.3246358
67	0xbe2ad622	-0.16683248
68	0xbebc31c4	-0.36756718
69	0x3ea0cdce	0.31407017
70	0xbb3e2a67	-0.0029016973
71	0xbe9cd57c	-0.30631626
72	0x3e1baab6	0.1520184
73	0x3c4966cb	0.012292574
74	0x3c533875	0.012891878
75	0xbdd31f55	-0.103087105
76	0xbbc176a9	-0.005904038
77	0x3d982bc9	0.07430226
78	0xbd5f8218	-0.054567426
79	0x3d3d4909	0.04621223
80	0xbe94f606	-0.2909395
81	0xbec5fbf4	-0.38668787
82	0x3da082b4	0.0783743
83	0x3da1f90b	0.07908829
84	0xbe536a09	-0.20645918
85	0xbd66aa99	-0.05631504
86	0x3e90193b	0.2814425
87	0xbe9aa21b	-0.30201802
88	0xbf124d74	-0.57149434
89	0x3e2d7db0	0.16942477
90	0xbdc956d9	-0.09831018
91	0x3de3e861	0.11128307
92	0xbd48c001	-0.049011234
93	0x3e383c3f	0.17991732
94	0x3e8f881c	0.2803353
95	0x3e8e2441	0.27762035
96	0x3f0b8b4d	0.5450943
97	0xbdc0a0e9	-0.09405691
98	0xbdaea040	-0.08526659
99	0x3d23c01e	0.03997814
100	0xbe65c4da	-0.22438374
101	0x3e73fe09	0.23827375
102	0x3eba4c54	0.3638636
103	0x3df78083	0.120850585
104	0x3dea9377	0.11453908
105	0x3efdf0bc	0.49597728
106	0x3deb148a	0.11478527
107	0x3eae611d	0.34058467
108	0xbeb4b682	-0.35295492
109	0xbea41f94	-0.32055342
110	0xbef16e76	-0.47154588
111	0x3e570a07	0.20999919
112	0x3d91d342	0.07120372
113	0xbe0418bd	-0.12900062
114	0xbde93135	-0.113863386
115	0xbdaf560a	-0.085613325
116	0xbdeadeaf	-0.11468255
117	0x3d647dba	0.055783965
118	0xbd0e8309	-0.034792934
119	0xbe36711e	-0.17816588
120	0xbe3e00ef	-0.18555044
121	0x3da8924b	0.08231028
122	0xbbe9f004	-0.007139208
123	0xbe1cfccc	-0.1533081
124	0xbe07eea1	-0.13274623
125	0xbe0f4dde	-0.13994548
126	0xbde5053b	-0.11182638
127	0x3e73d1ac	0.23810452
128	0x3e874b9d	0.26424876
129	0x3db9575b	0.09049865
130	0xbe16af55	-0.14715321
131	0xbe412acd	-0.18863983
132	0xbdc46441	-0.095894344
133	0xbd9e7ed2	-0.07739033
134	0x3db26d19	0.08712215
135	0x3e93cc94	0.28867018
136	0x3e1d564b	0.1536495
137	0xbe89384e	-0.2680077
138	0x3ed12cf5	0.40854612
139	0xbe2a67b7	-0.16641127
140	0x3d8f3c50	0.069939256
141	0x3d44b004	0.048019424
142	0x3dfa4a1e	0.12221168
143	0x3d6729f8	0.05643651
144	0xbe7992f5	-0.24372466
145	0xbe8d28f5	-0.2757031
146	0xbb354530	-0.0027659647
147	0xbc46e90a	-0.012140522
148	0x3dfb4f32	0.12270965
149	0xbe1bb828	-0.15206969
150	0x3ed2f396	0.41201466
151	0x3e37cc63	0.17949061
152	0xbe25c30c	-0.16187686
153	0x3da1888d	0.07887373
154	0xbd2a3223	-0.04155172
155	0x3e85452a	0.2602933
156	0xbe30136b	-0.17194907
157	0x3ea41f6e	0.3205523
158	0x3e196c42	0.14982703
159	0x3ed3bd10	0.4135518
160	0xbe7415a8	-0.23836386
161	0xbe19dd06	-0.1502572
162	0xbe112306	-0.14173517
163	0x3cfce824	0.030872412
164	0x3e8f2355	0.27956644
165	0xbd458738	-0.048224658
166	0xbe2179d3	-0.15769129
167	0xbe3ce9b3	-0.18448524
168	0xbc9650f4	-0.018349148
169	0x3e16b235	0.14716418
170	0xbe899e88	-0.26878762
171	0xbd9034eb	-0.07041343
172	0xbe0ea85d	-0.13931413
173	0x3d2fe2d6	0.042940937
174	0x3dbcb579	0.09214301
175	0xbddc3f82	-0.10754301
176	0xbe65a0e2	-0.22424653
177	0xbc8274a0	-0.015924752
178	0x3ce00f1a	0.027350951
179	0xbe823644	-0.25432026
180	0x3e97eda6	0.296735
181	0xbd46ad29	-0.048504982
182	0x3c8a7b71	0.016904565
183	0xbe987b06	-0.2978136
184	0x3dc4a54b	0.0960184
185	0x3e9aba00	0.30220032
186	0x3eab3d80	0.33445358
187	0xbe0be342	-0.1366091
188	0x3e916b69	0.2840226
189	0xbe82d0b7	-0.25549862
190	0xbdc9677a	-0.0983419
191	0xbd437605	-0.047719974
192	0xbe8ebc8a	-0.2787822
193	0x3d408b4d	0.047007848
194	0x3ea86acf	0.32893988
195	0x3d49d5e6	0.049276255
196	0x3e6a4d55	0.22881062
197	0xbd9c603d	-0.076355435
198	0xbe2e0476	-0.16993889
199	0x3e3fda92	0.18735722
200	0xbe2ee971	-0.17081238
201	0x3dfaebce	0.122520074
202	0xbe59a2dc	-0.21253532
203	0xbc49594b	-0.0122893555
204	0xbbab1676	-0.0052211834
205	0x3cb40cc6	0.021978747
206	0x3e57ccdb	0.2107424
207	0xbeae7551	-0.3407388
208	0x3e3b641d	0.18299909
209	0xbd1fc280	-0.03900385
210	0x3dc9baa8	0.09850055
211	0x3e034950	0.12820935
212	0x3d99c666	0.075085446
213	0x3ea18b4e	0.31551594
214	0x3c861694	0.016368188
215	0xbdd64395	-0.10462109
216	0xbe3072d6	-0.17231306
217	0xbc5dfd24	-0.013549123
218	0x3e186cc3	0.1488524
219	0x3e1965cb	0.14980237
220	0xbea14dff	-0.3150482
221	0xbec6e430	-0.38845968
222	0xbe945792	-0.2897306
223	0xbe441d6b	-0.19151847
224	0x3e27039a	0.16309968
225	0x3e8d3588	0.27579904
226	0x3c09ae81	0.008403421
227	0x3e0d5407	0.13801585
228	0xbe035635	-0.12825854
229	0xbde28454	-0.11060396
230	0x3e0527f8	0.13003528
231	0xbe4a6636	-0.19765553
232	0x3e03452d	0.12819357
233	0x3d3ae8e4	0.045632258
234	0xbdbc1426	-0.091835305
235	0xbe53aa31	-0.20670392
236	0x3e4cf9aa	0.20017114
237	0x3d0b31cf	0.033983048
238	0x3deefbae	0.11669098
239	0x3ef471f4	0.4774319
240	0xbdba0088	-0.090821326
241	0xbd462028	-0.04837051
242	0x3e382901	0.17984392
243	0xbd30101c	-0.042984113
244	0xbe49072c	-0.19631642
245	0x3ea72eaa	0.3265279
246	0xbdc5251d	-0.096262194
247	0xbe414f2b	-0.18877856
248	0xbe07e8bc	-0.13272375
249	0x3da907f5	0.08253471
250	0x3e828abe	0.25496477
251	0xbe3796ac	-0.1792857
252	0xbec471d1	-0.38368085
253	0xbdccf5de	-0.10007833
254	0x3d1e1db6	0.038602553
255	0xbe8a3024	-0.26989853

fc.bias f4 [18]
0	0xbd81f299	-0.063451
1	0x3df3994f	0.11894476
2	0xbdd85e6d	-0.10564885
3	0x3c5e6765	0.013574456
4	0xbe0c7630	-0.1371696
5	0x3d119003	0.03553773
6	0x3de000b5	0.10937635
7	0x3cf9329d	0.030419642
8	0x3d22fcbd	0.03979181
9	0xbc9baf1b	-0.019004395
10	0xbdc54b51	-0.09633506
11	0xbba5439d	-0.0050434605
12	0x3ded92c1	0.11600257
13	0xbdc2f4e9	-0.09519369
14	0xbc10cc1f	-0.008837729
15	0x3d272e4f	0.040815648
16	0xbc916330	-0.017747492
17	0x3da1b7ac	0.07896361
