01_rnn/logs/GRU/GRU_epoch_50_acc_0.8219.pth (torch, 299249 bytes, 6 tensors)

gru.weight_ih_l0 f4 [384, 57]
0	0x3e377ef3	0.17919521
1	0x3e8b35f8	0.27189612
2	0x3eee262c	0.46513498
3	0x3efa79de	0.48921102
4	0x3e075ecd	0.13219757
5	0x3d8e1090	0.06936753
6	0x3c05fd11	0.0081780115
7	0x3e539d96	0.20665583
8	0xbf177d91	-0.59175974
9	0xbf25e001	-0.6479493
10	0xbe9bcee1	-0.30431274
11	0x3ebea2fa	0.37233716
12	0x3d807ff4	0.06274405
13	0x3ed0b4bf	0.40762898
14	0x3ce6600b	0.028121969
15	0x3d77a244	0.060457483
16	0x3ed3bd5e	0.41355413
17	0x3d314cd2	0.043286152
18	0xbc9eb279	-0.019372212
19	0x3ecc35de	0.39884847
20	0xbe7466ae	-0.23867294
21	0xbe62dd7c	-0.22154802
22	0x3e4dc72d	0.20095511
23	0x3d5274ef	0.051381048
24	0x3f0fe8c2	0.56214535
25	0xbd7ef4be	-0.062245123
26	0xbe41243c	-0.18861479
27	0xbe21a1c5	-0.15784366
28	0x3e621761	0.22079231
29	0x3e405b62	0.1878486
30	0x3e0b2c44	0.13591105
31	0xbde89e88	-0.113583624
32	0xbe600304	-0.2187615
33	0xbdf49720	-0.11942887
34	0xbe874d89	-0.26426342
35	0xbe7a533d	-0.24445815
36	0xbe95aaed	-0.2923197
37	0x3e0aaf7e	0.13543507
38	0xbb3227b6	-0.0027184314
39	0xbc9e3958	-0.019314453
40	0x3c50fa5c	0.012755003
41	0x3e2350ee	0.15948841
42	0x3ea12746	0.31475276
43	0x3bab0d1e	0.0052200695
44	0x3cc35864	0.023845859
45	0xbeaf9656	-0.34294385
46	0xbe4ef6c5	-0.20211323
47	0xbdebc977	-0.11513036
48	0x3c95ee7c	0.018302195
49	0xbe8550f4	-0.26038325
50	0xbe8011ab	-0.2501348
51	0xbc008bf4	-0.007845867
52	0x3cf12e21	0.029440941
53	0x3c716136	0.01473265
54	0x3d7b1d24	0.061307088
55	0xbb92fc47	-0.00448564
56	0xbebb53e6	-0.36587447
57	0x3f35b43a	0.7097813
58	0x3efe8335	0.49709478
59	0x3eebff5d	0.46093264
60	0xbeb4fd04	-0.35349286
61	0x3e87712f	0.2645354
62	0x3db7951d	0.08963988
63	0xbf8c428e	-1.0957811
64	0xbe1248a1	-0.14285518
65	0x3de5e57a	0.1122541
66	0xbf0c9485	-0.5491412
67	0xbe9d955f	-0.30778024
68	0x3e1bade9	0.1520306
69	0xbed8bc6f	-0.42331263
70	0x3d9be798	0.076125324
71	0xbe47b864	-0.19503933
72	0x3db6e165	0.08929709
73	0x3e20a9be	0.15689752
74	0x3ee0099a	0.43757325
75	0xbe3b2b0f	-0.18278144
76	0x3eabf314	0.3358389
77	0x3dc339cc	0.09532508
78	0x3d196796	0.037452303
79	0xbef22b4a	-0.47298652
80	0x3eb9a17d	0.36256018
81	0x3ebfbf8d	0.3745083
82	0xbed11db6	-0.4084298
83	0xbd82b2e8	-0.0638178
84	0x3e248383	0.16065793
85	0x3b8c51a6	0.004282194
86	0x3e0401d9	0.1289133
87	0x3de69f88	0.11260897
88	0x3e72d756	0.23714957
89	0xbd924260	-0.07141566
90	0x3e511a49	0.20420183
91	0x3e3d6e5a	0.18499127
92	0x3cb494fb	0.022043696
93	0x3e175766	0.14779434
94	0xbd86eedd	-0.06588528
95	0x3d5ba9f2	0.05362887
96	0xbe758be1	-0.23979141
97	0x3e066325	0.13123758
98	0xbcd2f557	-0.025751753
99	0xbe820f8a	-0.2540248
100	0xbb2dd096	-0.0026522032
101	0x3c375dfe	0.011191843
102	0xbd9cc179	-0.076540895
103	0x3e674a01	0.22586824
104	0x3e49f578	0.19722545
105	0xbe4d3afc	-0.20042032
106	0xbe4471db	-0.19184057
107	0x3db5c684	0.088757545
108	0x3db6fa90	0.0893451
109	0xbf4d8a6f	-0.8028936
110	0xbc0e6d7a	-0.008693093
111	0xbddca7b4	-0.10774174
112	0x3d0c5236	0.03425809
113	0x3ee57546	0.44816035
114	0x3f37ca98	0.7179351
115	0xbf7ca82f	-0.9869413
116	0x3ec9ded3	0.39427814
117	0xbc1461b6	-0.009056499
118	0xbf2faf4a	-0.68626845
119	0x3ea0b2ea	0.313865
120	0xbf06b535	-0.5262025
121	0xbdd672f4	-0.10471144
122	0x3e52c7d1	0.20584036
123	0xbe568361	-0.20948555
124	0x3e629ba0	0.22129679
125	0x3ee8a69d	0.45439616
126	0xbdce89ff	-0.100849144
127	0x3e9961aa	0.29957324
128	0xbbbc628d	-0.005749053
129	0xbe971855	-0.2951075
130	0xbe718ef7	-0.23589693
131	0x3ea89994	0.3292967
132	0xbf29fac6	-0.66398275
133	0xbf1a1f02	-0.60203564
134	0xbe65620c	-0.22400683
135	0x3e5c2258	0.21497476
136	0xbe570dd5	-0.2100137
137	0xbe3aae02	-0.18230441
138	0xbde822c5	-0.11334757
139	0x3e6924e4	0.22767979
140	0x3f0c470d	0.54795915
141	0x3eb1b4aa	0.34708148
142	0x3c3f9d01	0.0116951475
143	0x3edd6a85	0.4324533
144	0x3e78b93c	0.24289411
145	0xbea2ce5f	-0.31798074
146	0x3e261509	0.16218962
147	0x3e12a19f	0.14319466
148	0x3edd5f82	0.4323693
149	0xbd7ab7bb	-0.061210375
150	0xbe0441fa	-0.12915793
151	0xbe8b3bde	-0.27194113
152	0xbdbe8583	-0.09302809
153	0x3dcf4a56	0.101216
154	0xbd53a2f7	-0.051669087
155	0xbf374b38	-0.7159915
156	0xbd457a5d	-0.048212398
157	0x3bbaa8f7	0.0056964117
158	0x3dcc3b33	0.09972229
159	0x3db30ede	0.0874307
160	0x3ec2575a	0.3795727
161	0x3cbe8228	0.023255423
162	0x3e84b27e	0.2591743
163	0x3d91d7ca	0.071212366
164	0xbec30b24	-0.38094437
165	0xbeb22585	-0.3479425
166	0xbf0f4b7f	-0.5597457
167	0xbc196986	-0.009363538
168	0x3de82c23	0.113365434
169	0x3daaee90	0.083462834
170	0x3e29c1da	0.16577855
171	0x3ead7b7a	0.33883268
172	0xbeb698ce	-0.35663456
173	0xbf398055	-0.72461444
174	0xbe3b4b58	-0.1829046
175	0xbd88accb	-0.06673583
176	0x3e86a097	0.26294395
177	0x3eda4ea3	0.4263812
178	0xbdc05af9	-0.09392352
179	0xbdf88320	-0.12134385
180	0x3f2602a6	0.6484779
181	0x3f074ddc	0.5285318
182	0x3f170cb9	0.5900379
183	0x3df2498c	0.11830434
184	0x3e363517	0.1779369
185	0xbdd9698b	-0.10615834
186	0xbf0adc83	-0.54242724
187	0xbf3091a6	-0.6897224
188	0xbe9be0b7	-0.3044488
189	0x3d47e973	0.04880662
190	0xbf078786	-0.5294117
191	0x3d7ce94f	0.061745938
192	0xbe06b634	-0.13155442
193	0x3d981a42	0.07426883
194	0xbe8f6971	-0.28010133
195	0xbf368da0	-0.7130985
196	0x3b6f06a0	0.0036472455
197	0xbd6474da	-0.0557755
198	0x3e9faa83	0.31184778
199	0x3d39a0f9	0.04531953
200	0x3bd4cc8e	0.0064941114
201	0xbe8fb511	-0.2806783
202	0x3d973232	0.07382621
203	0xbd6b5e75	-0.057463128
204	0xbe45616b	-0.19275443
205	0x3ba47bc6	0.0050196378
206	0xbea092bc	-0.3136195
207	0x3ecb60c3	0.3972226
208	0xbe139b08	-0.14414608
209	0xbe1981ff	-0.14990996
210	0x3c64181b	0.013921763
211	0x3e566c0c	0.20939654
212	0xbe82ee9f	-0.25572678
213	0x3e55f137	0.20892797
214	0x3c1cd61e	0.009572534
215	0x3de2d33f	0.11075448
216	0x3e9901d4	0.29884207
217	0x3eabb927	0.33539698
218	0xbdf250ef	-0.11831843
219	0xbea8e71d	-0.32988825
220	0x3dfdbd0c	0.123895735
221	0xbece0258	-0.40236163
222	0x3ba82afa	0.0051320763
223	0xbf341878	-0.70349836
224	0xbd8b7d80	-0.068110466
225	0xbe26b5f4	-0.16280347
226	0xbd1a233a	-0.03763125
227	0x3f4ba71e	0.79551876
228	0x3e8aac4d	0.2708458
229	0xbf398fa8	-0.7248483
230	0x3e576f76	0.21038613
231	0x3f08b387	0.53398937
232	0xbe0d3da1	-0.13793041
233	0x3de978bf	0.113999836
234	0x3ddfcb46	0.10927443
235	0x3f018d6a	0.50606406
236	0x3e2abfce	0.1667473
237	0x3e0c347c	0.13691896
238	0x3f08b123	0.5339529
239	0xbe433307	-0.19062434
240	0x3dd9e3da	0.10639162
241	0x3f01bb05	0.50675994
242	0xbf50a44e	-0.8150071
243	0xbf0a8ef8	-0.54124403
244	0xbd34c39d	-0.044131864
245	0x3f32a0c7	0.69776577
246	0x3e32768f	0.17428039
247	0xbf23243c	-0.63727164
248	0x3e46de7c	0.19420809
249	0xbf072098	-0.5278411
250	0x3ea353bc	0.31899822
251	0xbe3d9fdb	-0.18518011
252	0xbcdcbf70	-0.026946753
253	0xbc7ed974	-0.015554775
254	0x3d02c524	0.03192629
255	0xbe894dba	-0.26817113

gru.weight_hh_l0 f4 [384, 128]
0	0xbcf58d0d	-0.029974485
1	0xbdc2e6d0	-0.0951668
2	0xbc4843ed	-0.012223226
3	0xbd200fa4	-0.039077416
4	0xbe208b50	-0.15678144
5	0xbda21b4c	-0.07915363
6	0x3d212045	0.039337415
7	0x3e315c28	0.17320311
8	0xbddaf231	-0.106907256
9	0x3c99774b	0.018733641
10	0x3dada02b	0.08477815
11	0x3ed92efe	0.42418665
12	0x3df55902	0.119798675
13	0x3d7dee57	0.061994877
14	0x3d1d218f	0.038362082
15	0x3d97a183	0.07403853
16	0xbd60eea7	-0.054915097
17	0x3c7abeef	0.015304311
18	0xbd6f00b4	-0.05835028
19	0x3c8c6a1f	0.017140446
20	0x3ca9cfab	0.020728907
21	0x3dcea516	0.100900814
22	0xbd2c8884	-0.04212238
23	0xbde2cf57	-0.11074703
24	0xbd3b0562	-0.04565943
25	0x3d6597b2	0.05605287
26	0xbd34092f	-0.04395407
27	0xbde9c45a	-0.11414404
28	0x3cbd5198	0.023110196
29	0x3e888028	0.26660275
30	0x3b7c9a0a	0.0038543963
31	0x3dcf57b8	0.10124153
32	0xbe0ad529	-0.13557877
33	0xbdd59c63	-0.10430219
34	0xbd9935f8	-0.07480997
35	0xbd660995	-0.056161482
36	0x39c3000c	0.00037193333
37	0xbcdf6610	-0.027270347
38	0xbd2ca78f	-0.042151984
39	0xbdce4e60	-0.100735426
40	0x3d5540b7	0.05206367
41	0xbd8d9d96	-0.06914823
42	0xbbfd1662	-0.0077236155
43	0xbdc72848	-0.0972448
44	0x3cf9cf7b	0.030494442
45	0x3d89b583	0.06724074
46	0x3bb3a4cc	0.005482292
47	0x3d0721c1	0.032991175
48	0x3bf10618	0.0073554628
49	0x3d46a10d	0.048493434
50	0x3ca9b464	0.0207159
51	0xbdd727cf	-0.1050564
52	0x3d5ba267	0.053621676
53	0xbcdbb95f	-0.02682179
54	0x3d2dd915	0.042443354
55	0xbe2d9ef0	-0.16955161
56	0xbd7fbe4f	-0.06243735
57	0x3c6e853a	0.014558131
58	0xbc630a55	-0.013857444
59	0x3d05a912	0.03263194
60	0xbd0a9326	-0.033831738
61	0x3db388bd	0.08766315
62	0xbd8daf37	-0.06918185
63	0xbd06dda8	-0.03292623
64	0x3d27412b	0.040833633
65	0x3e1938b0	0.14963031
66	0x3e0757b9	0.13217057
67	0xbe0fe19a	-0.14050904
68	0xbe2d8e9e	-0.16948935
69	0xbdd13db6	-0.102168486
70	0xbd144000	-0.036193848
71	0x3cd21e00	0.02564907
72	0xbde7a43e	-0.113106236
73	0xbd29a22e	-0.041414432
74	0x3e5efb9c	0.21775669
75	0xbd0bdefb	-0.034148198
76	0xbd9da33d	-0.07697151
77	0xbc787a40	-0.015165865
78	0xbcb2b45a	-0.021814514
79	0xbe1a6c06	-0.1508027
80	0xbdc208a3	-0.094743036
81	0x3d909ae5	0.07060794
82	0xbe3b3b80	-0.18284416
83	0xbdd2eff9	-0.102996774
84	0x3d107c9f	0.035275098
85	0x3d9d76fd	0.07688711
86	0x3e08b735	0.13351138
87	0xbd8c827b	-0.06860825
88	0x3e81b0b3	0.25330123
89	0x3c786afe	0.015162228
90	0x3e41468a	0.18874565
91	0x3c8da544	0.017290719
92	0x3d8fcbc9	0.07021291
93	0x3db069f4	0.08613959
94	0x3d097445	0.03355815
95	0x3d354ad7	0.044260826
96	0xbe1adbf0	-0.15122962
97	0x3e24d9b3	0.1609867
98	0xbd13e7d7	-0.03610977
99	0xbd571dbe	-0.0525186
100	0x3c07f4ac	0.00829808
101	0xbd7972c1	-0.060900453
102	0xbe1b3cc9	-0.15159906
103	0xbe2a433c	-0.1662721
104	0x3baa475a	0.005196494
105	0xbd52903a	-0.051407076
106	0x3aa46439	0.0012542076
107	0xbc7c0d4a	-0.015384028
108	0xbe422cae	-0.18962356
109	0xbd42f080	-0.04759264
110	0x3d55eba3	0.052226674
111	0x3e251d82	0.16124538
112	0x3cd49a2f	0.025952427
113	0xbd5b53e8	-0.053546816
114	0x3dfd2d45	0.1236215
115	0xbd471d47	-0.048611905
116	0x3dfa1824	0.12211636
117	0x3d76f95b	0.060296398
118	0x3cf2849d	0.02960425
119	0x3d2978cf	0.041374978
120	0xbcb599f6	-0.02216814
121	0xbc2f4b66	-0.010699129
122	0xbab57f4e	-0.0013847144
123	0xbe027099	-0.12738265
124	0xbe230a5e	-0.15921924
125	0xbd8fcd40	-0.0702157
126	0x3cdf5d54	0.027266182
127	0xbcfb188f	-0.030651359
128	0xbd393ecf	-0.045225915
129	0xbee6347e	-0.44961923
130	0x3e2fc9d5	0.17166837
131	0x3dc4bd48	0.09606415
132	0x3e8795c7	0.2648146
133	0xbd74319a	-0.059617616
134	0x3d91752e	0.071024284
135	0x3e0e2364	0.13880688
136	0x3ed8cdf5	0.42344633
137	0xbe10df89	-0.14147772
138	0xbdb7bc0a	-0.089714125
139	0xbd0304ea	-0.03198711
140	0xbce77118	-0.02825217
141	0x3e02d8b1	0.12777974
142	0x3e0c8a6e	0.13724682
143	0xbdbb60c8	-0.09149319
144	0x3dd67cee	0.10473047
145	0xbc864a94	-0.016392983
146	0xbe0c3d90	-0.13695359
147	0xbbeed64c	-0.00728873
148	0xbce7d9c3	-0.028302079
149	0xbe93386f	-0.28753993
150	0xbe1a2161	-0.15051796
151	0x3de4282c	0.11140475
152	0x3dc18344	0.09448865
153	0xbebd42de	-0.36965078
154	0xbe203629	-0.1564566
155	0xbe2641c6	-0.16236028
156	0xbe5b4ab8	-0.21415222
157	0xbebb3f2d	-0.36571637
158	0x3d32d794	0.043662623
159	0x3da394a8	0.07987338
160	0xbdcae3a3	-0.099066995
161	0x3e0343d0	0.12818837
162	0x3e7b16cc	0.24520415
163	0x3c59cd3c	0.013293561
164	0xbe1494a3	-0.14509825
165	0x3b95c5d7	0.0045707035
166	0xbe80f94a	-0.25190192
167	0xbd9e1163	-0.0771816
168	0xbe352177	-0.17688547
169	0x3e11fb78	0.14256084
170	0x3dc3629d	0.09540293
171	0x3e4d5cef	0.20054983
172	0x3b72a27c	0.0037023118
173	0xbe052f8f	-0.13006423
174	0x3e22e018	0.15905797
175	0xbc99a9e9	-0.018757777
176	0xbd582cf9	-0.052777264
177	0xbd9078cb	-0.070542894
178	0xbdbd73c5	-0.09250597
179	0xbe8def06	-0.27721423
180	0xbd09d572	-0.033650823
181	0xbe612ce2	-0.21989778
182	0x3d3ce4d1	0.046116654
183	0x3eacd88d	0.33758965
184	0xbe7d61bf	-0.24744318
185	0x3dd4b996	0.1038696
186	0x3d4d2b38	0.050090045
187	0xbc18aad5	-0.009318073
188	0x3d1dad7f	0.038495537
189	0x3d14e019	0.03634653
190	0x3dd7592e	0.105150566
191	0xbdb7c3b6	-0.08972876
192	0xbe855d68	-0.26047826
193	0xbe34a32a	-0.17640367
194	0xbe868b0d	-0.26277962
195	0x3caafde6	0.020873021
196	0x3dd9e2b2	0.10638942
197	0xbe806337	-0.25075695
198	0xbe65fe7d	-0.22460361
199	0xbeac90e8	-0.33704305
200	0xbd96c0a8	-0.07360965
201	0xbe16fde1	-0.14745285
202	0x3d6f4cae	0.058422737
203	0xbdab3a89	-0.08360774
204	0x3d087cb3	0.033322047
205	0x3c1eb679	0.00968706
206	0x3d15931b	0.036517244
207	0x3ec3659b	0.38163456
208	0xbd0c142b	-0.03419892
209	0xbdcfa6f1	-0.101392634
210	0x3e4aaddb	0.19792883
211	0x3d48bc48	0.049007684
212	0xbda3f693	-0.08006015
213	0xbdfb7c13	-0.12279525
214	0x3e65dbab	0.22447078
215	0x3e9a2518	0.30106425
216	0xbe974038	-0.29541183
217	0xbbfc8fe3	-0.0077075823
218	0xbcdab0a5	-0.026695559
219	0x3e0148a2	0.12625363
220	0x3e0b9d5e	0.1363425
221	0x3e04eb72	0.1298044
222	0x3e50953e	0.20369431
223	0x3e1c9015	0.15289338
224	0xbdd0bd5a	-0.10192366
225	0x3ba99f5a	0.005176467
226	0x3dfb911a	0.12283535
227	0xbc1f8c17	-0.00973799
228	0x3d952e4f	0.07284223
229	0xbd700940	-0.05860257
230	0xbdfeaee5	-0.12435702
231	0x3dbd0794	0.09229961
232	0x3eae158a	0.34000808
233	0xbe648e86	-0.22319993
234	0xbd9174bd	-0.07102344
235	0x3b594d86	0.003315778
236	0xbe1934ff	-0.14961623
237	0xbe3222dd	-0.17396112
238	0x3d626db4	0.055280402
239	0xbe252778	-0.16128337
240	0xbd76079f	-0.06006586
241	0xbe31bfec	-0.17358369
242	0x39ff9085	0.00048745066
243	0xbd3c0303	-0.04590131
244	0xbe42b218	-0.1901325
245	0xbd66e7a5	-0.056373257
246	0xbdfa6e95	-0.12228123
247	0x3e0a5b04	0.13511282
248	0x3e8f906a	0.28039867
249	0x3debb0c9	0.115083285
250	0x3ca01021	0.01953894
251	0x3d204477	0.039127793
252	0x3ce1d8e2	0.027569238
253	0x3c447c7e	0.011992572
254	0xbe477acd	-0.19480439
255	0xbe3b1087	-0.18268023

gru.bias_ih_l0 f4 [384]
0	0x3da23d3d	0.079218365
1	0xbd5ff353	-0.05467541
2	0x3da29068	0.079376996
3	0xbd4afeb3	-0.049559306
4	0x3db6eef1	0.08932293
5	0x3dd0d46f	0.101967685
6	0x3dd7ec65	0.105431356
7	0x3da314a2	0.0796292
8	0x3d4c372d	0.049857307
9	0x3e4904c9	0.19630732
10	0xbd7e7611	-0.062124316
11	0x3e2fa0f1	0.17151238
12	0x3df5b389	0.11997134
13	0x3d640482	0.05566836
14	0x3db6e256	0.08929889
15	0x3d997f1b	0.074949466
16	0x3e64611f	0.22302674
17	0x3e01e9c2	0.12686828
18	0x3d759abb	0.059962016
19	0x3b1931fa	0.0023375736
20	0x3e11d6dc	0.14242119
21	0xbd7f14d5	-0.062275726
22	0x3d4b6125	0.04965319
23	0x3c604186	0.013687497
24	0x3d3959d9	0.0452517
25	0x3dfcdc43	0.12346699
26	0x3e4b66b7	0.19863401
27	0x3d8c14e3	0.06839921
28	0xbd1c322b	-0.03813378
29	0x3d8c6dff	0.068569176
30	0x3e198b79	0.14994611
31	0xbd682930	-0.056679904
32	0x3a549cc3	0.00081105175
33	0x3c941c1d	0.018079812
34	0xbc5ac889	-0.013353475
35	0x3e4e83d5	0.20167477
36	0x3d8058bb	0.06266924
37	0x3cf086c0	0.029361129
38	0xb9c7b092	-0.00038087793
39	0x3ce23c43	0.027616626
40	0x3d98885a	0.07447882
41	0x3cb519b4	0.022106983
42	0x3e261ebd	0.16222663
43	0x3d9e5384	0.07730773
44	0xbc0cb83e	-0.008588849
45	0x3e03383f	0.12814425
46	0x3e6c2009	0.23059095
47	0x3daa7b81	0.08324338
48	0x3d1123dd	0.035434593
49	0x3dffa3fa	0.12482448
50	0x3b5850d4	0.0033007162
51	0xbcaf039d	-0.021364028
52	0x3dec3bd8	0.11534852
53	0xbc8ede2b	-0.017439922
54	0x3d3e17d3	0.04640944
55	0xbcdf7250	-0.027276188
56	0x3d43c336	0.04779359
57	0x3e131263	0.14362483
58	0x3e384546	0.17995176
59	0x3d275f34	0.040862277
60	0x3da71c88	0.08159739
61	0x3d010b58	0.03150496
62	0x3ddec5fa	0.10877605
63	0x3d2c0a5b	0.042002063
64	0xbab2cd23	-0.0013641458
65	0xbd01a64d	-0.031652737
66	0xbcb944a6	-0.022615742
67	0x3de1d6fa	0.11027332
68	0x3dce917f	0.10086345
69	0x3e4bd117	0.1990398
70	0x3dd346bf	0.10316228
71	0x3e1e192e	0.15439293
72	0x3d893e2f	0.06701314
73	0x3d6a616b	0.05722181
74	0xbd02a627	-0.031896736
75	0x3dae19ff	0.08501052
76	0x3e14981c	0.1451115
77	0x3e3ccaaa	0.18436685
78	0x3e3c0fa4	0.18365341
79	0x3e01196c	0.12607354
80	0x3d857aa2	0.06517531
81	0x3e643776	0.22286782
82	0xbcc41824	-0.023937292
83	0x3df04d98	0.1173355
84	0x3d0fde88	0.03512433
85	0x3db211fd	0.08694837
86	0x3dc12bfd	0.09432218
87	0x3ddcefa6	0.10787897
88	0x3d7a98b2	0.061180778
89	0x3e1514aa	0.14558664
90	0x3e3957b5	0.18099864
91	0xbd40c567	-0.047063258
92	0x3cc165b6	0.02360807
93	0x3d9618cb	0.07328948
94	0xbc02f77c	-0.007993575
95	0x3b6afacd	0.0035855055
96	0xbcc197a4	-0.023631878
97	0x3deda06a	0.11602862
98	0x3d5d8b18	0.05408773
99	0x3e3f9069	0.18707432
100	0x3df039ed	0.117297985
101	0x3e23e8fe	0.16006848
102	0x3e080b35	0.13285525
103	0x3db19219	0.08670444
104	0xbd3cb416	-0.04607018
105	0x3e3ae960	0.18253088
106	0x3ddb5610	0.107097745
107	0x3dcbd07c	0.099518746
108	0xbbd26326	-0.006420511
109	0xbbd2804d	-0.006423986
110	0x3cc6ac8b	0.024252197
111	0x3e2fcbda	0.17167607
112	0x3c7977b6	0.015226295
113	0xbc1da8dc	-0.009622779
114	0xbd3b5f39	-0.04574511
115	0x3e1a6377	0.15077005
116	0x3e07cdf3	0.13262157
117	0x3ce6568b	0.028117439
118	0x3dac1f08	0.08404356
119	0x3e424c1f	0.1897435
120	0x3e0225dd	0.12709756
121	0x3d3fb46c	0.046802923
122	0x3e33a898	0.17544782
123	0x3dc31786	0.09525971
124	0x3daf5a47	0.08562141
125	0x3e1c7b57	0.15281425
126	0x3e0a8f5a	0.13531247
127	0x3ddff158	0.109347045
128	0xbda2b369	-0.07944376
129	0xbe7a2904	-0.24429709
130	0xbf078174	-0.52931905
131	0xbd97d8d4	-0.074144036
132	0xbeac7adc	-0.33687484
133	0xbea00a9d	-0.31258097
134	0xbe351568	-0.17683947
135	0xbd4efe0a	-0.05053524
136	0xbef137d6	-0.47112912
137	0xbe4b302c	-0.19842595
138	0xbf151584	-0.58235955
139	0xbf5ccfd8	-0.86254644
140	0xbe92b841	-0.286562
141	0xbe2887ab	-0.16458003
142	0xbf0c8508	-0.5489049
143	0xbe7ebd6a	-0.24876943
144	0xbe2e5498	-0.17024457
145	0xbe577be1	-0.2104335
146	0xbdb83bc2	-0.08995773
147	0xbea38353	-0.3193613
148	0xbe7e5538	-0.24837196
149	0xbe173c8e	-0.14769194
150	0xbdda574e	-0.10661183
151	0xbe000ee3	-0.12505679
152	0xbe20fdb5	-0.15721782
153	0xbed3a05b	-0.4133328
154	0xbe2f6aaa	-0.17130533
155	0xbea57738	-0.3231752
156	0xbeb698d9	-0.35663489
157	0xbed4c306	-0.4155504
158	0xbe95c450	-0.29251337
159	0xbc8d8d25	-0.017279217
160	0xbed038e9	-0.4066842
161	0xbe162092	-0.14660862
162	0xbd2ff3a1	-0.042956952
163	0xbe91fac1	-0.28511623
164	0xbe383b93	-0.17991476
165	0xbe84dc43	-0.25949296
166	0xbe684eb0	-0.22686267
167	0xbe210b81	-0.15727045
168	0xbeaf5674	-0.34245646
169	0xbd8a2c94	-0.06746784
170	0xbe71e2ef	-0.23621725
171	0xbd199f1d	-0.037505258
172	0xbeaed521	-0.3414698
173	0xbec127b4	-0.37725604
174	0xbe9430d6	-0.2894351
175	0xbe89380a	-0.26800567
176	0xbf0d4236	-0.55179155
177	0xbe5de3d8	-0.21668947
178	0xbdbcf449	-0.09226281
179	0xbe54186f	-0.20712446
180	0xbecde2b9	-0.40212038
181	0xbd812667	-0.06306153
182	0xbe18bc5f	-0.14915608
183	0xbe080698	-0.13283765
184	0xbe876469	-0.26443794
185	0xbf7899cb	-0.9710967
186	0xbeb26085	-0.34839264
187	0xbe695bbc	-0.227889
188	0xbea6bd8a	-0.32566482
189	0xbea3962a	-0.31950504
190	0xbe97ecd8	-0.29672885
191	0xbc35a9c3	-0.011087838
192	0xbe25c305	-0.16187675
193	0xbe2dd1d5	-0.16974576
194	0xbec6d8b4	-0.38837206
195	0xbd9ba152	-0.07599129
196	0xbee5ae44	-0.44859517
197	0xbe1a41d5	-0.15064175
198	0xbe41e7fd	-0.18936153
199	0xbe916d58	-0.28403735
200	0xbe4181da	-0.1889719
201	0xbcb8a584	-0.022539862
202	0xbe59dcf9	-0.212757
203	0xbce9c0ed	-0.028534377
204	0xbd5c3116	-0.05375775
205	0xbd364984	-0.044503704
206	0xbe107b3c	-0.1410951
207	0xbf063ba0	-0.5243473
208	0xbdfb2f50	-0.122648835
209	0xbeb9bece	-0.36278385
210	0xbe8d2e2a	-0.27574283
211	0xbe050f76	-0.12994179
212	0xbebaa243	-0.3645192
213	0xbdffb917	-0.12486475
214	0xbe4efc0b	-0.20213334
215	0xbe4fc13b	-0.20288555
216	0xbe3878d9	-0.1801485
217	0xbd5060c4	-0.050873533
218	0xbe930130	-0.28711843
219	0xbe301d7f	-0.17198752
220	0xbee88a01	-0.4541779
221	0xbe1c0935	-0.15237887
222	0xbea3fb3a	-0.32027608
223	0xbe007a31	-0.12546612
224	0xbee924b4	-0.45535815
225	0xbea62590	-0.32450533
226	0xbea172b8	-0.31532836
227	0xbea57765	-0.32317653
228	0xbe698c62	-0.22807458
229	0xbdffb430	-0.1248554
230	0xbea45a88	-0.3210032
231	0xbc93d4a3	-0.018045729
232	0xbea03e42	-0.312975
233	0xbe7e1786	-0.24813661
234	0xbdf38ac8	-0.11891705
235	0xbf226829	-0.63440186
236	0xbf26b7b6	-0.6512407
237	0xbe966f08	-0.29381585
238	0xbde090b5	-0.10965101
239	0xbe1d899c	-0.15384525
240	0xbe40d9c4	-0.18833071
241	0xbeacbe78	-0.33739066
242	0xbf29a4f5	-0.6626733
243	0xbdd55803	-0.104171775
244	0xbe5fdd85	-0.21861847
245	0xbe5ac34e	-0.21363565
246	0xbd990efc	-0.07473561
247	0xbe8f88b1	-0.28033975
248	0xbdebaafa	-0.115072206
249	0xbe71f2a7	-0.23627721
250	0xbe4c974d	-0.19979592
251	0xbe73251e	-0.23744628
252	0xbe2b4089	-0.16723837
253	0xbec2059b	-0.37894902
254	0xbe23c2bb	-0.15992253
255	0xbe72f443	-0.23725991

gru.bias_hh_l0 f4 [384]
0	0x3e136ad6	0.14396223
1	0x3d373516	0.04472836
2	0x3d462846	0.04837825
3	0x3dd223e0	0.10260749
4	0x3d95ebff	0.07320403
5	0x3dffba24	0.124866754
6	0x3dfbfa28	0.12303573
7	0xbc428690	-0.0118729025
8	0x3d5626eb	0.05228321
9	0x3e1b55d0	0.15169454
10	0x3dd9ea74	0.106404215
11	0x3db5f8f9	0.088853784
12	0x3d531ec5	0.051543016
13	0xbb106ca3	-0.0022037409
14	0x3d27318f	0.040818747
15	0xbc3a75d1	-0.011380629
16	0x3e436712	0.19082287
17	0x3e2e9845	0.17050274
18	0x3e359f98	0.17736661
19	0x3d16774a	0.036734857
20	0x3ddc002f	0.107422225
21	0x3ce37b97	0.027768893
22	0x3c91ad56	0.017782848
23	0xb846f43f	-4.743435e-05
24	0xbae63bbf	-0.0017565413
25	0x3e087ddb	0.1332926
26	0x3e1ec778	0.15505779
27	0xbd1881bf	-0.03723311
28	0x3cdc6e3c	0.026908033
29	0xbd300ef5	-0.042983014
30	0x3e0c52f2	0.13703516
31	0x3ce67ba2	0.028135125
32	0x3c828d3a	0.015936483
33	0x3dff1808	0.124557555
34	0x3c9414e7	0.018076373
35	0x3e532399	0.20619048
36	0x3cc5da94	0.024152078
37	0x3d9d7ad0	0.0768944
38	0x3d0453bb	0.032306414
39	0x3dd3a464	0.103340894
40	0x3d307e36	0.043089114
41	0x3d7260be	0.05917429
42	0x3dbe7fd0	0.09301722
43	0xbd231064	-0.039810553
44	0xbd54ad5a	-0.051923133
45	0x3cf4e3a9	0.029893713
46	0x3e62751b	0.22114985
47	0x3dadc03d	0.08483932
48	0x3bb20335	0.005432511
49	0x3d8b6c6b	0.068077885
50	0x3cf7977c	0.0302236
51	0x3dabcf6a	0.083891705
52	0x3e683c01	0.2267914
53	0x3d5f6b9c	0.054545984
54	0x3dd4b2ce	0.10385667
55	0xbdaa34d7	-0.0831086
56	0x3d7f1ac7	0.062281396
57	0x3cd5aee0	0.026084363
58	0x3e4e14d4	0.20125133
59	0x3d98e0e7	0.07464772
60	0x3d954177	0.07287877
61	0x3d8a6e45	0.067593135
62	0x3c7bdaa1	0.015371949
63	0x3da1c0a1	0.07898069
64	0x3d5edc16	0.05440911
65	0x3d0dccd5	0.03461917
66	0x3dc02c38	0.09383434
67	0x3e06576c	0.13119286
68	0x3e18f600	0.14937592
69	0x3d818b1d	0.06325362
70	0xbca6c31a	-0.020356704
71	0x3de85829	0.1134494
72	0x3dc7b3fd	0.09751127
73	0x3e003700	0.12520981
74	0x3d2b86a9	0.04187647
75	0x3e2a2f94	0.16619712
76	0x3e1d7429	0.15376343
77	0x3e1928fb	0.14957039
78	0x3dfbde89	0.122983046
79	0xbb88282e	-0.0041551804
80	0x3da66198	0.08124083
81	0x3e30fc96	0.17283854
82	0x3c1e0ecb	0.009647082
83	0x3c87f855	0.016597906
84	0xbad20b3a	-0.0016025074
85	0xbcf8343c	-0.030298345
86	0x3c04ba74	0.0081010945
87	0x3e520232	0.2050865
88	0x3ddb2fcc	0.10702476
89	0x3d9c7001	0.076385505
90	0x3e3f2a01	0.18668367
91	0x3db54736	0.08851473
92	0xbb5508c4	-0.0032506445
93	0x3de13b96	0.10997693
94	0x3dbe5ae8	0.09294683
95	0x3c88d0ea	0.01670118
96	0x3d6c2925	0.057656426
97	0x3d5da0cc	0.054108426
98	0x3e43ccc8	0.19121087
99	0x3e72beb5	0.23705561
100	0x3d993184	0.074801475
101	0x3daebefe	0.085325226
102	0x3e2619a7	0.16220723
103	0x3cd184c4	0.025576003
104	0x3d81bf83	0.06335356
105	0x3e56e04b	0.20983998
106	0xbc10a606	-0.008828646
107	0xbc9b9ad8	-0.018994734
108	0x3d086e64	0.0333084
109	0xbd88550b	-0.06656846
110	0xbbeba89b	-0.00719173
111	0x3e1e1c7f	0.15440558
112	0x3dcf9e1d	0.101375796
113	0x3d43c253	0.047792744
114	0x3d480691	0.048834387
115	0x3de9138a	0.1138068
116	0xbca1176a	-0.019664485
117	0x3ca0d910	0.019634753
118	0x3e0bee1c	0.1366505
119	0x3e356853	0.17715578
120	0xbc6a1fb5	-0.014289786
121	0xbd187cae	-0.03722828
122	0x3e0d5a5f	0.13804005
123	0x3d87658a	0.06611164
124	0x3e16b074	0.14715749
125	0x3d8e8b0a	0.06960113
126	0x3dd25502	0.1027012
127	0x3c5818df	0.0131895235
128	0xbdc2c5ae	-0.09510361
129	0xbe33e777	-0.17568766
130	0xbed78bea	-0.42098933
131	0xbe24cbac	-0.1609332
132	0xbe6a554c	-0.228841
133	0xbe9bb78e	-0.3041348
134	0xbe34f902	-0.17673114
135	0x3ce9a290	0.028519899
136	0xbf073c4b	-0.52826375
137	0xbe9359c3	-0.2877942
138	0xbefbc786	-0.49175662
139	0xbf679e2a	-0.90475714
140	0xbe617bbf	-0.22019862
141	0xbde1243d	-0.1099324
142	0xbf0d3cf8	-0.55171156
143	0xbe531355	-0.20612843
144	0xbe3b1b11	-0.18272044
145	0xbe9d954b	-0.30777964
146	0xbdb551e6	-0.088535115
147	0xbeb8086c	-0.35943925
148	0xbe93c0c1	-0.28857997
149	0xbdee7260	-0.11642909
150	0xbd74d61c	-0.059774503
151	0xbe78cb04	-0.24296194
152	0xbe2f1914	-0.1709941
153	0xbeb59154	-0.3546244
154	0xbd167968	-0.036736876
155	0xbe6fa400	-0.23402405
156	0xbeea4d7b	-0.45762238
157	0xbeac5d19	-0.33664778
158	0xbe7fdf3f	-0.24987505
159	0xbdc39b45	-0.095511
160	0xbeaab38c	-0.33340108
161	0xbdc1a2f2	-0.094549075
162	0xbdbfc07c	-0.09362885
163	0xbeaf0802	-0.34185797
164	0xbe1a6add	-0.15079828
165	0xbe68b6e1	-0.22726013
166	0xbec229b7	-0.3792245
167	0xbd5ec816	-0.054390036
168	0xbea0f604	-0.31437695
169	0xbceb861a	-0.028750468
170	0xbeb6639a	-0.35622865
171	0xbd1bdbfb	-0.038051587
172	0xbe8420b2	-0.25806195
173	0xbea47db1	-0.32127145
174	0xbe926a41	-0.2859669
175	0xbe93378e	-0.28753322
176	0xbf13710c	-0.5759437
177	0xbeaf5f6c	-0.3425249
178	0xbe602d73	-0.21892338
179	0xbe6352d2	-0.22199562
180	0xbed76f3d	-0.42077056
181	0xbd9e1cbb	-0.07720324
182	0xbdc81df2	-0.097713366
183	0xbc86a48e	-0.016435888
184	0xbe874dcb	-0.2642654
185	0xbf5ce01c	-0.86279464
186	0xbe9714ef	-0.2950816
187	0xbe8d69bb	-0.27619728
188	0xbe74f646	-0.23922071
189	0xbea564ce	-0.3230347
190	0xbeb87552	-0.36027008
191	0xbdc8ba89	-0.09801204
192	0xbe759d05	-0.2398568
193	0xbddb5e4f	-0.10711347
194	0xbeeb3121	-0.4593592
195	0xbdd0c180	-0.10193157
196	0xbeeb25db	-0.4592732
197	0xbe8c678e	-0.27422756
198	0xbe7f7bad	-0.24949522
199	0xbe8d2ff1	-0.2757564
200	0xbe4066ab	-0.18789165
201	0xbe34af31	-0.17644955
202	0xbe9c3ede	-0.30516714
203	0xbdb371eb	-0.087619625
204	0xbde75f0d	-0.112974264
205	0xbc0e92c5	-0.008701985
206	0xbe8d80ca	-0.2763732
207	0xbf0abf6f	-0.54198354
208	0xbe19129d	-0.14948507
209	0xbecd0976	-0.4004628
210	0xbe724d9f	-0.23662423
211	0xbd5b4734	-0.0535347
212	0xbe99794a	-0.2997535
213	0xbe111bae	-0.14170715
214	0xbea8584f	-0.32879874
215	0xbe6a235b	-0.2286505
216	0xbe4f7aaf	-0.20261644
217	0xbdc1b71b	-0.09458753
218	0xbebee4c4	-0.3728391
219	0xbe3a7b59	-0.18211116
220	0xbebfb2bf	-0.3744106
221	0xbdfafe67	-0.12255555
222	0xbea38e39	-0.31944445
223	0xbe64ee83	-0.2235661
224	0xbeefb9b5	-0.4682137
225	0xbee5c6b1	-0.44878152
226	0xbe7bc673	-0.24587421
227	0xbead8f6f	-0.33898494
228	0xbe9a92e4	-0.30190194
229	0xbda7220d	-0.081607915
230	0xbe945af4	-0.28975642
231	0xbe20731b	-0.15668909
232	0xbebce784	-0.36895382
233	0xbea5554a	-0.32291633
234	0xbe0e2b25	-0.13883646
235	0xbf23aa2c	-0.63931537
236	0xbf1c6c10	-0.6110239
237	0xbe9227d9	-0.28546026
238	0xbdd9241d	-0.10602591
239	0xbe2f6a7d	-0.17130466
240	0xbe39f097	-0.18158184
241	0xbea7a37d	-0.3274192
242	0xbf0e1ebd	-0.5551565
243	0xbd2ff387	-0.042956855
244	0xbe217d5d	-0.15770479
245	0xbe6d1162	-0.23151162
246	0xbd410d8d	-0.047132064
247	0xbe7dd423	-0.24787955
248	0xbe1bbe5c	-0.15209335
249	0xbdd633f0	-0.10459125
250	0xbe507c6f	-0.20359968
251	0xbdf0ea0e	-0.117633924
252	0xbe2cb75e	-0.16866824
253	0xbe9507d5	-0.29107538
254	0xbe721f8e	-0.2364485
255	0xbe08a642	-0.13344672

fc.weight f4 [18, 128]
0	0xbe7c5e85	-0.24645431
1	0xbd684743	-0.056708585
2	0x3ea3f895	0.3202559
3	0x3ea65889	0.32489422
4	0x3d82674e	0.0636736
5	0xbbf829d5	-0.007573346
6	0xbe25b796	-0.16183314
7	0xbd2d495f	-0.0423063
8	0xbdef3357	-0.11679714
9	0x3eaf6ef2	0.34264332
10	0xbea5614e	-0.323008
11	0x3efc7727	0.49309656
12	0x3e808cef	0.25107524
13	0x3d998c77	0.07497495
14	0x3e05f9f3	0.1308363
15	0xbe070d4f	-0.1318867
16	0x3e816afd	0.25276938
17	0xbd8974bf	-0.06711721
18	0xbd85f073	-0.06540003
19	0xbe44ad0a	-0.19206634
20	0x3bee2991	0.0072681387
21	0xbcca48a4	-0.02469284
22	0x3e5faddf	0.2184367
23	0xbe3f3796	-0.18673548
24	0xbe00c534	-0.12575227
25	0x3e85de0c	0.2614597
26	0xbe18e9e5	-0.14932974
27	0xbeb05079	-0.34436396
28	0x3f086e67	0.5329346
29	0x3d112953	0.0354398
30	0x3e5a6c3e	0.21330354
31	0xbf1e5a23	-0.6185629
32	0x3e5602bf	0.20899485
33	0xbe7dadf1	-0.24773385
34	0x3e8b614f	0.27222678
35	0x3f2208f0	0.6329489
36	0x3e35e4e8	0.17763102
37	0x3e1cf1ab	0.15326564
38	0x3d06871f	0.032843705
39	0x3e237972	0.15964296
40	0x3ec37d13	0.38181362
41	0xbdd706a0	-0.104993105
42	0xbd032f96	-0.032027803
43	0x3daa6415	0.083198704
44	0xbee6dec0	-0.4509182
45	0xbe8cd344	-0.27504933
46	0x3e8d03a9	0.27541855
47	0xbe1bd717	-0.15218769
48	0x3f1b1f20	0.6059437
49	0xbd2ab517	-0.041676607
50	0x3d59d3aa	0.053180374
51	0x3e15ad85	0.14616974
52	0xbe7be277	-0.24598108
53	0xbeed843d	-0.46389952
54	0xbdf87923	-0.1213248
55	0x3e15f568	0.14644396
56	0xbdf3594a	-0.11882265
57	0xbed317ec	-0.41229188
58	0x3e95d800	0.29266357
59	0x3e9dec0f	0.3084416
60	0x3eb58bce	0.35458225
61	0xbebba4ab	-0.3664907
62	0xbf1d77cd	-0.61510926
63	0xbdc23bb8	-0.09484047
64	0x3f4a3304	0.78984094
65	0xbe7470e2	-0.23871186
66	0xbec7ac3e	-0.38998598
67	0xbe5ba77b	-0.21450607
68	0xbed03f26	-0.40673178
69	0x3edcc873	0.4312168
70	0xbbbeb415	-0.0058198073
71	0xbec14552	-0.377482
72	0x3e7bdd9d	0.24596258
73	0x3da2407a	0.07922454
74	0xbd0b90b4	-0.034073547
75	0xbe09b1a8	-0.13446677
76	0x3ce6eb5f	0.028188406
77	0x3e225b57	0.15855156
78	0xbd1e542e	-0.0386545
79	0xbd1908e0	-0.03736198
80	0xbe9d5e61	-0.30736068
81	0xbef5e26d	-0.48024312
82	0x3d57938e	0.052630953
83	0x3d93af7a	0.07211204
84	0xbe9fe24a	-0.31227332
85	0xbdcd0461	-0.10010601
86	0x3ec17d8f	0.37791106
87	0xbea2532c	-0.3170408
88	0xbf2b7c1c	-0.6698625
89	0x3e5beedb	0.21477835
90	0xbd5f7e83	-0.05456401
91	0x3e2f1342	0.1709719
92	0xbc842870	-0.016132563
93	0x3e1fca50	0.1560452
94	0x3e9f318c	0.3109249
95	0x3ecfe86e	0.40607017
96	0x3f1506e7	0.5821366
97	0xbe5a7429	-0.21333374
98	0xbd329ede	-0.04360854
99	0x3d410fee	0.047134332
100	0xbe65ac06	-0.22428903
101	0x3ed4a1fe	0.4152984
102	0x3ee97b61	0.45601943
103	0x3dce7e67	0.10082703
104	0x3da434ac	0.08017859
105	0x3f2c3763	0.67272013
106	0x3d9492b9	0.072545476
107	0x3ebf6800	0.37384033
108	0xbedc7524	-0.4305812
109	0xbec1473f	-0.3774967
110	0xbf119364	-0.56865525
111	0x3eb1a34b	0.34694895
112	0x3e1b44c7	0.15162955
113	0xbdec759a	-0.11545868
114	0xbe138091	-0.14404513
115	0xbd90bb7a	-0.07067008
116	0xbddfaf9f	-0.10922169
117	0x3dc40c55	0.09572665
118	0xbc3b49b3	-0.0114311455
119	0xbe6ccd5f	-0.23125218
120	0xbe579e0b	-0.21056382
121	0x3dbe27cf	0.09284937
122	0x3b9904f3	0.0046697794
123	0xbe29995a	-0.16562405
124	0xbe380b8c	-0.17973155
125	0xbe6ef727	-0.23336469
126	0xbe11d14d	-0.14239998
127	0x3e8f20b1	0.2795463
128	0x3ec0e26f	0.37672755
129	0x3e51b535	0.20479281
130	0xbe23d9a9	-0.16001
131	0xbe51a109	-0.20471586
132	0xbda2949a	-0.079385
133	0xbdccda90	-0.10002625
134	0x3e22c4c4	0.15895373
135	0x3ec25148	0.37952638
136	0x3e83487b	0.25641236
137	0xbed03c2b	-0.40670905
138	0x3ee31fb0	0.44360113
139	0xbe43cd9a	-0.191214
140	0x3dfce754	0.1234881
141	0x3db150e0	0.08658004
142	0x3e6348f7	0.22195803
143	0x3e0538cf	0.13009952
144	0xbeb9c583	-0.36283502
145	0xbebf11fd	-0.3731841
146	0xbd23a8cf	-0.03995591
147	0x3d196498	0.03744945
148	0x3e8de640	0.2771473
149	0xbe50be1f	-0.20385025
150	0x3ef79ec5	0.4836332
151	0x3e5e330e	0.21699163
152	0xbe59a3fe	-0.21253964
153	0x3dc57fbe	0.096435055
154	0xbd714d5d	-0.05891167
155	0x3e8953d7	0.26821777
156	0xbe4d8741	-0.20071127
157	0x3ea72e90	0.32652712
158	0x3e6eb4d7	0.23311172
159	0x3ed9e96b	0.42560896
160	0xbe85dcad	-0.26144925
161	0xbe842e57	-0.25816604
162	0xbe3f7f0f	-0.18700813
163	0x3da67aae	0.08128868
164	0x3ec0294f	0.37531516
165	0xbc4831b7	-0.012218884
166	0xbe8ddc2b	-0.27707037
167	0xbe7aa9fe	-0.2447891
168	0xbd90c022	-0.070678964
169	0x3e2fee96	0.17180857
170	0xbecddb97	-0.40206596
171	0xbdb4e3fa	-0.088325456
172	0xbe10ca50	-0.14139676
173	0x3d9c5ead	0.076352455
174	0x3e1be69a	0.15224686
175	0xbdf94e8f	-0.12173187
176	0xbe544dfd	-0.20732875
177	0xbc88121c	-0.016610198
178	0x3d6b95e6	0.057516
179	0xbe9eb0af	-0.30994174
180	0x3e94923d	0.2901782
181	0xbd929b9d	-0.07158587
182	0xbcb4a284	-0.02205015
183	0xbed43f71	-0.41454652
184	0x3e072ed5	0.13201459
185	0x3eb73238	0.357805
186	0x3ecfaeaf	0.4056296
187	0xbe91ec39	-0.28500536
188	0x3ef01ac5	0.46895424
189	0xbe97d864	-0.2965728
190	0xbe03c4cb	-0.1286804
191	0xbda1a264	-0.07892302
192	0xbe9b883b	-0.30377373
193	0x3d731de4	0.059354678
194	0x3e9cba63	0.30610952
195	0x3caf2dd5	0.02138416
196	0x3ea5aa34	0.32356417
197	0xbda3eba3	-0.080039285
198	0xbe50d76c	-0.20394677
199	0x3e2bb6f3	0.16769008
200	0xbe6beb91	-0.2303908
201	0x3e22cd57	0.15898643
202	0xbe56350c	-0.20918673
203	0xbd0e2a28	-0.034708172
204	0x3d09502b	0.03352372
205	0x3d4b349a	0.04961071
206	0x3ec4a33c	0.38405788
207	0xbeb2ba2b	-0.3490766
208	0x3e7ada40	0.24497318
209	0xbd88c8f9	-0.066789575
210	0x3dc66c11	0.09688581
211	0x3e142547	0.14467345
212	0x3e28076b	0.1640908
213	0x3ed3ee5f	0.413928
214	0x3db20c0c	0.08693704
215	0xbdacaa1e	-0.08430885
216	0xbea67cd9	-0.32517126
217	0xbc83b4df	-0.016077457
218	0x3e80620c	0.25074804
219	0x3e2e74a0	0.17036676
220	0xbec8e1e1	-0.39234832
221	0xbf044f7e	-0.51683795
222	0xbeaa0b61	-0.33211806
223	0xbe7c9530	-0.24666286
224	0x3e2cc122	0.1687055
225	0x3ec8cab2	0.39217144
226	0x3cabe12a	0.02098139
227	0x3df5d5ac	0.12003645
228	0xbe4c6627	-0.19960843
229	0xbe10f487	-0.1415578
230	0x3e65b988	0.22434056
231	0xbe637590	-0.22212815
232	0x3dfbe528	0.122995675
233	0x3d450fdd	0.04811083
234	0xbe2fd4d4	-0.17171031
235	0xbe593d96	-0.212149
236	0x3e605566	0.21907577
237	0x3c2ca5ad	0.010537547
238	0x3e13fdef	0.14452337
239	0x3f14406e	0.5791081
240	0xbd2ff649	-0.042959485
241	0xbdf60e1e	-0.120144114
242	0x3e2210af	0.15826677
243	0xbd68ae31	-0.056806747
244	0xbe83038d	-0.25588647
245	0x3ed7d1cf	0.4215226
246	0xbe395501	-0.18098833
247	0xbe2eda67	-0.17075501
248	0xbe44ed33	-0.1923111
249	0x3df66240	0.120304585
250	0x3ea6d5ae	0.325849
251	0xbe3d7787	-0.18502627
252	0xbf0de61e	-0.55429256
253	0xbe2f0c96	-0.17094645
254	0x3ddde62e	0.10834919
255	0xbea0b0f5	-0.31385008

fc.bias f4 [18]
0	0xbd8e5a87	-0.069508605
1	0x3e0d0fd2	0.13775566
2	0xbe4870f0	-0.19574332
3	0x3ce64a75	0.028111676
4	0xbddbeb81	-0.10738278
5	0x3c998e9c	0.01874476
6	0x3d7ecfb0	0.062209785
7	0x3d570aad	0.052500416
8	0xbb6f749c	-0.003653801
9	0xbcb8f648	-0.022578374
10	0xbdec5868	-0.115403
11	0x3d0a6b6a	0.033793844
12	0x3e3bd866	0.18344268
13	0xbdadf13f	-0.0849328
14	0xbc4e584d	-0.012594295
15	0x3d398920	0.04529679
16	0x3a1eceac	0.0006058018
17	0x3da81b9b	0.0820839
