01_rnn/logs/GRU/GRU_epoch_100_acc_0.8077.pth (torch, 299258 bytes, 6 tensors)

gru.weight_ih_l0 f4 [384, 57]
000000 74 03 81 3e 27 ad df 3e 80 51 d2 3e 96 1e 50 3f
       0.25197947 0.43686792 0.41077805 0.8129667
000010 04 16 66 3e 77 bc 61 3e 84 89 b0 3d 03 74 0c 3e
       0.22469336 0.2204455 0.08619979 0.1371613
000020 5f 79 5f bf eb e0 47 bf 3c b1 e5 be 35 a2 d9 3e
       -0.8729457 -0.7807757 -0.44861782 0.42506567
000030 bf 1f 41 3d 3e e2 08 3f dd 00 21 bd 36 ad 89 3d
       0.047149416 0.5347022 -0.039307464 0.067224905
000040 bd 29 11 3f 01 6a af bd bc cc db 3c 40 17 14 3f
       0.5670431 -0.085651405 0.026831023 0.57847977
000050 2e 0f 9a be 0a 73 8b 3b f9 38 01 3e 44 2a a7 bd
       -0.30089706 0.004255657 0.1261939 -0.081623584
000060 07 8b 5b 3f b0 50 5d be 8a 6e 38 be 00 da 1a be
       0.85759014 -0.21612811 -0.18010917 -0.15122223
000070 8c c1 8b 3e 88 52 58 3e c1 3f 26 3e 81 d8 09 be
       0.27296102 0.21125233 0.16235258 -0.13461496
000080 63 d7 7e be 50 3f 47 be eb 04 91 be 69 32 66 be
       -0.24886851 -0.19457746 -0.28324065 -0.22480167
000090 7a a5 98 be 48 22 25 3e ff 89 ef bb ac 55 75 bd
       -0.2981375 0.16126359 -0.0073101516 -0.059896156
0000a0 7c ef e4 bc 20 e5 0b 3e be a9 b7 3e 0f 46 4e bd
       -0.027946226 0.13661623 0.3587169 -0.05035978
0000b0 38 9a ac bb 5a 11 a6 be 4a 96 5a be 3b 66 a6 bd
       -0.0052674077 -0.32435113 -0.21346393 -0.08124968
0000c0 19 d1 1f bd 69 af 90 be d2 7c b2 be 2c 4d ea 3c
       -0.03901777 -0.28258827 -0.34860855 0.028601252
0000d0 1e 03 2e 3e 66 e2 69 3c 1c 2e 9c 3d e1 6b 8e bb
       0.16993377 0.014275169 0.07625982 -0.0043463563
0000e0 b6 d5 cb be 23 dc 82 3f 67 8e 09 3f d3 96 2c 3f
       -0.39811486 1.022343 0.53732914 0.6741764
0000f0 b0 50 f0 be 0a f4 9a 3e b8 75 56 bd fe 80 a8 bf
       -0.4693656 0.30264312 -0.05235836 -1.3164365
000100 4a 45 02 bf 0a 48 02 bd 8f 10 4b bf 09 12 f2 be
       -0.50886977 -0.031806983 -0.7932214 -0.47279385
000110 e6 cf be bd 34 6a eb be 9c fc 0b 3e 07 0c 3b be
       -0.09316997 -0.45979464 0.13670582 -0.18266307
000120 1c e9 fd bd c8 7c ce 3d 7f a9 29 3f 2d c8 a8 be
       -0.12397978 0.10082394 0.66274256 -0.32965222
000130 dc 2f 14 3f 09 a6 2e 3e 87 ea 3e bd 77 91 53 be
       0.5788553 0.17055525 -0.04661038 -0.20660959
000140 e9 3b 09 3f 2f bb f1 3e 1b 06 8d be 71 6f 19 be
       0.5360704 0.47213122 -0.2754372 -0.14983918
000150 92 ef fa 3d e3 fc 47 3d 65 e3 91 3e 4a 99 5a 3e
       0.12252726 0.048825156 0.284938 0.21347538
000160 b3 6a 91 3e ba 27 1e be 93 4e 73 3e bf 20 6f 3e
       0.28401718 -0.15444842 0.23760442 0.23352335
000170 e0 cb 47 3c e1 ec 88 3e a1 87 19 bd 66 79 31 3d
       0.012194604 0.26743224 -0.03748286 0.043328665
000180 6e 5b a0 be 57 cf 2d 3e 9d 27 2b be 00 c1 a8 be
       -0.31319755 0.16973625 -0.1671433 -0.32959747
000190 5e 85 31 bd 1b ff 61 bd d7 00 87 bd c4 0a 79 3e
       -0.04334008 -0.05517493 -0.06591957 0.24320513
0001a0 a9 1a 52 3e 3b 20 6c be 8a 6c 2b be 87 9e 47 3e
       0.20517983 -0.2305917 -0.16740623 0.19494067
0001b0 24 9a 97 3d 9e 5c 5e bf 62 01 0a bc 91 f9 e6 bd
       0.07402447 -0.8686007 -0.008423181 -0.1127807
0001c0 bb f6 07 3d 1f b3 d7 3e 46 aa 53 3f 3e 6f 8b bf
       0.033194285 0.42128846 0.8268169 -1.0893323
0001d0 fa 11 cd 3e 73 86 e0 3c a2 ae 0f bf 96 d6 8a 3e
       0.40052778 0.02740786 -0.56125844 0.2711684
0001e0 e4 68 33 bf fe f5 1e be 06 ec 8a 3e 89 30 9b be
       -0.70081925 -0.15523526 0.27133197 -0.30310467
0001f0 60 db 8a 3e f0 69 ec 3e 67 4d 6d be f2 bb de 3e
       0.27120495 0.46174574 -0.23174058 0.43502766
000200 07 6f 95 bd 9b da 88 be c2 f3 83 be ff 40 ff 3e
       -0.072965674 -0.26729283 -0.2577191 0.49854276
000210 b6 60 2b bf ff 5e 4c bf 20 4a c1 bd 7f ef 34 bd
       -0.66944444 -0.7983245 -0.09437966 -0.044173714
000220 c2 07 6a be ae f1 a2 bd bc a6 77 bd 7f 0a 3c 3e
       -0.22854522 -0.07956253 -0.060461745 0.18363379
000230 a0 fb 30 3f 81 59 b6 3e d3 e4 b6 bc ec cb ee 3e
       0.6913395 0.3561516 -0.022325909 0.46639955
000240 ff a1 45 3e ca 0f 9f be 2a 3e 14 3e 70 8c ef 3d
       0.19300078 -0.31066734 0.14476839 0.11696708
000250 86 43 dd 3e cf 0d 4f bd 01 76 51 be 70 cb 95 be
       0.4321558 -0.05055028 -0.20455171 -0.29256773
000260 31 db 22 be 75 cb d9 3d 2b 91 d5 bd ff a2 30 bf
       -0.15903927 0.106345095 -0.10428079 -0.6899871
000270 f3 1a 84 bd f4 32 53 bc 59 cc b4 3d 9a 50 a3 3d
       -0.06450453 -0.012890566 0.08828039 0.07974358
000280 69 69 e3 3e 1e f2 a0 3a 53 a8 98 3e aa 7e 8d 3d
       0.4441636 0.0012279188 0.2981592 0.06908925
000290 b7 1e 24 bf 92 fc c6 be 63 e9 ca be de a5 14 bc
       -0.6410937 -0.3886457 -0.39631185 -0.009072749
0002a0 00 ac e4 3d ba 9f a5 3d a3 f2 df 3d 07 a6 e7 3e
       0.11165619 0.08087106 0.10934951 0.45243856
0002b0 3e 6c cf be 3d dc 5e bf 7f 1d 8f be a4 84 92 3c
       -0.4051227 -0.87054807 -0.2795219 0.017885514
0002c0 e3 1c 24 3e de 7d da 3e c5 36 07 be cc 39 a9 bb
       0.16026644 0.42674154 -0.13204487 -0.0051643606
0002d0 9b 96 3a 3f 97 a2 2d 3f 7f 85 2b 3f 32 6d 01 3d
       0.72886056 0.6782622 0.67000574 0.031598277
0002e0 b5 72 88 3e c3 97 ea 3a bf 57 c8 be 8c 52 14 bf
       0.26650015 0.0017898012 -0.39129445 -0.57938457
0002f0 f4 71 77 be 80 b7 07 3e 85 25 3c bf 7d cb 6a 3d
       -0.24164563 0.13253593 -0.7349475 0.057322968
000300 73 ae 72 be e4 70 0e bd 0a 05 f4 be 36 5e 87 bf
       -0.2369936 -0.03477563 -0.47660094 -1.0575626
000310 d5 27 1d bd c0 31 80 3c 47 2b b7 3e e1 e0 5f 39
       -0.038368065 0.015648723 0.35775205 0.00021350711
000320 3a 36 84 ba a0 26 97 be 57 e8 a2 3d 6a 04 50 bd
       -0.0010086962 -0.29521656 0.079544716 -0.05078546
000330 b5 ad 70 be 27 61 8a 3c d6 1c b0 be 4c a0 d2 3e
       -0.23503764 0.016892029 -0.34397 0.41137922
000340 63 2c 77 be 8d c9 1a be 95 a5 a3 bb d5 14 7f 3e
       -0.24138026 -0.15115948 -0.004994104 0.2491029
000350 a5 54 7f be 2c 15 60 3e 4e 5e 04 bc e2 33 1b 3e
       -0.24934633 0.21883076 -0.008079125 0.1515651
000360 65 80 95 3e 37 63 c5 3e c2 f0 11 be b7 13 dc be
       0.2919952 0.38552257 -0.14251998 -0.4298379
000370 2b 54 0e 3e 71 fb 2a bf 24 b8 d2 3c 8e a5 51 bf
       0.13899295 -0.6678992 0.02572257 -0.8189324
000380 f5 28 87 bd 5f be 29 be 0e 5a 15 bd 38 4b 3c 3f
       -0.06599609 -0.16576527 -0.036462836 0.73552275
000390 12 ad a7 3e fc 20 85 bf 6f 70 68 bd 3e 45 04 3f
       0.3274923 -1.0400691 -0.05674785 0.51668155
0003a0 82 56 a7 bd 48 f9 9f 3c 98 63 24 be 17 d6 08 3f
       -0.08170797 0.019528046 -0.16053617 0.53451675
0003b0 d0 ad 8d 3d 01 e5 2c bd 90 34 16 3e ce da d8 bd
       0.06917918 -0.042210583 0.14668489 -0.10588609
0003c0 de ef 03 bd 79 ea 54 3f 4d 56 92 bf de 97 25 bf
       -0.032211177 0.83170277 -1.1432587 -0.64684856
0003d0 3d 52 dc bd 22 7a 75 3f 46 e1 c5 3e 8f 74 5d bf
       -0.10757873 0.95889485 0.38648432 -0.8650598
0003e0 45 95 ed 3e fe 10 01 bf 86 c7 d6 3e ca 7a ac bd
       0.46402946 -0.50416553 0.419491 -0.08421858
0003f0 3d f7 d4 3d f3 63 f7 3d 87 63 af 3d a7 d7 93 be
       0.103987195 0.12079611 0.08563905 -0.28875467

gru.weight_hh_l0 f4 [384, 128]
000000 61 64 4e bd 46 ad d9 bd 4f 9d 34 bd 68 ac 4b bd
       -0.050388698 -0.106287524 -0.044095334 -0.049724966
000010 73 f6 45 be 1a 5b ec bd c7 eb 19 3e 8e 68 26 3e
       -0.19332294 -0.11540814 0.15031348 0.16250822
000020 43 f2 6d be ec 3a 16 bc 41 bb e3 3d 1e 0a c2 3e
       -0.23236947 -0.0091693215 0.111197 0.37898344
000030 d4 ba 80 3e 09 3f e8 3c 7f 3a 21 3d e8 5c 25 3e
       0.2514254 0.02835037 0.039362427 0.16148722
000040 c7 58 cb bd a8 54 fa 3c 3d 58 ed bd 7b 5d 25 bd
       -0.09929042 0.030557945 -0.11589096 -0.040372353
000050 3c f9 1e bd 24 ff 02 3e 65 85 f8 bd 85 63 48 be
       -0.038811907 0.12792641 -0.12134818 -0.19569214
000060 b7 5b 70 bd ac 6f 10 bc 55 fc 6f bc 53 20 fd bd
       -0.058681216 -0.008815687 -0.014647563 -0.12359681
000070 0c 84 d4 3d 0e 22 96 3e d4 88 69 bd 72 cd 01 3e
       0.103767484 0.29322857 -0.057015255 0.12676027
000080 71 5a 74 be a1 53 dc bd 8a 3c cf bd 4d 2c fd bc
       -0.23862626 -0.107581384 -0.10118969 -0.030904913
000090 25 c1 a5 39 b2 d4 dc 3c 58 c8 bb 3c 01 5b 82 bd
       0.00031615156 0.02695689 0.02292268 -0.06365014
0000a0 a7 e7 86 3d 71 9c e3 bd 0d d1 55 bd ee 3e 25 be
       0.06587153 -0.11113823 -0.05220132 -0.16137287
0000b0 60 06 89 3c 5e bd 16 3e c6 4f 0e 3b ac 4c 94 3d
       0.016726673 0.14720675 0.002171503 0.072411865
0000c0 0b 89 b8 bc 5b e6 8b 3d 6a d8 7f 3d a3 32 08 be
       -0.022526285 0.06831046 0.062462248 -0.13300566
0000d0 a4 16 0f 3e d6 71 a2 bc e0 fa 37 3c e2 89 67 be
       0.1397348 -0.019829672 0.011229247 -0.22611192
0000e0 a6 6c 62 bd 60 d3 c0 3c a8 bc cd 3c 3b f6 81 3d
       -0.055279396 0.023538291 0.025114372 0.06345793
0000f0 38 95 65 bc b0 58 ae 3d 24 62 0a bd 9b 7c a2 bd
       -0.014012627 0.085130095 -0.033785 -0.07933923
000100 5c 14 d0 3d 25 56 87 3e 09 53 0f 3e 5a b9 1c be
       0.10160133 0.2643291 0.13996519 -0.15305081
000110 37 f0 97 be e5 1a 13 be 4f a4 c6 bc a8 ec fa 3b
       -0.29675457 -0.14365728 -0.02424827 0.007657606
000120 6e 08 c0 bd 39 0c a9 bd de 8d 65 3e 07 45 8d 3d
       -0.09376608 -0.082542844 0.224174 0.068979315
000130 19 9d f2 bd 27 c3 3d bd 8b ea 8b bd ff 65 e1 bd
       -0.1184637 -0.04632869 -0.06831845 -0.11005782
000140 a8 c2 bb bd 6e ec 9e 3c c0 66 2f be 4b b3 92 bd
       -0.09167987 0.019399848 -0.1712904 -0.07163104
000150 a0 cc 5a 3d d2 ab 04 3e f6 6b 5a 3e 6b 66 f3 bd
       0.0534178 0.12956169 0.21330246 -0.11884769
000160 1b 2a 86 3e 23 9b 8a b9 12 40 ad 3d 28 4e a7 bd
       0.26204 -0.00026436997 0.08459486 -0.08169204
000170 12 ea ae 3d 41 d6 34 3e 5a 5a bb 3d 08 3c 89 3d
       0.08540739 0.17659856 0.091480926 0.06700903
000180 e5 ef 3b be ae 87 2d 3e 19 d3 0d bd d2 bb 01 3d
       -0.18353231 0.16946289 -0.034625147 0.03167326
000190 e8 4e 9b bd 32 bc 12 bd b2 cd 11 be 50 55 1f be
       -0.075834095 -0.03582401 -0.14238623 -0.15559888
0001a0 d4 d5 c0 bc 44 48 6c bd f6 df 54 bd 1a d0 e1 3a
       -0.023539461 -0.057686105 -0.0519714 0.0017228157
0001b0 b0 bc 54 be e6 e5 a1 3d f3 d3 eb 39 ab a0 ae 3d
       -0.20775104 0.07905178 0.00044980607 0.08526739
0001c0 e6 d9 52 3d 5e 3d 25 bd ab 61 d1 3d 69 d4 13 bd
       0.051477335 -0.040341727 0.10223707 -0.036091242
0001d0 56 f0 29 3e 0e b7 5c 3d 59 ee f9 3c c1 c5 19 3d
       0.16595587 0.053885512 0.03050916 0.03754211
0001e0 50 6d 86 bb 6d ab 5b 3d 89 83 07 3d 9e d1 fe bd
       -0.0041023865 0.05363028 0.033084426 -0.12442325
0001f0 0c 61 5e be 22 23 cf bd 66 1f 1a bc 1d ee 62 3d
       -0.21716708 -0.10114123 -0.0094069 0.055402864
000200 88 00 cc bc b0 51 f9 be fd 86 8b 3d 62 1c ae bc
       -0.024902597 -0.48695135 0.06812856 -0.021253768
000210 af 46 91 3e 38 2d 5d be 60 7a d3 bc 49 eb 77 3e
       0.2837424 -0.21599281 -0.025815189 0.24210848
000220 76 60 27 3f 01 9d ed bd 3c d9 3b be 2c 41 3c bd
       0.6538156 -0.11602212 -0.18344587 -0.04596059
000230 c2 94 80 3d d5 c0 1d 3e ba 02 f3 3d 55 c5 5c bd
       0.06278373 0.15405591 0.118657544 -0.053899128
000240 02 9f 94 3e 7e 5f ca bb ee 40 0e be d4 0f ff 3d
       0.29027563 -0.0061759343 -0.13891956 0.12454191
000250 e0 e6 00 be 1c e2 eb be 40 05 a5 be 7d b1 82 3e
       -0.12588072 -0.46070945 -0.32230568 0.25526038
000260 96 7d 8b 3d a4 aa eb be 9d 2e 30 be d3 61 81 be
       0.06811063 -0.46028626 -0.17205282 -0.25269946
000270 ba d9 1b be 3c 87 9f be 48 e1 ff 3d c0 05 dc 3d
       -0.15219775 -0.31157863 0.12494141 0.10743284
000280 2e 1f 92 bd db ae cc bc d0 49 df 3e f0 27 05 3d
       -0.07134853 -0.024985721 0.43611002 0.03250879
000290 35 5d 86 be 82 54 15 be 69 71 c4 be 4e 23 f3 bc
       -0.26242986 -0.14583018 -0.38367775 -0.02967992
0002a0 58 85 91 be e1 74 3f 3e 7c b3 20 3e d8 d7 89 3e
       -0.28422046 0.1869693 0.15693468 0.26922488
0002b0 c1 5d 2f 3e 68 cc 4d be 8e 2b 51 3e 36 89 48 3d
       0.17125608 -0.20097506 0.20426771 0.04895898
0002c0 e3 33 70 bc a6 35 71 3c 78 c4 ba bc aa 44 a9 be
       -0.014660808 0.014722263 -0.022798762 -0.330602
0002d0 68 5d 61 ba ca 05 a9 be 64 fd 23 bd 9a 92 ff 3e
       -0.00085969875 -0.3301223 -0.040036574 0.49916536
0002e0 1e b2 c2 be a3 35 6a 3e cb 0e 85 3c c2 4b 3f be
       -0.38026518 0.22872023 0.016242405 -0.18681243
0002f0 e2 56 64 3d 1d 55 2e bd dd 2b 1f 3e f9 65 65 3d
       0.05574692 -0.04256164 0.15544076 0.05600545
000300 32 04 ce be a4 3f b1 bd f2 a1 a7 be 6b a3 fc 3d
       -0.40237576 -0.086547166 -0.32740742 0.12335857
000310 c8 fa 8b 3d 96 8b 52 be 0b 07 ab be e9 de c9 be
       0.06834942 -0.2056106 -0.3340381 -0.3942788
000320 ff 4a ff bd 9d 51 52 be 71 55 95 3e de 1a 4d 3c
       -0.12465476 -0.20538945 0.2916675 0.012518613
000330 e6 d1 0b bd af 9d 89 3d 0a 3d d6 3d e0 0a 0d 3f
       -0.03413572 0.06719529 0.10460861 0.5509472
000340 ba 7a 00 bd 27 1c d2 bd a2 7b a3 3e a2 22 e9 bd
       -0.03136704 -0.10259276 0.31930262 -0.11383559
000350 8f 05 3d be 56 dd 68 be df 18 ad 3e f8 9d 08 3f
       -0.18459152 -0.22740683 0.33808038 0.5336604
000360 c9 c3 ac be 71 be 0a 3d 71 40 0e 3e a4 19 8c 3e
       -0.33743122 0.033873025 0.1389177 0.27363312
000370 f0 37 8d 3e 46 b7 34 3e f8 e0 89 3e 99 d8 2a 3e
       0.2758174 0.17648038 0.2692945 0.16684188
000380 1c 87 81 be fc 1d 1e bc b3 42 03 3e fe 77 b0 3d
       -0.25298393 -0.0096507035 0.12818412 0.08616637
000390 41 6c 15 3e 25 dc 30 be a7 a6 19 be 3f 40 65 bd
       0.14592077 -0.17271478 -0.15004979 -0.055969473
0003a0 db 01 d9 3e ab 6f 90 be d4 9a 11 3d 2b a6 d6 3c
       0.42384228 -0.28210196 0.035548046 0.026202282
0003b0 0b c6 24 be 93 61 37 be 4e 9a 46 3e 0c bc 87 be
       -0.16091172 -0.17908315 0.193948 -0.26510656
0003c0 9e a1 67 be 5f d4 a3 bd d9 92 e0 bd 3b f4 00 be
       -0.22620246 -0.07999491 -0.10965509 -0.12593167
0003d0 99 c4 b6 be c2 c6 54 bd 8f 79 05 be ec 3a b2 3e
       -0.35696867 -0.051947363 -0.13034652 0.3481058
0003e0 f2 be bd 3e 69 71 e5 3c 9a 9f b5 bc 60 53 0d bc
       0.37059742 0.02800818 -0.02217083 -0.008625835
0003f0 65 3b 9c 3d 16 c4 32 be b5 26 5e be 11 b6 ae be
       0.07628516 -0.17457613 -0.21694453 -0.3412328

gru.bias_ih_l0 f4 [384]
000000 26 df 92 3d 5b 74 ab bd f6 88 ff 3d a5 ae 98 bc
       0.071714684 -0.083718024 0.12477295 -0.018637965
000010 2f 4d c9 3d f0 e5 0b 3e 24 62 02 3e 9b ae a9 3d
       0.09829175 0.13661933 0.1273275 0.082852565
000020 8c 49 a4 3d e0 29 54 3e fb 49 ab bd 9f 91 51 3e
       0.080218405 0.20719099 -0.0836372 0.20465706
000030 c5 99 2b 3e b9 f6 92 3d b7 1f 8e 3d 25 f3 ec 3d
       0.16757877 0.07175965 0.06939643 0.11569814
000040 f7 8f 52 3e 3d 92 20 3e 5d ca 5a 3d 3c 77 d9 3b
       0.2056273 0.15680785 0.053415645 0.0066365283
000050 32 2e 2b 3e 6f b9 c1 bd 8a 87 41 3b 1c 29 af 3d
       0.16716841 -0.09459197 0.002953025 0.08552763
000060 59 4a c3 3d 36 3b 1a 3e e1 56 42 3e 15 14 c4 3c
       0.09535665 0.1506165 0.18978454 0.023935357
000070 27 a3 f4 bc ec 00 e8 3d ef 4c 3c 3e ab 13 05 3d
       -0.029862953 0.11328301 0.18388723 0.03248946
000080 7a bd 6b 3c b1 c5 c1 3c a5 c0 03 bb ff 33 65 3e
       0.014388436 0.023653837 -0.0020103839 0.22383116
000090 4f 7c 55 3d d5 05 5a 3d 79 a4 0b 3d 9a c0 fb 3d
       0.052120503 0.053228218 0.0340924 0.12292595
0000a0 98 ab db 3d b2 ea 9b 3b 9f c2 3a 3e d7 34 b8 3d
       0.10726088 0.0047582025 0.18238305 0.089944534
0000b0 63 00 b3 3b 27 2a 1a 3e b7 78 72 3e c2 16 01 3e
       0.0054626926 0.15055142 0.23678862 0.12606338
0000c0 bb bf 97 3d 61 b4 fb 3d a7 36 77 3d e0 4c 20 3d
       0.074096166 0.12290264 0.060354855 0.039135814
0000d0 4f 39 f6 3d e9 ed 95 3c 1a f4 08 3e 23 06 05 bd
       0.120226495 0.018301921 0.13374367 -0.032476556
0000e0 d6 bb 9f 3d 4f d1 a3 3d b1 15 31 3e e9 44 c2 3d
       0.07799499 0.07998907 0.17293431 0.094858
0000f0 13 c1 e5 3d 7c 65 c5 3c 07 47 ce 3d 35 8c 67 3d
       0.112184666 0.024096243 0.10072141 0.056530196
000100 c4 1d b6 3b 65 1f 9a bc 84 e5 58 3d d0 55 9c 3d
       0.0055577476 -0.018813798 0.05295326 0.07633555
000110 1b b9 5a 3d 31 61 25 3e 44 ba d0 3d c4 dc 31 3e
       0.053399187 0.16150357 0.10191777 0.17369372
000120 6a 6b ab 3d 8a 24 2d 3d 74 40 5b bd f3 db f2 3d
       0.08370097 0.042271174 -0.053528264 0.11858358
000130 1c f0 17 3e 64 91 6b 3e 7c 74 84 3e 85 f0 2f 3e
       0.14837688 0.23004681 0.2587012 0.17181595
000140 75 d4 a9 3d 0b 87 84 3e 8d 9e 41 bd 68 05 bc 3d
       0.08292476 0.2588428 -0.047270346 0.09180719
000150 55 44 0d 3d a1 a1 a1 3d c7 5c 46 3e 23 62 d1 3d
       0.034488995 0.078921564 0.19371329 0.10223796
000160 ec f1 13 3b 18 65 23 3e 13 2e 36 3e 34 ee 58 bd
       0.0022574617 0.15956533 0.17791013 -0.052961543
000170 35 0f 73 3d 4a 5d bd 3d 4f 82 1e bc a2 56 5f bd
       0.059340674 0.09246309 -0.009674623 -0.05452598
000180 b3 5f f6 bc 91 b6 08 3e 4b 4c 9b 3d 04 28 61 3e
       -0.03007493 0.13350894 0.07582911 0.21987921
000190 6f fa e0 3d 4d 30 18 3e 16 98 07 3e b4 5c d0 3d
       0.109852664 0.14862175 0.1324161 0.10173932
0001a0 28 49 5b bd a8 02 5c 3e 2a 81 27 3e 5b 3f e7 3d
       -0.053536564 0.21485388 0.16357866 0.11291381
0001b0 ed b3 03 bd 8e 81 5f 3d ee d9 91 bc 98 ab 14 3e
       -0.032154012 0.054566912 -0.017804112 0.14518583
0001c0 5d 60 28 3d 93 09 4d 3c eb 63 07 3c 9c 67 18 3e
       0.041107524 0.01251449 0.008263568 0.14883274
0001d0 a7 c1 41 3e bf 36 ac 3d 76 05 d7 3d 35 ff 24 3e
       0.18921529 0.084088795 0.104990885 0.16112979
0001e0 f6 82 0b 3e d2 19 2e bd 4e 75 26 3e aa 2b c0 3d
       0.13624176 -0.042505093 0.16255686 0.09383328
0001f0 9d 63 9c 3d 52 6f 29 3e 37 fc 1b 3e b9 9f db 3d
       0.07636187 0.16546372 0.15232931 0.10723824
000200 c4 9e 90 bd fe 26 80 be 36 83 29 bf af 57 03 be
       -0.07061532 -0.2502975 -0.66215837 -0.12826417
000210 c0 8e c4 be b3 e8 e8 be a9 39 90 be 45 dd 9c bd
       -0.3839016 -0.45490035 -0.2816899 -0.07659391
000220 eb 6a 24 bf 96 51 63 be 52 4d 15 bf 25 9c 74 bf
       -0.64225644 -0.22199091 -0.58321106 -0.9555076
000230 64 5d c6 be a1 3f 9c be 42 b8 32 bf 16 f5 aa be
       -0.38743126 -0.30517295 -0.69812405 -0.3339011
000240 00 1c 69 be a6 9d a8 be 74 61 0a be 74 a4 04 bf
       -0.22764587 -0.32932776 -0.13513738 -0.51813436
000250 b3 90 b9 be cd 80 59 be 61 3d 40 be 5e ad 86 be
       -0.3624321 -0.2124054 -0.18773414 -0.26304144
000260 3f 65 7a be 7c 28 e7 be 08 c7 3d be cd 9c e5 be
       -0.24452685 -0.45148075 -0.18532956 -0.44846192
000270 77 61 d2 be ef 4f 03 bf 38 76 c0 be e5 e2 26 be
       -0.41089985 -0.51293844 -0.37590194 -0.16297491
000280 24 7e d7 be 97 01 62 be 8f eb af bd 7f 0e ca be
       -0.42088425 -0.22070919 -0.08589851 -0.39464185
000290 2a 0b 88 be cb 02 cd be f9 24 ab be 68 9e 6b be
       -0.26571018 -0.40041193 -0.33426645 -0.23009646
0002a0 0d c0 cb be f4 86 db bd f2 e5 91 be 0c d3 c8 bd
       -0.3979496 -0.107191 -0.28495747 -0.09805879
0002b0 ed 5b c2 be 01 7f 13 bf 2d 65 cc be d9 43 bf be
       -0.3796076 -0.5761567 -0.3992094 -0.3735645
0002c0 f0 84 22 bf 50 2b a2 be 82 3e 4d be cd 71 b9 be
       -0.63484097 -0.3167367 -0.20043376 -0.36219636
0002d0 62 a2 1c bf 07 ae e3 bd 41 4c a5 be 51 88 2b be
       -0.61185277 -0.111171775 -0.3228474 -0.1675122
0002e0 2e 21 9a be 37 8f 87 bf 6b 9e f7 be 92 b8 9f be
       -0.3010344 -1.0590581 -0.4836305 -0.31195503
0002f0 59 b3 da be f2 5c b5 be ce 0c d9 be c8 3f 6d bd
       -0.42714956 -0.35422474 -0.42392582 -0.057922155
000300 e8 49 a0 be ef 22 2f be ea c7 f2 be 9e ba d7 bd
       -0.31306386 -0.1710317 -0.47418147 -0.10533641
000310 47 4d 0c bf 59 cf 94 be a8 62 98 be 52 73 c7 be
       -0.54805416 -0.29064444 -0.2976277 -0.3895517
000320 e5 a6 57 be e4 16 b4 bd 0a 6d d3 be 5c ad 1c bd
       -0.21059759 -0.087934285 -0.41294128 -0.038251266
000330 74 9a 03 be 6b eb 1a be 4e 9d 86 be cb 2f 11 bf
       -0.12851888 -0.15128867 -0.2629189 -0.5671355
000340 21 49 6e bd bc 55 f7 be 3b 7f d4 be 85 05 37 be
       -0.05817521 -0.48307598 -0.4150332 -0.178732
000350 2c b7 0d bf f0 c2 7d be 76 ae bf be 8d e8 8e be
       -0.55357623 -0.24781394 -0.3743779 -0.27911797
000360 ac cd 49 be 49 c7 db bd 14 bd a3 be fa 41 9b be
       -0.19707364 -0.1073137 -0.31980193 -0.30323774
000370 30 be ff be 9e 50 5e be a2 58 b3 be c7 b5 1d be
       -0.4994979 -0.2171044 -0.3502856 -0.15401374
000380 c3 ea 0a bf b6 7c d6 be 4f a6 f5 be aa 87 e5 be
       -0.5426447 -0.41892022 -0.47978446 -0.44830066
000390 67 9f c4 be d4 95 d5 bd e1 75 bc be 9e bb d4 bd
       -0.38402864 -0.10428968 -0.36808684 -0.10387348
0003a0 99 64 b5 be bc 9b 9f be 65 73 01 be d8 47 1f bf
       -0.35428312 -0.31173503 -0.12641676 -0.62219
0003b0 56 c7 30 bf 3e d7 cf be a1 e9 f9 bd fa 71 38 be
       -0.6905416 -0.40593904 -0.12202764 -0.18012229
0003c0 8a 88 66 be 7b 19 d6 be 6e ed 75 bf d9 42 13 be
       -0.22513023 -0.41816315 -0.96065414 -0.14380969
0003d0 1e 9c a2 be 20 3b 8a be 33 8c 2e be 87 e8 d1 be
       -0.31759733 -0.26998234 -0.1704567 -0.40997717
0003e0 68 96 8c be be 0c 9f be 28 64 6d be 50 3e 90 be
       -0.274585 -0.3106441 -0.23182738 -0.2817254
0003f0 00 ee 3a be 9a a1 e3 be d6 cc 46 be 08 b5 a3 be
       -0.18254852 -0.4445923 -0.19414076 -0.31974053

gru.bias_hh_l0 f4 [384]
000000 b5 ac 09 3e 49 6b 4e 3c 47 05 c2 3d 40 e5 03 3e
       0.13444789 0.012598821 0.09473663 0.1288042
000010 7e 50 a9 3d 6a 9e 22 3e d7 d9 13 3e fb 53 be bb
       0.08267306 0.15880743 0.14438568 -0.005808351
000020 e7 19 a9 3d c5 e5 27 3e 4b 24 a3 3d 10 1c ff 3d
       0.082568936 0.16396244 0.07965907 0.12456524
000030 fa 68 cf 3d 15 7c 80 3c 0c ae b7 3c 50 45 03 3d
       0.101274446 0.015684167 0.02242186 0.032048523
000040 f2 9b 32 3e 94 dd 4b 3e d8 2f 2b 3e 4a b3 23 3d
       0.17442301 0.19908744 0.1671747 0.039965905
000050 3d 74 08 3e 75 a0 f0 bb 64 c8 e4 bc 85 e7 93 3d
       0.13325591 -0.0073433467 -0.027927585 0.07221893
000060 89 03 4c 3d ce fa 23 3e 50 1a 17 3e 0b 99 a0 bd
       0.04980806 0.16013643 0.14756131 -0.07841691
000070 fa d1 07 3d f2 36 aa 3b b5 7d 2f 3e 9d d8 ea 3d
       0.033159234 0.0051945383 0.17137797 0.11467097
000080 17 ee ed 3c 8e de 01 3e 75 02 e9 3c 0a af 69 3e
       0.029044194 0.12682554 0.028443554 0.22820678
000090 2a 79 72 3c 33 56 cb 3d b8 af 86 3d d3 02 49 3e
       0.014799396 0.099285506 0.065764844 0.19629984
0000a0 96 61 9d 3d 62 9a 26 3d ff 2d ec 3d 4f d2 c0 bc
       0.07684629 0.040674575 0.115322106 -0.023537783
0000b0 4c 9c 15 bd b1 b8 62 3d b1 1a 69 3e 08 ac 02 3e
       -0.03652601 0.055351917 0.22764088 0.12760937
0000c0 77 6c 38 3d 7c 18 8b 3d 57 08 b1 3d c4 82 10 3e
       0.045025315 0.067917794 0.08644169 0.14112383
0000d0 af af 69 3e cb 54 b4 3d e9 f3 41 3e 5d 4e b1 bd
       0.22820924 0.088052355 0.189407 -0.08657525
0000e0 b1 7b bc 3d 3d dc 0a bd b3 37 46 3e 21 a8 02 3e
       0.0920328 -0.03390144 0.19357185 0.12759449
0000f0 db 73 d4 3d 00 ed 71 3d dc 67 27 3c ab 27 bd 3d
       0.1037366 0.05906391 0.010217633 0.09236082
000100 1e 1e 74 3d a7 f5 39 3d 35 c4 29 3e 2a d9 c5 3d
       0.059599034 0.045400288 0.16578753 0.096605614
000110 4b a1 cd 3d 9e 37 f5 3c 20 8a 91 bc d5 3c 09 3e
       0.1004053 0.029933747 -0.017766058 0.13402112
000120 d2 f0 e7 3d e0 7c dd 3d e9 14 93 3c 94 fb 49 3e
       0.1132523 0.10814834 0.017954307 0.19724876
000130 e6 85 20 3e ca 0a 49 3e 44 b6 4c 3e 0a e7 3a 3d
       0.15676078 0.19633022 0.19991404 0.045630492
000140 df b5 c9 3d e1 6a 57 3e 54 51 71 bc 41 25 be bb
       0.09849142 0.21036865 -0.014728863 -0.005802781
000150 a5 da 8f ba 6d 11 0e bd b3 a0 e1 3d 23 24 49 3e
       -0.0010975195 -0.034684587 0.11016979 0.19642691
000160 2f 31 3f 3d 1d 77 bd 3d 2d d2 3b 3e 9f 93 a0 3d
       0.046677765 0.09251235 0.18341894 0.078406565
000170 53 76 08 3d 5f 15 03 3e 30 7e b4 3d d8 48 2b bd
       0.033315968 0.12801121 0.08813131 -0.041817516
000180 68 6e 47 3d 08 8d 96 3d 16 b4 55 3e b5 5f 89 3e
       0.048689276 0.07351118 0.20869479 0.2683083
000190 d3 a5 8c 3d ad 0e 9c 3d ae b7 24 3e 5b 1e 2e 3d
       0.06867566 0.07619987 0.16085693 0.042509418
0001a0 46 ff 56 3d 14 1b 77 3e 13 ed 51 3d 15 a7 fb ba
       0.05248954 0.24131423 0.051251482 -0.0019199575
0001b0 0e ca cf 3b f3 21 73 bb 93 b8 45 bd 22 89 03 3e
       0.0063412255 -0.0037099093 -0.048271727 0.12845281
0001c0 4b 24 ff 3d b6 90 8b 3d 95 9b cc 3d 02 76 e7 3d
       0.12458094 0.06814711 0.099906124 0.11301805
0001d0 19 a1 2a 3d 78 61 9b 3d 14 b5 1f 3e cd 81 18 3e
       0.04165754 0.0758695 0.1559642 0.14893265
0001e0 d5 16 46 ba 5c cd fd bd a6 57 01 3e 60 54 86 3d
       -0.0007556503 -0.12392685 0.12631091 0.06559062
0001f0 77 40 0b 3e ab bd ad 3d 89 41 f7 3d 88 77 66 3c
       0.1359881 0.08483442 0.12073047 0.014066584
000200 c0 b1 af bd 89 3a 3c be 70 a4 0e bf 52 74 59 be
       -0.08578825 -0.18381704 -0.5571966 -0.21235779
000210 42 f6 8e be 14 b8 e4 be fa 2b 90 be 5f 7b d5 36
       -0.27922255 -0.4467169 -0.2815855 6.362257e-06
000220 1f 97 32 bf ae fe 9d be fd a7 fd be 93 14 7f bf
       -0.6976184 -0.30858368 -0.49542227 -0.9964077
000230 4f 71 a5 be 3d 23 81 be 86 6a 33 bf 66 cd 95 be
       -0.3231301 -0.25222197 -0.70084417 -0.2925827
000240 e0 7c 75 be 94 e8 d8 be 21 f8 08 be 64 95 0e bf
       -0.23973417 -0.42364943 -0.13375904 -0.556967
000250 e6 82 cd be ce 7b 3a be 92 c4 11 be 50 2b c1 be
       -0.4013893 -0.1821129 -0.14235142 -0.37728357
000260 57 08 84 be 89 08 ca be df 08 61 bd b6 62 b9 be
       -0.25787613 -0.39459637 -0.0549401 -0.36208123
000270 6a 3d 02 bf 13 7b df be b3 4e ab be 0e 82 74 be
       -0.5087496 -0.43648586 -0.3345848 -0.23877737
000280 2b 23 b3 be 25 5a 2e be c3 3c 0a be 8f 34 e6 be
       -0.3498777 -0.17026575 -0.13499741 -0.44961974
000290 5e 32 73 be f9 04 bd be 88 bb f6 be 57 8a 05 be
       -0.23749682 -0.36917856 -0.4818995 -0.13041054
0002a0 e6 d1 bd be 2c b2 8e bd b5 6f cd be 8f e8 c9 bd
       -0.37074202 -0.06967577 -0.40124288 -0.0985881
0002b0 06 fb 98 be 08 9c 05 bf 97 ac ca be dd f3 c8 be
       -0.29879016 -0.5219121 -0.395848 -0.39248553
0002c0 b8 82 28 bf 9e 98 e0 be 8a 75 a5 be 7b d2 c0 be
       -0.6582446 -0.43866438 -0.32316238 -0.37660584
0002d0 ca 42 21 bf 2f be ff bd e8 c6 8b be 8d 27 60 bd
       -0.6299254 -0.124874465 -0.2730019 -0.05472522
0002e0 5a 0b 9a be 40 41 74 bf cc 2b dd be b3 af b7 be
       -0.30086786 -0.95412064 -0.43197477 -0.35876235
0002f0 db d0 af be 24 1d b7 be 62 92 f8 be 11 8f 11 be
       -0.34339032 -0.3576442 -0.4854918 -0.14214732
000300 87 f9 c6 be 2d fc e1 bd 9a ff 0a bf 2f 9a 05 be
       -0.3886225 -0.11034427 -0.5429627 -0.13047098
000310 74 f3 0e bf b5 1e d2 be a0 37 b6 be 5b 57 c3 be
       -0.5584023 -0.41039053 -0.35589314 -0.38152584
000320 90 94 56 be 3b c1 72 be c2 a2 00 bf 63 96 c3 bd
       -0.2095511 -0.23706524 -0.5024835 -0.09550168
000330 a5 5b 3e be 63 cb ee bd 01 ba c9 be c5 8f 15 bf
       -0.18589647 -0.11659887 -0.39399722 -0.584225
000340 9c 65 ac bd b7 03 05 bf 3c 17 c1 be cd 6b d6 bd
       -0.08417818 -0.51958793 -0.3771304 -0.1046978
000350 f4 4c fb be a8 3c 87 be d0 84 fe be ef b0 9b be
       -0.49082148 -0.26413465 -0.49710703 -0.30408427
000360 d6 18 60 be ec 42 19 be ae 43 ce be 6a 47 a0 be
       -0.21884474 -0.14966935 -0.4028601 -0.31304485
000370 57 2b d8 be 56 b9 40 be 17 ef b2 be dc 0b 7f be
       -0.42220566 -0.188207 -0.34948036 -0.24906868
000380 f1 1a 0e bf 3e 12 0a bf 9a 31 d3 be 32 5f ed be
       -0.5550986 -0.53934085 -0.4124878 -0.4636169
000390 b7 3f e9 be 82 87 7f bd 04 f5 ac be b7 ed 73 be
       -0.45556423 -0.06238509 -0.33780682 -0.2382115
0003a0 07 2a d1 be 27 b5 c4 be 1c 37 15 be 0c 80 20 bf
       -0.40852377 -0.38419458 -0.14571804 -0.62695384
0003b0 a6 cd 26 bf 0f b2 cb be 14 b8 f2 bd ad c4 49 be
       -0.65157545 -0.39784285 -0.11851516 -0.19703932
0003c0 c4 d6 5f be ce 26 d1 be cf 41 5b bf 1b 0c ad bd
       -0.2185927 -0.40849918 -0.8564729 -0.084495746
0003d0 18 64 84 be 23 19 93 be ba 28 13 be a7 cd c1 be
       -0.25857615 -0.28730115 -0.14371005 -0.37852213
0003e0 4c f4 9e be 2a 71 3b be 1d 2a 71 be cd 9b 29 be
       -0.3104576 -0.18304887 -0.23551221 -0.1656334
0003f0 32 59 3c be bf 09 b8 be 82 5d 89 be 62 69 60 be
       -0.183934 -0.35944936 -0.26829153 -0.219152

fc.weight f4 [18, 128]
000000 ea 64 db be d2 54 12 be 74 e1 da 3e 53 f4 0f 3f
       -0.4285043 -0.14290169 0.42750132 0.56232184
000010 64 a6 0f 3e f8 40 b5 bc d2 a5 79 be 1b 7b 21 3c
       0.14028317 -0.022125706 -0.24379662 0.009856011
000020 40 b6 95 be 80 47 ce 3e 83 37 ed be a5 60 0b 3f
       -0.29240608 0.40288925 -0.46331415 0.5444434
000030 d9 81 c7 3e ab f4 4a 3e c9 9d a0 3c 63 d2 97 be
       0.38966253 0.19819896 0.019606488 -0.296527
000040 07 a4 0d 3f 36 62 30 be f6 7a d8 39 15 e7 08 be
       0.5532841 -0.17224964 0.00041290344 -0.13369401
000050 fb 01 63 3d bf 01 b7 bd c7 f5 8c 3e 16 62 af be
       0.05542181 -0.0893588 0.27531263 -0.3425452
000060 81 59 56 be 2f af ae 3e 07 dc 04 be e3 96 e7 be
       -0.2093258 0.3411803 -0.12974559 -0.45232305
000070 11 0f 5b 3f 7a 31 08 3e d2 06 b5 3e 68 2b 3d bf
       0.85569865 0.13300124 0.35356766 -0.7389436
000080 1c 1d c5 3e 0a 70 d9 be 98 3b f0 3e 4f b1 7e 3f
       0.3849877 -0.42468292 0.46920466 0.994893
000090 b2 87 cd 3e ea ed 2b 3e 6f e1 a1 3c d9 7d 95 3e
       0.4014259 0.16789976 0.019760815 0.29197577
0000a0 c5 a8 08 3f c8 03 fd bd d7 d2 dc bc 25 1d 00 3e
       0.5338252 -0.12354237 -0.026956005 0.12511118
0000b0 ab 10 30 bf c6 c6 f9 be 8a 66 06 3f 01 1f 45 be
       -0.68775433 -0.48784465 0.5250021 -0.19250108
0000c0 f4 77 7c 3f 3c 7f c3 bd 5d 70 05 3c 27 43 d0 3c
       0.98620534 -0.095457524 0.008144465 0.025422646
0000d0 c1 1c 00 bf f7 8c 42 bf 55 eb a5 be 92 93 81 3e
       -0.50043875 -0.75996345 -0.32406107 0.253079
0000e0 52 5b ce bd 47 9b 11 bf 28 db 15 3f 2e 37 11 3f
       -0.10076012 -0.5687756 0.5853753 0.5672482
0000f0 d6 9f d4 3e c9 a6 e8 be 99 99 85 bf 42 a8 eb bd
       0.41528195 -0.45439747 -1.0437499 -0.11506702
000100 be 4c 8d 3f 40 6c b0 be 44 85 10 bf 47 2c ac be
       1.1039045 -0.34457588 -0.5645335 -0.3362753
000110 1d 9b 04 bf b4 0c 0f 3f 0e 3a e0 3d 6e a3 03 bf
       -0.51799184 0.5587876 0.10948573 -0.5142125
000120 f5 7c b6 3e 0e 78 ac 3d 1b 55 b9 bd 91 a1 d4 bd
       0.3564221 0.08421336 -0.09049436 -0.10382379
000130 7f a6 5a 3c d3 54 76 3e c5 62 b2 3c 0b e8 d4 bd
       0.01334536 0.24055795 0.021775613 -0.10395821
000140 5d 09 c6 be 9e 20 26 bf e2 71 12 3e d7 e1 c2 3d
       -0.3867902 -0.6489352 0.14301255 0.09515732
000150 12 84 21 bf 8a 2c a6 be 45 bc 09 3f 76 72 b2 be
       -0.6309215 -0.32455856 0.538029 -0.34852952
000160 24 c5 52 bf fb f2 d0 3e 10 17 41 bd cb 6b b2 3e
       -0.8233206 0.4081038 -0.047141135 0.34847865
000170 c8 92 1b 3c 1b 03 10 3e ff 09 a9 3e 68 93 3c 3f
       0.009495445 0.14063685 0.3301544 0.73662424
000180 51 a2 47 3f 1a ac c4 be 7a 86 06 3d 2a 31 38 3e
       0.7798205 -0.38412553 0.03284309 0.17987505
000190 e9 f6 83 be c6 98 02 3f 28 31 23 3f 9f cc 53 3d
       -0.25774315 0.51014364 0.6374688 0.051708814
0001a0 82 3a dc 3d 54 a6 7b 3f ba 4e 2f 3d 2c ba f1 3e
       0.10753347 0.9830067 0.04279969 0.4721235
0001b0 1d c7 04 bf ba 98 fe be 50 36 40 bf 4c 02 fe 3e
       -0.5186632 -0.49725896 -0.75082874 0.49611127
0001c0 c0 1a 8d 3e 20 fa 2d be 17 16 14 be 67 35 3f be
       0.2755947 -0.16989946 -0.14461552 -0.18672715
0001d0 e5 4d f3 bd 1d be 8e 3e 10 52 94 bd b2 90 a3 be
       -0.118800916 0.2787942 -0.07242215 -0.3194633
0001e0 7c 5a 8c be db b7 94 3d a8 b3 a3 bc 40 58 61 be
       -0.27412784 0.0726163 -0.019983128 -0.22006321
0001f0 5e 5e 77 be 69 fd fa be a9 1f d1 bd 20 50 db 3e
       -0.24157092 -0.49021462 -0.10211117 0.42834568
000200 0a b7 10 3f 1e 3c 02 3f 4b 17 28 be f1 28 94 be
       0.56529295 0.5087298 -0.16415136 -0.28937486
000210 ac 6e 0e be 72 2e 4d be be 8d 95 3e a1 0c 06 3f
       -0.13909405 -0.20037249 0.29209703 0.5236302
000220 49 b2 e5 3e 01 93 18 bf 2e 0e 0d 3f 1d af 91 be
       0.44862583 -0.5959931 0.5509976 -0.28453913
000230 69 2b 69 3e 2e ca e2 3d 32 65 a5 3e c6 3d 53 3e
       0.22770466 0.11073719 0.32303768 0.20629033
000240 26 ad 19 bf 49 73 23 bf 14 f2 9d bd af 51 98 3d
       -0.6002983 -0.63847786 -0.07712188 0.07437455
000250 79 79 0c 3f 3a e7 a8 be c2 8f 3a 3f f3 93 98 3e
       0.5487285 -0.32988912 0.72875607 0.29800376
000260 ac a5 e3 be 49 f8 59 3e 84 74 b8 bd ad a3 c8 3e
       -0.44462335 0.2128612 -0.090065986 0.39187375
000270 fe 37 85 be 03 d1 ac 3e 1b bc e2 3e 29 47 e9 3e
       -0.2601928 0.33753213 0.44284138 0.45562103
000280 e7 4e 87 be 01 72 e5 be ba 51 8f be 03 a0 1b 3e
       -0.26427385 -0.4481354 -0.2799204 0.15197758
000290 12 3d 24 3f 7b 8a 04 3d 68 2c f7 be 5f 04 f4 be
       0.64155686 0.032358628 -0.48276067 -0.47659585
0002a0 f4 ef 04 be 68 5d 5e 3e 22 ef 29 bf 12 8c cf bd
       -0.1298216 0.21715319 -0.6638051 -0.10134138
0002b0 93 bd 37 be 3a 03 56 3e 1b 48 bb 3e 35 e5 3a be
       -0.1794341 0.20899668 0.3657845 -0.18251498
0002c0 63 13 66 be 08 3c c1 bd ba d4 5d 3e 03 44 e5 be
       -0.22468333 -0.09435278 0.2166318 -0.4477845
0002d0 09 03 92 3e 75 cd d9 bd 5a bc 30 be 5c 33 3d bf
       0.2851794 -0.10634891 -0.1725935 -0.73906493
0002e0 22 e6 03 3e ec 5c 06 3f b8 26 1f 3f 68 d8 1c bf
       0.12880757 0.5248554 0.62168455 -0.6126771
0002f0 a9 0e 4c 3f 6b 9e b8 be fe 84 20 be 56 a7 17 be
       0.7970987 -0.36058363 -0.15675732 -0.14809927
000300 30 01 e4 be cf 51 55 3d 2c bc a4 3e b3 c5 5c bd
       -0.44532156 0.052079972 0.32174814 -0.05389948
000310 f8 da 34 3f a0 8f 04 bd 9c 0b 70 be c1 f0 46 3e
       0.7064662 -0.032363534 -0.23441929 0.19427778
000320 9f fe a4 be 44 8b ab 3e 4c 92 fb bd 60 80 be bd
       -0.3222551 0.3350469 -0.12283763 -0.09301829
000330 76 da 1b 3e a8 08 16 3d 20 42 39 3f 82 19 e3 be
       0.15220055 0.03662935 0.72366524 -0.44355398
000340 b0 92 c6 3e 3e 95 df bd 49 2f 1e 3e c7 d1 31 3e
       0.3878379 -0.109171376 0.15447725 0.1736518
000350 a4 b0 db 3e 32 d1 3a 3f 12 60 8e 3e d8 4c b4 bd
       0.42908204 0.72975457 0.2780767 -0.08803719
000360 7a 06 1f bf 16 9f cc bd 7c 50 0f 3f 7b 4b 09 3e
       -0.6211926 -0.09991281 0.55982184 0.134077
000370 3d 1d 24 bf 7f 6e 51 bf 27 d2 b0 be a4 82 b3 be
       -0.64107114 -0.8180923 -0.34535334 -0.35060608
000380 6f bb 8b 3e 60 a3 06 3f 55 e7 03 3d 4e b8 94 3d
       0.27291438 0.5259304 0.032203037 0.07261716
000390 68 12 a5 be 10 4a 63 be 36 db c8 3e 3d c7 90 be
       -0.32240605 -0.22196221 0.39229745 -0.28277007
0003a0 55 53 db 3d 89 7d 88 3b c8 20 ab be 12 4a 4f be
       0.10709254 0.0041653556 -0.33423448 -0.202431
0003b0 eb e7 80 3e 73 a9 f0 3d 74 bd 74 3e 98 c0 2b 3f
       0.2517694 0.1175107 0.23900396 0.6709075
0003c0 af c4 4f 3d c4 d4 1e be 57 76 13 3e d8 fb 9e bc
       0.05072468 -0.15510851 0.14400612 -0.019407198
0003d0 81 7e d4 be f6 84 1f 3f 5e 0f ad be c9 72 0b be
       -0.41502765 0.6231226 -0.33800787 -0.13618006
0003e0 3e de 92 be 50 4c 6f 3e 17 39 e5 3e 50 d4 2a be
       -0.28685182 0.23368955 0.4477012 -0.16682553
0003f0 7f 60 66 bf c2 aa 63 be 4b c0 82 3e 0c a4 ed be
       -0.8999099 -0.22233108 0.25537333 -0.4641422

fc.bias f4 [18]
000000 e7 49 a3 bd 5d 50 e9 3d e8 1a b5 be a5 c9 24 3d
       -0.0797308 0.11392281 -0.3537209 0.040231366
000010 6a b0 80 bc 3b 32 72 bc b1 48 04 bc 8a 35 0b 3e
       -0.01570912 -0.014782484 -0.008073972 0.13594642
000020 3d 03 cc bd be 19 82 bc 0c 02 51 be 80 ee 74 3d
       -0.09961555 -0.015881415 -0.20410937 0.059797764
000030 9f 87 ac 3e c0 e6 d3 bc 11 3a 00 bc 1f da 04 3d
       0.3369722 -0.025866866 -0.007826344 0.03243458
000040 71 0c 23 3d b5 8e fd 3d
       0.039806787 0.12380735
