text_classify/logs/GRU/GRU_epoch_60_acc_0.8182.pth (torch, 299249 bytes, 6 tensors)

gru.weight_ih_l0 f4 [384, 57]
000000 f7 de 4c 3e 97 df a3 3e 83 dc ed 3e 6e 6b 18 3f
       0.2000693 0.32006523 0.464573 0.59538925
000010 4f fb 24 3e 8c 8b e2 3d 08 f8 d5 3c 82 9b 49 3e
       0.16111492 0.11061773 0.026119247 0.19688228
000020 26 ff 28 bf a2 a6 2c bf a5 5a b0 be 2c e0 bf 3e
       -0.66014326 -0.6744176 -0.34444156 0.37475717
000030 6b cd 77 3d e8 2f ec 3e 38 15 8d 3b 65 ff 0b 3d
       0.060498636 0.461303 0.004305508 0.03417911
000040 12 15 e6 3e eb a1 4a 3b 8f 1d 11 bd 62 7b e7 3e
       0.4493795 0.0030919265 -0.03542858 0.4521132
000050 b9 b1 6e be 8d 95 37 be 9f 6e 11 3e 74 63 17 3c
       -0.23309983 -0.17928143 0.14202355 0.00924002
000060 81 06 24 3f 07 b8 be bd 98 d6 45 be 34 1e 1c be
       0.64072424 -0.09312444 -0.19320142 -0.15245897
000070 89 1f 6e 3e 30 bf 4d 3e 60 6b 10 3e bd a8 fb bd
       0.23254217 0.20092463 0.1410346 -0.12288044
000080 65 ab 6b be c8 07 11 be 49 3c 8b be 27 f0 71 be
       -0.230146 -0.14163125 -0.2719443 -0.23626767
000090 c6 9b 96 be 72 cd 1d 3e 93 21 58 ba 43 77 df bc
       -0.2941572 0.15410402 -0.0008244749 -0.027278548
0000a0 47 5d 0d 3c 6d 1f 17 3e a7 06 9f 3e 6b 9b 9b bc
       0.008628196 0.14758082 0.31059763 -0.018995008
0000b0 18 02 a9 3c cc 92 b1 be 4f dd 56 be 3b e1 d6 bd
       0.020630881 -0.3468231 -0.2098286 -0.10492178
0000c0 a3 1a a0 3b 7c 4a 8a be 2d ca 8b be 71 36 21 3c
       0.004885988 -0.27009952 -0.27302685 0.00983964
0000d0 cd 64 26 3d 9b dc 6f 3c 27 d6 95 3d 07 10 92 bb
       0.040623475 0.014639999 0.07316237 -0.004457477
0000e0 dc 00 c2 be 93 0f 3e 3f 88 79 04 3f 61 55 02 3f
       -0.3789128 0.74242514 0.5174794 0.5091153
0000f0 f9 97 cc be b1 b5 89 3e 4a 75 1a 3d cd d2 91 bf
       -0.39959696 0.26896432 0.03770951 -1.1392456
000100 75 95 6e be a7 29 93 3d 58 e1 22 bf 00 32 af be
       -0.23299201 0.07185679 -0.636251 -0.34217834
000110 89 e2 ae 3d e9 3b d4 be f3 6e d7 3d 69 2b 40 be
       0.08539302 -0.41451958 0.10519209 -0.1876656
000120 24 56 e3 3c 6a 2b e6 3d f1 cc ff 3e e9 a2 75 be
       0.027751036 0.11238749 0.49961045 -0.23987927
000130 f5 1e e2 3e d2 8b f9 3d aa 8f bd 3c d1 db b3 be
       0.44164243 0.12184872 0.023139793 -0.35128644
000140 4a c9 db 3e 15 bc d2 3e 96 48 c5 be 39 5f b7 bd
       0.4292701 0.4115912 -0.3853194 -0.08953709
000150 77 92 24 3e ab 6a e0 3c e1 43 3f 3e 51 ff 05 3e
       0.16071497 0.027394613 0.18678237 0.13085677
000160 f3 44 86 3e 50 b5 b7 bd 9f 04 56 3e 81 d0 4e 3e
       0.2622448 -0.089701295 0.209002 0.20196725
000170 f1 ba 26 3b 8e 06 38 3e 6e 43 82 bd ff 05 76 3d
       0.0025441016 0.1797125 -0.063605174 0.060064312
000180 62 9a 8c be 2e 7a 17 3e d8 a5 3e bd f4 cc 8e be
       -0.27461535 0.14792702 -0.04654488 -0.27890742
000190 54 f4 db ba bc d9 a6 bc d5 1a a2 bd 83 7d 77 3e
       -0.001678119 -0.020367496 -0.07915274 0.24168973
0001a0 5b 71 4d 3e f6 7d 5e be 53 8d 3d be 1a 14 b3 3d
       0.20062773 -0.21727738 -0.18510942 0.087440684
0001b0 6a 09 b6 3d ce 5b 53 bf 9c 88 0d bc 4d 3d ea bd
       0.08888514 -0.8256196 -0.008638527 -0.114374734
0001c0 ce 6f 0b 3d ac 58 e2 3e bf d2 42 3f 95 a4 83 bf
       0.034042172 0.44208276 0.76102823 -1.0284601
0001d0 db 0a e3 3e ad 5c cd 3b bd 9c 2a bf 5a 58 a3 3e
       0.4434422 0.0062671513 -0.66645414 0.31903344
0001e0 0f 6e 11 bf 45 5b e9 bd 8f 3f 66 3e c4 ae 58 be
       -0.5680856 -0.113943614 0.22485183 -0.21160418
0001f0 eb 86 6b 3e 6d 7e ee 3e a0 a9 dc bd 21 76 af 3e
       0.23000686 0.4658083 -0.10774541 0.34269813
000200 42 3a c8 bc 07 7a 71 be 7f a9 69 be 3a d5 b7 3e
       -0.024441842 -0.23581706 -0.22818564 0.35904866
000210 2e 0a 2b bf a3 8e 23 bf 55 6c 42 be fd c2 19 3e
       -0.6681241 -0.6388952 -0.18986638 0.15015788
000220 64 11 50 be 6e 85 10 be 2a 20 e3 bd 1f b1 42 3e
       -0.20319134 -0.141134 -0.11090119 0.19012879
000230 21 35 12 3f 0d b7 b1 3e fa dd 0f 3a 00 e6 eb 3e
       0.5711232 0.3470997 0.0005488094 0.46073914
000240 28 96 56 3e ed 66 a2 be bb 30 2d 3e 5f d4 03 3e
       0.20955718 -0.3171915 0.1691312 0.12873982
000250 d2 65 dd 3e 9b 47 5d bd a2 af 28 be 87 16 91 be
       0.43241745 -0.054023366 -0.16473249 -0.283375
000260 1b 5d f7 bd b6 34 e7 3d aa 5c b7 bd 30 a9 35 bf
       -0.12078305 0.11289351 -0.08953221 -0.70961285
000270 67 02 7a bd 5c 00 ed ba 5c 2a ca 3d 47 05 c3 3d
       -0.061037447 -0.0018081772 0.09871361 0.09522491
000280 71 40 dc 3e 01 e9 e0 3b 45 d8 91 3e f9 d5 90 3d
       0.43017915 0.0068637137 0.28485313 0.07072062
000290 68 7e e9 be 5d 08 bd be 16 26 0b bf bf 72 18 bc
       -0.45604253 -0.36920443 -0.5435499 -0.009304701
0002a0 bd 8a e9 3d 0c db a9 3d d2 91 2f 3e 0c 6f b5 3e
       0.11403415 0.08293733 0.1714547 0.35436285
0002b0 fa 43 bd be 74 3c 4c bf 0b 03 55 be ae 27 5d bd
       -0.36965925 -0.79779744 -0.20801942 -0.05399292
0002c0 bb 2c 6e 3e ee bf ca 3e 0e 7d b5 bd 74 59 cc bd
       0.23259251 0.39599556 -0.08861743 -0.09977999
0002d0 b1 d4 32 3f 03 56 19 3f a0 00 1f 3f cf fc eb 3d
       0.6985579 0.5989687 0.6211033 0.11522829
0002e0 09 fd 3f 3e e3 fd 6c bd e4 e3 04 bf 39 fe 36 bf
       0.18748869 -0.057859313 -0.51910233 -0.71481663
0002f0 40 4e 83 be 97 2b 8c 3d 91 67 12 bf 65 e5 62 3d
       -0.25645638 0.068442516 -0.5718928 0.05539455
000300 4b ef 26 be ae 93 00 3d 04 83 a4 be 10 6a 4e bf
       -0.1630222 0.03139084 -0.32131207 -0.8063059
000310 28 dd 0f bd eb 12 37 bd 1e c3 a9 3e e8 5b 0e 3d
       -0.03512302 -0.044695776 0.33156675 0.034755617
000320 34 9d b9 3b db db 92 be dc 61 aa 3d fc 7b 75 bd
       0.005664492 -0.2868336 0.083194464 -0.059932694
000330 e1 8c 4c be 80 8b 1a bb bd e5 a7 be c1 58 cf 3e
       -0.19975616 -0.0023581684 -0.32792464 0.404974
000340 71 7f 21 be 62 4e 1c be 9b 60 7d 3c 60 a1 62 3e
       -0.15771271 -0.15264276 0.015464927 0.22131872
000350 d3 a3 7d be cf 53 46 3e da c2 aa 3b 53 f8 fc 3d
       -0.24769525 0.19367908 0.0052112164 0.123520516
000360 1e 4a 99 3e d8 da b6 3e 79 58 01 be ed ef b9 be
       0.2993936 0.3571384 -0.12631406 -0.3631586
000370 2c 37 06 3e 0d 38 dc be 6b 00 2f 3c a2 5c 39 bf
       0.13106984 -0.43011513 0.010681252 -0.7240697
000380 62 9d 8a bd 0d 78 2c be ac 2a 19 bd 71 30 45 3f
       -0.067683 -0.1684267 -0.03739421 0.7702704
000390 c2 23 9b 3e c0 91 51 bf e7 2e 13 3e 2a db 08 3f
       0.3030072 -0.8186302 0.1437336 0.5345942
0003a0 10 eb 0b be b2 b1 a0 3d a6 b7 ea 3c 95 30 05 3f
       -0.13663888 0.07846393 0.028652024 0.52027255
0003b0 e9 48 e0 3d ab c4 96 3d 01 e0 d9 3e 86 45 0e be
       0.109514065 0.0736173 0.42553714 -0.13893709
0003c0 5a e4 b5 3d cd d6 1d 3f 05 a5 6b bf ac d0 0c bf
       0.08881445 0.61655885 -0.92048675 -0.5500591
0003d0 00 69 bb bd 90 e7 43 3f 5c 69 77 3e 85 98 31 bf
       -0.091508865 0.7652521 0.24161285 -0.6937335
0003e0 23 e7 8a 3e c6 a7 0b bf 4e db a1 3e 22 b8 30 be
       0.27129468 -0.54552877 0.3161263 -0.17257741
0003f0 36 7d a2 bc 61 3a 58 3c 3d df 2c 3d 0f cb 8d be
       -0.019835096 0.013197512 0.042205084 -0.27693984

gru.weight_hh_l0 f4 [384, 128]
000000 ee d4 f6 bc d4 91 d4 bd b8 80 60 bc f4 e4 1d bd
       -0.03013083 -0.10379377 -0.013702564 -0.038548425
000010 2a 0b 27 be b8 ea c5 bd 3b 78 8a 3d 81 ca 2c 3e
       -0.16312853 -0.0966391 0.067612134 0.16874124
000020 7f 2d 1a be 84 fe 7b 3c 4b 4d c3 3d b7 53 dd 3e
       -0.15056418 0.0153805055 0.09536227 0.43227932
000030 fe 79 10 3e c5 b2 77 3d 75 e3 39 3d e2 b7 ca 3d
       0.14109036 0.060473222 0.045382936 0.09898354
000040 de cd 8d bd 5a 28 b2 bb 87 50 8b bd 77 b5 b7 3b
       -0.06924032 -0.005436939 -0.06802469 0.005606349
000050 99 f1 1e 3c 00 9e e4 3d 10 01 89 bd c8 f0 17 be
       0.009701156 0.111629486 -0.06689656 -0.14837945
000060 15 90 65 bd 5e e8 2f 3d a4 65 44 bd 05 77 06 be
       -0.05604561 0.042946212 -0.047948495 -0.1313134
000070 c9 da 44 3d c3 88 90 3e 60 0b 3c 3b ce c1 ec 3d
       0.048060212 0.2822934 0.0028693303 0.11560403
000080 8f 01 31 be 70 9d d3 bd 64 24 af bd b7 42 43 bd
       -0.17285751 -0.10332763 -0.08551863 -0.047671046
000090 7b df cd 3a 83 72 3a bc ea e7 26 bd ee a5 d0 bd
       0.0015706861 -0.011379841 -0.040748514 -0.101878986
0000a0 7a 2a 92 3d d9 91 91 bd 6f bb bc bc e3 8f ff bd
       0.07137008 -0.07107896 -0.023038594 -0.12478616
0000b0 24 5a a0 3c 82 24 a7 3d 60 7f ee 3b 2a a3 31 3d
       0.019574232 0.0816126 0.007278368 0.043368496
0000c0 0a 9a a2 bb 44 7d 60 3d bc 0d d6 3c 50 a8 fc bd
       -0.0049622105 0.054806963 0.026129596 -0.123367906
0000d0 6c 5a 90 3d ef 74 02 bd 34 40 18 3d 59 22 4e be
       0.070484966 -0.031849798 0.037170604 -0.2013029
0000e0 9a 38 92 bd e5 16 d3 3b f5 4f 18 3c 12 b6 65 3d
       -0.07139702 0.006441938 0.009296407 0.05608184
0000f0 8b 3d e2 bc 9f 24 a8 3d a5 95 88 bd c6 ab 59 bd
       -0.027617237 0.0821011 -0.066691674 -0.05314233
000100 c9 ad 1f 3d 46 bf 2e 3e 27 90 0d 3e 6f a8 1c be
       0.038984094 0.17065153 0.13824521 -0.15298627
000110 b7 e4 4b be 75 d5 ec bd 9e e3 bc bc 77 45 35 3c
       -0.19911467 -0.11564151 -0.023057755 0.011063925
000120 33 80 dc bd 4c b6 5d bd 36 66 6f 3e 88 d3 80 bc
       -0.107666396 -0.05412893 0.23378834 -0.015725866
000130 70 a7 a8 bd 80 96 b8 bc 00 b2 d9 bc 69 c9 20 be
       -0.08235061 -0.022532701 -0.026574135 -0.15701832
000140 b6 23 ab bd 01 b2 e7 3c de 14 42 be b2 27 c2 bd
       -0.08356421 0.028283121 -0.18953273 -0.094802275
000150 89 ce 4b 3d 0b 50 c5 3d 61 52 25 3e 21 8c b0 bd
       0.049757514 0.096344076 0.16144706 -0.086204775
000160 8c b7 87 3e aa c1 0d 3c 9e 50 2d 3e 4b 69 da bb
       0.26507223 0.00865213 0.16925284 -0.006665384
000170 e2 5d 97 3d 62 d1 ea 3d 1d 87 09 3d 70 78 5e 3d
       0.073909536 0.11465718 0.03357612 0.054314077
000180 d6 fb 1c be 04 89 38 3e 4f 3a f0 bc ad c8 24 bd
       -0.15330443 0.18021017 -0.029324679 -0.04023044
000190 44 fb 9c bc f3 b7 70 bd 0c 03 16 be 45 c1 1e be
       -0.019162782 -0.058769178 -0.146496 -0.15503414
0001a0 84 cf 03 3c 14 34 30 bd 2e 9c 87 bc d4 51 b8 bb
       0.008045081 -0.043018416 -0.016553964 -0.005624989
0001b0 6e 0d 52 be 28 84 b9 bc 12 61 25 3d 6e eb 20 3e
       -0.20512936 -0.022646025 0.040375777 0.1571481
0001c0 09 37 fe 3c d3 06 68 bd d4 fc 02 3e 2c 42 1a bd
       0.031032102 -0.056647133 0.12791759 -0.037660763
0001d0 27 37 0c 3e b5 43 84 3d 7a be db 3c 60 ec 31 3d
       0.13692914 0.064582266 0.026824225 0.043438315
0001e0 6c d0 b6 bc e0 9a ff 3c 91 e0 fd 3b 17 8e fe bd
       -0.02231618 0.03120178 0.0077477177 -0.12429445
0001f0 2e 69 40 be ae 84 bd bd 17 45 1f 3d e0 87 89 bc
       -0.18790123 -0.09253822 0.03888425 -0.016788423
000200 98 cc 1d bd 63 13 f5 be 35 0a 2e 3e e2 1f 8f 3d
       -0.038525194 -0.47866353 0.16996081 0.06988503
000210 39 09 93 3e 72 5e c1 bd 18 6f 27 3d c6 8f 2f 3e
       0.28717974 -0.09441842 0.04087743 0.17144689
000220 92 1d 03 3f de 14 01 be a5 d5 0b be 61 ab e2 bc
       0.51216996 -0.12605616 -0.13655718 -0.02766961
000230 73 b2 45 3c 10 86 02 3e c0 a6 00 3e 34 bd 71 bd
       0.012066471 0.12746453 0.1256361 -0.05901833
000240 f8 af 24 3e ea 80 7f bc 70 60 1b be 04 4a 14 3d
       0.16082752 -0.0155947 -0.15173507 0.0362034
000250 a0 e8 2a bd 3f d4 a8 be 8d 1d 62 be 24 9f 22 3e
       -0.041725755 -0.3297443 -0.22081585 0.1588102
000260 8b 13 99 3d d8 da ce be a6 41 2f be 6e 05 44 be
       0.07474431 -0.4040134 -0.17114887 -0.19142696
000270 e9 07 61 be 4c de c0 be 73 a5 64 3d bc 67 bc 3d
       -0.21975674 -0.376696 0.055821847 0.09199473
000280 b0 83 c0 bd ef 21 db 3d e7 1d a0 3e 47 d8 c4 3c
       -0.094001174 0.10699832 0.31272814 0.02402891
000290 46 50 37 be 4b c5 cc bc 19 3e a6 be f8 aa 73 bd
       -0.17901716 -0.02499642 -0.32469252 -0.05948922
0002a0 ea 62 3e be 3e 6e 0d 3e a3 93 02 3e 1d 75 61 3e
       -0.1859242 0.13811585 0.12751631 0.22017331
0002b0 1f 04 ae 3d a8 a1 48 be 5b 33 2e 3e 33 01 1d bc
       0.0849688 -0.19592917 0.17011778 -0.009582805
0002c0 f1 89 3f bd dc 5a 80 bd 0b 36 89 bd 82 8e 96 be
       -0.04676241 -0.0626733 -0.06699761 -0.294056
0002d0 b3 f6 15 bd 9a 8f 78 be 01 b6 fa 3c 4d d2 cd 3e
       -0.036612224 -0.2427353 0.030604364 0.4019951
0002e0 94 0e 90 be c1 f5 03 3e ec e2 48 3d af 10 c7 bc
       -0.28136122 0.12886716 0.049044535 -0.024299948
0002f0 68 0a 3e 3d d3 6b 22 3c 80 f4 ea 3d 84 9c 74 bd
       0.046396643 0.009913403 0.11472416 -0.059719577
000300 b1 e2 9c be 91 4a 40 be 77 ca 84 be c5 2c 75 3c
       -0.30641702 -0.18778445 -0.25935718 0.014964287
000310 01 0f d2 3d dd b6 75 be c3 77 95 be ad 48 c4 be
       0.10256768 -0.23995538 -0.29192933 -0.38336697
000320 71 f3 a5 bd a7 07 23 be 28 ec f3 3d bd 65 91 bd
       -0.081030734 -0.15920888 0.119102776 -0.07099483
000330 6a cf 1c 3d 5e 11 56 3d da fb b7 3c d3 e9 e7 3e
       0.038283743 0.052262656 0.02245896 0.4529558
000340 b2 3f a5 bc 33 e6 c0 bd 21 96 70 3e ec 9f a8 bb
       -0.020171974 -0.09418907 0.2349477 -0.0051460173
000350 e5 37 d6 bd 41 87 24 be b8 c8 92 3e 82 83 c2 3e
       -0.1045988 -0.1606722 0.2866876 0.37990957
000360 a4 48 9c be 4e 30 c9 bb fd 99 8e 3b 86 1e 2f 3e
       -0.3052417 -0.0061397916 0.004351853 0.17101488
000370 11 99 3d 3e 98 cd 18 3e 6d 6b 75 3e 7f 1d 28 3e
       0.18515421 0.14922178 0.23966761 0.16417502
000380 ba f6 1c be 4d c3 17 bc 34 f7 09 3e fe bb e3 bc
       -0.15328494 -0.009262872 0.13473207 -0.027799603
000390 0a b7 aa 3d 76 4e 8d bd 09 ac 07 be b8 bb 87 3d
       0.08335693 -0.06899731 -0.1324922 0.066276014
0003a0 d5 29 c2 3e 1e 90 61 be cf 1e a1 bd 40 3f 9f 3b
       0.3792254 -0.22027633 -0.078672044 0.004859835
0003b0 ed e9 14 be 98 4e 4d be d8 ef a6 3d 7a 22 2b be
       -0.1454236 -0.20049512 0.08151215 -0.1671237
0003c0 f7 23 bc bd 6b db 14 be 57 9b 3a bd 0d 87 60 bd
       -0.09186547 -0.14536826 -0.0455583 -0.054816294
0003d0 7c cc 5d be d3 57 97 bd 4f ae 1b be fc 14 31 3e
       -0.21660036 -0.07389798 -0.15203212 0.17293161
0003e0 49 9d 9a 3e 4c 1d e2 3d 80 56 71 3c 5d 46 9e 3c
       0.30198124 0.11040744 0.014730096 0.019320661
0003f0 1d c9 44 3d bd 1d 1e bc 5d 61 5e be 77 b1 6f be
       0.04804336 -0.009650645 -0.21716829 -0.23407541

gru.bias_ih_l0 f4 [384]
000000 9f 55 a0 3d 51 91 8d bd 14 04 d0 3d 39 43 29 bd
       0.07828831 -0.069124825 0.10157028 -0.041323874
000010 72 63 b4 3d c5 3c fe 3d 38 ca f4 3d 4d 0f a6 3d
       0.0880803 0.124139346 0.11952633 0.08108387
000020 57 ba 91 3d 14 7e 46 3e bc 28 80 bd fb bb 3b 3e
       0.0711562 0.19384032 -0.062577695 0.18333428
000030 e8 96 06 3e fd 33 80 3d ee c0 b8 3d dd 1a b9 3d
       0.13143504 0.06259916 0.090211734 0.09038327
000040 34 6b 5c 3e fd bd 06 3e 15 e0 6c 3d d6 63 7a 3c
       0.2152527 0.13158412 0.05783089 0.015282592
000050 85 c1 16 3e cc 89 8e bd 50 53 2e 3d 7b 40 23 3d
       0.1472226 -0.069598764 0.04255992 0.039856415
000060 f7 46 72 3d 8f 0e 04 3e 0e 20 44 3e 0e 37 5b 3d
       0.05914971 0.12896179 0.19152853 0.0535193
000070 88 ea 15 bd 8c 95 a3 3d d8 03 2d 3e 7a 94 25 bd
       -0.03660062 0.07987508 0.16895998 -0.0404248
000080 36 76 78 bb 16 d3 c5 3c bf 08 c1 bb e9 02 55 3e
       -0.0037912256 0.024148505 -0.005890935 0.20801891
000090 c0 7a 86 3d b8 58 0e 3d 14 3e ae 3c d8 e4 50 3d
       0.065663815 0.034752578 0.021269836 0.050999492
0000a0 ba 66 ba 3d b0 2c b7 3c 6f a9 2f 3e fb 76 9b 3d
       0.09101625 0.022360176 0.17154478 0.07591053
0000b0 0a a3 75 3b 75 fd 12 3e 21 ed 61 3e 3d b1 c2 3d
       0.0037481212 0.14354499 0.22063114 0.09506462
0000c0 34 5f 5a 3d 45 39 04 3e bc 35 b0 3c 88 bd 9f bc
       0.05331345 0.12912472 0.021509998 -0.019499555
0000d0 4f 9e e6 3d 8a c0 05 bc 00 a0 84 3d c3 56 d2 bc
       0.11260664 -0.008163581 0.0647583 -0.025676137
0000e0 35 33 53 3d 5c 9b f5 3d 92 d8 30 3e 93 ed 6d 3d
       0.051562507 0.11992523 0.17270115 0.058087897
0000f0 9c 90 c3 3d 73 2d f1 3c 18 ff f6 3d 09 b0 52 3d
       0.095490664 0.029440617 0.12060374 0.05143741
000100 5a 77 08 3c a5 4b 11 bd 5a 75 b1 bb 27 83 d5 3d
       0.008329237 -0.03547253 -0.0054156007 0.10425406
000110 2c 2a bc 3d 22 d1 4d 3e 85 58 d8 3d a5 c6 2e 3e
       0.09187731 0.20099309 0.10563759 0.17067964
000120 b2 8a 8d 3d 56 85 51 3d 9c 36 f9 bc 19 bf ca 3d
       0.0691122 0.05115255 -0.030421548 0.0989973
000130 a0 90 17 3e 2a 5f 44 3e 22 02 55 3e e7 20 0c 3e
       0.14801264 0.19176927 0.20801595 0.13684426
000140 1c 02 9a 3d 03 64 71 3e 76 de f8 bc 7a fc e3 3d
       0.075199336 0.23573308 -0.030379515 0.111321405
000150 c2 c5 0d 3d 22 54 ac 3d 00 70 00 3e aa d7 e3 3d
       0.034612425 0.084144846 0.12542725 0.11125119
000160 2e aa 5d 3d 4c 0b 1b 3e 00 de 42 3e 1a 96 25 bd
       0.054117374 0.15141028 0.19029999 -0.04042635
000170 69 96 14 3d 6c 4c a5 3d ec 5b ec 39 46 d8 1d bb
       0.036276255 0.08071217 0.00045081915 -0.0024085208
000180 9a bd b9 bc b1 4d f5 3d d0 bf 7e 3d 1e d3 61 3e
       -0.022673417 0.11977709 0.062194645 0.22053191
000190 e2 11 eb 3d 1f 98 20 3e bc 66 09 3e ac db c5 3d
       0.1147802 0.1568303 0.13418096 0.0966104
0001a0 57 41 47 bd 18 aa 46 3e 81 fe fc 3d d6 85 d0 3d
       -0.048646297 0.19400823 0.1235323 0.10181777
0001b0 3f 89 30 bc b6 ff 03 3c 00 a4 83 3c 28 9f 29 3e
       -0.0107749095 0.008056572 0.016069412 0.1656462
0001c0 62 a8 19 3d ca 86 1b ba c8 f0 06 bd 06 18 24 3e
       0.037514098 -0.0005932866 -0.03294447 0.16024789
0001d0 a9 78 24 3e 49 0c 1d 3d 65 ed bb 3d db 09 3b 3e
       0.16061653 0.038341794 0.09176139 0.18265478
0001e0 91 19 fc 3d bf 78 02 3d 1d 37 3a 3e 6b 8f c9 3d
       0.12309564 0.031853434 0.18185087 0.09841808
0001f0 8c 66 ab 3d 5b 99 1e 3e a5 57 0e 3e 2c af e1 3d
       0.08369169 0.15488188 0.13900621 0.110197395
000200 64 1f 8f bd 19 a9 7e be f3 45 18 bf 87 53 b9 bd
       -0.06988409 -0.24869193 -0.59481734 -0.09049135
000210 fb 68 b2 be 2c ce b8 be 45 1f 53 be be c1 68 bd
       -0.3484572 -0.36094797 -0.20617397 -0.056825392
000220 94 7c 05 bf 38 e6 4e be 4e a7 17 bf 32 2d 65 bf
       -0.52143216 -0.20205009 -0.5923966 -0.8952209
000230 9c c7 a0 be 09 51 52 be df 06 14 bf 82 b7 86 be
       -0.3140229 -0.20538725 -0.57822984 -0.2631188
000240 b3 c3 3e be 9a 83 7d be c5 c8 ce bd 41 ba c4 be
       -0.18629341 -0.24757233 -0.100968875 -0.3842335
000250 06 03 8c be 22 05 26 be 73 e0 fb bd 98 83 2f be
       -0.27346057 -0.16212896 -0.1229867 -0.17140043
000260 4d 19 3a be 17 b4 d6 be bb 35 32 be ab a5 b5 be
       -0.18173714 -0.41934273 -0.17403309 -0.35477957
000270 09 1b c4 be b3 fa e2 be 4a 43 a3 be fd ca 08 bd
       -0.38301876 -0.44331893 -0.31887275 -0.03339671
000280 a8 ee cf be 27 95 2b be f5 68 44 bd c8 d0 a1 be
       -0.40611768 -0.16756116 -0.047951657 -0.316046
000290 b6 69 4d be 9c bb 98 be 5b 80 85 be 9e b1 38 be
       -0.20059857 -0.29830635 -0.2607449 -0.18036506
0002a0 41 99 bb be 59 c0 9e bd 91 a5 85 be 88 82 58 bd
       -0.3664036 -0.07751531 -0.2610288 -0.05285886
0002b0 7d a4 b6 be 1b b4 e7 be 6b 12 a6 be ac ea 9c be
       -0.3567237 -0.45254597 -0.32435927 -0.3064779
0002c0 66 4d 14 bf a0 65 78 be e9 68 f3 bd 31 b4 83 be
       -0.579306 -0.24257517 -0.118852444 -0.25723413
0002d0 8b bf ed be 80 b7 9f bd 2d ee 42 be 11 ce 0e be
       -0.46435198 -0.07798672 -0.1903617 -0.13945796
0002e0 6d be 87 be bc 5b 7d bf c7 f0 bd be 76 f5 83 be
       -0.2651247 -0.989681 -0.3709776 -0.2577321
0002f0 41 6f b9 be d2 77 a6 be e0 64 a0 be 0b bd c9 bc
       -0.36217692 -0.3251329 -0.31326962 -0.024626276
000300 1d e5 47 be 81 fb 27 be be ec d7 be 52 26 a6 bd
       -0.19520994 -0.16404535 -0.42172807 -0.08112778
000310 38 19 f4 be 85 c4 32 be 3f 08 62 be ce 64 a1 be
       -0.4767549 -0.17457779 -0.22073458 -0.3152222
000320 a9 9c 49 be 01 af 18 bd d2 1f 8b be 95 d4 f2 bc
       -0.19688667 -0.03727627 -0.27172714 -0.029642383
000330 69 b7 ae bd 4e 7a 84 bd 4b f0 2f be 28 1c 0a bf
       -0.085310765 -0.0646864 -0.17181508 -0.53949213
000340 09 35 e8 bd 07 1c cd be 76 5c a2 be 08 ad 09 be
       -0.11338241 -0.40060446 -0.31711167 -0.13444912
000350 df 31 cb be b4 c0 2e be d1 ce 88 be 3d f2 63 be
       -0.39686486 -0.17065698 -0.26720288 -0.22260375
000360 32 52 3b be c2 f1 80 bd c1 50 9a be ae a7 50 be
       -0.18293074 -0.06296112 -0.30139735 -0.20376465
000370 f6 4f eb be df 3e 34 be 9c e6 a8 be b2 2b 0f be
       -0.45959443 -0.17602108 -0.3298844 -0.13981512
000380 3b 27 fa be 08 bf b7 be dd d7 b4 be 6a b0 bf be
       -0.48858055 -0.35887933 -0.3532094 -0.3743928
000390 aa 43 86 be b2 07 fa bd 07 07 a8 be c5 e8 1b bd
       -0.262235 -0.12208499 -0.3281786 -0.038063783
0003a0 f8 b4 a9 be 53 9d 89 be 67 3f ec bd c2 f9 20 bf
       -0.3314588 -0.2687784 -0.115355305 -0.628811
0003b0 85 6b 2a bf 96 71 ab be fb 29 e2 bd 00 05 20 be
       -0.6657031 -0.33485097 -0.110431634 -0.15626907
0003c0 8a d8 4d be 6c 2e b6 be f3 1f 47 bf 7c 70 01 be
       -0.20102134 -0.35582292 -0.77783126 -0.12640566
0003d0 a7 86 80 be 5a c0 67 be d7 1d d6 bd 55 7c a9 be
       -0.25102732 -0.2263197 -0.1045491 -0.3310267
0003e0 87 da 15 be a2 7b 8c be 37 06 5a be 15 a2 7b be
       -0.14634143 -0.27438074 -0.21291433 -0.24573548
0003f0 e0 4a 33 be 40 4b d0 be 63 22 33 be 36 b3 85 be
       -0.17509031 -0.4068241 -0.17493586 -0.2611329

gru.bias_hh_l0 f4 [384]
000000 3d 0c 12 3e ae ec f2 3c f6 ed 90 3d f5 0b e1 3d
       0.14262481 0.029653873 0.070766374 0.10988609
000010 ac 95 93 3d 7b 6b 16 3e 08 4f 0c 3e 5b 43 21 bc
       0.07206282 0.14689438 0.13702023 -0.009842719
000020 31 aa 96 3d 93 18 19 3e 32 d1 d6 3d c8 3f cf 3d
       0.0735668 0.1495078 0.104891196 0.10119587
000030 3c eb 81 3d 92 d1 a6 3b 9f 2e 2c 3d 95 9a 96 3b
       0.063436955 0.0050909007 0.04203665 0.0045960643
000040 2a a6 3b 3e 9a 24 33 3e 66 af 32 3e 5c 9a 4a 3d
       0.18325105 0.17494431 0.17449722 0.049463615
000050 01 49 e6 3d 65 da a2 3c 26 6c 32 3c e2 b1 d6 3c
       0.11244393 0.01987953 0.010890042 0.026207868
000060 14 c5 4b 3c 0f 0e 0e 3e c0 c8 17 3e da bb 52 bd
       0.012437124 0.1387255 0.14822674 -0.05144868
000070 a7 a3 e5 3c 9c c0 fd bc be e0 1f 3e 3c a3 33 3d
       0.028032137 -0.030975632 0.15613076 0.043856844
000080 0d 24 38 3c 66 13 05 3e 73 98 cf 3c 3f 9b 59 3e
       0.011239064 0.12995681 0.025341248 0.21250628
000090 ab 5e e0 3c ce e8 a7 3d 9f 2a 5c 3d 0d 47 01 3e
       0.027388891 0.08198701 0.053751584 0.1262476
0000a0 34 0a 75 3d d2 75 72 3d 55 79 d2 3d 50 c5 25 bd
       0.059824184 0.059194393 0.102770485 -0.040471375
0000b0 49 07 21 bd 90 0e 3c 3d db 51 58 3e ae f0 c5 3d
       -0.03931359 0.045912325 0.21124975 0.09665047
0000c0 38 83 c0 3c f9 f5 94 3d ea af 45 3d e2 45 ae 3d
       0.02350007 0.07273478 0.048263468 0.08509423
0000d0 99 b5 64 3e ed c7 81 3d 6d 89 f9 3d f1 35 a6 bd
       0.22334899 0.06336961 0.12184415 -0.08115757
0000e0 9e 15 87 3d b6 bd 4c 3b ec 84 46 3e a5 b8 bb 3d
       0.0659592 0.0031241006 0.19386643 0.091660775
0000f0 53 d2 b1 3d ed bc 85 3d 98 a1 e3 3c 89 99 b4 3d
       0.08682694 0.06530175 0.027787015 0.08818347
000100 44 90 82 3d f4 e4 f8 3c 16 e6 e1 3d fc 0a 00 3e
       0.06375173 0.03038261 0.110302135 0.1250419
000110 57 72 0f 3e ef 4a 87 3d f4 1e 8c bc 08 1d 05 3e
       0.14008461 0.06606089 -0.017104603 0.12999356
000120 f8 9b cb 3d cc 1f f3 3d 17 ab 2f 3d 2d fc 37 3e
       0.09941858 0.11871299 0.042887773 0.17967291
000130 5b 5e 20 3e cd f6 20 3e c0 45 17 3e 6a 9c f3 3b
       0.15660994 0.15719147 0.14772701 0.0074344175
000140 10 b4 ba 3d 8d 7b 3e 3e e3 30 44 3b 43 c8 37 3c
       0.091163754 0.18601818 0.0029936365 0.01121718
000150 00 de f6 ba c5 90 04 bd 15 cf 22 3d 03 d6 54 3e
       -0.0018834472 -0.032364625 0.03974827 0.20784764
000160 5a 21 cc 3d 61 41 a9 3d d8 a6 48 3e c1 1f c1 3d
       0.09967299 0.08264423 0.19594896 0.09429885
000170 be 10 1d 3c 3a f6 ef 3d 58 59 ce 3d 20 13 2e 3c
       0.009586511 0.11716886 0.10075635 0.010624677
000180 1c fe 6d 3d 99 93 6e 3d dd 37 4b 3e 94 57 8a 3e
       0.058103666 0.05824623 0.19845529 0.27019942
000190 8d 95 94 3d c2 13 a9 3d c5 44 27 3e a8 e8 12 3d
       0.07255087 0.08255722 0.16334827 0.03586641
0001a0 3d 20 76 3d d7 73 62 3e f8 8e 08 3c 87 aa 82 bc
       0.06008934 0.22114502 0.008334868 -0.015950454
0001b0 f6 24 eb 3c 83 cd 53 bd 04 a8 78 bc 69 0c 18 3e
       0.028704148 -0.051709663 -0.015176777 0.14848484
0001c0 3f 27 fc 3d d4 43 67 3d 65 05 7a 3d a2 f6 fc 3d
       0.12312173 0.05646117 0.0610403 0.12351729
0001d0 3c 2e 18 3c da 0a f5 3c 97 7e 13 3e c1 3a 2e 3e
       0.009288367 0.029912401 0.14403759 0.170146
0001e0 8f 8f 8e bc 3c 8e 53 bd 89 26 14 3e 8f 3d 8e 3d
       -0.017402438 -0.051649317 0.14467825 0.06945335
0001f0 45 51 14 3e 7d d9 93 3d 1d 51 da 3d 79 ef 6f 3c
       0.14484127 0.07219217 0.106600024 0.014644497
000200 fb fd ae bd 9a d8 38 be 3d 6e f9 be ee f9 34 be
       -0.08544537 -0.18051377 -0.48716918 -0.17673466
000210 cd e3 76 be 31 82 b4 be 0c 03 53 be 89 08 b2 3c
       -0.24110337 -0.35255578 -0.20606631 0.021732586
000220 63 05 14 bf 10 eb 94 be e9 9a 00 bf 27 ea 6f bf
       -0.5782072 -0.29085588 -0.50236374 -0.93716663
000230 23 08 7e be 94 b5 1a be ac bd 14 bf fb 0a 62 be
       -0.24807791 -0.15108329 -0.58101916 -0.22074501
000240 90 75 4b be e2 48 b0 be a1 e3 cb bd 4f 1e d9 be
       -0.19869065 -0.34430605 -0.09955526 -0.42405936
000250 e8 77 a0 be 4c 35 06 be b5 8e 9c bd ac be 93 be
       -0.3134148 -0.13106269 -0.07644407 -0.2885641
000260 09 1e 48 be 67 d5 b8 be 3c 1d 25 bd 0a 4a 88 be
       -0.19542708 -0.36100313 -0.040311083 -0.26618987
000270 4c 7c f7 be c3 d5 ba be 8c 91 8d be 83 9b e3 bd
       -0.48337018 -0.36491212 -0.27650106 -0.11113646
000280 b1 a5 aa be cd 37 ed bd 16 54 c9 bd 40 af be be
       -0.33329538 -0.11582909 -0.09830491 -0.3724308
000290 00 c9 2f be 57 55 88 be 37 05 d3 be 70 03 a0 bd
       -0.17166519 -0.2662761 -0.41214916 -0.07813156
0002a0 eb 4f ad be d0 e9 1f bd bb b4 c2 be d4 bb 5a bd
       -0.33850035 -0.03904134 -0.3802851 -0.053401783
0002b0 d2 34 8c be 45 38 cb be a0 4e a4 be f6 d9 a6 be
       -0.2738405 -0.39691368 -0.32091236 -0.32588166
0002c0 48 72 1a bf 9d 38 bc be f2 96 7a be 28 45 8b be
       -0.6033063 -0.36761943 -0.24471644 -0.272012
0002d0 d2 3c f7 be 37 7f bc bd ac 95 0e be 2e df c2 bc
       -0.4828859 -0.09203952 -0.13924283 -0.023788061
0002e0 fa a7 87 be c4 ce 61 bf 2c d1 a2 be 82 89 9c be
       -0.26495343 -0.88206124 -0.3180021 -0.3057366
0002f0 20 74 8d be 90 43 a8 be e5 b8 c0 be e4 55 e3 bd
       -0.2762766 -0.32864046 -0.37641063 -0.11100367
000300 30 9f 8b be 16 80 d0 bd a1 0a fc be f3 f0 da bd
       -0.27269888 -0.101806805 -0.4922686 -0.10690489
000310 00 88 f9 be f4 42 98 be 5d 9c 8f be fa 2d 9d be
       -0.48736572 -0.2973858 -0.28048983 -0.3069914
000320 3b 83 48 be 91 c8 42 be 09 24 ba be fa f3 b4 bd
       -0.1958131 -0.19021823 -0.36355618 -0.08835597
000330 56 9d 13 be a2 77 ee bc d2 cb 9c be c0 98 0e bf
       -0.14415488 -0.02910978 -0.30624253 -0.5570183
000340 36 69 0f be 78 47 e0 be 66 75 8e be 6a b5 6f bd
       -0.14004979 -0.43804526 -0.27823943 -0.05852262
000350 59 3e aa be 37 e4 3f be b7 40 c9 be e4 29 7e be
       -0.33250692 -0.18739401 -0.39307186 -0.24820668
000360 f9 2e 52 be 5e e8 d9 bd 9b ed c5 be c7 f4 5a be
       -0.20525731 -0.10640024 -0.3865784 -0.21382438
000370 9c ba c2 be 03 e6 15 be 4b 7a a8 be 3e fe 72 be
       -0.38032997 -0.14638524 -0.32905802 -0.23729798
000380 c7 58 00 bf a0 f9 f6 be c7 81 91 be 69 bb c7 be
       -0.50135463 -0.48237324 -0.28419325 -0.3901017
000390 78 d3 ab be 16 04 a2 bd 18 21 98 be 29 0e 34 be
       -0.33559775 -0.079109356 -0.2971275 -0.17583527
0003a0 1e 30 c6 be 4d a9 af be 93 64 0a be df 39 22 bf
       -0.38708586 -0.34308854 -0.13514929 -0.63369554
0003b0 ae 30 20 bf 55 31 a7 be 59 c9 da bd 13 c9 31 be
       -0.6257428 -0.32654825 -0.10682935 -0.1736186
0003c0 94 fa 46 be 7c 1b b1 be 08 c6 2b bf 87 4c 86 bd
       -0.19431525 -0.3459128 -0.67099047 -0.06557565
0003d0 97 11 43 be fa f0 79 be a5 f0 9d bd 6c f8 98 be
       -0.19049679 -0.24408332 -0.07711915 -0.2987703
0003e0 51 86 3b be 96 f7 12 be 29 e5 5d be 92 b7 01 be
       -0.18312956 -0.14352259 -0.21669449 -0.12667683
0003f0 59 bf 34 be ee 95 a3 be 97 80 80 be a4 c3 21 be
       -0.17651118 -0.31950325 -0.25098106 -0.15797287

fc.weight f4 [18, 128]
000000 dc e7 8d be a3 ef 99 bd f4 5c b7 3e e0 b8 c0 3e
       -0.27715957 -0.0751641 0.35813105 0.37641048
000010 bb f0 7b 3d eb a0 95 bc 42 34 49 be ff 0b f1 bc
       0.061508875 -0.018265208 -0.19648841 -0.029424665
000020 cd c3 26 be 2e 46 bb 3e cd 62 b0 be 22 74 01 3f
       -0.1628563 0.3657698 -0.3445038 0.5056783
000030 aa 15 92 3e 47 52 c9 3d 92 58 de 3d 04 8c 31 be
       0.28532153 0.09830146 0.10856737 -0.17338568
000040 fe 63 a9 3e ad 3c be bd 10 47 48 bd 29 bc 2d be
       0.330841 -0.09288917 -0.048895895 -0.16966309
000050 2f b5 1f 3c ba 0e 25 bd b5 55 71 3e 0c a8 64 be
       0.009747787 -0.040297247 0.23567851 -0.2232973
000060 02 82 22 be 6e 48 8a 3e 8b 11 13 be 1b 35 bd be
       -0.15869907 0.27008384 -0.14362161 -0.3695458
000070 b3 85 1d 3f d1 92 85 3d 5c 4d 87 3e 5d 61 24 bf
       0.61532134 0.06522144 0.26426208 -0.64211065
000080 65 c2 7e 3e da 7e 9f be 04 9d a2 3e 8d ec 37 3f
       0.24878843 -0.31151468 0.31760418 0.7184532
000090 3e a9 70 3e de e7 2b 3e 14 8c a4 3c 11 99 45 3e
       0.23502061 0.16787669 0.020086326 0.19296671
0000a0 f4 ba ce 3e 88 d3 d1 bd 94 b4 4e bd 27 10 b7 3d
       0.4037701 -0.102454245 -0.05046518 0.08938628
0000b0 38 5c 01 bf 19 38 ab be 72 b1 b4 3e 21 da 23 be
       -0.5053134 -0.33441237 0.3529163 -0.16001178
0000c0 3e e9 2c 3f ef fc 43 bd e0 5f 4a 3d 8d 79 e7 3d
       0.675434 -0.04784864 0.04940784 0.11302481
0000d0 6d cf 9f be c3 7d 08 bf c1 6a 1a be fc ec 28 3e
       -0.3121294 -0.533169 -0.15079786 0.16496652
0000e0 d8 98 eb bd ad c1 e6 be 9a f2 c2 3e a8 16 bf 3e
       -0.11503762 -0.45069638 0.38075715 0.37321973
0000f0 06 28 c0 3e 78 19 c6 be 4b d4 35 bf 7e 55 d3 bd
       0.37530535 -0.38691306 -0.7102706 -0.10319041
000100 c7 e7 61 3f f1 fb 82 be c5 1a da be 9e f5 73 be
       0.8824429 -0.2558284 -0.4259855 -0.23824164
000110 36 0b e4 be 58 1d f1 3e 81 da 4d bb d1 dd d2 be
       -0.44539803 0.470927 -0.0031410756 -0.41184857
000120 c2 7c 8d 3e c5 0d a8 3d 48 57 1a bd 9d 26 06 be
       0.27634245 0.08205751 -0.037680894 -0.13100667
000130 f6 d3 b3 3c c1 2a 4a 3e 1a c0 d0 bc 71 76 82 bd
       0.021951657 0.19742872 -0.025482226 -0.06370247
000140 fb 0f a2 be 96 ec 05 bf 73 9b 80 3d 8d 65 a6 3d
       -0.31652817 -0.52314126 0.062796496 0.08124838
000150 c1 41 c7 be f0 b5 25 be f2 6d d4 3e a2 85 a2 be
       -0.38917354 -0.16182685 0.41490132 -0.3174258
000160 39 ed 37 bf d6 5d 81 3e 06 57 3f bd 38 12 54 3e
       -0.7184635 0.25266904 -0.04671385 0.20710075
000170 f9 e7 7b bc 6e 71 13 3e 54 9e a3 3e 2f 43 fd 3e
       -0.015375131 0.14398739 0.31956732 0.4946532
000180 f2 59 1e 3f 0f e0 87 be ff 4b ae bc 7d 4f 92 3d
       0.61855996 -0.2653813 -0.021276472 0.071440674
000190 b0 ce 6a be 9f 76 eb 3e aa 17 01 3f 62 9d b4 3d
       -0.22930408 0.45988938 0.50426733 0.08819081
0001a0 3d 25 9d 3d a4 c7 3f 3f 43 dc 69 3d d4 53 cb 3e
       0.07673118 0.74914 0.057094824 0.39712393
0001b0 59 96 e7 be 5b bd d1 be ea 92 1c bf ab 0e cd 3e
       -0.45231894 -0.4096478 -0.61161673 0.40050253
0001c0 8c 2a 47 3e 19 92 0b be f7 84 1a be ac 4c 99 bd
       0.19449824 -0.1362995 -0.15089785 -0.07485327
0001d0 29 4e ea bd 89 48 07 3e b8 96 75 bc cb 53 7c be
       -0.11440689 0.13211264 -0.014989547 -0.2464134
0001e0 c8 9c 62 be 6e 0c c3 3d a1 39 cc bb 8f 06 3d be
       -0.2213012 0.09523855 -0.006232456 -0.18459533
0001f0 d7 20 47 be 73 5e 8d be 62 51 12 be 36 4e 9a 3e
       -0.19446121 -0.27611122 -0.14288858 0.30137795
000200 a6 05 dd 3e a8 a4 90 3e fc a2 26 be 13 1b 5c be
       0.43168372 0.28250623 -0.16273111 -0.21494703
000210 9c ff b3 bd 8b 6e ec bd ce e5 47 3e b9 d3 d5 3e
       -0.08788988 -0.11544522 0.19521257 0.41763094
000220 92 3e 9b 3e ca 99 ed be de 0f ee 3e 3b 0e 56 be
       0.30321175 -0.46406394 0.4649648 -0.20903866
000230 84 59 25 3e 41 51 b6 3d 0c 0a 81 3e 89 f3 2b 3e
       0.16147429 0.08902217 0.25202978 0.1679212
000240 b7 ea d7 be 4b dc df be 2e 9f 68 bd 52 a8 5d 3d
       -0.4217126 -0.43722758 -0.05679243 0.0541156
000250 3f 8a b4 3e e0 a3 6a be 15 17 0b 3f a5 8f 73 3e
       0.35261723 -0.22914076 0.54332095 0.23785265
000260 a8 e4 81 be f8 69 da 3d dd f8 81 bd 1d 9f 98 3e
       -0.25369763 0.10664743 -0.06346295 0.29808894
000270 77 4f 58 be 2a 61 a8 3e 98 dd 8f 3e 78 f4 d9 3e
       -0.21124063 0.3288663 0.2809875 0.42569327
000280 41 c0 86 be 7c 88 9a be c0 14 56 be 63 41 c2 3d
       -0.26318553 -0.30182254 -0.20906353 0.09485128
000290 c4 63 e1 3e 37 ba 06 3c b8 35 a8 be e0 48 98 be
       0.44021428 0.008223108 -0.32853484 -0.297431
0002a0 16 21 ce bd a6 1a 36 3e 43 2c f0 be 06 11 bb bd
       -0.100649044 0.17783603 -0.4690877 -0.09134106
0002b0 6a 1d 20 be 44 f9 cf 3d 39 b0 45 3e 0d 0c 0b be
       -0.1563622 0.101549655 0.19305505 -0.13578816
0002c0 16 f7 51 be 55 04 f2 bc ed 3c bd 3d aa 50 aa be
       -0.20504412 -0.029543081 0.09240136 -0.33264667
0002d0 a8 a6 93 3e af fe ac bd b9 32 60 bd e9 78 fe be
       0.28838086 -0.084470145 -0.054735873 -0.49701622
0002e0 a0 30 10 3e 3c 0c ca 3e 67 77 ea 3e 8d 85 bb be
       0.14081049 0.3946246 0.45794222 -0.3662533
0002f0 f6 bb 0d 3f 0b b4 a0 be e5 1a 05 be a0 fb bc bd
       0.5536493 -0.31387362 -0.1299854 -0.09227681
000300 bb 66 ad be 9f e6 76 3d 86 8d 9b 3e 6c f0 02 3b
       -0.3386744 0.06027853 0.3038141 0.0019979728
000310 ce d6 ca 3e 5a e7 9e bd 5a c7 51 be f5 a2 23 3e
       0.39617008 -0.077589706 -0.20486203 0.15980132
000320 e4 87 86 be d8 3a 46 3e 7d f2 44 be 28 5b 33 bd
       -0.2627555 0.19358385 -0.19233127 -0.043788105
000330 27 ad 7c 3d 2f b3 4b 3d dd 81 ef 3e b2 15 b5 be
       0.06168857 0.04973143 0.46778765 -0.35368115
000340 3e 61 8e 3e 12 9f 93 bd 45 27 d3 3d e4 da 1d 3e
       0.27808565 -0.07208075 0.103102244 0.15415531
000350 7e f0 5b 3e c6 78 f9 3e 64 0f 02 3e 54 47 a1 bd
       0.21478459 0.48724955 0.12701184 -0.07874933
000360 91 d0 cc be ff 41 01 bd 0f 30 a3 3e 20 5a 28 3e
       -0.40002874 -0.03155708 0.31872603 0.1644063
000370 e2 84 e3 be 6a 8b 17 bf 44 bc ad be 76 7e 8a be
       -0.4443732 -0.59197104 -0.33932698 -0.27049607
000380 31 72 45 3e 4a 19 d8 3e 5f e3 9c 3c 89 15 ce 3d
       0.19281842 0.42206794 0.019151388 0.10062701
000390 b9 1c 6f be 1b f1 1a be 51 54 8c 3e 85 fe 67 be
       -0.233508 -0.15131037 0.27408078 -0.22655685
0003a0 9c 40 dd 3d 8c 3f 1f 3d 8f 54 57 be f1 af 57 be
       0.10803339 0.038878962 -0.2102835 -0.2106321
0003b0 fa c4 74 3e ce 73 eb 3c cf 6c 23 3e 82 4a 1b 3f
       0.23903266 0.028741743 0.15959476 0.60660565
0003c0 f3 c4 8e bc 3b e8 06 be b8 10 1b 3e d1 39 3e bd
       -0.017427897 -0.13174526 0.15143096 -0.046441857
0003d0 10 76 94 be 72 11 f1 3e 49 e6 61 be 49 ed 21 be
       -0.28996325 0.47083622 -0.22060503 -0.15813173
0003e0 ec 02 5d be 2f c6 27 3e 8a f0 b4 3e 04 cd 3c be
       -0.21583146 0.16384195 0.35339767 -0.18437582
0003f0 3a b2 25 bf d5 87 3a be 84 8d 11 3e 71 39 b0 be
       -0.6472508 -0.18215878 0.1421414 -0.34418824

fc.bias f4 [18]
000000 78 cd 98 bd 42 d6 0e 3e 4e 4f 75 be e6 ac 1e 3d
       -0.07461065 0.1394892 -0.23956034 0.038739108
000010 6b 99 b2 bd 8b 1f 44 3c bf c1 44 3d 53 7f 88 3d
       -0.087206684 0.011970411 0.048036333 0.0666491
000020 08 28 d8 bc 89 ac bc bc b8 e8 07 be cf 81 3f 3d
       -0.026386276 -0.02303149 -0.13272369 0.046754654
000030 17 c9 5e 3e 5a 66 a0 bd d0 fa 4f bc 13 25 2a 3d
       0.21756397 -0.07832022 -0.012694076 0.041539263
000040 bc dd 5f 3c 17 72 b8 3d
       0.013663705 0.09006136
