text_classify/logs/GRU/GRU_epoch_40_acc_0.8224.pth (torch, 299249 bytes, 6 tensors)

gru.weight_ih_l0 f4 [384, 57]
0	0x3e1dd633	0.15413742
1	0x3e68befa	0.22729102
2	0x3eed33e7	0.4632866
3	0x3ed330f0	0.41248274
4	0x3dbb1922	0.09135653
5	0x3cbd7b57	0.023130102
6	0xbbb952e0	-0.0056556314
7	0x3e45f47f	0.19331549
8	0xbf058264	-0.52152085
9	0xbf176685	-0.5914081
10	0xbe8732e6	-0.2640602
11	0x3ec04c56	0.3755824
12	0x3dae36b7	0.0850653
13	0x3eb87a92	0.36031014
14	0x3d2630c7	0.04057386
15	0x3dcb6e02	0.09933092
16	0x3ed0e983	0.40803155
17	0x3d852b97	0.06502455
18	0xbc386724	-0.011255059
19	0x3eb9debc	0.36302745
20	0xbe80e4e8	-0.25174642
21	0xbe832e9d	-0.256215
22	0x3e7a6559	0.24452724
23	0x3d8517e5	0.06498698
24	0x3eec0265	0.46095577
25	0xbcfa1b89	-0.030530708
26	0xbe3033f0	-0.17207313
27	0xbe2510b2	-0.1611965
28	0x3e578855	0.210481
29	0x3e29ccbf	0.1658201
30	0x3e09641f	0.134171
31	0xbde71c68	-0.11284715
32	0xbe48bc18	-0.19603002
33	0xbdc6788b	-0.096909605
34	0xbe83d01a	-0.25744706
35	0xbe7ed725	-0.24886759
36	0xbe9579c0	-0.2919445
37	0x3df40374	0.11914721
38	0xb9d623f2	-0.00040844042
39	0x3acde77c	0.0015709247
40	0xbbc00634	-0.0058601145
41	0x3e2ba5ee	0.16762516
42	0x3e95aaa8	0.29231763
43	0x3d1dc142	0.038514383
44	0x3d00bd55	0.03143056
45	0xbeb079c5	-0.34467903
46	0xbe4c23c8	-0.19935524
47	0xbdfc00f1	-0.12304867
48	0x3d25d5c4	0.040487066
49	0xbe801e97	-0.25023338
50	0xbe53d37f	-0.20686148
51	0xbd00ef10	-0.031477988
52	0x3d004c00	0.03132248
53	0x3c72e845	0.014825885
54	0x3d0674fd	0.032826412
55	0xbb93ead3	-0.004514077
56	0xbeb7ccdc	-0.35898483
57	0x3f2f5736	0.6849245
58	0x3ef810af	0.4845023
59	0x3ed4d72c	0.41570413
60	0xbe95fa58	-0.2929256
61	0x3e8aa98a	0.27082473
62	0x3e706ae2	0.23478273
63	0xbf84480b	-1.0334486
64	0xbdb5d56d	-0.08878598
65	0x3de3a512	0.11115469
66	0xbee81c84	-0.45334256
67	0xbea070ff	-0.3133621
68	0x3e5d218a	0.21594825
69	0xbed8b545	-0.42325798
70	0x3cd2042d	0.025636757
71	0xbe422404	-0.18959051
72	0x3de310bf	0.110871784
73	0x3e59fd43	0.21288018
74	0x3ecf0426	0.40432853
75	0xbdf2358a	-0.11826618
76	0x3e70915b	0.23492949
77	0x3d9a7312	0.07541479
78	0x3d4fcfa0	0.050735116
79	0xbf060a48	-0.5235944
80	0x3e7de535	0.24794467
81	0x3eab0d62	0.33408648
82	0xbed94c15	-0.42440858
83	0xbcbd524f	-0.023110537
84	0x3e267984	0.16257292
85	0xbca84ae6	-0.020543527
86	0x3d85af13	0.065275334
87	0x3ddc6738	0.10761875
88	0x3e432a43	0.1905909
89	0xbd304701	-0.043036465
90	0x3e3e7995	0.18601067
91	0x3e3d7922	0.1850324
92	0x3d1597b8	0.036521643
93	0x3e02c476	0.12770256
94	0xbd6efaf7	-0.058344807
95	0x3d352865	0.044227976
96	0xbe4022d6	-0.18763289
97	0x3dec82a9	0.11548359
98	0xbcc394b1	-0.023874613
99	0xbe804522	-0.25052744
100	0x3b395326	0.002827832
101	0x3d273629	0.040823136
102	0xbd97e692	-0.07417025
103	0x3e602a31	0.21891095
104	0x3e47526d	0.19465037
105	0xbe33821c	-0.17530102
106	0xbe52ee38	-0.20598686
107	0x3d3d5672	0.04622502
108	0x3da922c4	0.08258584
109	0xbf3a02d2	-0.72660553
110	0xbc0f54ac	-0.008748215
111	0xbd93a9d7	-0.07210129
112	0x3d0d3553	0.034474682
113	0x3f0055d4	0.50130963
114	0x3f2dc621	0.67880446
115	0xbf73a331	-0.95170885
116	0x3e99a01b	0.30004963
117	0x3c8448ea	0.01614805
118	0xbf302ef2	-0.6882163
119	0x3eaabcdd	0.33347216
120	0xbef76844	-0.48321736
121	0xbda4b824	-0.080429345
122	0x3e495a29	0.196633
123	0xbe7ffda6	-0.24999103
124	0x3e53c9aa	0.20682397
125	0x3ed754be	0.4205684
126	0xbdd2a4bc	-0.10285327
127	0x3e73338f	0.23750137
128	0x3c978d4e	0.018499997
129	0xbec41bec	-0.38302553
130	0xbe7488cb	-0.23880307
131	0x3eac8d9f	0.33701798
132	0xbf234f2a	-0.6379267
133	0xbf1375f5	-0.57601863
134	0xbe8fb172	-0.28065068
135	0x3ea0a78f	0.31377837
136	0xbe6dcee0	-0.23223448
137	0xbe59d205	-0.21271522
138	0xbe177364	-0.14790112
139	0x3e8b45e0	0.27201748
140	0x3f0252bd	0.509075
141	0x3eaceccb	0.3377441
142	0x3cc0e7d2	0.02354804
143	0x3ed20f31	0.41027215
144	0x3e8cea6d	0.27522603
145	0xbeab06b9	-0.33403566
146	0x3e193412	0.1496127
147	0x3e29aa04	0.16568762
148	0x3ed4789e	0.41498274
149	0xbd8914ee	-0.06693445
150	0xbdcb19a6	-0.099170014
151	0xbe871425	-0.26382557
152	0xbd91197f	-0.07084941
153	0x3d84e3ef	0.064887874
154	0x3994cd56	0.00028381747
155	0xbf3064f7	-0.6890406
156	0xbd463a02	-0.048395164
157	0x3c1d0b82	0.009585263
158	0x3db13728	0.08653098
159	0x3dc3407e	0.09533785
160	0x3ea09c15	0.3136908
161	0x3d3417d6	0.043968044
162	0x3e7591d6	0.23981413
163	0x3d8dd473	0.06925287
164	0xbea0530a	-0.31313354
165	0xbead1ef8	-0.3381269
166	0xbf06b7d6	-0.5262426
167	0xbc1a6214	-0.009422798
168	0x3deacc15	0.11464707
169	0x3dac0384	0.08399108
170	0x3e4453c2	0.19172576
171	0x3eab0892	0.33404976
172	0xbe979161	-0.29603103
173	0xbf29ad07	-0.66279644
174	0xbe145aa5	-0.14487703
175	0xbdae6cb9	-0.08516831
176	0x3e90da5e	0.282916
177	0x3ee3ff0d	0.44530526
178	0xbe088c50	-0.13334775
179	0xbde1bc24	-0.11022213
180	0x3f0d3d44	0.5517161
181	0x3ee0ee1f	0.43931672
182	0x3f1096ff	0.564804
183	0x3dd0125e	0.10159753
184	0x3e174720	0.14773226
185	0xbe0c16a5	-0.13680513
186	0xbefb3680	-0.49065018
187	0xbf18a63b	-0.5962865
188	0xbeb0235a	-0.3440197
189	0x3d191c6e	0.03738063
190	0xbefb2826	-0.49054068
191	0x3d4b6b73	0.04966302
192	0xbda76df1	-0.081752665
193	0x3e187ad0	0.14890599
194	0xbe44463c	-0.19167417
195	0xbf14a369	-0.58061844
196	0xbcfcbc88	-0.030851617
197	0xbd3ea5c2	-0.046544798
198	0x3e93bbb6	0.2885415
199	0x3d53f943	0.051751386
200	0x3c461920	0.012090951
201	0xbe8a7424	-0.27041733
202	0x3d740776	0.059577428
203	0xbd70243d	-0.05862831
204	0xbe3e2c4a	-0.18571582
205	0x3c6468eb	0.01394103
206	0xbe909324	-0.2823726
207	0x3ec21116	0.3790366
208	0xbe058289	-0.13038076
209	0xbe12b34c	-0.14326209
210	0x3c085f92	0.008323567
211	0x3e47486c	0.1946122
212	0xbe8eee27	-0.2791607
213	0x3e748a8b	0.23880975
214	0x3c4c54ce	0.012471391
215	0x3dcad248	0.09903389
216	0x3e9416f7	0.2892377
217	0x3e9f5b32	0.31124264
218	0xbdf7ff69	-0.121092625
219	0xbe94345c	-0.28946197
220	0x3ddb8b3f	0.107199185
221	0xbec50adb	-0.38484845
222	0xbc23fd25	-0.010009085
223	0xbf32cf45	-0.6984752
224	0xbd8c5fe8	-0.0685423
225	0xbe13577e	-0.14388844
226	0xbd1b1ce7	-0.03786936
227	0x3f50eb87	0.81609386
228	0x3e41f016	0.18939242
229	0xbf250185	-0.64455444
230	0x3e855706	0.26042956
231	0x3f0362e7	0.5132279
232	0xbe019c6b	-0.12657325
233	0x3e04c33e	0.12965104
234	0x3e5984d1	0.21242072
235	0x3ef5143e	0.47867006
236	0x3e8e1224	0.27748215
237	0x3e0140ac	0.12622327
238	0x3f273f16	0.65330637
239	0xbe704d8b	-0.2346708
240	0x3ddac8a1	0.10682798
241	0x3ebfc155	0.37452188
242	0xbf332770	-0.6998205
243	0xbf0c3a37	-0.5477633
244	0x3b8fa994	0.004384229
245	0x3f21f5b0	0.63265514
246	0x3dde66f1	0.10859478
247	0xbf0f0e1a	-0.5588089
248	0x3e0805ca	0.13283458
249	0xbefb311d	-0.49060908
250	0x3e8d2f86	0.2757532
251	0xbe3db06e	-0.18524334
252	0xbd7be6c7	-0.061499383
253	0xbd64efd2	-0.055892773
254	0x3cf1c608	0.029513374
255	0xbe862d4e	-0.2620644

gru.weight_hh_l0 f4 [384, 128]
0	0xbd00a74a	-0.03140954
1	0xbda7078e	-0.08155738
2	0xb98ec9d4	-0.00027234724
3	0xbd4d923c	-0.050188288
4	0xbe15bee1	-0.14623596
5	0xbd9ace77	-0.07558911
6	0x3c49302c	0.0122795515
7	0x3e2c424f	0.1682217
8	0xbda4e471	-0.08051384
9	0x3bdaba93	0.0066750734
10	0x3d9e5b80	0.07732296
11	0x3ed1830e	0.409203
12	0x3de08358	0.10962552
13	0x3d36a593	0.044591498
14	0x3d077704	0.033072487
15	0x3d130c44	0.03590037
16	0xbd527420	-0.051380277
17	0x3d420646	0.047369264
18	0xbd8130cb	-0.06308135
19	0x3cc4425f	0.02395743
20	0x3d0fc9cc	0.035104558
21	0x3db9fa9a	0.090810016
22	0xbc8bd789	-0.017070549
23	0xbd987513	-0.07444205
24	0xbd4fb042	-0.050705202
25	0x3d89aa61	0.0672195
26	0xbd275435	-0.04085179
27	0xbdd65aa4	-0.10466507
28	0x3bcdf5ff	0.0062854285
29	0x3e7e0ddc	0.24809974
30	0xbc263f4c	-0.010146927
31	0x3da09d60	0.07842517
32	0xbdd3600e	-0.10321055
33	0xbdd0a044	-0.10186818
34	0xbd9b867b	-0.075940095
35	0xbd7c5ffb	-0.06161497
36	0x3ae642ea	0.0017567549
37	0xbd3282fe	-0.043581955
38	0xbd3fc559	-0.046819065
39	0xbdb93b0e	-0.09044467
40	0x3ca97748	0.02068676
41	0xbd9abcab	-0.07555517
42	0x3c39850c	0.011323225
43	0xbd8839fa	-0.06651683
44	0x3d373912	0.04473216
45	0x3d65f91d	0.056145776
46	0xbc868853	-0.016422426
47	0x3c47531f	0.012165814
48	0x3c6e9cb4	0.014563728
49	0x3d28d285	0.041216392
50	0x3cb6227c	0.02223324
51	0xbd8d787f	-0.069077484
52	0x3ce83739	0.028346645
53	0xbd129598	-0.035787195
54	0x3d14dbe8	0.03634253
55	0xbe00fee2	-0.1259723
56	0xbd5cd067	-0.053909685
57	0x3ca6c10e	0.020355728
58	0xbd0d4b8a	-0.034495868
59	0x3cf918aa	0.030407269
60	0xbd2af6bf	-0.04173922
61	0x3dab6b8b	0.083701216
62	0xbd858def	-0.06521212
63	0xbc4069cc	-0.011743974
64	0x3da49bfc	0.08037564
65	0x3e02b83c	0.12765592
66	0x3df20efc	0.11819264
67	0xbe101895	-0.14071877
68	0xbe1c3b74	-0.15257055
69	0xbdb08776	-0.08619587
70	0xbd170474	-0.03686948
71	0x3d1c0cd0	0.038098156
72	0xbdf72fe1	-0.12069679
73	0xbd1b05b1	-0.037847225
74	0x3e3b8194	0.18311149
75	0xbd089e04	-0.03335382
76	0xbd916529	-0.07099373
77	0xbbfaa7d3	-0.0076494007
78	0xbd17e722	-0.03708566
79	0xbe0acc6f	-0.13554548
80	0xbdcbc64c	-0.099499315
81	0x3dd42373	0.10358324
82	0xbe22998a	-0.15878883
83	0xbdc6a8a2	-0.09700133
84	0x3cf469b3	0.029835558
85	0x3d7a99bc	0.06118177
86	0x3ddc49a3	0.107562326
87	0xbd4b3f6c	-0.04962103
88	0x3e77fb2a	0.24216905
89	0x3c99e709	0.018786924
90	0x3e409472	0.18806627
91	0x3cd58f9c	0.026069455
92	0x3d86fa86	0.06590752
93	0x3d5649ca	0.052316464
94	0x3d328804	0.043586746
95	0x3d3b8aee	0.04578679
96	0xbe13a078	-0.14416683
97	0x3e1daef0	0.15398765
98	0xbd2be830	-0.041969478
99	0xbd80f83e	-0.062973484
100	0x3c8cc0ab	0.017181715
101	0xbd704c34	-0.058666423
102	0xbe1d71bb	-0.15375416
103	0xbe242ab3	-0.16031913
104	0xbc4d9faa	-0.012550274
105	0xbd582b3f	-0.052775618
106	0x3ce4bbff	0.027921675
107	0xbca9d264	-0.020730205
108	0xbe2d810f	-0.16943763
109	0xbd8d1b97	-0.06890028
110	0x3d6c226c	0.057650015
111	0x3e23e93c	0.1600694
112	0x3ca6623a	0.02031051
113	0xbd583afe	-0.052790634
114	0x3dee0dd1	0.11623729
115	0xbd7819dc	-0.060571536
116	0x3de43a3f	0.11143922
117	0x3d509694	0.050924852
118	0x3d15362c	0.036428615
119	0x3d24d39b	0.040240865
120	0xbca2314b	-0.019798895
121	0xbd158bcc	-0.036510274
122	0xbc1d2d7e	-0.009593366
123	0xbe0939e3	-0.13400988
124	0xbe047f67	-0.12939225
125	0xbd262155	-0.04055913
126	0x3b7d1449	0.0038616827
127	0xbd2d17b6	-0.04225894
128	0xbd0a26fd	-0.03372859
129	0xbec5d582	-0.38639456
130	0x3e21bfed	0.1579587
131	0x3e0063eb	0.12538116
132	0x3e6c6ccd	0.23088379
133	0xbd68b452	-0.05681259
134	0x3da0934b	0.07840594
135	0x3dd16f6d	0.10226331
136	0x3ea246d6	0.3169467
137	0xbe1d1f6f	-0.15344022
138	0xbd05d214	-0.03267105
139	0xbd0ca6a4	-0.03433861
140	0xbd48fe45	-0.049070615
141	0x3def9699	0.11698646
142	0x3e123a7b	0.14280121
143	0xbde1029f	-0.10986828
144	0x3d503017	0.050827112
145	0xbcc1234e	-0.023576405
146	0xbe1c3a4b	-0.15256612
147	0xbd973e19	-0.07384891
148	0xbb273462	-0.00255134
149	0xbe87429d	-0.2641801
150	0xbda9ef14	-0.08297554
151	0x3d374e7c	0.044752583
152	0x3da6bfd8	0.0814206
153	0xbea22e0b	-0.31675753
154	0xbe22a251	-0.15882231
155	0xbdf37909	-0.1188832
156	0xbe489915	-0.19589646
157	0xbea78d6c	-0.32725084
158	0x3d42fad8	0.047602504
159	0x3d66e044	0.05636622
160	0xbdea5759	-0.114424415
161	0x3dd544ea	0.10413535
162	0x3e23258c	0.15932292
163	0x3b6518db	0.0034957442
164	0xbdb7f16e	-0.08981596
165	0x3cc2cdb5	0.02377973
166	0xbe256231	-0.16150738
167	0xbdc24601	-0.094860084
168	0xbe3a33be	-0.181838
169	0x3e1c0142	0.15234855
170	0x3d8ef14b	0.06979617
171	0x3e38f727	0.18063031
172	0xbdcd5e69	-0.10027773
173	0xbd23602e	-0.039886646
174	0x3e135cf9	0.14390935
175	0xbd38d57d	-0.045125473
176	0xbd641fdf	-0.055694457
177	0xbd936171	-0.0719632
178	0xbda92a48	-0.08260018
179	0xbe68f969	-0.22751392
180	0xbc75b4c9	-0.014996716
181	0xbe429d18	-0.19005239
182	0x3d323271	0.043505136
183	0x3e8fbc29	0.28073242
184	0xbe64a0a3	-0.22326903
185	0x3dcf7b7d	0.101309754
186	0x3d127fe0	0.035766482
187	0xbc47deef	-0.012199148
188	0x3d2854d3	0.04109652
189	0x3ce41963	0.027844137
190	0x3da243c4	0.079230815
191	0xbd8d9640	-0.069134235
192	0xbe44233b	-0.19154064
193	0xbe1b83d4	-0.15187007
194	0xbe8ba9c9	-0.27277973
195	0x3d5c2c5c	0.053753242
196	0x3dc43ca7	0.09581881
197	0xbe70c51d	-0.23512693
198	0xbe099989	-0.13437475
199	0xbe93024f	-0.287127
200	0xbdb68098	-0.08911246
201	0xbe1b33fc	-0.15156549
202	0x3c6019ae	0.0136779975
203	0xbda5557a	-0.08072944
204	0x3bfe6435	0.0077634105
205	0xbd6a52ed	-0.05720799
206	0x3d4bf6ba	0.049795844
207	0x3ea26fe2	0.31725985
208	0xbd919180	-0.0710783
209	0xbddbf531	-0.10740126
210	0x3e264d3e	0.16240403
211	0x3e0975ab	0.13423793
212	0xbd436c1f	-0.047710534
213	0xbd941495	-0.07230488
214	0x3e0674be	0.13130471
215	0x3e4ede43	0.20201974
216	0xbe8ff1bc	-0.28114116
217	0xbbbbdac9	-0.0057328683
218	0xbd984270	-0.07434547
219	0x3d9c6d13	0.07637992
220	0x3d9f76df	0.07786345
221	0x3e02806c	0.12744302
222	0x3e1f5b97	0.15562283
223	0x3e13cafb	0.144329
224	0xbd3e1624	-0.046407834
225	0x3c9fb2bc	0.019494407
226	0x3df9408a	0.12170513
227	0x3d3134a7	0.043263104
228	0x3d419d7f	0.04726934
229	0xbd5436ce	-0.05181008
230	0xbdea2fbe	-0.11434887
231	0x3de0aa82	0.10970022
232	0x3e7fadd1	0.2496865
233	0xbe5e252c	-0.21693867
234	0xbd0695b9	-0.03285763
235	0x3bab5fde	0.005229934
236	0xbe1d6aa2	-0.15372708
237	0xbe19724f	-0.14985012
238	0x3ce3b757	0.027797384
239	0xbe1815bc	-0.14852041
240	0xbd2d3e4f	-0.04229575
241	0xbe3cff68	-0.18456805
242	0x3d31ed8f	0.043439444
243	0xbd68ced5	-0.056837875
244	0xbe48d366	-0.19611892
245	0xbd0d84b0	-0.03455037
246	0xbd616756	-0.05503019
247	0x3dd77892	0.10521044
248	0x3e735dd5	0.23766263
249	0x3dd15c83	0.10222723
250	0x3cf9652e	0.030443754
251	0x3d38b237	0.045091834
252	0x3cce5345	0.02518619
253	0x39020f2a	0.00012403415
254	0xbe0ce578	-0.1375941
255	0xbe135c19	-0.14390601

gru.bias_ih_l0 f4 [384]
0	0x3da020b6	0.07818739
1	0xbccfd26c	-0.025368892
2	0x3d87f36c	0.06638226
3	0xbd5a7fcb	-0.05334453
4	0x3da8c0ad	0.08239875
5	0x3d963fcb	0.07336386
6	0x3dbea3e3	0.09308603
7	0x3d9c3be3	0.0762861
8	0x3c5a743f	0.013333379
9	0x3e3edef3	0.18639736
10	0xbd9058da	-0.07048197
11	0x3e270536	0.16310582
12	0x3de8eff4	0.113738924
13	0x3d7713f7	0.060321774
14	0x3da8eb3f	0.08247995
15	0x3d8d0c8f	0.06887161
16	0x3e711b51	0.23545577
17	0x3df7a0c6	0.12091212
18	0x3d7e3173	0.062058877
19	0xbb52458f	-0.0032084917
20	0x3df813a6	0.12113123
21	0xbd97b685	-0.0740786
22	0x3d5a1099	0.053238485
23	0xbc406090	-0.011741772
24	0x3cf8a705	0.030353079
25	0x3dfa4136	0.12219469
26	0x3e50d275	0.20392783
27	0x3d8474cd	0.064675905
28	0xbd331184	-0.043717876
29	0x3d67ea94	0.056620196
30	0x3dffbfb3	0.124877356
31	0xbd91863b	-0.071056806
32	0xbb8a8b90	-0.004228063
33	0x3ba5a66c	0.0050552394
34	0xbcaeec5f	-0.021352945
35	0x3e3e4f42	0.18584922
36	0x3d84d36d	0.06485639
37	0x3cbb32cc	0.02285137
38	0xbc595ff5	-0.013267507
39	0x3c4b002b	0.012390177
40	0x3d82b8ab	0.06382879
41	0x3ca97411	0.020685228
42	0x3e226355	0.15858205
43	0x3da3949e	0.07987331
44	0xbb487817	-0.0030589157
45	0x3dbb02d3	0.09131398
46	0x3e5eb049	0.21746935
47	0x3d941c06	0.072319075
48	0x3cab1e17	0.020888371
49	0x3df4713f	0.119356625
50	0xbcbf7104	-0.02336932
51	0xbc9c64b8	-0.019090995
52	0x3de742c7	0.11292034
53	0xbc9fa8c1	-0.019489648
54	0x3ce499fa	0.027905453
55	0xbcd1be04	-0.025603302
56	0x3d7c6003	0.061615
57	0x3e1aac2f	0.15104745
58	0x3e4aa0f7	0.19787966
59	0x3c56d115	0.0131113725
60	0x3d97af3a	0.07406469
61	0x3cbb4e9d	0.022864634
62	0x3dc38475	0.095467485
63	0x3d17a1c6	0.037019514
64	0xbc62316c	-0.013805728
65	0xbca2af73	-0.019859051
66	0xbceac2ed	-0.028657401
67	0x3deed0c7	0.11660915
68	0x3dcd6e8d	0.100308515
69	0x3e45a01f	0.19299363
70	0x3dcf2b92	0.10115732
71	0x3e11d41d	0.14241071
72	0x3d64cb0a	0.055857696
73	0x3d74e7ab	0.05979125
74	0xbd09370e	-0.03349977
75	0x3d99c863	0.07508924
76	0x3e105464	0.14094692
77	0x3e305b8c	0.17222422
78	0x3e29fa5c	0.16599411
79	0x3de86dbe	0.11349057
80	0x3d76ae70	0.06022495
81	0x3e596014	0.21228057
82	0xbce06b7d	-0.027395004
83	0x3df20785	0.118178405
84	0x3d2f07d2	0.042732067
85	0x3db9343f	0.09043168
86	0x3d93c9ff	0.07216262
87	0x3dbfcdd1	0.09365428
88	0x3d86db8e	0.065848455
89	0x3e0de2ba	0.1385602
90	0x3e1834e5	0.14863928
91	0xbd1a06ae	-0.037604026
92	0x3c30d90b	0.010793935
93	0x3d75000b	0.059814494
94	0xbcaf16f1	-0.021373244
95	0xbb72fe16	-0.0037077717
96	0xbcadaf70	-0.02120182
97	0x3e01d90e	0.12680456
98	0x3ced6f63	0.028983777
99	0x3e0d6b39	0.13810433
100	0x3df1fd4c	0.11815891
101	0x3e18c178	0.14917552
102	0x3dfd9307	0.12381559
103	0x3d9700d3	0.07373204
104	0xbd277e7b	-0.040892106
105	0x3e2eb29b	0.1706032
106	0x3dad178f	0.08451759
107	0x3dbe1430	0.09281194
108	0x3b6d4724	0.0036205733
109	0xbc5f0b78	-0.013613574
110	0x3cd7a056	0.026321571
111	0x3e3b5778	0.18295085
112	0x3bfebd62	0.007774041
113	0xbca54740	-0.020175576
114	0xbd64587e	-0.055748455
115	0x3e0693c3	0.13142304
116	0x3dd7de9f	0.105405085
117	0x3c951cc2	0.01820219
118	0x3d9e027e	0.07715319
119	0x3e4ac400	0.1980133
120	0x3e0f19a7	0.1397463
121	0x3d436b4d	0.047709752
122	0x3e34f1b2	0.17670324
123	0x3db00c15	0.085960545
124	0x3dc86a93	0.097859524
125	0x3e0e3938	0.13889015
126	0x3e09e3cb	0.13465802
127	0x3dcef818	0.10105914
128	0xbdc99d56	-0.098444626
129	0xbe7d6201	-0.24744417
130	0xbef1059f	-0.470746
131	0xbd751907	-0.05983832
132	0xbea03250	-0.31288385
133	0xbe82c027	-0.25537226
134	0xbe232e4e	-0.15935633
135	0xbd684885	-0.056709785
136	0xbed2b28f	-0.41151854
137	0xbe3e53e5	-0.1858669
138	0xbf0d188f	-0.551156
139	0xbf5430d1	-0.8288699
140	0xbe7babcb	-0.24577253
141	0xbe09bf58	-0.13451898
142	0xbf07386c	-0.5282047
143	0xbe6a3a37	-0.2287377
144	0xbe092919	-0.13394584
145	0xbe408d59	-0.1880392
146	0xbd957915	-0.07298485
147	0xbe76d42d	-0.24104376
148	0xbe5e762c	-0.21724766
149	0xbdfb1e6e	-0.122616634
150	0xbdc32f42	-0.09530498
151	0xbd923d72	-0.07140626
152	0xbdfc3c7a	-0.123162225
153	0xbec2baf1	-0.3803325
154	0xbe29f38f	-0.16596816
155	0xbe96e534	-0.29471743
156	0xbe9c6d27	-0.30552027
157	0xbebf21b9	-0.37330416
158	0xbe8891a6	-0.2667362
159	0xbc26a3fb	-0.010170932
160	0xbebacfff	-0.36486813
161	0xbdf40784	-0.11915496
162	0xbd2b6575	-0.041844804
163	0xbe7ad367	-0.24494706
164	0xbe0cc8bb	-0.13748448
165	0xbe650e2f	-0.22368692
166	0xbe3d053c	-0.18459028
167	0xbe096452	-0.13417175
168	0xbea928f5	-0.3303906
169	0xbd63053e	-0.05542492
170	0xbe4edeb5	-0.20202143
171	0xbc38b352	-0.011273222
172	0xbeabe579	-0.3357351
173	0xbe8cebd6	-0.2752368
174	0xbe6b1a0b	-0.22959153
175	0xbe640f56	-0.22271475
176	0xbf07804b	-0.52930135
177	0xbe493e4b	-0.19652669
178	0xbda7f558	-0.082010925
179	0xbe2f78f9	-0.17135991
180	0xbea45786	-0.32098025
181	0xbd41432a	-0.047183193
182	0xbdec512b	-0.11538919
183	0xbe0c9a89	-0.13730825
184	0xbe7e9f36	-0.24865422
185	0xbf7171a3	-0.9431402
186	0xbe9cc137	-0.3061616
187	0xbe378251	-0.17920806
188	0xbe990be6	-0.2989189
189	0xbe9bbb82	-0.30416495
190	0xbe8fc7c7	-0.28082106
191	0xbba56376	-0.005047257
192	0xbe026b39	-0.12736215
193	0xbe34738a	-0.176222
194	0xbeb07eb1	-0.34471658
195	0xbd8776ff	-0.066144936
196	0xbec647c8	-0.3872664
197	0xbe0020a9	-0.12512459
198	0xbe13859b	-0.14406435
199	0xbe7cb020	-0.24676561
200	0xbe3af011	-0.1825564
201	0xbc61cb0c	-0.01378132
202	0xbe1ed87b	-0.15512268
203	0xbcee6f39	-0.02910577
204	0xbd0a147d	-0.033710945
205	0xbcf833dd	-0.030298168
206	0xbdeb3e96	-0.11486547
207	0xbef9a63f	-0.48759648
208	0xbdfe8a3a	-0.124287084
209	0xbea35be1	-0.31906036
210	0xbe652442	-0.22377113
211	0xbe10f74e	-0.14156839
212	0xbeafd5a0	-0.3434267
213	0xbdd0859d	-0.10181735
214	0xbe16a23d	-0.14710326
215	0xbe383883	-0.17990308
216	0xbe3b5b6a	-0.1829659
217	0xbd457425	-0.048206467
218	0xbe824f06	-0.25450915
219	0xbe13b865	-0.1442581
220	0xbed65ba5	-0.41866794
221	0xbe052fb8	-0.13006485
222	0xbea2c980	-0.31794357
223	0xbdd4feeb	-0.10400184
224	0xbed2ca7b	-0.41170105
225	0xbe89e479	-0.26932123
226	0xbe8df592	-0.27726418
227	0xbe84e6ea	-0.25957423
228	0xbe4c86ce	-0.19973299
229	0xbe033277	-0.1281222
230	0xbe9e6db6	-0.30943078
231	0xbb27ac7f	-0.0025584993
232	0xbe8b8bf6	-0.2725522
233	0xbe635ef3	-0.22204189
234	0xbde53c58	-0.1119315
235	0xbf26064e	-0.6485337
236	0xbf238b70	-0.6388464
237	0xbe815bb2	-0.2526527
238	0xbddf5f3c	-0.109068364
239	0xbe214ce6	-0.1575199
240	0xbe2e6a86	-0.17032823
241	0xbea2d4a0	-0.31802845
242	0xbf0a7116	-0.54078805
243	0xbdaa251f	-0.083078615
244	0xbe240ab6	-0.16019711
245	0xbe5b7019	-0.2142948
246	0xbd0cfe41	-0.034422163
247	0xbe6826eb	-0.22671096
248	0xbdc86571	-0.097849734
249	0xbe58d429	-0.21174683
250	0xbe35f57b	-0.17769425
251	0xbe64b9d4	-0.22336513
252	0xbe320117	-0.17383228
253	0xbea7ceb4	-0.3277489
254	0xbe0c4c4e	-0.13700983
255	0xbe5a3601	-0.21309663

gru.bias_hh_l0 f4 [384]
0	0x3e12c80b	0.14334123
1	0x3d98e969	0.074663945
2	0x3d1020ba	0.03518746
3	0x3dcc5c40	0.09978533
4	0x3d878833	0.06617775
5	0x3dc57175	0.09640781
6	0x3de2ec18	0.110801876
7	0xbc816446	-0.015794884
8	0x3c8139af	0.015774576
9	0x3e10e5f5	0.14150222
10	0x3dcafbdd	0.0991132
11	0x3da3af5d	0.07992432
12	0x3d37d190	0.04487759
13	0x3b0889f5	0.0020834182
14	0x3d0a01b3	0.033693027
15	0xbc937ef5	-0.018004874
16	0x3e4febd8	0.20304811
17	0x3e28c73f	0.16482256
18	0x3e388802	0.18020633
19	0x3d00a419	0.031406496
20	0x3daff1f5	0.085910715
21	0x3c87762b	0.016535839
22	0x3cad6542	0.021166448
23	0xbcd16ad3	-0.025563633
24	0xbc8ae055	-0.016952673
25	0x3e074088	0.1320821
26	0x3e23eae5	0.16007574
27	0xbd2a7f0a	-0.04162506
28	0x3cb20ee8	0.021735623
29	0xbd63e49d	-0.055637944
30	0x3de523ab	0.11188444
31	0x3c6a3577	0.014294974
32	0x3c341c63	0.010993096
33	0x3de5ccb9	0.112206884
34	0x3c285c20	0.010275871
35	0x3e42f67d	0.1903934
36	0x3cd5c63d	0.026095504
37	0x3d90c398	0.070685565
38	0x3ca0c80a	0.019626636
39	0x3db5708f	0.088593595
40	0x3d040e73	0.032240342
41	0x3d6d83db	0.057987075
42	0x3db62365	0.0889347
43	0xbd1b978b	-0.03798632
44	0xbd3f264d	-0.046667386
45	0xbbf7ab25	-0.007558244
46	0x3e54f5c7	0.20796882
47	0x3d9765fa	0.07392497
48	0xbc186dea	-0.009303549
49	0x3d7efafd	0.06225108
50	0x3b740cd9	0.0037239103
51	0x3db1d458	0.086830795
52	0x3e66784c	0.22506827
53	0x3d58e3ff	0.05295181
54	0x3daf8c03	0.08571627
55	0xbda78102	-0.08178903
56	0x3d9c0be0	0.076194525
57	0x3d063242	0.032762773
58	0x3e6093bd	0.21931358
59	0x3d40f701	0.04711056
60	0x3d85b734	0.06529084
61	0x3d7267fa	0.05918119
62	0x3ac0fb22	0.0014723281
63	0x3d980700	0.0742321
64	0x3d2d5848	0.04232052
65	0x3d3fd32e	0.046832256
66	0x3db54f0b	0.08852967
67	0x3e0cf70a	0.13766113
68	0x3e18b526	0.14912853
69	0x3d66cd21	0.05634797
70	0xbcbd9731	-0.023143383
71	0x3dcf4631	0.1012081
72	0x3db14073	0.08654871
73	0x3e034950	0.12820935
74	0x3d26df53	0.040740322
75	0x3e208d4e	0.15678903
76	0x3e193eea	0.14965406
77	0x3e0c8011	0.13720728
78	0x3dd6eab0	0.10493982
79	0xbc8fdf32	-0.017562483
80	0x3d9c737f	0.07639217
81	0x3e25d22a	0.16193452
82	0x3bd1c6fd	0.006401895
83	0x3c89a718	0.01680331
84	0x3bbd2a23	0.0057728454
85	0xbce1beda	-0.027556825
86	0xbc6f4617	-0.014604113
87	0x3e4412b2	0.19147757
88	0x3de55723	0.11198261
89	0x3d8d268b	0.06892117
90	0x3e1e10ab	0.15436046
91	0x3dca686d	0.09883199
92	0xbc84feb8	-0.01623474
93	0x3dc61c84	0.09673408
94	0x3da4430a	0.08020599
95	0x3c1b7fad	0.0094908895
96	0x3d7838b0	0.060600936
97	0x3d8414a9	0.06449253
98	0x3e2afb63	0.16697459
99	0x3e40ec59	0.1884016
100	0x3d9a67d5	0.07539336
101	0x3d9777be	0.07395886
102	0x3e1d08b9	0.15335359
103	0x3c48285f	0.0122166565
104	0x3d8dc553	0.06922402
105	0x3e4ad6eb	0.19808547
106	0xbd03a7d7	-0.032142486
107	0xbcd8b0a5	-0.026451418
108	0x3d3296e4	0.04360093
109	0xbd97d609	-0.07413871
110	0xbbae5e85	-0.005321326
111	0x3e298b76	0.16557106
112	0x3dc178cd	0.09446869
113	0x3d1a05d9	0.037603233
114	0x3d2180ef	0.0394296
115	0x3dc0f982	0.0942259
116	0xbd43f8f8	-0.047844857
117	0x3c1e5d82	0.009665849
118	0x3e053710	0.13009286
119	0x3e3dcb57	0.18534599
120	0xbb26317c	-0.0025359085
121	0xbd16f36d	-0.036853243
122	0x3e0e6571	0.13905884
123	0x3d67f2b8	0.05662796
124	0x3e239ec5	0.15978535
125	0x3d61e53c	0.055150256
126	0x3dd091c7	0.10184055
127	0x3b8cacd7	0.004293065
128	0xbde9e396	-0.11420362
129	0xbe36aeb6	-0.17840084
130	0xbeb934d9	-0.36173132
131	0xbe16b59c	-0.14717716
132	0xbe5110f1	-0.20416619
133	0xbe7ccc32	-0.2468727
134	0xbe2311c8	-0.15924752
135	0x3cbb26b5	0.022845605
136	0xbef02266	-0.46901244
137	0xbe8d35a9	-0.27580002
138	0xbeeb8264	-0.45997918
139	0xbf5f10b0	-0.8713484
140	0xbe37489c	-0.17898792
141	0xbda2de66	-0.079525754
142	0xbf07f187	-0.53102916
143	0xbe3e4967	-0.18582688
144	0xbe160456	-0.14650092
145	0xbe926ec2	-0.28600127
146	0xbd928a7c	-0.0715532
147	0xbe901080	-0.28137589
148	0xbe83f273	-0.25770912
149	0xbdbaafd5	-0.091155685
150	0xbd454f26	-0.048171185
151	0xbe429e7a	-0.19005767
152	0xbe0c507e	-0.1370258
153	0xbea47b34	-0.32125247
154	0xbcfa3f80	-0.030547857
155	0xbe51ebde	-0.20500132
156	0xbed07583	-0.40714654
157	0xbe967a39	-0.29390123
158	0xbe65336c	-0.22382897
159	0xbdb61009	-0.08889777
160	0xbe950db6	-0.29112023
161	0xbd88bc90	-0.066765904
162	0xbdbe218d	-0.09283743
163	0xbe9aa602	-0.3020478
164	0xbddd8f70	-0.10818374
165	0xbe43d6f6	-0.1912497
166	0xbead0372	-0.3379169
167	0xbcfb0119	-0.030640172
168	0xbe9ab145	-0.3021337
169	0xbc86dc67	-0.016462518
170	0xbea544ed	-0.3227915
171	0xbc41b571	-0.011823044
172	0xbe80ebd8	-0.25179935
173	0xbe6026be	-0.21889779
174	0xbe6786ee	-0.22610065
175	0xbe782e91	-0.24236514
176	0xbf0db93b	-0.55360764
177	0xbea5751d	-0.32315913
178	0xbe568021	-0.20947315
179	0xbe3ecc07	-0.18632518
180	0xbeadf395	-0.339749
181	0xbd7b8dbf	-0.061414476
182	0xbd824bb7	-0.06362098
183	0xbca53b38	-0.02016984
184	0xbe7e71b3	-0.2484806
185	0xbf558b34	-0.8341553
186	0xbe81495e	-0.25251287
187	0xbe694a06	-0.22782144
188	0xbe5903cf	-0.21192859
189	0xbe9d8d0f	-0.30771682
190	0xbeb084e2	-0.34476382
191	0xbdbd7be6	-0.092521474
192	0xbe52c68a	-0.20583549
193	0xbde7d1e7	-0.113193326
194	0xbed51202	-0.416153
195	0xbdbced38	-0.092249334
196	0xbecbc85d	-0.39801303
197	0xbe7f7afd	-0.2494926
198	0xbe517d08	-0.20457852
199	0xbe742797	-0.23843227
200	0xbe39d30c	-0.18146914
201	0xbe2cb68e	-0.16866514
202	0xbe7e125b	-0.2481169
203	0xbdb56180	-0.08856487
204	0xbdbf151e	-0.093302
205	0x3bbbc421	0.0057301675
206	0xbe808314	-0.25100005
207	0xbf015e45	-0.5053447
208	0xbe1aecab	-0.15129344
209	0xbeb6c5d9	-0.3569782
210	0xbe3cd4c6	-0.18440542
211	0xbd8475d7	-0.06467789
212	0xbe8e76d2	-0.27825028
213	0xbdf33bdd	-0.118766524
214	0xbe8c947a	-0.2745703
215	0xbe52c56f	-0.20583127
216	0xbe528296	-0.20557627
217	0xbdbcd1cb	-0.09219702
218	0xbeae79a7	-0.34077188
219	0xbe1e2711	-0.1544459
220	0xbead423a	-0.3383959
221	0xbdcce895	-0.10005299
222	0xbea25bd2	-0.31710678
223	0xbe4f9676	-0.2027224
224	0xbed96a13	-0.4246374
225	0xbec9ecb8	-0.39438415
226	0xbe5458eb	-0.20737045
227	0xbe8d0bf8	-0.27548194
228	0xbe8c4d57	-0.27402756
229	0xbdad4354	-0.084601074
230	0xbe8e5427	-0.27798578
231	0xbe117d27	-0.14207898
232	0xbea86394	-0.32888472
233	0xbe98370e	-0.29729503
234	0xbe07250b	-0.13197725
235	0xbf274a51	-0.6534777
236	0xbf192f21	-0.5983754
237	0xbe7a1b49	-0.24424471
238	0xbdd7e69b	-0.105420314
239	0xbe334ab5	-0.17508967
240	0xbe27764d	-0.16353722
241	0xbe9db171	-0.3079944
242	0xbedd7c7b	-0.43259034
243	0xbcafef6b	-0.021476468
244	0xbdca8b23	-0.098898195
245	0xbe6ddbd4	-0.23228389
246	0xbbd9b57a	-0.006643948
247	0xbe46b3e4	-0.1940456
248	0xbe0a5904	-0.1351052
249	0xbda24220	-0.079227686
250	0xbe39e0ca	-0.18152156
251	0xbdd285ca	-0.102794245
252	0xbe337a4e	-0.17527124
253	0xbe751046	-0.23931989
254	0xbe5b281d	-0.21402021
255	0xbdde7786	-0.10862641

fc.weight f4 [18, 128]
0	0xbe6309cc	-0.22171706
1	0xbd30a147	-0.043122556
2	0x3e86f18a	0.26356155
3	0x3e949a75	0.2902409
4	0x3d91966c	0.07108769
5	0xbb2fa77e	-0.0026802714
6	0xbdf10eae	-0.11770378
7	0xbd3be001	-0.045867924
8	0xbda2e845	-0.07954458
9	0x3e9c9bf6	0.3058774
10	0xbe930bd5	-0.28719965
11	0x3ef42b8a	0.47689468
12	0x3e6132cb	0.21992032
13	0x3d4e341d	0.050342668
14	0x3e1e99fd	0.1548843
15	0xbddb8b03	-0.10719874
16	0x3e31e430	0.17372203
17	0xbd168a33	-0.03675289
18	0xbda45363	-0.08023717
19	0xbe56c546	-0.20973691
20	0x3bc3a41c	0.005970491
21	0xbc8dc629	-0.017306404
22	0x3e4fcbb2	0.20292547
23	0xbe15a83c	-0.14614958
24	0xbdbaed42	-0.091272846
25	0x3e6062cc	0.21912688
26	0xbe1bf368	-0.15229571
27	0xbe9f246a	-0.3108247
28	0x3ee866bf	0.4539089
29	0x3bd6d1b8	0.006555762
30	0x3e1cef5f	0.15325688
31	0xbf1a9014	-0.60376096
32	0x3e37d828	0.17953551
33	0xbe3b14d7	-0.18269669
34	0x3e69a9b6	0.22818646
35	0x3f0b7031	0.54468066
36	0x3e01f177	0.12689768
37	0x3dfab43a	0.12241407
38	0x3d352be3	0.044231307
39	0x3df5b7e3	0.11997964
40	0x3eb72564	0.35770714
41	0xbdca8b62	-0.098898664
42	0xbba93a14	-0.005164394
43	0x3d9a24a1	0.07526518
44	0xbec89e90	-0.39183474
45	0xbe57310d	-0.21014805
46	0x3e4846ba	0.1955823
47	0xbe1d587f	-0.1536579
48	0x3f0dc070	0.5537176
49	0xbd10d5a3	-0.03535999
50	0x3d3f0392	0.046634264
51	0x3e2aa92f	0.16666101
52	0xbe3d30bd	-0.18475623
53	0xbec8a9d5	-0.39192072
54	0xbdad64d1	-0.08466495
55	0x3e0a84bb	0.13527195
56	0xbde47b70	-0.11156356
57	0xbebd34fa	-0.3695448
58	0x3e603fb8	0.21899307
59	0x3e6ff390	0.23432755
60	0x3ea7f6ac	0.32805383
61	0xbeaeea2b	-0.3416303
62	0xbf07bc4b	-0.5302169
63	0xbdb40b4d	-0.08791218
64	0x3f2ae87f	0.6676101
65	0xbe679a24	-0.22617394
66	0xbeb505e8	-0.3535607
67	0xbe412790	-0.18862748
68	0xbec288db	-0.37995037
69	0x3ec5c1fe	0.38624567
70	0xbb359623	-0.0027707897
71	0xbeae99f7	-0.3410184
72	0x3e497997	0.19675289
73	0x3d5beaa5	0.05369057
74	0xbc4a6e02	-0.0123553295
75	0xbdf744de	-0.12073682
76	0x3c8524da	0.016252924
77	0x3dd45c63	0.10369184
78	0xbd1fd6d5	-0.03902324
79	0x3bb132fa	0.005407688
80	0xbe9b1575	-0.30289808
81	0xbedd4e9d	-0.4322404
82	0x3d845165	0.06460837
83	0x3d9d7143	0.076876186
84	0xbe7e96f3	-0.2486227
85	0xbd93ac9b	-0.07210656
86	0x3ea94f41	0.33068278
87	0xbea260b1	-0.31714395
88	0xbf208ffc	-0.627197
89	0x3e3cd325	0.1843992
90	0xbda906be	-0.08253239
91	0x3e0b48c4	0.13601977
92	0xbcf17bcc	-0.029477976
93	0x3e2f266e	0.17104504
94	0x3e959852	0.29217774
95	0x3eabc06a	0.33545238
96	0x3f0f9bbf	0.56097025
97	0xbe23c4d9	-0.1599306
98	0xbd83790e	-0.06419574
99	0x3d0d07ab	0.03443114
100	0xbe64c953	-0.22342424
101	0x3ea9db94	0.33175337
102	0x3ed0832c	0.40725076
103	0x3dea4516	0.11438958
104	0x3db4a6a1	0.088208444
105	0x3f154822	0.5831319
106	0x3dbd1f03	0.09234431
107	0x3eb519a5	0.35371128
108	0xbeca4f3a	-0.3951357
109	0xbeb0117e	-0.34388345
110	0xbf051052	-0.5197803
111	0x3e92f4f0	0.28702497
112	0x3dd66e80	0.10470295
113	0xbde15e42	-0.110043064
114	0xbe0a0d18	-0.13481557
115	0xbda3cada	-0.07997675
116	0xbde2a948	-0.11067444
117	0x3d9748c0	0.07386923
118	0xbc7b5375	-0.015339722
119	0xbe56071c	-0.2090115
120	0xbe52c48d	-0.2058279
121	0x3dac142e	0.084022865
122	0x3b36e51f	0.0027907563
123	0xbe23107f	-0.15924262
124	0xbe25a6fb	-0.16176979
125	0xbe3c790e	-0.18405554
126	0xbe01d5f5	-0.12679274
127	0x3e820fe7	0.25402758
128	0x3ea41afa	0.3205183
129	0x3e10899a	0.14114991
130	0xbe19c8b9	-0.15017976
131	0xbe548754	-0.20754749
132	0xbda6702a	-0.08126862
133	0xbdbb84cf	-0.091561906
134	0x3e01f3cf	0.12690662
135	0x3eabf9b2	0.3358894
136	0x3e52c835	0.20584185
137	0xbeadcd3e	-0.3394565
138	0x3ed8fab7	0.4237878
139	0xbe39aec0	-0.18133068
140	0x3dadb51b	0.08481809
141	0x3d92bfd7	0.07165497
142	0x3e302e03	0.17205052
143	0x3dba74a9	0.091042824
144	0xbe9d4357	-0.3071544
145	0xbea4e7f4	-0.32208216
146	0xbcb6f8d6	-0.022335451
147	0x3c8d7c1c	0.017271094
148	0x3e47514a	0.19464603
149	0xbe34f3e7	-0.17671166
150	0x3ee02fcd	0.4378647
151	0x3e46a45f	0.1939864
152	0xbe3aadf3	-0.18230419
153	0x3dc30153	0.09521737
154	0xbd5b1959	-0.05349097
155	0x3e80f7c7	0.2518904
156	0xbe3d6656	-0.1849607
157	0x3ea44c62	0.32089525
158	0x3e47972e	0.19491264
159	0x3ed96cfe	0.42465967
160	0xbe81b14f	-0.25330588
161	0xbe4f8507	-0.2026559
162	0xbe2a8be1	-0.16654922
163	0x3d7206e5	0.059088606
164	0x3ea43560	0.32071972
165	0xbd0ad519	-0.033894632
166	0xbe5ff257	-0.21869789
167	0xbe556a00	-0.20841217
168	0xbd29bb14	-0.041438177
169	0x3e27b95d	0.16379304
170	0xbead7463	-0.3387786
171	0xbdaa36b3	-0.08311214
172	0xbe04dc73	-0.1297472
173	0x3d53aea6	0.05168023
174	0x3ddf9e50	0.109188676
175	0xbde52e2b	-0.111904465
176	0xbe5b502a	-0.21417299
177	0xbc7844b5	-0.0151531
178	0x3d171f35	0.036894996
179	0xbe92579c	-0.28582466
180	0x3e95d219	0.29261854
181	0xbd67bc8c	-0.056576297
182	0x3ba7a26e	0.0051157987
183	0xbeb37ae0	-0.35054684
184	0x3df4debf	0.11956548
185	0x3ea5a6ae	0.3235373
186	0x3eb83ab0	0.35982275
187	0xbe50ec09	-0.2040254
188	0x3ec28845	0.3799459
189	0xbe8e73b9	-0.27822664
190	0xbdef96e5	-0.11698703
191	0xbd8a4430	-0.06751287
192	0xbe8edd1f	-0.27903077
193	0x3d5f5af2	0.05453009
194	0x3e9ec969	0.3101304
195	0x3cfab8a3	0.03060562
196	0x3e892115	0.26783052
197	0xbdad6e06	-0.08468251
198	0xbe4af17f	-0.19818686
199	0x3e33b8d6	0.17550978
200	0xbe48ec69	-0.19621433
201	0x3e0a7952	0.13522843
202	0xbe5eaee6	-0.21746406
203	0xbcd47ee5	-0.025939414
204	0x3c69de13	0.014274138
205	0x3d2fd6e4	0.042929545
206	0x3e95bae2	0.29244143
207	0xbeb1e0b8	-0.3474176
208	0x3e630516	0.22169909
209	0xbd5e5d0c	-0.054287955
210	0x3dc1734f	0.094458215
211	0x3e0ad26e	0.13556835
212	0x3de4a6f6	0.11164658
213	0x3eb72a6c	0.35774553
214	0x3d4e7e28	0.05041328
215	0xbdb392ca	-0.08768232
216	0xbe7ec3b2	-0.2487934
217	0xbc2d22d7	-0.0105673885
218	0x3e467686	0.1938115
219	0x3e29b2f3	0.1657217
220	0xbeb02750	-0.34404993
221	0xbee50573	-0.4473072
222	0xbe9e4ab1	-0.3091636
223	0xbe66933b	-0.22517101
224	0x3e281a27	0.16416226
225	0x3eb12053	0.34594974
226	0x3ca6a075	0.020340184
227	0x3e0b4890	0.13601899
228	0xbe276e69	-0.16350712
229	0xbe0454e1	-0.12923004
230	0x3e3424c4	0.1759215
231	0xbe588dad	-0.21147795
232	0x3e094cff	0.13408278
233	0x3d50cf98	0.050979227
234	0xbe04fdf4	-0.129875
235	0xbe591735	-0.21200259
236	0x3e558bb1	0.2085407
237	0x3c181c33	0.009284067
238	0x3e0f5d17	0.14000355
239	0x3f0a58c3	0.5404169
240	0xbd887b91	-0.066641934
241	0xbdc7497c	-0.09730813
242	0x3e2cf7fd	0.16891475
243	0xbd643550	-0.055714905
244	0xbe6948ca	-0.22781673
245	0x3ebc938a	0.36831313
246	0xbe13e7ce	-0.14443895
247	0xbe3951a8	-0.18097556
248	0xbe2703b3	-0.16310005
249	0x3dc3ffbf	0.09570264
250	0x3e96493a	0.29352742
251	0xbe3daa55	-0.18522008
252	0xbef225e9	-0.47294548
253	0xbe0fe8b2	-0.1405361
254	0x3d8b9d90	0.06817162
255	0xbe95dcc7	-0.29270002

fc.bias f4 [18]
0	0xbd87ca0a	-0.06630333
1	0x3e0532fd	0.13007732
2	0xbe18d86b	-0.14926307
3	0x3caa3434	0.020776846
4	0xbdff4b70	-0.124655604
5	0x3cd906fd	0.02649259
6	0x3db1455b	0.08655807
7	0x3d21a937	0.039468016
8	0x3cb9ed1c	0.02269607
9	0xbcb20458	-0.021730587
10	0xbdd430ee	-0.10360895
11	0x3c3b964d	0.011449409
12	0x3e170f57	0.14751945
13	0xbdc34709	-0.09535033
14	0xbc5dec30	-0.013545081
15	0x3d383e59	0.044981334
16	0xbbf1b44b	-0.007376229
17	0x3da19ce5	0.078912534
