text_classify/logs/GRU/GRU_epoch_80_acc_0.8070.pth (torch, 299249 bytes, 6 tensors)

gru.weight_ih_l0 f4 [384, 57]
000000 f5 b8 67 3e 11 fc c8 3e 4a e4 d7 3e 7f 08 3f 3f
       0.2262915 0.3925481 0.42166358 0.7462234
000010 b8 b1 50 3e 38 6b 38 3e 6a fc 49 3d 43 11 24 3e
       0.20380294 0.1800965 0.049312986 0.1602221
000020 f8 81 46 bf b7 b3 3b bf dd f2 d1 be 31 de d5 3e
       -0.77542067 -0.733211 -0.41005602 0.4177108
000030 09 0f 3a 3d fa 8b 08 3f ac 96 22 bd aa fa 0e 3d
       0.045424495 0.5333859 -0.039694473 0.03490702
000040 03 53 04 3f 54 34 5a bd 45 74 5e bc 99 50 0c 3f
       0.51689166 -0.05327256 -0.0135775255 0.5481048
000050 ef a6 84 be 42 cc 90 bd 77 e2 ed 3d 34 b1 5c bd
       -0.2590861 -0.07070209 0.1161546 -0.05387993
000060 e9 42 42 3f 57 da 19 be 7b a2 44 be c3 b2 1f be
       0.75883347 -0.15024696 -0.19202606 -0.15595536
000070 0a 72 84 3e 59 ae 55 3e ec 3f 21 3e b9 19 08 be
       0.25868255 0.2086729 0.1574704 -0.13291062
000080 df 22 75 be 4c 6a 34 be 53 a0 8e be 11 41 58 be
       -0.23939084 -0.17618674 -0.27856693 -0.21118571
000090 d6 27 97 be 88 b5 26 3e e8 c0 36 ba 73 7f 23 bd
       -0.2952258 0.16280186 -0.00069714943 -0.039916467
0000a0 82 04 48 bc 63 34 0b 3e 67 ed a8 3e d9 4f 2a bd
       -0.012208106 0.13594203 0.32993624 -0.041580055
0000b0 1c b7 e7 3b 92 48 a9 be 34 e0 59 be 88 0e bc bd
       0.007071389 -0.3306318 -0.21276933 -0.09182459
0000c0 90 4e ba bc 27 b8 8f be 44 3d 9f be 85 76 ed 3c
       -0.02274254 -0.28070185 -0.3110143 0.028987179
0000d0 23 f4 c2 3d b1 da 6c 3c 91 d2 9d 3d 03 3b 90 bb
       0.09519222 0.014456437 0.07706178 -0.004401566
0000e0 f1 2e c9 be ae ce 5f 3f ea 81 0a 3f d7 3b 1b 3f
       -0.39293626 0.87424743 0.54104483 0.60638183
0000f0 08 90 eb be ff da 95 3e e2 79 e1 bc 7a 31 9a bf
       -0.46008325 0.29268643 -0.027523939 -1.2046349
000100 68 7c ce be 72 e4 62 3c da 9f 40 bf 5a ab db be
       -0.4032929 0.013848411 -0.75243914 -0.42904168
000110 62 df e5 ba 6d 94 e1 be d5 86 02 3e 00 12 46 be
       -0.0017537887 -0.44058552 0.12746747 -0.19342804
000120 39 fa 4b bd 48 d1 c7 3d d4 33 1d 3f 64 9d 97 be
       -0.049799178 0.09756714 0.6140721 -0.29612267
000130 55 19 08 3f 04 e5 0f 3e 39 f8 eb bc 10 e2 7b be
       0.53163654 0.14052206 -0.028804885 -0.24597955
000140 5a d2 ff 3e 7b 80 e2 3e 6e ae a9 be 2a ec 19 be
       0.49965173 0.44238648 -0.33140892 -0.15031496
000150 3f f7 19 3e db 74 1b 3d 65 84 82 3e 98 ca 36 3e
       0.15035723 0.03795324 0.25491634 0.17850721
000160 e6 04 97 3e 5f a2 fe bd 1e 8c 58 3e 07 35 67 3e
       0.29495925 -0.124333136 0.211472 0.22578822
000170 ba 61 9b 3b 66 1c 7b 3e d0 05 47 bd e1 dc 4f 3d
       0.0047418745 0.24522552 -0.048589528 0.050747756
000180 05 47 a1 be 40 91 21 3e 01 b3 e8 bd f9 71 9f be
       -0.31499496 0.15778065 -0.11362267 -0.31141642
000190 09 90 b0 bc 52 95 22 bd 8f 5c 88 bd d6 98 6d 3e
       -0.021553056 -0.039693184 -0.06658279 0.23202834
0001a0 a6 12 4d 3e c1 22 65 be 55 06 32 be c3 f2 eb 3d
       0.20026645 -0.22376539 -0.17385228 0.115209125
0001b0 fb 0f 91 3d 95 3c 58 bf 32 c2 0b bc 1a de e9 bd
       0.07083126 -0.8446744 -0.0085301865 -0.11419316
0001c0 80 b0 09 3d be 1a e7 3e f0 05 49 3f 9d d0 89 bf
       0.03361559 0.4513759 0.78524685 -1.0766789
0001d0 0e 47 d9 3e cd 55 c7 3c 4e b2 18 bf ec e2 a4 3e
       0.42437023 0.024332905 -0.5964707 0.32204378
0001e0 b8 b5 25 bf 7d b5 10 be b8 de 77 3e 44 4a 74 be
       -0.64730406 -0.14131732 0.24206054 -0.23856455
0001f0 39 d2 7f 3e 66 01 f1 3e 5a 56 34 be 16 46 cb 3e
       0.24982537 0.4707138 -0.17611066 0.3970191
000200 e7 60 41 bd db b9 6f be 27 6e 82 be f1 d2 e9 3e
       -0.047211554 -0.23410742 -0.25474665 0.45668748
000210 1e d8 2a bf bb 47 3c bf 25 eb 09 be fe b4 09 3d
       -0.6673602 -0.7354695 -0.13468607 0.033619873
000220 3a 6e 5e be d7 29 d7 bd 4e 45 d9 bd 85 6e 43 3e
       -0.21721736 -0.10506027 -0.10608922 0.19085129
000230 33 68 22 3f 1b 5a b7 3e 87 ee f2 bc 0a 02 fc 3e
       0.63440245 0.35810933 -0.029654754 0.49220306
000240 a9 c8 46 3e 03 94 9f be 25 0e 24 3e 70 14 ee 3d
       0.19412483 -0.3116761 0.1602102 0.11624992
000250 b3 49 dd 3e 64 85 5e bd 01 37 51 be b5 b9 95 be
       0.4322029 -0.05432643 -0.20431139 -0.29243246
000260 5c c5 20 be 8c 88 d9 3d 85 d6 df bd aa be 31 bf
       -0.15700287 0.106217474 -0.10929588 -0.69431555
000270 18 99 9b bd 9a 61 4f 3b a9 59 cb 3d 0e 95 ba 3d
       -0.0759756 0.0031643868 0.09929211 0.09110461
000280 c8 9e e8 3e cd 4c 2c bb 32 23 9f 3e 79 6a 8e 3d
       0.4543364 -0.0026290894 0.3108154 0.06953902
000290 b7 47 10 bf e7 28 c9 be 22 fe f3 be 5b 89 16 bc
       -0.5635943 -0.3928902 -0.47654825 -0.0091880215
0002a0 23 91 e7 3d 3d ba a7 3d e4 9b 12 3e 56 45 cc 3e
       0.113069795 0.08189819 0.1431728 0.3989665
0002b0 3c e9 c1 be e5 0d 5a bf 04 f1 79 be d9 1a 84 bc
       -0.37873256 -0.8517745 -0.24408346 -0.016126083
0002c0 56 28 42 3e a6 1a ca 3e 31 24 e6 bd 31 83 47 bd
       0.189607 0.39473456 -0.11237372 -0.0487091
0002d0 a9 0d 3a 3f 98 70 27 3f 7a 35 29 3f fc 86 a8 3d
       0.72677094 0.6540618 0.66097224 0.08228871
0002e0 64 d5 67 3e 37 b5 28 3c 78 0f e0 be fa e1 1e bf
       0.22639996 0.010297111 -0.43761802 -0.6206356
0002f0 bb 3d 84 be ed 9f dd 3d e9 0e 29 bf cb e2 4e 3d
       -0.25828347 0.10821519 -0.66038376 0.050509255
000300 41 a9 47 be 08 9a b0 bb 09 84 c6 be 65 0a 74 bf
       -0.19498159 -0.0053894557 -0.3877261 -0.9532836
000310 ee 0e 98 bd b8 eb 1a bc b4 b6 b1 3e 11 70 fc 3b
       -0.074247226 -0.009455614 0.34709704 0.007703789
000320 57 3b 4e 3a e5 44 93 be 9e 63 a7 3d fe c5 47 bd
       0.00078671187 -0.287635 0.08173297 -0.048772804
000330 da a8 61 be 86 4f 06 3c c9 2e ac be 78 ef d0 3e
       -0.22037068 0.008197671 -0.33629444 0.408077
000340 19 8a 4f be 15 a0 1a be 55 23 21 3c d3 3c 78 3e
       -0.20267524 -0.15100129 0.009835084 0.24241953
000350 21 27 80 be 0e 6c 5a 3e 07 e9 ba bb f8 b4 15 3e
       -0.25029853 0.21330282 -0.0057040486 0.14619815
000360 8a 7b 97 3e 59 64 c0 3e 08 19 0c be 15 7a d5 be
       0.2958644 0.3757656 -0.13681424 -0.41694704
000370 e6 81 0a 3e e4 41 0d bf d4 16 86 3c e4 c5 47 bf
       0.13526115 -0.55178666 0.016368307 -0.7803633
000380 6a e0 88 bd 66 da 2b be 61 3f 17 bd f4 ac 3d 3f
       -0.066834286 -0.16782531 -0.036925677 0.7409203
000390 20 02 a5 3e 53 b7 78 bf 39 85 5a 3c 35 50 02 3f
       0.32228184 -0.9715473 0.013337427 0.50903636
0003a0 93 95 cd bd 12 ab db 3c 46 af c1 bd 31 88 05 3f
       -0.10038295 0.026814971 -0.09457259 0.52160937
0003b0 46 1c a4 3d 54 26 f5 bb ed 85 98 3e 77 af f8 bd
       0.08013205 -0.0074813757 0.29789677 -0.12142842
0003c0 7f 1b 0c 3d 3e e0 46 3f 25 e9 85 bf b4 89 18 bf
       0.03420591 0.77685916 -1.0461775 -0.5958512
0003d0 8c be f4 bd 1b 7b 64 3f ba 98 af 3e 0c 79 4f bf
       -0.119504064 0.89250344 0.3429621 -0.8104408
0003e0 be cb c5 3e ac fa 09 bf be a3 ba 3e 1e f3 ea bd
       0.38632005 -0.5389812 0.3645305 -0.11472152
0003f0 be 52 39 3d d1 da aa 3d 0f 51 83 3d c3 20 8f be
       0.045244925 0.08342517 0.06411945 -0.27954683

gru.weight_hh_l0 f4 [384, 128]
000000 55 63 ef bc cb 70 da bd a8 ba 06 bd 62 9a 36 bd
       -0.02922217 -0.10666045 -0.032892853 -0.044580825
000010 bd 54 30 be b4 cf ef bd 7a 8c ee 3d 5e 94 2e 3e
       -0.17219825 -0.11709538 0.116478875 0.17048785
000020 13 d6 5d be 8d fb 16 3c 14 81 de 3d 38 ce cf 3e
       -0.21663694 0.009215248 0.108644634 0.4058702
000030 84 70 52 3e 87 7b 36 3d d8 59 23 3d 4f 8c 09 3e
       0.20550734 0.0445514 0.039880604 0.1343243
000040 52 6b c2 bd 8c 80 e4 3b a7 61 b9 bd df df f7 bb
       -0.09493126 0.006973332 -0.09051829 -0.0075645293
000050 d8 72 77 bc 0a 95 03 3e 2b da c3 bd 4d 7a 43 be
       -0.0151030645 0.12849823 -0.095630966 -0.19089623
000060 88 b2 89 bd 1c 3e 91 3c a0 49 07 bd 8b 1a 0b be
       -0.06723505 0.017729811 -0.0330292 -0.13584344
000070 ce 0a b1 3d 6d 84 96 3e bb 57 ab bc 95 29 f9 3d
       0.08644639 0.29397908 -0.020915857 0.12166134
000080 0e a3 64 be 92 89 ce bd cc 94 d2 bd 3a 1c 1d bd
       -0.22327825 -0.10084833 -0.10282287 -0.038356997
000090 a5 79 72 ba ec 15 7d bb b4 7e bf bb 29 34 a1 bd
       -0.0009249694 -0.0038617803 -0.0058439616 -0.07871277
0000a0 e1 86 a6 3d 6f 0a ad bd 05 d7 30 bd 12 18 25 be
       0.08131195 -0.08449256 -0.04317381 -0.16122463
0000b0 28 58 0c 3c 87 fa fe 3d 23 9e 8b ba 9a 7b 89 3d
       0.00856594 0.12450128 -0.0010651987 0.06713028
0000c0 bd 0d df bc 1f 42 8f 3d 34 24 51 3d 2f 7f 03 be
       -0.02722823 0.069950335 0.051059917 -0.12841485
0000d0 69 3c e1 3d aa fd ac bc 3a 82 97 3c 98 af 66 be
       0.109978504 -0.02111705 0.018494714 -0.22527921
0000e0 f5 bc 89 bd 54 2d a7 3c 20 82 02 3d 0e eb a0 3d
       -0.06725494 0.020407356 0.031862378 0.07857333
0000f0 91 df 8f bc a4 a5 a2 3d 14 0e 1f bd 03 6d 85 bd
       -0.01756266 0.0794175 -0.038831785 -0.06514933
000100 44 20 9b 3d b5 45 69 3e d1 e7 10 3e eb f6 1f be
       0.075745136 0.22780497 0.14150931 -0.15621535
000110 8e 79 85 be ea e2 05 be 4a e9 6f bc 2f c5 bc 3b
       -0.260693 -0.13074842 -0.014643023 0.005760811
000120 fb bb cf bd bc 93 96 bd a1 8b 78 3e 20 54 c2 3c
       -0.10143276 -0.07352397 0.24272014 0.023721755
000130 2c 5e ce bd f8 db 22 bd 1d 5e 5a bd e7 9d 0b be
       -0.100765556 -0.03976056 -0.05331241 -0.13634454
000140 61 b7 a6 bd 2f 4d 59 3c b6 8a 36 be 9c 72 a4 bd
       -0.081404455 0.013263031 -0.17826352 -0.080296725
000150 eb 46 70 3d 8a e4 f8 3d 99 0a 46 3e 67 ee f0 bd
       0.058661383 0.12152965 0.1933998 -0.11764222
000160 24 da 86 3e 01 21 92 3b c5 62 fa 3d 86 06 83 bd
       0.26338303 0.004459501 0.1222587 -0.063977286
000170 da 67 98 3d aa f5 17 3e 84 78 6b 3d 4c 8e 91 3d
       0.07441683 0.14839807 0.05748798 0.07107219
000180 cd 55 2b be 6f 5d 43 3e 6b 68 02 bd 8f 0b 11 3c
       -0.16731949 0.19078611 -0.031837862 0.008852853
000190 ce 7f 75 bd 92 74 49 bd ce 27 0f be 7b 5e 17 be
       -0.059936337 -0.049183436 -0.13980028 -0.14782135
0001a0 a2 91 26 bb db 4f 47 bd cc 53 10 bd 19 a9 42 3b
       -0.0025416394 -0.04866014 -0.035236165 0.002970284
0001b0 47 f9 5c be 6f d3 20 3d 4f 98 c4 3c 9f b3 01 3e
       -0.21579467 0.03926414 0.023998408 0.12666176
0001c0 34 2c 2c 3d 1d 64 35 bd fc 1c ed 3d e7 b4 11 bd
       0.042034343 -0.04428493 0.11577794 -0.035572913
0001d0 87 99 23 3e cc ab 6c 3d 14 ca 10 3d 90 03 27 3d
       0.15976535 0.057781026 0.035348967 0.04077488
0001e0 d4 0f b7 bc 5d 68 7d 3d 14 df b0 3c f7 e1 00 be
       -0.022346415 0.061867107 0.021590747 -0.12586199
0001f0 2c 1c 60 be 7d 77 c5 bd d1 08 06 3d 18 98 98 3c
       -0.21885747 -0.09641931 0.03272325 0.018627211
000200 1a e2 59 bc ef fc fa be 98 24 f0 3d 7f ef a0 3c
       -0.013298536 -0.49021098 0.1172573 0.01964545
000210 aa 30 97 3e 37 d4 24 be 60 ae b7 bc 55 fe 72 3e
       0.29529315 -0.16096579 -0.022422016 0.23729832
000220 45 1a 1e 3f e6 cc f3 bd 40 b3 2a be a9 13 1a bd
       0.61758834 -0.11904316 -0.16669941 -0.037616406
000230 8a 58 a1 3d 5e 5a 08 3e c4 72 f2 3d 89 22 05 bd
       0.078782156 0.13315722 0.11838296 -0.03250364
000240 cc 37 82 3e 3a 69 5f 3b d7 1b 21 be ab a7 c9 3d
       0.25433195 0.003408982 -0.15733276 0.09846433
000250 cd 41 bc bd 5a 7a cf be 62 61 95 be 63 fa 79 3e
       -0.09192238 -0.40523034 -0.2917586 0.24411921
000260 a4 be 8a 3d b7 17 e4 be da 30 39 be f8 e9 65 be
       0.06774643 -0.44549343 -0.18085042 -0.22452533
000270 f8 a4 4a be 76 32 ad be 1f cd d7 3d 00 c4 e9 3d
       -0.19789493 -0.3382756 0.105371706 0.11414337
000280 32 82 af bd eb 9a ea 3c 54 b6 ce 3e 4c 68 e1 3c
       -0.08569755 0.028638324 0.4037348 0.027515553
000290 4f 58 71 be 8c c0 d7 bd da 81 c8 be b0 91 7d bc
       -0.23568843 -0.10534772 -0.3916157 -0.015476629
0002a0 24 c3 80 be 5a c9 39 3e 34 a2 21 3e 2c 1b 80 3e
       -0.2514888 0.18143216 0.15784532 0.2502073
0002b0 0b bb 22 3e d3 8d 63 be 78 f3 47 3e ae 0a ae 3c
       0.15891664 -0.2222207 0.1952647 0.021245327
0002c0 a1 5d ee bc 82 60 0a bd f1 1c d4 bc b1 aa a4 be
       -0.02909738 -0.033783443 -0.025892707 -0.32161477
0002d0 6c 47 65 bc c9 03 9a be d3 89 96 bc 82 77 f5 3e
       -0.013994079 -0.30081013 -0.018376267 0.4794274
0002e0 04 3a a0 be ca c4 4b 3e 1b 27 01 3d d5 05 cd bd
       -0.31294262 0.19899288 0.031531435 -0.10010878
0002f0 27 0a 64 3d 41 a7 06 bd 33 dd 0b 3e fa 4e 16 3d
       0.055673745 -0.03287435 0.136586 0.03669641
000300 41 de b8 be ac f9 00 be e0 61 92 be a1 7a 87 3d
       -0.36107066 -0.12595242 -0.28590298 0.066151865
000310 77 23 9a 3d 99 0e 55 be 63 f3 ae be e8 10 d0 be
       0.07526296 -0.2080635 -0.34170064 -0.40637898
000320 83 5d ee bd c7 61 31 be 0b 98 60 3e 5f d5 1a bd
       -0.1163893 -0.17322455 0.21933 -0.037801143
000330 54 e9 29 3c 66 54 43 3d 4c 59 2a 3d 4e d7 07 3f
       0.010370571 0.04768791 0.041589066 0.53062904
000340 25 9c 08 bc 30 eb c8 bd e7 9d 92 3e 2b 96 9e bd
       -0.008338009 -0.098104835 0.28636095 -0.07743486
000350 3f c4 0a be 14 6f 5a be ab 14 aa 3e 46 3e 01 3f
       -0.13551424 -0.21331435 0.33218893 0.50485647
000360 08 c0 a3 be b8 93 f3 ba 6c 33 a2 3d 5c c6 79 3e
       -0.31982446 -0.0018583452 0.07919964 0.24392074
000370 b9 87 71 3e 4f 88 1c 3e a1 f1 8b 3e 2b eb 28 3e
       0.2358693 0.15286373 0.27332786 0.1649596
000380 61 bb 76 be bc 13 01 bd 62 fe 02 3e a5 2e c9 3c
       -0.24094917 -0.03151296 0.12792352 0.024558375
000390 88 de f4 3d 2d c6 0a be 03 50 04 be fc e8 a1 bc
       0.11956507 -0.1355216 -0.12921147 -0.019764416
0003a0 13 ec d0 3e 12 d7 79 be 56 0e 4a bc b3 73 61 3c
       0.4080511 -0.24398449 -0.0123325195 0.013760495
0003b0 81 d4 18 be 4a c0 4d be bb 19 1d 3e ce a8 60 be
       -0.14924814 -0.20092884 0.15341847 -0.21939394
0003c0 ca 5f 36 be 31 36 d1 bd a0 4f cb bd 78 2f c6 bd
       -0.17809978 -0.10215414 -0.09927297 -0.09677023
0003d0 d8 6a 98 be 1b 1b 99 bd e4 21 25 be 83 9e 8b 3e
       -0.29769015 -0.07475873 -0.1612621 0.27269372
0003e0 d6 67 b0 3e 6e 69 52 3d 8c 9a 98 ba 86 d4 2c bc
       0.3445422 0.051370077 -0.0011642738 -0.010548716
0003f0 57 e7 89 3d 57 38 b5 bd 68 c3 57 be c5 40 9d be
       0.06733578 -0.088486366 -0.21070635 -0.30713478

gru.bias_ih_l0 f4 [384]
000000 6a 55 9d 3d 30 3c a7 bd f0 e6 f4 3d 35 00 e2 bc
       0.07682307 -0.08165777 0.1195811 -0.02758799
000010 7d 75 c4 3d bd 82 0f 3e 58 4f 14 3e e9 4f ac 3d
       0.095927216 0.14014716 0.14483392 0.08413679
000020 eb 1d c6 3d 39 ea 51 3e 36 7b 87 bd 38 f7 4e 3e
       0.09673675 0.20499505 -0.066152975 0.20211494
000030 cc ef 1e 3e 13 8c 88 3d 92 14 a1 3d 72 b1 e8 3d
       0.15521163 0.06667342 0.078652516 0.1136197
000040 d0 1b 53 3e 38 3e 11 3e e6 17 67 3d ca af 98 3c
       0.20616078 0.14183891 0.056419276 0.01863851
000050 30 fc 25 3e 02 d9 a8 bd a4 6d ea 3c 5d 35 a2 3d
       0.16209483 -0.08244516 0.028616734 0.079203345
000060 8d 8c ac 3d 5f d2 0d 3e 03 d0 3f 3e d3 d8 00 3d
       0.084252454 0.13849781 0.18731694 0.03145678
000070 34 1f ed bc 13 d8 ce 3d af 63 40 3e a9 e5 0a bb
       -0.028945543 0.10099807 0.18788026 -0.0021194017
000080 aa 54 45 bb cd 3a da 3c 8c 90 22 bb d7 b2 5b 3e
       -0.0030110278 0.026639367 -0.0024805395 0.2145494
000090 48 bc 6e 3d ac 4d 49 3d 6b 4c 12 3d 30 60 bf 3d
       0.058285028 0.04914634 0.03571741 0.09344518
0000a0 18 f5 d0 3d e8 f9 bc 3c bc ad 31 3e 9c d6 b0 3d
       0.10202998 0.023068383 0.1735143 0.086346835
0000b0 74 e2 d4 3b f2 93 1c 3e 9f e2 66 3e 36 a1 ef 3d
       0.006496722 0.15290812 0.22547387 0.117006704
0000c0 32 8c 95 3d b6 b6 05 3e 93 b8 55 3d 06 40 71 3c
       0.07302131 0.1305798 0.052177977 0.014724737
0000d0 83 00 fb 3d f5 37 4d 3c 49 3d d8 3d 2b 2b b5 bc
       0.12255957 0.012525548 0.10558564 -0.02211531
0000e0 43 59 88 3d b5 7e c2 3d 17 3d 30 3e 9d 8e a4 3d
       0.0665765 0.09496824 0.17210804 0.08035014
0000f0 ad a2 e4 3d f9 40 de 3c 7f 19 ee 3d 39 dd 64 3d
       0.111638404 0.02713059 0.11625957 0.055875037
000100 6e e9 12 3c 98 70 c3 bc 3d a9 09 3d a9 ba be 3d
       0.008966787 -0.0238574 0.033608664 0.09312946
000110 f0 1e 9a 3d 25 60 3d 3e 8a e9 df 3d dd a1 37 3e
       0.07525432 0.18493707 0.10933216 0.1793284
000120 ce 39 9e 3d 1f 15 55 3d 8d 11 38 bd 4d 44 f0 3d
       0.07725869 0.052022096 -0.044938613 0.11731777
000130 14 05 15 3e f5 bf 5c 3e 1e 6c 7a 3e c4 04 23 3e
       0.14552718 0.21557601 0.24455306 0.15919787
000140 ac 70 b6 3d b6 21 81 3e 82 eb 06 bd 1a 5b c3 3d
       0.08908209 0.25221032 -0.03293944 0.095388606
000150 37 ad f4 3c 83 70 a3 3d f6 d5 2b 3e aa cd e3 3d
       0.029867752 0.07980444 0.16780838 0.11123212
000160 0b 78 dd 3c de 7a 23 3e 65 2c 3e 3e ad 7a 46 bd
       0.02703478 0.15964839 0.18571623 -0.048456836
000170 38 2e 4f 3d c1 b4 ae 3d 19 2b 8e 3a a4 49 04 bd
       0.050581187 0.0853057 0.0010846584 -0.03229679
000180 67 b2 e1 bc 33 ba f7 3d 27 0c 90 3d 72 c4 65 3e
       -0.02755089 0.120960616 0.07033568 0.22438219
000190 69 05 e5 3d df 3f 19 3e 0c 76 07 3e cd 60 d1 3d
       0.111826725 0.14965771 0.13228625 0.102235414
0001a0 70 80 5b bd 53 a3 4e 3e 5a 7c 1d 3e 09 c8 dc 3d
       -0.053589284 0.20179491 0.15379468 0.10780341
0001b0 9e b5 ea bc 5c a6 1a 3d 47 bf ea bb 44 74 1f 3e
       -0.028651055 0.03775631 -0.0071639153 0.15571696
0001c0 91 42 3c 3d 55 ac 0a 3c d0 62 18 bc 3c f7 1b 3e
       0.04596192 0.008463939 -0.0093009025 0.15231031
0001d0 90 6f 41 3e 6d bb 6c 3d e3 f1 d8 3d 7c 1c 33 3e
       0.18890214 0.05779593 0.10593011 0.17491335
0001e0 d5 dc 08 3e 51 fb 19 bc 8c 03 2d 3e 20 d4 c8 3d
       0.1336549 -0.009398297 0.16895884 0.09806085
0001f0 99 db a5 3d 7f 95 27 3e 2f ca 16 3e c5 f5 de 3d
       0.080985256 0.16365622 0.14725564 0.108867206
000200 64 d1 88 bd 93 3d 7c be de 06 27 bf eb b1 ec bd
       -0.06680563 -0.24632864 -0.65244853 -0.11557373
000210 d3 c3 b8 be ed 9f d4 be 3b 96 81 be 42 2d 8e bd
       -0.36086902 -0.41528264 -0.2530993 -0.06942226
000220 a0 47 18 bf 0f 22 61 be 02 5d 17 bf 70 b9 6f bf
       -0.5948429 -0.21985649 -0.59126294 -0.9364233
000230 7d 8a b8 be e8 13 87 be e1 75 23 bf 28 f6 a0 be
       -0.36043158 -0.26382375 -0.63851744 -0.31437802
000240 40 dd 54 be 5b 38 99 be 8f a9 ee bd d0 89 f6 be
       -0.20787525 -0.29925808 -0.116534345 -0.48152018
000250 27 0b a8 be df e8 40 be f9 dc 29 be f9 5a 69 be
       -0.3282101 -0.18838833 -0.165882 -0.2278861
000260 22 66 63 be 0b 75 df be bf de 39 be 11 83 d7 be
       -0.2220693 -0.43643984 -0.18151377 -0.42092183
000270 cc 5e c8 be a1 f5 f4 be d2 7b b6 be c7 39 c7 bd
       -0.39134824 -0.4784365 -0.35641342 -0.09727817
000280 f1 ee c8 be 46 ac 49 be 70 7e 84 bd c5 72 bb be
       -0.39244798 -0.19694623 -0.064694285 -0.36611
000290 18 ae 78 be a3 28 bc be 40 1f a2 be c8 40 52 be
       -0.24285161 -0.36749753 -0.31664467 -0.20532525
0002a0 de d9 ca be 9a 3a c2 bd 2f e0 8f be cf db 9c bd
       -0.39619344 -0.094838336 -0.28100726 -0.07659113
0002b0 e6 1e c1 be fa bb 05 bf ff da bc be 29 27 b3 be
       -0.37718886 -0.52239954 -0.3688583 -0.34990814
0002c0 bc 4e 1a bf cb 96 91 be e8 99 2e be a9 55 b0 be
       -0.6027639 -0.28435358 -0.17050898 -0.34440354
0002d0 2e ef 0c bf b8 9d ce bd 94 b2 89 be b3 6b 22 be
       -0.5505246 -0.10088676 -0.26894057 -0.15861396
0002e0 4e 7f 8d be d7 f9 83 bf 28 f3 dc be 8d 5d 95 be
       -0.27636188 -1.031062 -0.43154263 -0.29172936
0002f0 c6 a3 c9 be e3 2a b0 be 51 36 bf be a0 2c 51 bd
       -0.39382762 -0.3440772 -0.37346128 -0.05106795
000300 9e 60 87 be d5 86 2d be 24 7b e8 be 72 a0 c5 bd
       -0.264409 -0.16945966 -0.4540645 -0.09649743
000310 53 46 07 bf 74 bf 6a be 16 28 8f be c1 a1 bb be
       -0.5284168 -0.22924596 -0.2796027 -0.36646846
000320 46 c3 58 be 98 21 84 bd a8 a8 b8 be e8 09 0a bd
       -0.21168241 -0.0645172 -0.36066175 -0.033700854
000330 56 93 eb bd 2a 8b fe bd cc d9 66 be fa 89 0d bf
       -0.115027115 -0.12428887 -0.2254402 -0.5528866
000340 40 39 98 bd 97 61 e4 be 9f b6 c4 be 98 16 1c be
       -0.074327946 -0.44605705 -0.3842058 -0.15242994
000350 99 9f fb be ea 08 6c be c5 c3 ac be 1e 34 87 be
       -0.491452 -0.23050275 -0.3374311 -0.2640695
000360 be 48 43 be ee 3e bb bd cd 68 9c be c5 67 88 be
       -0.19070718 -0.09142862 -0.30548707 -0.2664167
000370 7b 3e fb be 5b 5c 50 be e9 41 b4 be 8a cc 18 be
       -0.49071106 -0.20347731 -0.35206535 -0.14921775
000380 12 aa 04 bf 8a 01 c8 be 71 75 e2 be 8e 4c d8 be
       -0.51822007 -0.39063674 -0.44230226 -0.42245907
000390 0b b8 a5 be af de d7 bd 4a c5 b1 be 64 b3 9f bd
       -0.32366976 -0.105405204 -0.34720832 -0.07797888
0003a0 01 d4 b3 be ee df 94 be 0a 54 f0 bd 35 db 1e bf
       -0.35122684 -0.29077095 -0.11734779 -0.62053233
0003b0 cc ae 2c bf 7a d7 c3 be c6 87 ed bd 0f 3d 30 be
       -0.6745422 -0.38250333 -0.11598162 -0.17210792
0003c0 5d 01 5f be 8d ba c8 be 1d 87 68 bf 55 57 0f be
       -0.21777864 -0.39204827 -0.90831167 -0.13998158
0003d0 8c 8a 98 be c6 0a 7d be bc bf 17 be 87 f4 c6 be
       -0.29793203 -0.24711141 -0.14819235 -0.38858435
0003e0 a6 68 61 be 3c eb 99 be 0f 21 61 be c6 4c 89 be
       -0.22012576 -0.30062282 -0.21985267 -0.26816386
0003f0 3e 5e 3d be ac 64 de be 27 04 43 be 85 a3 9b be
       -0.18492982 -0.43436182 -0.19044553 -0.30398193

gru.bias_hh_l0 f4 [384]
000000 b6 b8 0f 3e 80 1b 82 3c 5a 9b b6 3d 8c 4b f9 3d
       0.14035305 0.015882254 0.0891635 0.121726125
000010 da 10 a4 3d 0c 85 26 3e dd ff 25 3e 5c 22 b9 bb
       0.08011027 0.16261691 0.16210885 -0.005649848
000020 ed fd ca 3d 46 16 25 3e f5 31 cb 3d 0b d2 f7 3d
       0.09911714 0.16121778 0.09921638 0.121006094
000030 a6 5b b4 3d f9 f8 21 3c 49 9e fe 3c 6b d0 ec 3c
       0.08806543 0.00988602 0.031081336 0.028907975
000040 06 c0 32 3e 4c 16 3d 3e d9 bd 2f 3e f4 97 56 3d
       0.17456064 0.18465537 0.17162265 0.052391008
000050 63 d1 02 3e bc b4 c1 3b 36 10 2e bb 35 9b 86 3d
       0.12775187 0.005911438 -0.0026559955 0.06572572
000060 97 29 1c 3d c6 b1 17 3e 0c 07 14 3e f1 da 93 bd
       0.0381256 0.14813909 0.14455813 -0.07219494
000070 09 db 0e 3d b0 a7 0a bc a0 6a 33 3e ab 1a a6 3d
       0.034876857 -0.008462831 0.17521143 0.08110555
000080 19 d6 41 3c a7 44 06 3e 55 53 e8 3c 6f 3c 60 3e
       0.01183083 0.13112126 0.028360048 0.21898054
000090 87 da a7 3c d2 2c c4 3d 85 d6 8a 3d ae c6 2b 3e
       0.020489944 0.09578861 0.067791976 0.16775009
0000a0 a3 e0 91 3d 27 78 73 3d d2 45 d8 3d 82 18 ea bc
       0.07122924 0.059440758 0.10560192 -0.02857614
0000b0 f7 8e 13 bd 34 6c 67 3d 29 66 5d 3e 35 d6 f2 3d
       -0.036025014 0.056499675 0.21621002 0.11857263
0000c0 9e 82 32 3d 6c 63 99 3d f6 f6 a0 3d cc ad f1 3d
       0.043581598 0.07489666 0.07859604 0.11800727
0000d0 ab 7a 6d 3e b4 50 aa 3d d9 d7 25 3e 48 7e 9d bd
       0.23191325 0.08316174 0.1619562 -0.07690102
0000e0 91 76 a5 3d 4f db a6 bc d3 a3 45 3e c7 73 e8 3d
       0.08079255 -0.020368246 0.19300775 0.11350208
0000f0 3e 1d d3 3d 28 16 80 3d 8b 93 c9 3c c4 be bc 3d
       0.10308312 0.06254226 0.024606487 0.09216073
000100 2b 72 82 3d 08 a4 28 3d aa 6c 17 3e d6 c4 e8 3d
       0.06369432 0.041172057 0.14787546 0.113656685
000110 98 9c fb 3d 40 c0 53 3d 69 7e 42 bc e7 7d 0e 3e
       0.12285727 0.051697016 -0.011870959 0.13915215
000120 e9 83 db 3d ad 2b f3 3d 26 e2 e0 3c 97 b5 49 3e
       0.10718519 0.11873565 0.027451586 0.19698177
000130 9f b6 1d 3e 32 c9 39 3e c7 75 3d 3e 84 a8 00 3d
       0.15401696 0.18143156 0.1850196 0.03141071
000140 ab b9 d6 3d 50 fe 4f 3e 58 36 80 37 3a cc 62 bb
       0.10484632 0.20311856 1.5284095e-05 -0.0034606592
000150 7b 32 ca bb 4b 5c 10 bd c3 66 aa 3d 6e 93 53 3e
       -0.0061705685 -0.035244267 0.083203815 0.20661709
000160 be 7e 93 3d 7a e4 bb 3d a8 e2 43 3e da 37 ad 3d
       0.072019085 0.09174438 0.19129431 0.084579185
000170 ce 75 c6 3c e1 6e f8 3d 3f 12 cd 3d 54 25 9f bc
       0.024226096 0.121305235 0.10013246 -0.01942698
000180 b4 dd 55 3d a8 95 76 3d 34 ce 51 3e a4 fe 8b 3e
       0.052213386 0.060201317 0.20488816 0.27342713
000190 c0 9e 8f 3d 91 4b 9c 3d 56 f4 24 3e be 11 2d 3d
       0.07012701 0.07631601 0.16108832 0.04225325
0001a0 ae 4b 5c 3d d8 13 6a 3e 9c 02 24 3d 82 12 0b bc
       0.05378311 0.22859132 0.04004155 -0.008488299
0001b0 d0 4b 29 3c 9b 2a ae bc 24 b9 1b bd fb 19 0e 3e
       0.0103330165 -0.02126055 -0.03801836 0.13877098
0001c0 ba a0 05 3e 73 b7 84 3d e3 04 ab 3d be a6 ed 3d
       0.13049594 0.06480303 0.083505414 0.11604069
0001d0 61 ac 21 3d 52 a3 4a 3d e5 54 21 3e 74 76 26 3e
       0.039471034 0.04947216 0.15755041 0.16256124
0001e0 43 85 a6 bb 08 1e bc bd 1b 6d 07 3e be 40 8e 3d
       -0.005081804 -0.091854155 0.13225214 0.06945942
0001f0 e5 c2 10 3e 74 f1 a7 3d 36 0b ec 3d b0 c5 6d 3c
       0.14136846 0.082003504 0.11525576 0.014512464
000200 96 49 a8 bd f6 4c 37 be 9d d0 0b bf a3 8d 4d be
       -0.082171604 -0.17900452 -0.54615194 -0.20073561
000210 12 7d 82 be 8a 61 d0 be 4b 88 81 be 25 8a 05 3c
       -0.25486046 -0.40699416 -0.25299296 0.008150612
000220 b4 a1 26 bf 17 77 9d be aa 9a 00 bf e0 53 7a bf
       -0.6509049 -0.3075492 -0.50236 -0.97784233
000230 5f 33 97 be b2 3e 57 be 1e 2a 24 bf bd 89 8b be
       -0.2953138 -0.2102001 -0.64126766 -0.27253523
000240 53 66 61 be 48 20 ca be bc cd eb bd 46 56 05 bf
       -0.2201169 -0.39477754 -0.1151385 -0.5208477
000250 40 3e bc be 28 7f 21 be 1d 9a f5 bd d4 e9 af be
       -0.36766243 -0.15771163 -0.119922854 -0.34358084
000260 d5 3d 71 be 31 f6 c1 be 34 9f 4a bd 24 b9 aa be
       -0.23558743 -0.37883142 -0.049468234 -0.33344376
000270 17 1b fb be 86 51 cd be 83 0f a1 be 4e 38 32 be
       -0.49044105 -0.4010126 -0.31457147 -0.17404291
000280 cc 1d a4 be f0 5c 15 be 05 53 ea bd 92 f4 d7 be
       -0.32053983 -0.14586234 -0.11441616 -0.4217878
000290 6f 6c 5b be de f6 ab be 49 ab ee be c7 c1 d5 bd
       -0.21428083 -0.33586782 -0.46615055 -0.10437351
0002a0 5e be bc be 35 d8 68 bd 69 2b cc be de f4 9d bd
       -0.3686399 -0.056846816 -0.3987687 -0.0771272
0002b0 63 37 97 be 9d 57 ef be df 1c bb be c0 f6 bc be
       -0.29534444 -0.4674653 -0.36545464 -0.36907005
0002c0 eb 5f 20 bf f7 ce d0 be 54 ef 96 be 5b ce b7 be
       -0.6264636 -0.40782902 -0.29479468 -0.35899624
0002d0 95 9e 11 bf 15 09 eb bd 90 b4 5f be 97 d7 35 bd
       -0.568826 -0.11476342 -0.21846223 -0.044395056
0002e0 27 69 8d be 5b bf 6c bf a2 2a c2 be b0 a2 ad be
       -0.27619287 -0.92479485 -0.3792315 -0.33913183
0002f0 e6 35 9e be c6 f0 b1 be 85 22 df be 94 a2 0b be
       -0.30900496 -0.34754008 -0.43581024 -0.13636237
000300 c1 8d ae be f0 2f dd bd 92 12 06 bf a2 c1 f9 bd
       -0.34092525 -0.10800159 -0.52372086 -0.12195136
000310 f3 f4 09 bf 68 76 b3 be 13 5e ad be 68 78 b7 be
       -0.5388939 -0.35051274 -0.33860835 -0.3583405
000320 5c ad 57 be f6 b6 5c be 0a 16 e7 be d0 c1 bb bd
       -0.21062225 -0.21554169 -0.45134002 -0.09167826
000330 02 4a 31 be aa 98 b6 bd 97 63 b7 be 22 f8 11 bf
       -0.17313388 -0.08915837 -0.3581817 -0.57019246
000340 64 27 ce bd b2 4f f7 be 80 0f b1 be 11 a1 9e bd
       -0.10066107 -0.4830299 -0.34582138 -0.07745565
000350 01 16 db be 75 f5 7c be a2 66 ec be f1 25 94 be
       -0.42790225 -0.2470301 -0.46172053 -0.28935197
000360 1e dc 59 be e8 8b 09 be 90 79 c7 be bd 7d 8d be
       -0.21275374 -0.13432276 -0.38959932 -0.27634993
000370 60 2b d3 be ef 64 32 be f0 d6 b3 be cd 5e 7b be
       -0.4124403 -0.17421316 -0.35124922 -0.24547882
000380 7d e4 07 bf ae 38 03 bf c4 90 bf be bb 3d e0 be
       -0.5308302 -0.5125836 -0.37415135 -0.43797097
000390 52 cf ca be 98 f5 80 bd 30 12 a2 be d8 28 5b be
       -0.39611298 -0.06296843 -0.316545 -0.214023
0003a0 8d f3 cf be e3 71 ba be e6 2d 0c be 67 17 20 bf
       -0.40615502 -0.36415014 -0.13689384 -0.6253571
0003b0 a5 94 22 bf b1 a4 bf be d8 3e e6 bd 03 c8 41 be
       -0.63508064 -0.37430337 -0.11242455 -0.18923955
0003c0 a7 39 58 be bc b7 c3 be d9 84 4d bf 46 aa a3 bd
       -0.21115743 -0.38226116 -0.80280834 -0.079914615
0003d0 4f e0 73 be 6d 80 87 be 7e 06 f8 bd 7f a5 b6 be
       -0.23816036 -0.2646517 -0.12110613 -0.35673138
0003e0 cf 4d 83 be 28 85 2f be 5c f3 64 be 5f 36 1a be
       -0.256453 -0.17140639 -0.22358459 -0.15059803
0003f0 11 ce 3e be d8 3e b2 be 98 f4 87 be 75 f7 4e be
       -0.18633296 -0.3481357 -0.26553798 -0.20211585

fc.weight f4 [18, 128]
000000 56 47 b4 be 8d c4 e8 bd 33 d1 ca 3e 41 7e f6 3e
       -0.35210675 -0.11365614 0.3961273 0.481432
000010 56 c9 c4 3d 42 08 ff bc 7f 2c 68 be 2c 6f 97 bb
       0.09608714 -0.031131867 -0.22673224 -0.004621407
000020 f3 a7 7f be 82 5d ce 3e 36 a8 ce be b6 3e 07 3f
       -0.24966411 0.40305716 -0.4036271 0.52830064
000030 7a ce ad 3e ba 72 13 3e 58 72 65 3d 3f 7d 83 be
       0.33946592 0.14399233 0.05601725 -0.25681493
000040 e6 cb ec 3e 87 9c 05 be fd 5b b2 bc 1f 62 0d be
       0.46249312 -0.13047992 -0.021772379 -0.13806961
000050 ba a1 c2 3c f1 64 90 bd a0 65 87 3e 1a f2 95 be
       0.023758758 -0.07050503 0.2644472 -0.2928627
000060 85 e7 43 be 51 d8 99 3e cf e3 0b be 99 e5 d6 be
       -0.19131286 0.3004785 -0.13661121 -0.41972044
000070 e1 ba 42 3f 45 ad d2 3d af d7 a6 3e 12 46 31 bf
       0.76066405 0.10286955 0.3258643 -0.69247544
000080 fe 94 a9 3e 81 a5 c8 be e2 ca cd 3e fb 5c 61 3f
       0.33121485 -0.3918877 0.4019385 0.880325
000090 2d bd a8 3e 6e 84 2a 3e 24 68 47 3c b2 95 81 3e
       0.3295683 0.1665208 0.012170825 0.2530952
0000a0 a7 21 f1 3e 57 87 cc bd 5c 16 46 bd 2b f4 d8 3d
       0.47095987 -0.099867515 -0.048361167 0.10593446
0000b0 38 8d 19 bf ec e7 db be 0d fb ea 3e ec 6e 3a be
       -0.5998111 -0.4295038 0.45894662 -0.18206376
0000c0 9d f8 57 3f 23 77 8f bd e2 51 c4 3c f9 00 56 3d
       0.8436373 -0.070051454 0.023964826 0.05224702
0000d0 63 da d8 be 10 76 2a bf f8 56 71 be dd 1c 5d 3e
       -0.42354116 -0.665864 -0.23568332 0.21593042
0000e0 53 cd dd bd d2 66 03 bf b9 66 02 3f ea b0 f7 3e
       -0.10830178 -0.51328766 0.5093799 0.48377162
0000f0 9f 89 cd 3e 5e 73 d8 be 3b ad 65 bf 6a 18 e5 bd
       0.4014406 -0.42275518 -0.89717454 -0.11186297
000100 b9 2b 83 3f c4 64 9a be 76 f0 01 bf d0 15 96 be
       1.0247718 -0.30155003 -0.5075754 -0.29313517
000110 dd cc 01 bf 48 3c 07 3f 53 27 5f 3d cb b0 f3 be
       -0.5070322 0.52826357 0.054480862 -0.4759582
000120 77 5d a4 3e 2c 5c 92 3d 70 f1 72 bd 97 26 ed bd
       0.32102558 0.07146487 -0.059312284 -0.11579626
000130 e5 92 68 3c 8a 88 6e 3e f9 c7 0d 3a da 23 b6 bd
       0.014195179 0.23294273 0.00054085214 -0.08893557
000140 5a c5 b2 be dc 8e 17 bf 6f 88 dd 3d d1 c7 c5 3d
       -0.34916192 -0.5920236 0.10817038 0.096572526
000150 58 48 09 bf 1e f2 86 be 44 af f5 3e 54 1c a8 be
       -0.5362601 -0.26356596 0.4798528 -0.32834113
000160 d4 fa 46 bf 21 31 b2 3e fc 92 36 bd d1 05 93 3e
       -0.77726483 0.34803107 -0.04457377 0.28715375
000170 dc 55 19 bc 71 d7 11 3e 54 1c a6 3e f1 16 28 3f
       -0.009358849 0.1424234 0.32443488 0.65660006
000180 dd aa 34 3f e2 0b ab be 6b 82 9a 3b 06 90 0c 3e
       0.70573217 -0.33407503 0.004715254 0.13726816
000190 89 7d 7a be 2d c5 fc 3e 9c 29 17 3f 40 39 94 3d
       -0.2446195 0.49369183 0.59047866 0.07237482
0001a0 83 0a c4 3d 72 7f 63 3f 94 f3 33 3d 41 41 e2 3e
       0.095723175 0.8886634 0.043933466 0.4419041
0001b0 8a d2 f8 be af 96 eb be e5 08 30 bf 64 ce ed 3e
       -0.4859813 -0.460134 -0.6876357 0.46446526
0001c0 50 9a 79 3e d6 64 24 be 69 bf 18 be 97 99 09 be
       0.24375272 -0.16054091 -0.14916767 -0.13437496
0001d0 54 e4 01 be 04 5e 51 3e b6 17 28 bd a9 42 92 be
       -0.12684757 0.2044602 -0.041038238 -0.28566483
0001e0 63 c5 7d be 1f fb a7 3d a6 73 b0 bc 6c 4e 5d be
       -0.24782328 0.082021944 -0.02153952 -0.21611947
0001f0 a7 23 60 be 26 73 c7 be 72 49 f9 bd cf cb bb 3e
       -0.218886 -0.3895504 -0.12172212 0.3667893
000200 4b 4f 05 3f 63 a3 d6 3e 0d e4 2b be 1a c1 85 be
       0.52074116 0.4192153 -0.16786213 -0.26123887
000210 92 3f e4 bd d9 3d 28 be 05 f0 7c 3e 6f 9c f7 3e
       -0.111449376 -0.16429843 0.24700935 0.48361537
000220 0d 2c c5 3e da d3 0b bf 20 dd 02 3f 2d b3 7f be
       0.3851017 -0.54620135 0.5111866 -0.24970694
000230 f0 b0 53 3e bf 1e de 3d c2 91 96 3e a8 5d 4c 3e
       0.20672965 0.10845708 0.2940808 0.19957602
000240 b3 80 07 bf a5 4a 0f bf 8c ea 99 bd a5 af 94 3d
       -0.52930754 -0.55973274 -0.075154394 0.07260064
000250 c7 1f f0 3e 4a 35 92 be ae f1 27 3f 97 d1 89 3e
       0.46899244 -0.2855628 0.6560315 0.26917717
000260 00 d6 b3 be 68 57 20 3e 06 84 9a bd 18 18 af 3e
       -0.35124207 0.15658343 -0.07544713 0.3419807
000270 54 d8 6b be 41 cb aa 3e b6 ef c1 3e 2f 68 dd 3e
       -0.23031741 0.33358195 0.37878197 0.43243548
000280 db f9 85 be f4 b8 c1 be bb 82 7b be 50 b0 f8 3d
       -0.26167187 -0.3783642 -0.24561588 0.12143004
000290 e1 70 0e 3f c8 37 b3 3c 32 ee d4 be ec 82 cb be
       0.5564099 0.021877185 -0.4158798 -0.39748323
0002a0 04 d6 04 be 18 86 46 3e 3e 2f 15 bf 5a 47 c0 bd
       -0.12972265 0.1938709 -0.5827521 -0.09388609
0002b0 9a 2e 2f be 99 05 25 3e 81 76 94 3e 12 fa 27 be
       -0.17107621 0.16115417 0.2899666 -0.16403988
0002c0 dd d9 53 be de 42 83 bd 51 b6 24 3e 51 64 c7 be
       -0.20688577 -0.06409238 0.16085173 -0.38943723
0002d0 e0 2c 93 3e 1b f0 c2 bd 28 4c ff bd 51 82 24 bf
       0.28745174 -0.09518453 -0.124656975 -0.6426135
0002e0 44 b3 0b 3e 4c 16 f1 3e a2 de 0c 3f fc 1c 06 bf
       0.13642603 0.47087324 0.5502721 -0.52387977
0002f0 0f d3 31 3f 27 67 ad be 0d 63 0e be 20 81 f5 bd
       0.69462675 -0.33867761 -0.13904972 -0.11987519
000300 3a 3e c7 be bf 8f 61 3d 05 0e 9d 3e 57 cd 0b bd
       -0.38914663 0.055068728 0.3067476 -0.034131374
000310 2b 20 11 3f 09 10 80 bd a7 48 62 be a5 42 31 3e
       0.5668971 -0.062530585 -0.22098027 0.17310579
000320 16 16 9c be fc 53 8a 3e d4 6c 1e be 95 5b 94 bd
       -0.304856 0.270172 -0.15471202 -0.072440304
000330 2e 9c e3 3d 1e 35 32 3d 51 3c 1c 3f 3b 31 c8 be
       0.11113773 0.043507688 0.61029536 -0.3910006
000340 8a 00 af 3e 23 ce a1 bd 23 19 fd 3d a8 cb 2f 3e
       0.341801 -0.079006456 0.1235831 0.17167532
000350 6f 5e af 3e c6 37 20 3f 05 ca 56 3e c6 cc ac bd
       0.34251735 0.62585104 0.20975502 -0.08437495
000360 41 c6 0a bf 3f c9 84 bd 98 fb e9 3e 68 89 1d 3e
       -0.5420876 -0.06483697 0.45699763 0.15384448
000370 8f 9a 0d bf b7 68 3a bf 88 5d b4 be 62 4f a3 be
       -0.5531396 -0.7281603 -0.3522761 -0.31896502
000380 e3 dc 7c 3e 00 54 f2 3e bb f9 0c 3d 5e df aa 3d
       0.24693637 0.47329712 0.03441785 0.08343385
000390 4d 1f 91 be ba 7d 38 be 99 1b b1 3e d1 73 83 be
       -0.28344193 -0.18016711 0.34591368 -0.25674298
0003a0 58 cc c7 3d 39 d9 a1 3c 19 37 90 be 60 84 51 be
       0.09755772 0.0197569 -0.28167036 -0.20460653
0003b0 5c 4b 81 3e fc 56 97 3d 37 fe 49 3e 86 47 26 3f
       0.25252807 0.07389638 0.19725882 0.64952886
0003c0 a4 85 ba 3c f6 6e 18 be 48 c4 14 3e 57 ce c1 bc
       0.022768803 -0.14886078 0.14528 -0.02365796
0003d0 12 f2 b6 be 01 33 0d 3f 3e 3f 93 be 2c 84 0c be
       -0.3573156 0.5515595 -0.28759187 -0.13722295
0003e0 40 35 84 be e3 49 64 3e bb e2 d0 3e 31 5d 36 be
       -0.25821877 0.2229381 0.40797982 -0.17808987
0003f0 57 aa 4d bf b0 49 46 be 53 db 61 3e 92 8a d0 be
       -0.8033804 -0.19364047 0.22056322 -0.4073072

fc.bias f4 [18]
000000 66 e0 a4 bd fa 8d 01 3e 9b 00 9d be 89 ee 31 3d
       -0.08050613 0.12651816 -0.30664524 0.043440375
000010 ab 89 25 bd a3 42 0a 3b d1 59 59 3c f5 70 d5 3d
       -0.040414494 0.0021096847 0.013266043 0.104219355
000020 d6 a6 88 bd 83 7c 91 bc 1a 71 2e be 1e 4d 66 3d
       -0.066724464 -0.017759567 -0.17035332 0.05622589
000030 24 ef 93 3e d7 c8 51 bd 8f 1e 17 bc d1 72 0a 3d
       0.28893387 -0.051216926 -0.009223594 0.033800904
000040 50 ef fe 3c 42 d6 de 3d
       0.031119972 0.1088071
