01_rnn/logs/RNN/RNN_epoch_50_acc_0.8005.pth (torch, 107761 bytes, 6 tensors)

rnn.weight_ih_l0 f4 [128, 57]
00000000: 832f 18bf ae16 5bbe 3b77 c8be 7912 9c3d
00000010: 7e59 6c3e ab41 cfbd 3255 073e fa5f 613e
00000020: eb75 b6bd fa46 153c fee9 eb3e d9ad 6f3e
00000030: 666b bebe 468d 863e a1c2 fabe f2ad c73e
00000040: 4196 053f 0bb9 dc3e d9ab 00bd 0d6d 223f
00000050: e320 963d d0e5 303f b69a d73e a359 4e3e
00000060: 0047 12bf 3263 e2be 7ff6 3d3e c8ea cb3c
00000070: 2cdd 3bbe 5d42 4ebe fdd5 43be af05 1e3d
00000080: d388 8ebc bb09 cabd 422e 95bd 9050 7fbb
00000090: ec50 d63c 704e 963e 75a9 51bd 58aa cdbc
000000a0: be21 80be 9f56 803e b37a 19be dea0 7fbc
000000b0: b91d 0cbe 387a 2cbd 773e 393d 021f 433d
000000c0: af76 293e 3f46 a2be aca6 b7bd cf2c 30be
000000d0: 0158 18be 44f3 78bd f383 693d 0197 24bd
000000e0: 2b2f f4be eb09 003f a717 e63e f0fb be3d
000000f0: 0fa9 6d3d ad60 47bd 06ab 09bd 44ba b33e
00000100: 03c3 ff3d 2275 893e 47f8 17be b9fc fc3e
00000110: f83a 813e ad2c 90be 52b1 bfbe 5313 f43e
00000120: 040f 1fbe 0e54 6cbe 77ea b0be 4c62 e8be
00000130: 961f 91be 90b0 bebe 55be 8abe 2f90 043d
00000140: 8b04 aebe a97b c9be ac6f 213c 9fe6 4b3e
00000150: ebae bc3e 40de 12be 3c9c 7f3d 2302 9d3e
00000160: 43d4 6dbd 7d89 84be 1013 a83d 0043 6f3d
00000170: bdf0 b53d a09d 9e3d 7930 473e 1667 e5bd
00000180: 61bf a53c a61a f83b 5719 843d 23e5 42be
00000190: 5128 91bd 8bb0 b9bd 045b d7bd e111 11bb
000001a0: ac89 a33c 5c81 0dbe 36e9 39bd 0e95 983d
000001b0: c236 63bd f881 563d 3314 843d 41dc 81be
000001c0: 19d4 a2bc 3d9c d2bd 85ee 7d3e ae20 963e
000001d0: 433b 13be 1f83 b23e 10e7 44be 333e 6d3d
000001e0: 0363 00bf 901b 12be 28b7 423e 44e2 2b3e
000001f0: 31ff 6a3e c7e1 29be 252b 36be b5f2 99be
00000200: a739 3bbe b1b1 78be 8ba3 05bf 6705 b63d
00000210: 61e5 a33d dedd c7bc 39a1 023e 5e39 26bf
00000220: 6929 b6bd 3f83 b9be e66a f03d 3096 353e
00000230: 2f34 123e ec88 1fbd 5662 5d3d 7e50 153e
00000240: a1ae 75bc 34ae d1bd afe3 46bd 1206 82bc
00000250: 7f46 973e c2d5 b93d 3bf2 543d 04cc a2bd
00000260: 9cf4 14be ddab 783d 5d80 893d 9e0a 00bd
00000270: d4ae 5b3d f180 eabd 2c26 9fbc d594 a53d
00000280: 8208 113d cbfc a03d 957c f5bd f350 cdbb
00000290: 2bb7 043d a64e 303d bd4e 333d c990 283d
000002a0: 4417 e6bd 1e6e 35bd 46c9 d93b b3c6 12bc
000002b0: 2551 423e 1c8f 103e f44c 8c3c 4e65 2ebe
000002c0: d92e 103f a87c 0dbe 7a15 efbe 41da a33e
000002d0: 50ee 22bd a731 0cbd 5c8b c33e fd6b 92bd
000002e0: 6e51 99be 9abb 8f3c 067e 5f3e c4b1 35be
000002f0: 605f c03e be9f 0cbe 6aea 0ebe 2bbc e43d
00000300: f83a edbe 623f 0bbd 7113 0e3f a9fa 31bf
00000310: 92c9 fc3e 88c1 b6be 552f 613d 8e3e a13e
00000320: 01b3 883d 8ba4 2cbe bac3 953c cea3 1abc
00000330: d41f f63a 37c1 f8bd 1673 1e3e 96f9 033d
00000340: 6310 1e3e 4be0 e6bc 969c 05be 0005 a0bd
00000350: 4bbd c03d b61c 033d 8926 643c 556e afbc
00000360: 9d26 73bc f1a3 92bd b588 e63c d3d3 323e
00000370: b4af 863e 904e c53b 997b 913d 300e a0be
00000380: 8cde 203c ed99 61be f5dd 443d 5613 75be
00000390: cc8b a9ba 3656 403e af6b 19bf 9731 c03d
000003a0: a132 2b3d ffb1 d7bd ce39 89be bffb bbbe
000003b0: 238b a13e 3e22 a1bd dd69 3dbd cba8 12be
000003c0: 9390 94be c8cd 50be b26c d63e 78cd 3ebe
000003d0: d82b 583b 584d 60be 908c 653d 983d 883e
000003e0: 1890 a3be a083 543e c3b5 7cbe 1560 1ebf
000003f0: 7337 4c3e ddbd 64be eaa7 e6bc d95a 003e
-0.594475 -0.2139537 -0.39153466 0.07620711 0.23081014 -0.10119947 0.13216093 0.22009268
-0.0890921 0.00911116 0.4607696 0.23406161 -0.37191314 0.26279658 -0.48976615 0.38999897
0.52182394 0.43109927 -0.031413887 0.6344765 0.073304914 0.69100666 0.42110223 0.20151381
-0.5713959 -0.44216305 0.18551062 0.024892226 -0.18346089 -0.20142503 -0.19124599 0.03857964
-0.017399227 -0.09865137 -0.072842136 -0.003895793 0.026161633 0.29356718 -0.051186997 -0.02510564
-0.25025743 0.25066087 -0.14988212 -0.015602319 -0.13683213 -0.042108744 0.045225587 0.047636993
0.1654918 -0.3169422 -0.08967337 -0.17204593 -0.14877321 -0.06077887 0.057010602 -0.04018307
-0.47692236 0.50015134 0.4493992 0.09325397 0.058022555 -0.04867618 -0.033610366 0.35103047
0.124883674 0.26847178 -0.14840804 0.49411562 0.25240302 -0.28159085 -0.37439972 0.47670993
-0.15533072 -0.2307894 -0.34553882 -0.45387495 -0.2834441 -0.37244081 -0.27098337 0.032364067
-0.3398784 -0.39352158 0.009853285 0.19912194 0.36852202 -0.14342594 0.062404856 0.30665693
-0.058063757 -0.25886145 0.08206761 0.058413506 0.08883808 0.07744908 0.19452085 -0.11201303
0.020232858 0.007571536 0.06450146 -0.19032721 -0.07087768 -0.09066876 -0.10515407 -0.00221359
0.019963108 -0.13818878 -0.045388423 0.07450305 -0.055472143 0.05237004 0.06449165 -0.25363353
-0.019876527 -0.10283706 0.24798019 0.29321808 -0.14378075 0.34865662 -0.19228768 0.057920646
-0.5015108 -0.14268327 0.19015181 0.16785532 0.2294891 -0.16590033 -0.17789896 -0.30067983
-0.18283711 -0.24286534 -0.5220267 0.08887749 0.08002735 -0.024397787 0.12756814 -0.64931285
-0.08894617 -0.36232945 0.11739139 0.17733073 0.14277719 -0.03894894 0.05404886 0.14581487
-0.014995248 -0.10238305 -0.04855698 -0.015872035 0.29545972 0.09073974 0.05198882 -0.07949069
-0.14546436 0.060710777 0.067139365 -0.031260125 0.053633526 -0.11450375 -0.019427381 0.08085028
0.035408504 0.078607164 -0.11986653 -0.0062657534 0.032401245 0.043043755 0.043776263 0.041153703
-0.11234906 -0.04429447 0.006646308 -0.008958506 0.18976267 0.14117092 0.017126538 -0.17030832
0.56321484 -0.13817084 -0.46696073 0.32002452 -0.039778054 -0.03422704 0.3819226 -0.071495034
-0.29944938 0.01754551 0.21825418 -0.17743593 0.37572765 -0.13732812 -0.1395661 0.11168703
-0.46334052 -0.033995993 0.55498415 -0.695231 0.49372536 -0.35694528 0.05497678 0.31493038
0.06674767 -0.16859643 0.018281806 -0.009438468 0.0018777796 -0.12146228 0.1547359 0.032220446
0.15435939 -0.028183123 -0.13048014 -0.07813454 0.09411105 0.032009803 0.013925203 -0.021414915
-0.014840749 -0.071601756 0.028141359 0.17463617 0.26305926 0.0060213283 0.071036525 -0.31260824
0.009818684 -0.22031374 0.048063237 -0.23933157 -0.001293534 0.18782887 -0.5992994 0.093844585
0.04179633 -0.10531997 -0.26801914 -0.36715505 0.31551465 -0.07867859 -0.046243537 -0.14322202
-0.2901655 -0.20391 0.41879803 -0.18633068 0.0032985117 -0.21904504 0.056042254 0.26609492
-0.31945872 0.20753336 -0.24678712 -0.6186536 0.19943027 -0.22338052 -0.02815624 0.12534656

rnn.weight_hh_l0 f4 [128, 128]
00000000: 6bb6 c33d 1b43 533d d2ae dbbc 0208 55bd
00000010: 537d dabd 9a62 8fbc 1c1f 753d 1d2e eebd
00000020: 491a 953d eb8a 9b3d 5fa9 cc3d da56 04be
00000030: 273b 0fbe 54c7 f3bd df75 2dbd 547f ea3c
00000040: ea0c 66bd 0bc4 bd3d 0248 55bd 9067 c63d
00000050: 65e9 153d 0fed 023d 0936 613d 02f8 41bd
00000060: c9c9 b93b 62af 82bd cd3f 8dba 1eca 803e
00000070: 6363 25be 0690 4c3e 4e47 623c 0343 f8bc
00000080: 0238 47bd 5ea2 d43c 2249 1ebd 57a2 46be
00000090: 423f f23d fb28 b2bd 400a 8dbd 5d88 903d
000000a0: 3121 b13d 4616 93bd 28a3 123e db44 13bd
000000b0: f721 e9bc 6283 d5bd 77d0 c8bd d4ec 03bd
000000c0: dccb acbc 79b9 a93d 79fd c5bd 7e21 9d3c
000000d0: c005 0ebe 2d08 23bd d7d3 efbc 623b 8f3c
000000e0: eaaf 1a3e 1ad7 6d3d 8cf6 063e 54e0 ab3d
000000f0: 234c bebd 4532 7dbd 061b 36bd ecb4 13be
00000100: 4b52 8ebc f708 d93d 4111 71be 20bb 2a3d
00000110: a798 bfbd 58c7 173d 10c8 533d efdf 30be
00000120: 7873 033e 7ac3 bc3d 46b2 193e 844f 1bbd
00000130: 78ce 1ebd d025 283c dd5f bd3d c4d4 f7bc
00000140: 5b83 103c 1489 0dbd 68f7 a23b 928f 2cbe
00000150: 2e0a bfbb dcab 08be abdd 403d 288a ec3d
00000160: 63bf 6c3c 1fd6 5e3d a373 c0bd 10b1 5d3b
00000170: 94a3 aa3d 34bd 21be 5d77 803d 2067 133c
00000180: cf13 1c3e f596 023e 512e ac3d 6dda bc3c
00000190: ffe0 073d c9f7 54bd e8c9 83bc 5311 b13d
000001a0: cdc6 cc3d 0d5c 1bbe 246b 843b 222a 303d
000001b0: 47a9 9b3d fc0d 963d 73a8 273e ad55 063e
000001c0: 6d43 a8bd 6d75 833d 52ab 883b 821e 4ebd
000001d0: 31ed d0bc df64 a33d fe9e cabb a52b 1ebe
000001e0: 383a b83d fcce 1ebe 6457 ec3c 4c23 93bc
000001f0: 1b39 53bd eab3 44be d152 463d 0236 273d
00000200: 7ab6 47bd 10fe 353c afea 413d 17a1 13be
00000210: df02 963d 82ef 033d 3899 2db8 107e fc3c
00000220: f142 1ebe 8119 f33d b4f8 df3a ebb8 84bb
00000230: 7aeb df3d 95e5 28bc f071 283d 92b5 77bc
00000240: 8ec0 2fbd 0952 813d 3c7e a43d 71fa be3c
00000250: f092 2d3b 2704 36bd b028 083a 255b cf3d
00000260: 2ec4 7c3d c10a 063e 737e 41bb 6604 c1bd
00000270: 73bd a5bb deaa 9a3d a7cd eabc 41e6 503d
00000280: 7b7b 38be c7b8 293e e3d1 25be be0d a5bc
00000290: 54eb bcbd 95bb adbd db06 50bd d981 a63d
000002a0: b928 fa3c 13ff 4fbc 8164 823b 1f0d 0d3e
000002b0: 5a3c 993d c99c ef3c 3023 03be 4ad1 5a3d
000002c0: 804a 9fbc 4209 03be fd00 2a3e b22a 9dbd
000002d0: 6394 223d de42 ea3d 25fc af3c b006 0bbe
000002e0: 3967 f53d f981 50bd 9dcf 4f3d 7bae fcbc
000002f0: f8d3 26be cc58 babc 38ea ef3d 56b4 3b3d
00000300: d671 183d a263 82bc 1e8c 933d 7c1d 063c
00000310: 9292 1d3c d112 22be 9eca 023d 0b27 35be
00000320: 9d02 3d3e 904b 053d c8f8 523d 3385 273d
00000330: 365d 263e c066 013c ea43 a63d 90c4 aabd
00000340: 461d 7abe e51e 58bc 1612 723c 5941 853d
00000350: d620 15be 3a39 8dbd 4229 e5bd e7e7 413d
00000360: 2e97 80bd 914f 5b3d 0954 333e 1a8f f73d
00000370: 9100 eabc d597 253e 108c 8bbc e693 963d
00000380: ed0f 383d f3d5 d2bd c65f 50bd 759d ea3d
00000390: 6f59 cebc 524a 5f3d b063 963d a46f 0fbe
000003a0: 7ad4 053e 35bd eabd 083c fb3d c829 4d3d
000003b0: 702c 9ebb 102d f33d 4462 4abe d215 673e
000003c0: ffd8 97bd fd86 28be 5bc4 07be 84e2 283d
000003d0: 6be9 a6bd 0ae0 1e3e 1abd d03c 3ccd 54bd
000003e0: 178a c1bd b271 88bd 9988 85bd 04fa 8a3d
000003f0: 69ef 7b3e fcc7 0cbe 37e0 c73c 5b07 9a3d
0.09556278 0.05157767 -0.02681676 -0.05200959 -0.10668435 -0.017503072 0.05984412 -0.11629889
0.07280404 0.07594856 0.099932425 -0.12923756 -0.13987409 -0.11903253 -0.04234874 0.028625168
-0.05616466 0.09265908 -0.052070625 0.09687722 0.036599535 0.031964358 0.054983173 -0.04735566
0.0056698066 -0.06381108 -0.001077646 0.25154203 -0.16151194 0.19976816 0.013810946 -0.030305391
-0.048637398 0.025956329 -0.038643964 -0.19397865 0.11828472 -0.08699223 -0.06886721 0.07057259
0.08648909 -0.07181983 0.14320052 -0.035954338 -0.028458579 -0.1042545 -0.098053865 -0.03220828
-0.021093301 0.08287329 -0.09667487 0.01918101 -0.13869381 -0.03980272 -0.029275818 0.01748437
0.15106168 0.058066465 0.13179988 0.083923966 -0.09291866 -0.06181552 -0.044459365 -0.14424485
-0.017373225 0.10597413 -0.23541738 0.041682363 -0.09355288 0.037055343 0.051704466 -0.17272924
0.12837017 0.09216972 0.15009412 -0.03791763 -0.038771123 0.010262921 0.092468 -0.030252822
0.00882038 -0.034554556 0.004973341 -0.16851643 -0.005830071 -0.13346809 0.0470864 0.11549789
0.014449927 0.05440342 -0.09397056 0.0033827461 0.08331981 -0.15794832 0.06272767 0.008996755
0.15241931 0.12752898 0.08407272 0.023053372 0.033173557 -0.05199412 -0.016087487 0.086458825
0.09998856 -0.15171833 0.0040410925 0.04300893 0.076006465 0.07326886 0.16372852 0.1311862
-0.082159854 0.064188816 0.0041708136 -0.050322063 -0.025503727 0.07978224 -0.006183504 -0.15446337
0.08995479 -0.15508646 0.028850265 -0.017961167 -0.051568132 -0.19209257 0.048418824 0.04082299
-0.048758008 0.0111079365 0.047342952 -0.1441692 0.07324766 0.032210834 -4.138911e-05 0.03082183
-0.15455224 0.11870099 0.0017087669 -0.0040503643 0.109335855 -0.010308643 0.041124284 -0.015118973
-0.042908244 0.06314475 0.0803189 0.02331278 0.0026485287 -0.044437554 0.0005194051 0.10124806
0.06171053 0.1309004 -0.0029524832 -0.09424667 -0.0050579845 0.075521216 -0.028662516 0.051000837
-0.18015854 0.16574393 -0.16193347 -0.020148154 -0.09224573 -0.08483044 -0.050787788 0.08130235
0.030536996 -0.012695092 0.003979266 0.13774537 0.07482214 0.029249566 -0.12806392 0.05342225
-0.019444704 -0.127965 0.1660194 -0.07674159 0.039692294 0.11438535 0.021482537 -0.1357677
0.11982579 -0.0509052 0.050735105 -0.030844918 -0.16291797 -0.02274742 0.117145956 0.04582628
0.037217937 -0.01591665 0.072044596 0.008185741 0.009617465 -0.1582749 0.031931512 -0.17690675
0.18458028 0.032542765 0.051506788 0.040898513 0.16246495 0.007898033 0.08118422 -0.083382726
-0.2442523 -0.01319096 0.01477482 0.06506605 -0.14563307 -0.06895681 -0.1118951 0.0473403
-0.06278835 0.053542677 0.17512526 0.12087841 -0.028564723 0.161712 -0.01703456 0.07352428
0.044937063 -0.10294714 -0.050872587 0.11455814 -0.02518913 0.054514237 0.07343233 -0.14007431
0.13069335 -0.114618696 0.122673094 0.050088674 -0.0048270747 0.11873829 -0.19764048 0.22566918
-0.074144356 -0.16457744 -0.13258497 0.041231647 -0.0814999 0.15515152 0.025480796 -0.05195354
-0.09450167 -0.06662311 -0.065201946 0.06785968 0.24603046 -0.13748163 0.024398906 0.07520934

rnn.bias_ih_l0 f4 [128]
00000000: fe18 57bd c4bf aabc 9875 01be de01 223c
00000010: d408 4fbd 06da 3a3b 154e a7bc 172f d7bc
00000020: e8dc 1dbc b9c5 b2bc 1613 cc3d 87f5 633d
00000030: 559b c9bc 75cb 543d 26b6 833c 6c02 f03d
00000040: 7566 b63d 9b91 bc3a 1a21 9dbd 63c6 95bc
00000050: 36fc bcbc d2ed 083c 2696 433b 1b0b 59bd
00000060: 1876 9bbd 0d1e 98bc 39b0 1dbd 7e8f c53d
00000070: 39fa febb 23b4 613d d8ca a33b e110 913d
00000080: 49ad b1bd 7a48 cdbb 419f 813d 09eb dcbd
00000090: 5773 99bd 088e 10bd fdb7 ce3d f6bf 7dba
000000a0: f043 93bb 31a0 edbc 51d5 933d cca2 b03d
000000b0: 0a5d 6d3a 4cbd afbd 45e8 273c 2930 3c3d
000000c0: 0264 a1bd 12f9 393d 83d4 92bd 32e9 57bb
000000d0: 7f4a d6bb f57c 773c 0e0e fdbc c6c1 ad3d
000000e0: 093d 8e3d 97d5 80bd 9aa3 673d a56e 8e3d
000000f0: 01b7 1cbd 8641 5ebd 0a1e ccbc ba12 753d
00000100: c476 9c3d fc97 853d b87d a13d c435 ae3c
00000110: c390 2d3c 02dd 8c3d f210 583d 62de 91bd
00000120: f878 79bc 2172 44bd d262 8ebd ddd4 dcbc
00000130: 9d90 1a3c de01 52bc 458e 963d 7b3e 833d
00000140: 6a2b 57bd 81d1 e03c f867 c2bc d2ac 323d
00000150: 67c2 1bbc 5c21 0fbd 7577 4f3d 8085 1abd
00000160: 1480 043c 0267 85bd 7eed f33a 2ec7 5cbc
00000170: 08d9 5fbb 97dd ba3b 0df4 0bbd 223f 843d
00000180: 1cdb 7cbb f93a 85bb 6c47 baba 3fc8 13bd
00000190: a0d7 dfbd 1fe0 8bbd d24e e13b 1e44 b3bc
000001a0: ce96 8abd 2ccd a3bb 4021 af3d 9b37 013d
000001b0: c8a5 e03c 850b f93c 3374 89bb 6172 413b
000001c0: 4de8 473d baa7 6ebd b1ef 623d a769 86bd
000001d0: 5123 903d d65d 853d 77c9 adbd e2bb 083d
000001e0: 8857 c1bc 5a17 93bc b6d4 3a3d 366f d93c
000001f0: c95c 8b3d 4e30 95bd 79b9 9a3d 6a3a 8dbd
-0.05251407 -0.020843394 -0.12642515 0.0098881405 -0.05054553 0.00285113 -0.020422975 -0.026267571
-0.009635188 -0.021822797 0.09964578 0.055654075 -0.0246102 0.051951844 0.016078066 0.11719212
0.08906261 0.0014386656 -0.07672329 -0.018283075 -0.023069482 0.008357482 0.0029844134 -0.052989107
-0.07590884 -0.018569017 -0.038498137 0.096465096 -0.0077812937 0.055103432 0.004998546 0.070832975
-0.0867563 -0.0062647434 0.063292034 -0.10787017 -0.074927025 -0.0352917 0.10093687 -0.00096797885
-0.0044941828 -0.02900705 0.07218421 0.08624801 0.00090546964 -0.085810274 0.010248248 0.045944367
-0.07880403 0.045403548 -0.0716944 -0.0032945392 -0.0065396423 0.015105476 -0.03089049 0.08484225
0.06945235 -0.06290739 0.056552507 0.069546975 -0.038260464 -0.054261707 -0.024916667 0.059832312
0.0763984 0.06523129 0.07885307 0.021265872 0.010593596 0.068780914 0.052750535 -0.07122494
-0.015226595 -0.047960404 -0.06952442 -0.02695697 0.009433893 -0.012817828 0.073513545 0.064084016
-0.052531637 0.02744365 -0.023731217 0.043621846 -0.009506798 -0.034943923 0.050651032 -0.03772497
0.008087177 -0.06513788 0.0018610207 -0.0134752225 -0.003415646 0.005702685 -0.03416829 0.06457354
-0.0038582748 -0.004065868 -0.0014211959 -0.03607964 -0.10929799 -0.06829857 0.006875851 -0.021883067
-0.06767045 -0.0049988236 0.08551264 0.03154717 0.0274228 0.030401 -0.00419476 0.0029517638
0.048805524 -0.058265425 0.05540437 -0.0656312 0.07037986 0.065120384 -0.08485692 0.033382304
-0.023601308 -0.01795547 0.045613013 0.026542287 0.06804807 -0.07284604 0.07554907 -0.06895907

rnn.bias_hh_l0 f4 [128]
00000000: c858 8d3d 12c0 8a3d 6a53 c9bd cd00 32bd
00000010: 5e00 99ba 935a 9b3c d7f2 36bd 911f bd3b
00000020: f845 a8bd 1e76 5dbd 4cf3 43bd 2421 3ebd
00000030: f5f0 b53d a3c5 373d 49be ba3d 359d 283c
00000040: 81bb 7b3d 138b 323d 9af9 68bd 285b 063c
00000050: 249b 07bd f011 933c 187f bc3c ae52 ca3c
00000060: 3d09 863d 7159 ebbc cbf8 aa3d 22d2 9c3d
00000070: da85 173d a449 ef3c 5f83 88bc b279 6b3b
00000080: abaa c23c 81dd a4bd 80d2 5abd ed59 83bd
00000090: 7c37 08bd 1ea8 aa3c e4f9 1dbd a620 f9bc
000000a0: 723c 783d 5c14 633d 3218 b73c 4009 2bbd
000000b0: 55ab 75bd 5509 963d 9143 48bc cb0c 653d
000000c0: 0131 a5bd 2b57 02bd fcf7 a6bd 601e 4f3d
000000d0: 0b05 aebc 4dcd 19bd 1405 64bc a1f7 57bc
000000e0: dd59 15bd d6ac b0bc cc00 b8bb 50fb bb3d
000000f0: 4d4d 44bb f404 613d 667d 503d e2ea 0abd
00000100: 3b5f 973d e292 633d b4c9 c0bc a8b2 7fbd
00000110: 5791 423b 8fd3 e13c dfe4 86bd cbec 8ebd
00000120: 7077 483d cbe6 a43c 694a 0f3d 6a1c b1bd
00000130: 987a 8bbd 5043 e23d a6d9 ae3d c459 aa3d
00000140: 271f 19bd 9548 263d 71d5 773d e073 0f3d
00000150: 5ed8 c4bc fd4d af3d d4ab af3d 7c7b 5c3d
00000160: 061f 9cbd d68f 833c f2aa 56bd e380 50bc
00000170: b16c 343d 3f64 a3bb 3b4f c5bd b508 81bd
00000180: a300 9f3d 29cc d83d ce1a 803d 5cf7 93bd
00000190: 43d1 77bd 036a 793d 42b1 fdbc bf8d 45bd
000001a0: 1ba3 83bb 76ad 773c ed7d 34bb 914d bdbc
000001b0: 9daf 2bbd 8c79 38bd 7744 6f3d 3172 8bbd
000001c0: 94f8 cebc d259 cb3c 5d68 6cba 612e b3bc
000001d0: b29d 7abd b6e7 aa3d 5043 163d fa63 ed3c
000001e0: 9990 aa3c 804e babd d935 5cbc 209b 64bd
000001f0: 8a12 29bd 3186 85bd 4373 efbb 9131 963d
0.06901699 0.06774916 -0.09830363 -0.043457795 -0.0011673083 0.018964088 -0.044665184 0.0057715853
-0.082164705 -0.054067723 -0.047839448 -0.046418324 0.088838495 0.044866215 0.09118325 0.010291387
0.061458115 0.043589663 -0.056878664 0.008200444 -0.033106938 0.01795289 0.023009822 0.024697628
0.06544731 -0.028729172 0.08348235 0.07657267 0.036992885 0.02920992 -0.016664205 0.003593069
0.023763021 -0.08050061 -0.053423405 -0.06413636 -0.03325604 0.020832118 -0.038568392 -0.030411076
0.06060452 0.055439338 0.022350404 -0.04175687 -0.059977848 0.07325999 -0.01222314 0.055920403
-0.080659874 -0.03182141 -0.08152768 0.050566077 -0.021242639 -0.037549306 -0.013917226 -0.013181598
-0.036462653 -0.02156679 -0.0056153294 0.091787934 -0.0029953301 0.054936364 0.05090084 -0.033915408
0.07391211 0.05556 -0.02353368 -0.06242624 0.002968868 0.0275667 -0.065866224 -0.069787584
0.04894203 0.020129582 0.034983072 -0.08647998 -0.06810492 0.11047995 0.08537607 0.08317903
-0.037383225 0.040596563 0.060506288 0.035022616 -0.024028953 0.08559797 0.085776955 0.0538287
-0.07623105 0.016059797 -0.05240912 -0.0127260415 0.04404897 -0.0049863155 -0.09634253 -0.06300489
0.07763793 0.105858155 0.062551126 -0.072249144 -0.060502302 0.060892116 -0.030968312 -0.048230883
-0.0040172464 0.01511704 -0.0027540878 -0.023108276 -0.041915525 -0.04503779 0.058414903 -0.0680889
-0.025265016 0.024823103 -0.0009018237 -0.021872701 -0.061185546 0.083449766 0.036685288 0.028978337
0.020820903 -0.09097004 -0.013440573 -0.055812 -0.041277446 -0.065197356 -0.0073074414 0.07333673

fc.weight f4 [18, 128]
00000000: 0c4f 7ebe 2ce4 d03e 7387 8dbd 371c 5c3e
00000010: 2bcf bc3e 2912 76be f746 77be 1f07 41be
00000020: 7ffd d0be b186 6bbe 8bdb 09be fdcf 37be
00000030: 22ea 7bbe da16 adbd 844a 64be 13ad e8bc
00000040: f37e d0be e373 55be eaff 223e 1221 803d
00000050: 05c7 62be cbaa c53e d2d4 d23e d4a4 fc3d
00000060: 9563 19bf d07d 383d 882b a1bd c37a 593d
00000070: 629b 08be 8130 a3bb 5230 c1bc 4c5e 743d
00000080: 1ff9 113f d4e8 e43e 7aa9 4d3e e132 0bbe
00000090: 1f3c f33d 24b8 073f 6a0a 54be 5f42 35be
000000a0: 6e9c 25be 0140 babe a04d fbbe 0a83 4fbd
000000b0: 84bc c7be 582f 943c 3f1b 61be 099c 023e
000000c0: 73cc 10bd b883 ffbd 6f76 b43e e549 a7bc
000000d0: dabf f6be f501 ea3d 004d 00bd de05 a9be
000000e0: 1627 74be 102a d9bd 55f5 cd3d d72a 21bd
000000f0: 704a 82be 0a9c 843e 0287 813c 5e67 4c3e
00000100: 42dd 22bf dbc1 b9bc d868 553d f5ca 01bd
00000110: f80d ef3d 9218 b73e 6eaf 133e bb01 373e
00000120: cc37 81bd 810b 233e 7660 a73e d5fd 86be
00000130: b88d a73e 427a a93d 8240 85bd b41d 6a3c
00000140: 23a7 5a3c d6b8 843b 1a76 b9bc 5384 de3e
00000150: 064f 14be f38a 20be b0f0 cabe 7029 583e
00000160: 6013 13bf f5f2 0ebf 8c69 81bd 74c4 89bd
00000170: 778f 1ebe 20aa 5b3c 9966 8b3e 63e2 16be
00000180: 62f9 94be dd20 d73e 140d b33e e0a4 62bc
00000190: c6af 40bf d99d e03c 69e1 3dbe bbc5 e73e
000001a0: 1afe dc3e e1f0 4e3e e9b7 eebe 70a6 9d3e
000001b0: 8772 9fbd 2b68 0a3e f071 6b3e bfac 0dbe
000001c0: 86b9 05bd 6743 93be 0821 ad3c 5116 ff3c
000001d0: 9fdb a8bd a790 08be d8c1 61be a3aa d1bd
000001e0: 1b88 b63d d14d 85bd 080a 90bd 7eb4 223a
000001f0: 2424 7c3e d60b b83e 5d6d 2ebd 2477 2dbe
00000200: ec93 3d3e 7914 e2bc bc0f bcbd 819d b3be
00000210: f081 d53d 04e5 8c3e e528 993e 2d22 33be
00000220: 0cfd 0f3e 77ba a1bd 8254 54be 7e32 0d3e
00000230: cf65 743e d13e e23c e624 55bb c9d5 e4bd
00000240: 4f9d 373e 32ea 30bd e9b9 01be f968 8a3e
00000250: 8413 423e 4612 48bc 2450 bbbe cac4 0e3e
00000260: 608b d6bd 1d0d b5bd 6c90 3e3d ccb4 ea3d
00000270: 31d8 083e 60de 633e 6bdd 3c3e 6d5d 77be
00000280: c9d0 b4bd c820 99be 36d2 05be a672 b83e
00000290: 849a 993e 3f21 ecbd eb18 c63c 5b83 a3be
000002a0: 859e ab3e d3cf a1bc da0a 913e d581 c63d
000002b0: 948c 173d 7a9e 73bd 035f 04be 05d9 dbbc
000002c0: e4ea f3bd e7ba d73d 2334 64be f3ec 8d3d
000002d0: f3d1 433e 3b56 18be 5efb da3e b63c 353e
000002e0: a7bb 193e 52ce 1dbe 1565 76bc 1fc8 973d
000002f0: 8ad0 623d d9dc cabe e462 993e e087 513e
00000300: ae6e 223c 132b d63e a97a 5cbe 13c9 2bbe
00000310: 46cb 9fbe 5e83 c3be efed f53d 2256 a83d
00000320: 1bb6 5c3d e03b 71bc 9682 88be 8b21 7ebe
00000330: 63a8 dd3c 4742 703d 14ab e1bd 492c 7abe
00000340: f5a2 9e3d 10a0 0b3e 5343 983d a11a 1bbe
00000350: 0b79 fabc 6182 93be 5984 db3e 43bc 45be
00000360: 0279 58be b7f0 9a3e 3973 a5bc be92 f73e
00000370: 963c 35be 4fa4 4bbe 0679 b0bd 6e38 913d
00000380: 5b82 c23e 533b 963d e183 1e3c 3f6b fdbd
00000390: c6cc 093f 6e51 9a3d 3d78 883d 4c8c 77be
000003a0: 532d b13e 074b d83d afd2 4abe d28e 64be
000003b0: 60ea 5e3e 62a6 52be dbac 9ebe 2d72 c53e
000003c0: ca7a 07bd 2a03 93bd 4b89 a63d 07d1 383e
000003d0: d004 dd3d 819d aa3d 7e94 6d3d b091 b2bd
000003e0: 4846 83bd ce68 393d c090 843e 0de7 7abd
000003f0: 2ed9 e93d d38c 97bd b018 8dbe 40e3 933c
-0.24834841 0.4079908 -0.069106005 0.21495138 0.36876807 -0.24030365 -0.24148165 -0.18850373
-0.40818402 -0.230006 -0.13462655 -0.17950435 -0.24601033 -0.08451624 -0.2229405 -0.02840284
-0.40721855 -0.20844989 0.15917936 0.06256308 -0.22146232 0.38606867 0.41177994 0.12336126
-0.59917575 0.04504186 -0.07869631 0.05309559 -0.13340524 -0.0049801474 -0.023582611 0.05966024
0.57020754 0.44708884 0.20084181 -0.13593628 0.118767016 0.5301535 -0.20707098 -0.177011
-0.16172954 -0.36376956 -0.4908266 -0.050662078 -0.39011014 0.018088982 -0.2198305 0.12754835
-0.035351228 -0.12476295 0.35246608 -0.020420978 -0.48193246 0.114261545 -0.031323433 -0.3301229
-0.23843035 -0.10603726 0.10056559 -0.039347496 -0.25447416 0.25900298 0.015811447 0.19961306
-0.6361886 -0.022675445 0.05210194 -0.031687696 0.11672586 0.35760933 0.1442239 0.17871754
-0.063094705 0.15922357 0.3269078 -0.26365533 0.3272531 0.08275272 -0.065064445 0.014289308
0.013345513 0.0040503545 -0.022639323 0.4346033 -0.1448327 -0.15678005 -0.39636755 0.21109557
-0.5745144 -0.55839473 -0.063189596 -0.067269236 -0.15484415 0.01340726 0.27226713 -0.14734797
-0.29096514 0.4201726 0.34970915 -0.013833255 -0.7526821 0.027419018 -0.18543018 0.45268044
0.43162614 0.20209076 -0.46624687 0.30791044 -0.07785516 0.135163 0.22992682 -0.13835429
-0.032647632 -0.2876236 0.021133915 0.031138571 -0.082450144 -0.1333643 -0.22046602 -0.102376245
0.08912679 -0.06508983 -0.07033163 0.0006206705 0.24623162 0.3594653 -0.042584766 -0.1693998
0.18513459 -0.027597653 -0.091826886 -0.35081103 0.10425174 0.27518475 0.29914013 -0.17493506
0.14061373 -0.078968935 -0.20735362 0.13788792 0.23866962 0.027617844 -0.0032523214 -0.11173589
0.17931102 -0.043192096 -0.12668575 0.27033213 0.18952757 -0.012211388 -0.3658458 0.13942257
-0.104758024 -0.08840392 0.04652445 0.114602655 0.1336372 0.22252798 0.18443839 -0.24156733
-0.08828885 -0.29907823 -0.1306847 0.3602497 0.300007 -0.11529779 0.024181804 -0.31936154
0.33519378 -0.019752419 0.28328592 0.09692732 0.0369993 -0.059477307 -0.12926869 -0.026836881
-0.11910036 0.10533696 -0.22285514 0.0692996 0.19123058 -0.14876644 0.42769903 0.1769894
0.1501299 -0.15410736 -0.015038748 0.07411217 0.05537466 -0.39621618 0.2995826 0.20461988
0.009914083 0.41829738 -0.21531166 -0.16775922 -0.31209773 -0.38186163 0.12008273 0.082195535
0.053884607 -0.014723748 -0.2666213 -0.24817483 0.027057832 0.058656957 -0.11018959 -0.24430956
0.07745925 0.13635278 0.07434716 -0.15146877 -0.030575296 -0.2881041 0.4287441 -0.19310097
-0.21139911 0.30261776 -0.020196544 0.48354143 -0.17698893 -0.19886898 -0.086168334 0.07090841
0.37990078 0.07335534 0.009674997 -0.12373971 0.53828084 0.07535063 0.06663559 -0.24174613
0.34604892 0.10561185 -0.19806932 -0.22320107 0.21769094 -0.20571283 -0.30991253 0.38563672
-0.033076085 -0.07178338 0.08131655 0.18048488 0.107919335 0.08330823 0.05800294 -0.08719194
-0.064098895 0.045265965 0.25891685 -0.061255503 0.11418377 -0.07399907 -0.27557898 0.018052697

fc.bias f4 [18]
00000000: 338e 86bd 617e ecbb c9ac fdbd b651 3cbd
00000010: df63 14be 16d1 09bd 9bb9 1f3c a0c4 513d
00000020: 350d a0bd 9c82 ef3b c774 36bd 993d f7bc
00000030: 2141 bd3d c27a e6bd ebe4 5ebc ae5c 0f3e
00000040: 66b5 6e3c 3b93 42bb
-0.06570091 -0.007217214 -0.12386472 -0.045976363 -0.14491223 -0.033646666 0.009748842 0.051212907
-0.07815019 0.007309271 -0.04454496 -0.03018074 0.09240938 -0.11253883 -0.013604383 0.14000198
0.014569616 -0.0029689807
