01_rnn/logs/RNN/RNN_epoch_80_acc_0.7903.pth (torch, 107761 bytes, 6 tensors)

rnn.weight_ih_l0 f4 [128, 57]
00000000: eced 2dbf b6d2 6bbe d8c4 05bf 2719 303e
00000010: 6ffa 553e 96b7 1cbe c2c3 043e 652c 953e
00000020: 76e7 47bd e0ea e7bc 5576 1c3f ec27 913e
00000030: 9f61 cfbe 5863 ad3e 90b8 0fbf 4055 b53e
00000040: 6098 4a3f 4d2d ff3e bb75 9dbd c924 3c3f
00000050: 1b3f 973d f050 673f 83fd f83e bf31 913d
00000060: 8655 3cbf 625e 0cbf f382 663e a39f 8c3d
00000070: beca 30be 94b2 79be 920a 68be c14f 6f3d
00000080: 2f69 913c 85ea f7bd bacb 0ebe dbb3 1fbc
00000090: b84b 233d 5881 a33e 6efb 57bd 2b67 263d
000000a0: 5788 90be 640e 803e 9a21 88be 3012 93bd
000000b0: a470 c2bd cf57 fabd fb82 213e ec56 98bd
000000c0: 061f 683e d049 90be 6c86 1abe 212f 5fbe
000000d0: ec2b 95bd 8048 74bd c964 023e 1481 21bd
000000e0: 464c e2be 4a55 0e3f 4087 0b3f 4807 fc3d
000000f0: ff52 a93d fde4 a7bd bdaf 17bc c937 0c3f
00000100: 5fb5 0e3e 5b63 9b3e c126 f03d 0f9b 263f
00000110: 45ea 8e3e 601b cdbe bd51 f1be 3a0e 113f
00000120: 4cb4 43be 34d0 a2be 455b d3be 2dff 25bf
00000130: 870a bdbe 6338 d8be 39f6 79be cbbd 44bb
00000140: a6b1 9bbe bd9e 04bf 8d09 b3bd a910 433e
00000150: ca80 b63e 2622 08be de00 473d 1ec5 753e
00000160: 0f5d 3fbd d0ed a2be c45e 603d e986 d13a
00000170: d7b0 613e dc4c dc3d 904f 663e db21 0dbe
00000180: 1407 ffbb 05b3 823c 2623 953d 6978 2abe
00000190: eefc 26be 353e 9cbd f6d7 1dbe 2a8b 13bc
000001a0: 5668 d03d a9a9 e1bd 89d5 ff3c 6574 a3bd
000001b0: ed09 96bd 850e 803e 899a 813d 8b36 cabe
000001c0: 9fc6 9fbc b2a8 12bd e08f 713e 0300 cc3e
000001d0: 513c 1bbe 4562 c83e 96f0 8fbe 9143 533d
000001e0: 3292 34bf a84b cbbd ccb0 853e 3029 303e
000001f0: 08b2 913e 2921 88be 2c6a 96be 04da bebe
00000200: b3f3 63be b7d0 75be d5a5 0cbf 8e0d a63d
00000210: 182d 883d 0570 b7bc 53fc 0a3e 7a65 52bf
00000220: 3464 15be 92c8 16bf b194 ef3d 1477 1d3d
00000230: 4b48 5b3e 0b34 8dbd a46f e93c 1fe3 1f3e
00000240: e42f 9bbc e4b6 01be 9220 55bd 4236 f13c
00000250: 72b9 ba3e ff1a c83d b755 5c3d c191 1bbd
00000260: 5423 18be 10fa c73d f84d ff3d 9df0 b6bd
00000270: 6b9a 633d be36 01be 3af6 1ebd f7e6 fb3d
00000280: 3c08 f63c 79fe 0b3e 5e01 1dbe 7ce8 12bd
00000290: 3f78 c0bc d800 59bb 7ca0 883d a967 253d
000002a0: f3d7 2cbe 5307 32bd 6bf9 303d 72ae 1a3d
000002b0: 318f 513e 39f5 da3d cb76 303d b75e 25be
000002c0: c359 0b3f 01e5 b3bd dc8a ffbe ca35 b23e
000002d0: 30fd 593d cdd0 a5bd 192a dd3e 7752 0cbe
000002e0: d0a4 b1be 063f 1b3d 9717 503e c798 adbe
000002f0: 6887 d33e 4029 72be da94 49be 9ea6 7b3e
00000300: 0104 26bf 0871 743c b5e4 193f 9d9b 57bf
00000310: a673 e33e c847 dbbe ed56 9f3d 2492 9f3e
00000320: 8ebc 923d a2c9 63be fb8e 343d 23f8 293d
00000330: bdaa 003b 0169 72be 4544 6b3e d807 213d
00000340: 9f5d 413e 6ee5 65bd ea1c 1bbe 6bc5 99bd
00000350: ba2a ca3d 892b 7c3c 43fa 583c 63cc 61bb
00000360: bf82 c6bb 15e4 03bd 4470 7f3b 9ee8 223e
00000370: b152 c33e aed7 a33d 92a1 283d 16e7 ebbe
00000380: 7fda 1d3c f8c5 81be 172d 413d 6291 a6be
00000390: 0a9b 5abd 0d41 733e 5c68 4dbf c7b4 f73c
000003a0: aebc ea3d bece f0bd 9912 a4be 9ad8 cebe
000003b0: 9434 c73e f487 aebb a14e 15be fab2 28be
000003c0: 51dd b2be 69b2 47be e32d 013f c4ae 89be
000003d0: 2f3a 903e 77da 74be 5ffb 2e3d d7ba a23e
000003e0: 0d99 aebe 2ba7 2a3e 778e 70be 9dbe 0fbf
000003f0: 0e15 e93d 0108 32be 000d 6bbd df81 303d
-0.67941165 -0.23029599 -0.52253485 0.17197095 0.20896314 -0.15304407 0.129653 0.29135433
-0.048804723 -0.02831024 0.6111806 0.2835077 -0.40504166 0.33864856 -0.56140995 0.35416603
0.79138756 0.4983925 -0.07688471 0.7349363 0.07385083 0.90357876 0.48630914 0.070895664
-0.73568 -0.54831517 0.2251089 0.06866386 -0.1726484 -0.24384528 -0.22660282 0.05842567
0.01775035 -0.12105278 -0.13944903 -0.009747471 0.039867133 0.3193462 -0.052730016 0.040625732
-0.2822902 0.2501098 -0.26588136 -0.07181203 -0.09494141 -0.122237794 0.15772621 -0.07438454
0.22668085 -0.28181314 -0.1509034 -0.21795322 -0.07283768 -0.059639454 0.12733759 -0.03942974
-0.44198817 0.5559889 0.5450325 0.12306076 0.082677834 -0.08197973 -0.009258208 0.5477262
0.13936375 0.3034924 0.11726142 0.6508035 0.27913108 -0.40059948 -0.47132674 0.56662333
-0.19111747 -0.3179947 -0.4128057 -0.6484249 -0.36922094 -0.4223052 -0.24410333 -0.0030020352
-0.30408973 -0.51804715 -0.08742056 0.19049324 0.35645133 -0.13294277 0.04858481 0.24000975
-0.046719607 -0.31822062 0.054777876 0.0015985641 0.22040115 0.10756847 0.22491288 -0.13782446
-0.007782826 0.015954504 0.07282095 -0.16647495 -0.16307423 -0.076290525 -0.15414414 -0.009005347
0.101761505 -0.11018688 0.031229751 -0.07981185 -0.07326112 0.25011078 0.06328303 -0.39494738
-0.01950389 -0.03580541 0.2359004 0.3984376 -0.15159728 0.39137474 -0.2811324 0.05157811
-0.70535576 -0.0992654 0.26111448 0.17203212 0.2845614 -0.265878 -0.29377878 -0.37275708
-0.22260933 -0.240054 -0.5494054 0.08108054 0.06649226 -0.022392282 0.13572817 -0.8218609
-0.14589006 -0.58899796 0.116982825 0.03844364 0.21414296 -0.06894692 0.028495617 0.15613984
-0.018943734 -0.12667423 -0.052033015 0.029444817 0.3646961 0.09770774 0.05379268 -0.0379808
-0.14857227 0.097644925 0.12466043 -0.08932612 0.055567186 -0.12618539 -0.03880904 0.122999124
0.030033223 0.13671292 -0.15332553 -0.035866246 -0.023494838 -0.0033112075 0.06671235 0.04038206
-0.16879253 -0.043464016 0.043206614 0.03776402 0.2046478 0.10691304 0.04308204 -0.16149412
0.5443384 -0.087839134 -0.4991063 0.34806663 0.053219974 -0.08096466 0.4319618 -0.13703333
-0.34696054 0.0379019 0.20321499 -0.33905622 0.41314244 -0.23648548 -0.19685689 0.24575278
-0.6484986 0.014919527 0.60114604 -0.8422182 0.4442417 -0.42828202 0.07780252 0.31166184
0.0716487 -0.22244886 0.04408167 0.041496407 0.0019633018 -0.23672868 0.22975262 0.03931412
0.1888337 -0.056127004 -0.15147749 -0.075083576 0.09871431 0.015391239 0.013243261 -0.00344541
-0.0060580666 -0.032199938 0.0038976828 0.15909049 0.38149026 0.08000122 0.04116971 -0.46074742
0.009634613 -0.2534635 0.04716214 -0.32532793 -0.053370513 0.23755284 -0.80237365 0.030237569
0.11461769 -0.11758183 -0.3204544 -0.4039963 0.389073 -0.0053262655 -0.14580776 -0.16474524
-0.34934476 -0.19501652 0.5046064 -0.26891148 0.2816939 -0.23911463 0.042720195 0.31783172
-0.34101143 0.16665332 -0.23491846 -0.5615023 0.11380969 -0.17385866 -0.057385445 0.043092605

rnn.weight_hh_l0 f4 [128, 128]
00000000: ccfe 043e be97 b53d 698f 0dbd 9224 f8bd
00000010: bc2d 3fbe 6322 3cba 98f4 ed3d b13e 2ebe
00000020: 9408 923d 5a7e 9e3d 68be 463e a3ea 0cbe
00000030: 60bd 0abe 4d3e 26be 1fd5 d53b 6931 d93c
00000040: d199 d0bd a013 123e 7f95 cbbd 0d4b 1b3e
00000050: 8f3a 813d 0880 873d 3b94 4c3d c735 bebd
00000060: 0131 943d f74c 9fbd c670 7ebd af7e 9c3e
00000070: d083 88be b0dd 563e 152c 313c 03b5 91bd
00000080: 0df7 aebd 2da9 b03d f50e 92bd b0fb 72be
00000090: 78c5 1e3e 38fd 0ebe 290a 2abe f4d3 5e3d
000000a0: 5d03 ee3d f6dc 63bd 90dc 2d3e 19f1 2fbd
000000b0: b215 02bd e4ca 11be 3daa cdbd 543b 08bd
000000c0: 93c2 9bbd 6dca 023e a215 18be c080 b03c
000000d0: 65d8 33be 5182 43bd a9c5 22bd 18eb 243d
000000e0: 3b8c 1e3e 94ce 343d 9ed6 3e3e ff08 903d
000000f0: 5192 25be 05a1 c5bd fc4f 82bd 30a9 1dbe
00000100: 0cf6 86bc 9322 163d 0b22 87be 88a5 82bc
00000110: f22b 2cbe 76d8 9f3d 9795 313d eeb9 2bbe
00000120: 5efb 123e d20e c23d e71b 433e 66cc 253a
00000130: 04f5 0f3a 008b 7a3c 4fdb fc3d 170a 58bd
00000140: 97bc 273c 6f75 053d 7e25 40bd fa59 38be
00000150: 9006 983c 6be1 eebd 5b1d 5e3d 3549 e43d
00000160: caea d63c 4682 963d 8d79 81bd 2dcf 053d
00000170: 709d 363d 45bb 5cbe b1f4 b43d 917a 2b3c
00000180: 799b 363e f5c0 383e bdb7 b13d e883 2a3d
00000190: c734 193c eedd c4bd 45a1 b33c fb96 053e
000001a0: 117a d13d d4d8 48be b7b3 863c 0251 bd3d
000001b0: 4b8b 233d 82ba f03d a1d0 153e 89f0 103e
000001c0: b469 0ebe a9d6 ff3d a979 763d adfd c6bd
000001d0: c8cb 34bd 3551 c93d 586c 993c b10c 3ebe
000001e0: f77f 033e fa9e 06be 5baa f83c 9ad9 85bd
000001f0: 9c4f 06be f97e 3ebe 65bd 703d d502 3e3d
00000200: f087 3fbd aee1 6dbd 4e8e 243d bfbe 2ebe
00000210: 36b9 9a3d 1f6f 8d3d 6e5c 0ebd 25e6 4a3d
00000220: 7dce 3fbe cb67 143e ff18 103a bc15 29bd
00000230: 957d 103e 0ab6 2d3c ce47 993d d2e9 cebc
00000240: 9b2a 0cbd 05de 963d 150c 1f3e 2c8a 4aba
00000250: 5f83 083d 66e3 2fbd 91c0 933d 72cb 223e
00000260: cc06 c53c 1fa7 183e a40a 9e3c a430 d5bd
00000270: f413 39bc 80f2 8c3d 313d 5bbd ce3a 083e
00000280: 04df 2cbe 3b33 493e f7d3 5cbe 8e77 1a3d
00000290: 529d 70bd 2033 73bd 3857 82bd f233 b83d
000002a0: 1f3e 513d 3035 a63b 2f5a 16ba f84e 1f3e
000002b0: 21a7 803d 3295 b63c 86ef 16be c042 fa3c
000002c0: 9f9d 52bc 7d7f 38be 03fe f33d 67e1 0cbe
000002d0: 4635 303c e9d1 213e c2c7 033d 5b33 14be
000002e0: 9c21 5b3e 6bf3 41bd 797b 713d 2c25 abbc
000002f0: 042a 4ebe 9dea 8fbd 9e9a 0e3e 5001 4e3d
00000300: 4a5d 153d 2cb1 c63b 589b 923d 2947 3e3c
00000310: 9502 313c 2013 1ebe ce6c 6d3c b527 73be
00000320: d49b 923e ad28 d23c 9f7c 3b3d 12f1 993d
00000330: 3649 073e 65a8 c03d a696 4e3d 9a5b a7bd
00000340: 8e5f adbe c58b 6bbd 71c9 ef3c ab06 123c
00000350: 8ab2 4bbe 6d42 8cbd ab9b 3ebe 3b95 9e3d
00000360: d53e 4abd 76c6 3a3c 979b 1a3e 6fce 223e
00000370: 30a9 70bd 9b61 693e 4a27 5dbd 14cd e23d
00000380: 431a 75bc 9044 06be e7da bdbd 2711 233e
00000390: 3f54 e7bc 52e0 3c3d 16fe fe3d 74c5 2dbe
000003a0: db82 1a3e f4ab 3cbe 0898 2e3e f708 56bc
000003b0: 670a 293c 81e1 143e 39ec 72be cdb6 853e
000003c0: 0d2f e3bd ae89 40be 9be2 33be 4de1 313d
000003d0: d6f4 d2bd 362c 3f3e 6da8 ccbb 834e 92bd
000003e0: e1f0 8bbd 7ac6 82bd 7ef4 d6bd 7a2d 523d
000003f0: 84f6 ba3e aeba 2ebe c357 333d b2f6 0a3d
0.12987822 0.08866833 -0.034560595 -0.1211635 -0.1866979 -0.0007176755 0.11618918 -0.17016102
0.071305424 0.077389434 0.19408572 -0.13761382 -0.13548803 -0.16234703 0.00652565 0.026512818
-0.10185588 0.14265299 -0.099406235 0.15165348 0.06309997 0.06616217 0.04994605 -0.09287601
0.07235909 -0.07778352 -0.062119268 0.30565402 -0.26663065 0.20983005 0.010813733 -0.07114603
-0.08543215 0.08626018 -0.07131759 -0.23728824 0.15505016 -0.13963783 -0.16605438 0.054401353
0.11621735 -0.055630647 0.16978669 -0.042954538 -0.03175897 -0.14237553 -0.10042236 -0.033259705
-0.076054715 0.12772532 -0.14852002 0.021545768 -0.17563017 -0.0477317 -0.039739285 0.040263265
0.15483181 0.04414232 0.18636557 0.07032966 -0.16169097 -0.09649853 -0.06362912 -0.15396571
-0.016474746 0.036654066 -0.2639316 -0.015948072 -0.16813639 0.078049585 0.04335555 -0.16770145
0.14353701 0.09475483 0.19053613 0.0006324708 0.0005491527 0.015291929 0.12346517 -0.052743997
0.010237834 0.032582697 -0.046910755 -0.18003073 0.018557817 -0.11664089 0.054227214 0.11146776
0.026235003 0.073490664 -0.06322012 0.03266828 0.044583738 -0.21555813 0.08835734 0.010466234
0.17832746 0.18042357 0.086776234 0.0416297 0.009350962 -0.09612642 0.021927485 0.13045876
0.102283604 -0.19613963 0.016443117 0.09243967 0.039927762 0.117543235 0.14630367 0.14154257
-0.1390751 0.12492115 0.060174618 -0.097163536 -0.044139653 0.09829942 0.01872842 -0.18559529
0.12841783 -0.13146582 0.03035467 -0.06535645 -0.13116306 -0.18603124 0.05877437 0.04638942
-0.0467605 -0.058076553 0.040174775 -0.17064951 0.075548574 0.0690596 -0.034756117 0.04953589
-0.18731113 0.14492719 0.0005496889 -0.041280493 0.14110406 0.0106024835 0.07484399 -0.025257979
-0.03422032 0.073665656 0.15531953 -0.00077262777 0.03332841 -0.042941473 0.072144635 0.1589792
0.024051093 0.14907502 0.019292183 -0.10409668 -0.011296261 0.06882191 -0.053525154 0.13303682
-0.16881949 0.19648449 -0.21565233 0.037711672 -0.058743782 -0.05937493 -0.06364292 0.08994283
0.051084634 0.0050722584 -0.00057354843 0.15557468 0.06281877 0.022287939 -0.14739808 0.030549407
-0.012854963 -0.18017383 0.11913683 -0.13757859 0.010754889 0.1580273 0.032172926 -0.14472716
0.2139954 -0.047351282 0.058955643 -0.020891748 -0.20133215 -0.07027171 0.1392617 0.05029422
0.03646592 0.006063601 0.07158536 0.011613646 0.010803838 -0.15436983 0.014491273 -0.23745616
0.28634512 0.025654161 0.045773145 0.07516684 0.13211522 0.09407119 0.05043664 -0.081717685
-0.33861965 -0.05750634 0.02927086 0.008912723 -0.19892326 -0.06848607 -0.1861407 0.07743307
-0.049376328 0.011399856 0.15098415 0.1589906 -0.0587551 0.2279114 -0.053992547 0.11074272
-0.014959875 -0.13112092 -0.09270268 0.15924512 -0.028238414 0.046112366 0.12450807 -0.16969854
0.1508898 -0.1842497 0.17050183 -0.013063661 0.0103174215 0.14539148 -0.23722924 0.26116028
-0.110929586 -0.1880252 -0.17566912 0.043427754 -0.10300605 0.18669209 -0.006245664 -0.07143881
-0.068330534 -0.06385513 -0.10495852 0.0513129 0.36516201 -0.170634 0.043784868 0.033926673

rnn.bias_ih_l0 f4 [128]
00000000: 1f53 81bd 5c16 36bd 5cfe 14be c67d 893c
00000010: 2082 80bd fbf6 e9bb c1e7 97bc 10ee e4bc
00000020: 2087 dfbb 2452 0ebd 80d9 c23d 4372 643d
00000030: 7ba6 c5bc d997 693d d5ce bf3c 935f fd3d
00000040: bfea be3d 2955 083b 5dc2 8dbd eea5 08bc
00000050: f7b2 b7bc c279 0c3c f0d6 853b d3eb 82bd
00000060: c91f 98bd fd33 b3bc fc22 25bd 498b aa3d
00000070: 1dda 093b 86b0 4b3d c5a1 f53b 5b56 553d
00000080: 561e a2bd 7535 34bc e365 893d 2dcc debd
00000090: 00da 96bd 2209 e7bc d1d8 dc3d 6b6f b53b
000000a0: 7895 36bc a594 0fbd 3bfa 823d 9603 b43d
000000b0: 0ec3 b53b f750 a7bd d091 253c 42a7 2d3d
000000c0: 0258 92bd ac68 3a3d e690 91bd 884d 9d3b
000000d0: f29f d23b 60bc ab3c 5096 08bd eaf1 b03d
000000e0: fa0f 9c3d 6e44 8dbd c451 863d 219d 843d
000000f0: c0d5 18bd 3c58 71bd 68c5 0cbd 6a1d 8f3d
00000100: f8aa 8e3d 566d 803d d8ef ae3d c2ab 863c
00000110: b055 8e3c 4a11 303d c14f 593d 623c 80bd
00000120: b57a 91bc 9235 17bd 9729 a2bd 0b9f 17bd
00000130: dafe ee3b d2bb 09bc 157d 9d3d 44c4 5e3d
00000140: 295e 66bd db80 9a3c acd5 9ebc 7ffe e43c
00000150: 9349 00bd af7f 0ebd e578 763d 9782 1abd
00000160: a67f 0f3c 84a2 8bbd 2c30 a13a 73b6 8c3a
00000170: e67f 97bb 6b74 dd3b acf7 48bd 5bae 5d3d
00000180: e347 21bc 4110 15bb 5543 7dbc a401 dabc
00000190: 63cc afbd 201b 9dbd 85ec 803b 8184 d6bc
000001a0: 8cac 8abd dc2f 91bc 4ab3 953d 9561 ff3c
000001b0: f200 d53c 3c1a ae3c 70ed 3fba 4ec4 cd3b
000001c0: 370f 1d3d 3d2c 71bd 842e 6a3d fa74 6dbd
000001d0: a870 a03d a921 8f3d d1dd abbd 6e44 003d
000001e0: 7876 c1bc 18b3 8bbc 9c84 443d 0fd6 f33c
000001f0: 1e64 4a3d 26cb 82bd cf06 903d ae64 88bd
-0.06314682 -0.044454917 -0.14550155 0.016783606 -0.062748194 -0.007140038 -0.018543126 -0.027945548
-0.006821528 -0.034746304 0.09514141 0.05577303 -0.024127236 0.05702958 0.023414055 0.12371745
0.09322118 0.0020802713 -0.069218375 -0.008340342 -0.022424204 0.008573951 0.0040844604 -0.06392636
-0.074279375 -0.021875376 -0.040316567 0.08327348 0.0021034547 0.049728893 0.007496091 0.052084308
-0.07915942 -0.010999073 0.067088865 -0.10878787 -0.07365799 -0.028202597 0.10783542 0.0055369637
-0.011144035 -0.035053868 0.06395384 0.087897465 0.005546934 -0.0816974 0.010105565 0.042395838
-0.071456924 0.04550998 -0.07107715 0.004800502 0.0064277584 0.020963848 -0.033346474 0.086398914
0.07620235 -0.068978176 0.06558564 0.064752825 -0.037313223 -0.058922037 -0.03436795 0.06988032
0.069662035 0.06270854 0.0854184 0.016439322 0.017374843 0.042985238 0.053054575 -0.06261517
-0.017758707 -0.036916323 -0.07918089 -0.03701691 0.0072935643 -0.008406596 0.07689873 0.054386392
-0.056242142 0.018860271 -0.019388996 0.027953384 -0.031320166 -0.034789737 0.060173888 -0.037722196
0.008758461 -0.06818107 0.0012297682 0.0010735526 -0.004623401 0.006758263 -0.049064323 0.054121356
-0.009843799 -0.0022745284 -0.015457948 -0.02661211 -0.085839055 -0.07671189 0.0039344453 -0.02618623
-0.06771192 -0.017723016 0.07309587 0.03117446 0.026001427 0.021252744 -0.0007321453 0.006279505
0.038344588 -0.05888008 0.057173267 -0.057972886 0.078339875 0.06988842 -0.083919175 0.03131526
-0.02361606 -0.017053172 0.04797803 0.029765157 0.049411885 -0.06386404 0.07032549 -0.06659828

rnn.bias_hh_l0 f4 [128]
00000000: 75cf 653d 23fc 2d3d 3279 f1bd 8ba9 11bd
00000010: 9d38 6abc 3510 0e3c 2a63 2dbd 8fe9 643b
00000020: e5b9 9fbd c1f5 87bd 3013 4bbd ebcd 35bd
00000030: 2693 b23d 4e1d 4d3d 31e2 c63d 4c2e 9a3c
00000040: 3b71 873d 4bef 313d 62c2 4bbd b48f 903c
00000050: 3031 04bd b45e 933c b86e c23c bc96 493c
00000060: 32f2 833d ff6f 02bd 5390 a23d 6291 823d
00000070: a992 3c3d 903c c73c d273 61bc 96a7 63bc
00000080: 98ed ef3c deb5 abbd 144f 42bd c4e8 86bd
00000090: 2738 06bd 831c dc3c 7903 eebc 1351 bfbc
000000a0: d4ff 573d a8d3 433d 14a6 763c 0573 1abd
000000b0: 76fb 5dbd fe59 983d fcb2 43bc b4bf 553d
000000c0: dc12 96bd aaf2 f7bc a453 a5bd e823 6c3d
000000d0: ce10 03bc 7686 fbbc 56bc 88bc 625a 20bc
000000e0: 3a24 e3bc bdc1 e8bc ce2f 963b 2f4f b13d
000000f0: 5a8c 31bb 978b 453d 76f4 233d ff1f b5bc
00000100: a6ab 893d a1fb 593d 258f 76bc 4685 86bd
00000110: 9616 223c efb1 263b 69b7 81bd ebb1 7abd
00000120: f12a 393d caea f43c 386d bf3c 7e6d c3bd
00000130: 78e2 8cbd 3490 e63d d953 b53d 79c1 953d
00000140: a97b 29bd bd1d 023d 5c93 813d ccde 9f3c
00000150: 90a7 3abd 0afe aa3d 69d3 c13d 8b76 553d
00000160: 4582 97bd 4552 3c3c 0c16 55bd 6111 ed3a
00000170: 3ed5 2b3d c978 74bb 026e e1bd a68a 91bd
00000180: 799d 8f3d df3e d83d 76cd 413d 7260 7ebd
00000190: c379 1bbd 6a08 4d3d 05fd 07bd 0028 55bd
000001a0: a019 acbb ad19 043b fb72 5dbc 23f6 b7bc
000001b0: f92e 2cbd 3627 58bd 69a4 783d 44e7 81bd
000001c0: 47a5 0cbd 108e b93c 9801 fc3a b854 76bc
000001d0: 52e8 4fbd 89f7 b33d edc4 103d 3e22 dd3c
000001e0: fd9e a33c bda7 b5bd 1e53 23bc e814 51bd
000001f0: ae02 6dbd b5d8 66bd 48dc 33bc b090 953d
0.05610605 0.042476784 -0.11790694 -0.03556208 -0.014295724 0.008670856 -0.0423309 0.003492925
-0.077991284 -0.06638671 -0.049578846 -0.04438583 0.087194726 0.050076775 0.09711111 0.018820904
0.06613394 0.0434411 -0.049745925 0.017646648 -0.03227347 0.017989494 0.023734435 0.012304004
0.064426795 -0.03184509 0.07937684 0.06375386 0.046038304 0.02432087 -0.013760524 -0.013894936
0.029288098 -0.08384298 -0.047438696 -0.06587365 -0.032768395 0.026869064 -0.02905439 -0.023354089
0.05273421 0.047809273 0.015054245 -0.037707347 -0.05419489 0.0743904 -0.011944529 0.052184775
-0.07327816 -0.030267078 -0.08072594 0.05765143 -0.007999612 -0.030703764 -0.016691368 -0.009787174
-0.027727235 -0.028412694 0.0045833355 0.08657681 -0.0027091713 0.048228826 0.040028058 -0.022109983
0.067221925 0.053218488 -0.015048777 -0.06568389 0.00989308 0.0025435647 -0.06333811 -0.061204832
0.045206968 0.029897112 0.02336751 -0.09542368 -0.06879133 0.11257973 0.08853883 0.073122926
-0.041377697 0.031766642 0.06326935 0.019515418 -0.045569956 0.08349235 0.094641514 0.052115005
-0.07397894 0.011494224 -0.05202298 0.0018086844 0.04195141 -0.003730344 -0.110073105 -0.07106523
0.070124574 0.10558867 0.047315083 -0.062103696 -0.037957918 0.050056852 -0.033200283 -0.0520401
-0.005252078 0.0020156906 -0.013516183 -0.022456234 -0.042036984 -0.05277177 0.06070367 -0.063429385
-0.03433731 0.022650748 0.0019226549 -0.015034847 -0.050758667 0.08787448 0.035344053 0.026993867
0.019973272 -0.08869884 -0.009968547 -0.05104533 -0.057863884 -0.05635901 -0.010977812 0.073029876

fc.weight f4 [18, 128]
00000000: 0f7e 8dbe f495 0e3f d156 b9bd e290 803e
00000010: e752 023f 3bff 86be 6990 98be 7023 75be
00000020: d1f3 00bf 6028 7cbe 0868 16be 6e3e 63be
00000030: 6d23 bdbe c984 6ebd 01f2 81be 9285 35bd
00000040: f2b1 12bf dfcd 95be 95fc 843e f941 143e
00000050: 2e2d a6be 5c50 103f 727b f93e bee7 033e
00000060: 5b24 33bf a7ea a73d 819a 17be ca75 183e
00000070: f1c6 1fbe 2bfa a83d 0532 09be 03d0 7c3d
00000080: 5fcb 513f a282 0b3f a0df 263e 52ed 31be
00000090: a8aa 5a3e 4686 123f 64b1 cabe c7b8 66be
000000a0: 022a 53be 4823 edbe 197a 0dbf f9d8 a9bd
000000b0: 309b e9be abed 0e3d 5e2c 64be be93 893e
000000c0: ef6f a8bd a251 2dbe eb98 083f 5c13 6fbd
000000d0: 1962 0bbf 6c2c c13d 91d8 c3bc a9a9 d9be
000000e0: 7d56 bbbe 60f6 68bd 2c49 253e 18df 5bbd
000000f0: 66af dabe 7a80 d23e 140e 9dbd 2bde 6f3e
00000100: d360 40bf 0b87 e7bd cf49 a73d 25e4 b8bd
00000110: 51fe 4f3e f469 ba3e 24a4 723e a999 813e
00000120: 2a9a cdbd 33d1 3c3e 25c7 ed3e 95b8 a9be
00000130: 855e e53e 227d c13d 15ac a6bd d147 45bb
00000140: ddd3 44bd 7624 a33d 26b4 a2bd e7e1 fc3e
00000150: cbe3 54be 4feb 8dbe c233 ccbe c906 913e
00000160: 5e17 2ebf ece5 21bf 1ae1 b6bd 22f7 bd3c
00000170: 3849 10be b707 8e3c d08c b63e 627d 57be
00000180: b240 a7be 18b3 ef3e 8842 c53e 7017 ca3b
00000190: 8508 69bf bcdf 8b3d 4397 3dbe 6481 093f
000001a0: 4b8c 2b3f 73d2 6a3e 650a 09bf 2274 be3e
000001b0: bfb2 f0bc 2e20 f43d 1f4a 663e 2084 f5bd
000001c0: d949 65bd 84bc afbe 7fb0 8ebc 5280 1c3d
000001d0: b461 2ebe 0723 94bd 7860 92be 86fa 2dbe
000001e0: 5e7d ec3d e937 a8bd 0470 81bd fef1 2cbd
000001f0: 7058 863e 6470 d03e a410 6abb 0c4d 84be
00000200: 9a3b 653e 2d01 3e3d 12ef f1bc 7fa6 e8be
00000210: 3ed7 2a3e aa04 ad3e 6f46 a53e a3e9 31be
00000220: 2895 353e c6ac bbbd 8262 a1be 917d e53d
00000230: 9c07 863e 7ceb 713d 5f64 26bd 7b5e c8bd
00000240: b860 133e fca3 8e3c ce17 34be 04c0 9d3e
00000250: 81e8 7a3e 8163 13bb 74e6 ebbe 7db4 3f3e
00000260: d16f cfbd 7135 56bd 5bab 6c3c 6485 003e
00000270: 5149 d03d f059 8d3e 6983 783e 3a9e 9abe
00000280: dbe9 6fbd 5193 c5be a685 40be 3d15 fe3e
00000290: 2901 bf3e 16ea 4dbe 03bf 663d f359 e6be
000002a0: b309 e03e cf4d 61bd 1df9 643e 8986 2c3e
000002b0: 8120 ea3c 8454 3bbd 035b 2dbe 1ea0 afbc
000002c0: 2d57 66be aed3 c53d 2068 babe 086c 493d
000002d0: 6095 523e a389 c9bd 0b19 1d3f dafb 4f3e
000002e0: db26 793e b55a 50be 3ca2 41bd 291b 9e3d
000002f0: 89f1 663d d6db f2be c811 bf3e 0bbb 883e
00000300: 9f31 733d 1df6 163f 98a2 8bbe d7b5 4abe
00000310: 213e e3be 54cf 01bf ede6 133e 2744 cb3d
00000320: 4568 b03d 9f60 7ebd 090c a9be fdaa 95be
00000330: 1f56 983d 27f4 963d ed99 42be 65dd b5be
00000340: 7303 0c3e 1603 713e 6abf 5e3d 2a71 ebbd
00000350: efa6 61bd fa98 bebe 1fca 103f 929f 7dbe
00000360: 10b1 acbe 8ae3 c93e a5f5 90bd 721d 123f
00000370: 570d 79be 8508 70be 8459 0cbe 6fed 1e3e
00000380: 0d4c 033f d231 7c3d 452f f23c 5187 24be
00000390: 6a20 253f 385d d03c c586 073d 8d07 b5be
000003a0: 093c 0c3f bd7b 603e 5562 94be 9a6e acbe
000003b0: d14c a63e 65a0 99be 02a4 b9be 91b7 003f
000003c0: 40bb e4bc 8009 91bd c602 683d f849 663e
000003d0: 783b 013e e1ee 1c3e f1f9 fe3d a013 adbd
000003e0: bf46 ebbc d145 8d3c 52ce cc3e 084f b3bd
000003f0: c51b 1b3e c344 96bd c55d a0be 3750 e03c
-0.27635238 0.5569756 -0.09049762 0.25110537 0.5090775 -0.263666 -0.29797676 -0.239393
-0.50372034 -0.24624777 -0.14688122 -0.22191784 -0.3694109 -0.058232103 -0.25379947 -0.044316836
-0.57302773 -0.2925863 0.25973955 0.14478292 -0.32456344 0.5637262 0.48726994 0.12881371
-0.6997735 0.08199053 -0.14805032 0.14888683 -0.15603234 0.08250841 -0.13397987 0.061721813
0.81950945 0.54496205 0.16296244 -0.17375687 0.21354163 0.57236135 -0.39588463 -0.22531424
-0.20621493 -0.4631598 -0.5526443 -0.082933374 -0.4562621 0.034894627 -0.2228255 0.2687053
-0.08224475 -0.16925672 0.53358334 -0.058368072 -0.5444656 0.09432301 -0.023906978 -0.42512253
-0.36589423 -0.056875587 0.16141194 -0.053679556 -0.42711943 0.41113645 -0.07668701 0.23424594
-0.7514774 -0.11305054 0.08168375 -0.0902789 0.20311858 0.3640896 0.23695427 0.25312546
-0.1003917 0.18439178 0.46440998 -0.33148637 0.44798675 0.09447695 -0.08138291 -0.003010262
-0.04805361 0.07965939 -0.07944517 0.493911 -0.20790021 -0.2771859 -0.39883238 0.2832549
-0.68004405 -0.6324146 -0.089296535 0.023189131 -0.1409043 0.017337663 0.35654306 -0.21043923
-0.32666546 0.46816325 0.38527322 0.0061673447 -0.91028625 0.06829783 -0.18514733 0.5371306
0.67010945 0.22931843 -0.53531486 0.37197977 -0.029382108 0.119202 0.22489212 -0.119880915
-0.05597863 -0.34323514 -0.017418144 0.038208313 -0.17029458 -0.072332434 -0.28589225 -0.16990098
0.115473494 -0.08213789 -0.063201934 -0.04222297 0.26239347 0.40710747 -0.0035715485 -0.25840032
0.22386017 0.04638784 -0.029532943 -0.45439526 0.16683671 0.3379262 0.322803 -0.17374282
0.1773268 -0.09163813 -0.31520468 0.112055905 0.2617768 0.059062466 -0.040623065 -0.09783646
0.14392364 0.017412178 -0.17587206 0.3081056 0.24502756 -0.002248973 -0.4607426 0.18721195
-0.10128749 -0.05229706 0.014445151 0.12550884 0.10170234 0.2760768 0.24268879 -0.30198842
-0.05857263 -0.38588956 -0.18800983 0.4962558 0.37305573 -0.20108828 0.056334507 -0.449905
0.437574 -0.055005845 0.22360654 0.16848196 0.028579952 -0.045734897 -0.1692925 -0.021438655
-0.22494192 0.09659515 -0.36407566 0.049175292 0.20564795 -0.09840705 0.6136634 0.20310917
0.24331228 -0.20347102 -0.04727386 0.07720024 0.05638269 -0.47433347 0.37318254 0.26705202
0.059373494 0.5896929 -0.27272487 -0.19795929 -0.44383338 -0.5070698 0.1444356 0.099251084
0.08613638 -0.062103864 -0.33016995 -0.29232016 0.07438301 0.07370787 -0.1900403 -0.35520473
0.13673191 0.23536333 0.054381765 -0.11496194 -0.05509084 -0.37226087 0.5655841 -0.24767902
-0.33728838 0.3943141 -0.07078103 0.5707618 -0.24321495 -0.2344075 -0.13706023 0.15520261
0.5128792 0.06157095 0.029563555 -0.16067244 0.64502585 0.025435075 0.03308751 -0.35357323
0.54779106 0.21922202 -0.2898127 -0.33678132 0.3248048 -0.30005184 -0.3625794 0.502801
-0.027921319 -0.0708189 0.05664327 0.22489154 0.12620342 0.153255 0.12450016 -0.08451009
-0.028720258 0.017245205 0.4000116 -0.087553084 0.15147312 -0.07337334 -0.3132154 0.027382

fc.bias f4 [18]
00000000: 927a c0bd 38b1 40bc 453e 72be 6f54 1ebd
00000010: cba0 ebbd 8427 3bbd 0024 283c 20b0 d83d
00000020: 5d6c 08be d285 a53c c7f2 89bd c394 223d
00000030: 622c fc3d 1649 9cbd 580b 533c 3c98 f63d
00000040: 429a a73c 3562 f33c
-0.093983784 -0.011761002 -0.23656566 -0.03865474 -0.11505278 -0.045691982 0.010262489 0.10580468
-0.13322587 0.020205412 -0.06735759 0.03969265 0.12313153 -0.076311275 0.0128811225 0.12040755
0.020459298 0.029709915
