01_rnn/logs/RNN/RNN_epoch_10_acc_0.7529.pth (torch, 107761 bytes, 6 tensors)

rnn.weight_ih_l0 f4 [128, 57]
0	0xbea28e5f	-0.31749246
1	0xbe64f358	-0.22358453
2	0xbde761c1	-0.11297942
3	0xbd4f8992	-0.050668307
4	0x3da739d3	0.08165326
5	0x3d0b6c72	0.03403897
6	0xbbcbe744	-0.0062226374
7	0x3e01df35	0.12682803
8	0xbe2377cb	-0.15963666
9	0xbc400bf9	-0.0117216045
10	0x3e3e311d	0.18573423
11	0x3e4c3576	0.19942269
12	0xbe833fa1	-0.25634483
13	0x3e4f7b2f	0.20261835
14	0xbe8127ba	-0.2522562
15	0x3e0e065c	0.13869613
16	0x3ce2f207	0.027703298
17	0x3e7a9d67	0.24474107
18	0xbcbab86d	-0.02279302
19	0x3e8b2db1	0.27183297
20	0xbdf88fe1	-0.12136818
21	0x3ea915e1	0.33024505
22	0x3e7672cd	0.2406723
23	0x3e55141f	0.20808457
24	0x3cb2433d	0.021760577
25	0xbeb87526	-0.36026877
26	0x3de0d295	0.10977665
27	0x3c04b66c	0.008100133
28	0xbc4a371e	-0.0123422425
29	0x3cc79ecf	0.024367718
30	0xbd3e7b67	-0.046504404
31	0xbd18fdf4	-0.037351564
32	0xbdbc6502	-0.09198953
33	0xbbf478a0	-0.0074606687
34	0xbb1690ff	-0.0022974608
35	0xbc93a637	-0.018023593
36	0x3d12e865	0.03586616
37	0x3df9f99d	0.12205813
38	0x3ba94098	0.005165171
39	0xbd0179ba	-0.031610228
40	0xbe33629d	-0.17518087
41	0xbb786b46	-0.0037905737
42	0xbe8f088f	-0.27936217
43	0x3d124c60	0.035717368
44	0xbe29bd9e	-0.1657624
45	0xbd48bf7f	-0.04901075
46	0xbde14a9a	-0.11000557
47	0x3d87b6b8	0.06626648
48	0x3dd2e429	0.10297424
49	0xbe3c72ff	-0.18403243
50	0x3d429c29	0.047512207
51	0x3d5e9386	0.054339908
52	0xbe532cb0	-0.20622516
53	0xbd7f4fde	-0.062332027
54	0x3caa252f	0.020769684
55	0xbd28cbac	-0.04120986
56	0xbe34738a	-0.176222
57	0x3ea1eb69	0.31624916
58	0x3e045c13	0.12925749
59	0x3cc4577c	0.023967497
60	0xbde46535	-0.11152116
61	0x3d253435	0.04033299
62	0xbc363293	-0.011120456
63	0x3d8dcf0d	0.069242574
64	0x3d2d7ed0	0.042357266
65	0x3e7d387e	0.24728581
66	0xbe198e00	-0.14995575
67	0x3e8a0fb6	0.26965111
68	0x3c6e0979	0.014528626
69	0xbbb17ee4	-0.005416738
70	0xbe92602f	-0.28589007
71	0x3e8c304b	0.27380595
72	0xbd4bea54	-0.04978402
73	0xbe4545ad	-0.1926486
74	0xbdeb051f	-0.11475586
75	0xbe5c5760	-0.21517706
76	0xbe21de6d	-0.15807505
77	0xbd9cd783	-0.07658293
78	0xbe8d00c9	-0.27539662
79	0xbd2efa00	-0.042718887
80	0xbe0014c3	-0.1250792
81	0xbdf9e15e	-0.122011885
82	0x3e0bd621	0.13655902
83	0x3e01711b	0.12640803
84	0x3e2765a2	0.16347364
85	0xbdd57301	-0.10422326
86	0x3dd9f323	0.10642078
87	0x3e0fb9ed	0.14035769
88	0x3c998610	0.018740684
89	0xbde4b9df	-0.111682646
90	0x3c91f53b	0.01781713
91	0x3e2ec167	0.17065965
92	0x3d603df5	0.054746587
93	0xbd082bbc	-0.033244833
94	0x3de78abd	0.11305759
95	0xbd2c11f2	-0.0420093
96	0x3d349a65	0.044092555
97	0xbc27da11	-0.010244862
98	0x3d4cf71d	0.050040353
99	0xbe37d336	-0.17951664
100	0x3d1c237f	0.03811979
101	0xbd14ebab	-0.036357563
102	0xbdb55614	-0.08854309
103	0xbc2fd41b	-0.010731722
104	0x3d90ca76	0.07069866
105	0xbcb2c3f0	-0.021821946
106	0xbe1f84de	-0.15578029
107	0x3aaaf4ac	0.0013042889
108	0xbce97e3f	-0.028502582
109	0xbd1bc3cf	-0.038028535
110	0x3d87747c	0.066140145
111	0xbdcd973f	-0.100386135
112	0xbca6fd13	-0.020384347
113	0xbea44785	-0.32085815
114	0x3e3b4b71	0.18290497
115	0x3e009fb3	0.1256092
116	0xbdfbf078	-0.12301725
117	0x3e56159a	0.20906678
118	0xbe151589	-0.14558996
119	0xbd1741b7	-0.036927905
120	0xbe6b2e7b	-0.2296695
121	0x3d1d24f8	0.038365334
122	0x3e593d41	0.21214773
123	0x3e309dab	0.17247646
124	0x3da44f6f	0.08022963
125	0xbda22128	-0.0791648
126	0x3c277b76	0.0102223065
127	0xbe9638f9	-0.29340342
128	0xbd9366c8	-0.07197338
129	0xbe39fbad	-0.18162413
130	0xbe86bf28	-0.26317716
131	0x3d69de14	0.057096556
132	0x3e163927	0.1467024
133	0xbc239127	-0.0099833375
134	0x3df71d8b	0.12066182
135	0xbed32dbc	-0.4124583
136	0xbc599e5f	-0.0132823875
137	0xbd3d3047	-0.04618862
138	0x3d62c16f	0.055360254
139	0x3e518e14	0.20464355
140	0xbcc4497e	-0.023960825
141	0xbd41439e	-0.047183625
142	0x3b5ace3e	0.003338709
143	0x3d339f46	0.043853067
144	0xbd411310	-0.04713732
145	0xbc9a0e2d	-0.018805588
146	0xbcffb401	-0.031213762
147	0x3ce9a73c	0.028522126
148	0x3e010a5d	0.1260161
149	0x3d8f957d	0.070109345
150	0x3b57d619	0.0032934009
151	0xbccd11ec	-0.02503296
152	0xbd2d3336	-0.042285167
153	0x3d599391	0.053119246
154	0x3cac0fde	0.02100366
155	0xbca6fdd2	-0.020384703
156	0x3cfcad07	0.030844225
157	0xbd845969	-0.06462366
158	0x3c4a7bf2	0.012358652
159	0x3d0809e1	0.033212546
160	0x3d057b47	0.03258827
161	0xbcaf13a9	-0.02137168
162	0xbde70968	-0.11281091
163	0x3d8c3b09	0.068471976
164	0x3d47d29a	0.04878483
165	0x3d9c40e9	0.07629568
166	0x3cde1bb4	0.02711282
167	0x3d2cdf79	0.042205308
168	0xbd21fc11	-0.03954703
169	0xbd3a110b	-0.04542641
170	0xbbd00652	-0.0063484097
171	0xbc6e1e89	-0.014533647
172	0x3dd0f1cf	0.10202371
173	0x3e3b5ba4	0.18296677
174	0xbd9b02e3	-0.0756891
175	0xbddd1ab4	-0.10796109
176	0x3e80e461	0.2517424
177	0xbe227d74	-0.15868169
178	0xbea3a5a3	-0.31962308
179	0x3e8b492c	0.27204263
180	0xbdd99f99	-0.10626144
181	0x3dc4abd6	0.096030876
182	0x3e897284	0.2684518
183	0xbc85c1ad	-0.016327703
184	0xbea9a11c	-0.3313073
185	0x3d615e9e	0.055021875
186	0x3e8c2b6e	0.27376884
187	0x3d48981b	0.048973184
188	0x3e84b570	0.25919676
189	0xbd209e8e	-0.03921371
190	0xbd9371c5	-0.07199434
191	0xbc8d0b63	-0.017217344
192	0xbebb04d8	-0.36527133
193	0xbe13f381	-0.14448358
194	0x3e8a002a	0.2695325
195	0xbec38b56	-0.38192242
196	0x3e9e2323	0.30886182
197	0xbe7b3fce	-0.24536058
198	0xbd29cf8d	-0.0414577
199	0x3e5eb2f6	0.21747956
200	0x3bfe95e0	0.0077693313
201	0xbca08220	-0.019593298
202	0x3cd7c568	0.026339248
203	0xbd49d483	-0.049274933
204	0xba378380	-0.0007000491
205	0xbda380fb	-0.079835854
206	0x3e074dc3	0.13213257
207	0xbcc9519e	-0.02457505
208	0x3e0f9d00	0.14024734
209	0xbcb4b0cb	-0.022056958
210	0xbd7262de	-0.05917632
211	0xbbb68614	-0.0055701826
212	0x3dc69f81	0.09698392
213	0x3d85e932	0.06538619
214	0x3d39bc67	0.04534569
215	0xbcc6a378	-0.02424787
216	0x3d685f7e	0.056731693
217	0xbda6d6eb	-0.08146461
218	0x3d5e93a5	0.054340024
219	0x3d59aa23	0.05314077
220	0x3e4de101	0.20105363
221	0x3d2b36ec	0.041800424
222	0x3d245759	0.040122364
223	0xbd2bd4c3	-0.041950952
224	0x3c24fb30	0.010069653
225	0xbe05b2fd	-0.1305656
226	0x3d49e595	0.049291212
227	0x3c9c4d51	0.019079836
228	0xbd0b5121	-0.034012917
229	0xbbc3fcd9	-0.0059810695
230	0xbe3d6ea1	-0.18499233
231	0x3d530174	0.051515058
232	0xbd0915dd	-0.033468116
233	0xbe4b3286	-0.19843492
234	0xbe643219	-0.22284736
235	0xbe15b261	-0.14618827
236	0x3e5c0ab0	0.21488452
237	0x3c82b84b	0.015957018
238	0x3d8c9b51	0.06865562
239	0xbd2d3822	-0.04228986
240	0xbe679773	-0.22616367
241	0xbdeb802d	-0.11499057
242	0x3e70e87c	0.23526186
243	0x3d02d183	0.031938087
244	0xbe2058a1	-0.15658809
245	0xbe3d1698	-0.1846565
246	0xbc8d11f4	-0.017220475
247	0x3ddb39b0	0.107043624
248	0xbe2659cd	-0.16245194
249	0x3df26047	0.1183477
250	0xbe22ffbe	-0.1591787
251	0xbe98e085	-0.29858795
252	0x3dfcd661	0.12345577
253	0xbd239501	-0.039937023
254	0x3c59da09	0.013296613
255	0x3bc6f8ce	0.0060721403

rnn.weight_hh_l0 f4 [128, 128]
0	0x3d389d6e	0.04507201
1	0x3cf79851	0.030223997
2	0x3c531713	0.012883919
3	0x3d802d8d	0.06258688
4	0xbb46c8f7	-0.0030332187
5	0x3d18a5e9	0.0372676
6	0x3d2cb187	0.04216149
7	0xbd895d2a	-0.06707223
8	0x3cb7060b	0.022341749
9	0x3d943adf	0.07237791
10	0x3ccc11b6	0.024910789
11	0xbdabb1b8	-0.083835065
12	0xbdcec9c6	-0.10097079
13	0xbd188d44	-0.037244096
14	0xbc734a3f	-0.014849245
15	0x3c5a726a	0.0133329425
16	0x3b217f70	0.002464261
17	0x3de382e3	0.11108949
18	0xbc7ad5d0	-0.015309766
19	0x3cde1256	0.027108353
20	0xbba2046f	-0.004944376
21	0x3c6e399d	0.014540103
22	0x3b1622bc	0.0022908887
23	0xbb8cb762	-0.004294322
24	0x3ca33a90	0.019925386
25	0x3d0b56c5	0.034018297
26	0x3d1e1c9f	0.038601514
27	0x3df302a0	0.11865735
28	0xbd4f1fcf	-0.050567444
29	0x3dd288bf	0.102799885
30	0x3cbe4357	0.02322547
31	0x3d2d7cc9	0.042355333
32	0xbbdfe818	-0.0068330877
33	0xbd069b24	-0.032862797
34	0x3d16acbd	0.03678583
35	0xbe135650	-0.14388394
36	0x3db6fded	0.08935151
37	0xbd9d1395	-0.076697506
38	0xbc8f1ee7	-0.01747079
39	0x3c684329	0.0141761685
40	0x3dec5bb6	0.1154093
41	0x3c775b57	0.015097461
42	0x3dab6666	0.0836914
43	0xbd3b7d8c	-0.045774028
44	0x3d47d720	0.048789144
45	0xbd8a3123	-0.06747653
46	0xbd2be2d9	-0.041964386
47	0xbcfb3745	-0.030666003
48	0xbda29ec3	-0.07940438
49	0xba98d83d	-0.0011661124
50	0xbcb6a847	-0.022297038
51	0x3d8505b5	0.06495229
52	0x3ca3226e	0.019913878
53	0xbd15dcd8	-0.036587566
54	0x3cd59744	0.026073106
55	0xbc0c1035	-0.008548786
56	0xbc56824e	-0.0130925905
57	0x3d8a918d	0.06766043
58	0x3dcb72ba	0.09933992
59	0x3d7d2a53	0.06180794
60	0xbcbb25a4	-0.022845097
61	0x3cc9fc90	0.024656564
62	0xbd364072	-0.044495054
63	0xbd61d62c	-0.05513589
64	0x3da0bf10	0.07848942
65	0x3d5ecfe5	0.054397482
66	0xb82c7bc0	-4.1123247e-05
67	0x3cce6512	0.025194678
68	0xbd81afd6	-0.06332366
69	0xbd8f1b63	-0.069876455
70	0x3c9187f1	0.017765017
71	0xbdc7c06c	-0.097534984
72	0x3d93b9f7	0.07213204
73	0x3d02aba0	0.031901956
74	0x3dcaabe5	0.098960675
75	0xbc2c7d69	-0.010527947
76	0xbd437103	-0.0477152
77	0xbd0fab65	-0.035075564
78	0x3d99e531	0.07514418
79	0x3ce311ae	0.027718391
80	0xbcf6184f	-0.030040888
81	0x3a91a07b	0.0011110449
82	0x3b8fa345	0.004383477
83	0xbde16455	-0.11005465
84	0xbd1bb03b	-0.038009863
85	0xbd96f968	-0.07371789
86	0x3debc62e	0.11512409
87	0x3d951fed	0.0728148
88	0x3da10d7c	0.078639
89	0x3d700303	0.058596622
90	0xbe03a852	-0.12857178
91	0xbbc99e4b	-0.006152903
92	0x3d969557	0.07352703
93	0xbd92ff68	-0.07177621
94	0x3d90c6fb	0.070692025
95	0x3cdf6ceb	0.027273616
96	0x3da6e7ab	0.08149656
97	0x3dcaf51a	0.09910031
98	0xbbd1ae16	-0.0063989265
99	0x3d478610	0.048711836
100	0x3d41c4a3	0.047306668
101	0xbcaabd2b	-0.020842155
102	0x3c7e62a8	0.015526451
103	0x3c70db85	0.014700775
104	0x3d4bb0f1	0.04972929
105	0xbd970a00	-0.07374954
106	0x3d32b25f	0.04362714
107	0xbda3c7e7	-0.07997113
108	0xbd598b2b	-0.053111237
109	0x3d28d288	0.041216403
110	0x3e1c280e	0.15249655
111	0x3d8ea833	0.06965675
112	0xbb807586	-0.00392026
113	0x3bb1b444	0.0054231007
114	0x3cfe8963	0.03107137
115	0x3d22c2a3	0.0397364
116	0x3d62453e	0.055241816
117	0x3d9a21f7	0.075260095
118	0x3b97c744	0.0046319086
119	0xbded53ba	-0.11588235
120	0x3c824b5e	0.015905079
121	0xbd8739af	-0.06602799
122	0x3d925333	0.07144775
123	0x3c5b479e	0.013383774
124	0xbda0bc94	-0.078484684
125	0xbdd20432	-0.102547064
126	0x3d03dea2	0.03219474
127	0x3cb41054	0.021980442
128	0x3c9197ff	0.017772673
129	0x3d4a0b42	0.049327143
130	0x3d8259dc	0.063647956
131	0xbe0577d5	-0.13033994
132	0x3b88614c	0.0041619893
133	0x3cc4acbf	0.024008153
134	0x3b11c44c	0.0022242246
135	0xbd2ae90e	-0.041726165
136	0xbd71cc8e	-0.05903297
137	0x3d9fdac7	0.078054
138	0x3d253654	0.040335014
139	0x3a765049	0.00093961187
140	0x3d96acb5	0.0735716
141	0xbd1a6620	-0.03769505
142	0x3c903548	0.017603531
143	0xbca27b95	-0.01983432
144	0xbc8a128f	-0.016854553
145	0x3d662810	0.05619055
146	0xbcc8ab05	-0.024495611
147	0x3d2c588e	0.04207664
148	0xbbb76beb	-0.0055975816
149	0xbd675372	-0.056476064
150	0xbdaf4d4a	-0.085596636
151	0x3d45c075	0.048279244
152	0x3cf6e92b	0.03014048
153	0x3dc3fa3f	0.09569215
154	0x3cff6611	0.031176599
155	0xbd3d4e6b	-0.046217363
156	0xbcdbc034	-0.026825048
157	0x3ce748fc	0.028233044
158	0x3cbddfec	0.023178063
159	0xbd185b3e	-0.03719639
160	0xbdf68c49	-0.12038476
161	0x3dbda5ba	0.092601255
162	0xbd154802	-0.036445625
163	0xbd0cf5d4	-0.034414127
164	0xbd344503	-0.044011127
165	0xbdfe0935	-0.124041
166	0xbd66c2e0	-0.05633819
167	0x3c17a1de	0.009254901
168	0x3d951b9d	0.072806574
169	0xbd80986a	-0.06279071
170	0xbca7cc96	-0.020483296
171	0x3db20b21	0.08693529
172	0x3debf32e	0.11520992
173	0x3bf0c7c4	0.0073480327
174	0xbdca93a5	-0.09891442
175	0x3cf5d926	0.030010771
176	0xbce8275d	-0.028339082
177	0xbd9d0933	-0.0766777
178	0x3d87f7e5	0.06639079
179	0xbb0ccfbe	-0.0021486129
180	0x3ce2e0ac	0.027695023
181	0x3d5467de	0.051856868
182	0x3d80f14c	0.06296024
183	0xbd54aedf	-0.051924583
184	0xbb40dd9b	-0.0029428962
185	0xbd3c949f	-0.046040174
186	0x3b35695d	0.002768121
187	0xbd1d5c08	-0.038417846
188	0xbcfbf553	-0.030756628
189	0xbd803ffe	-0.062622055
190	0x3d94f387	0.07273012
191	0x3c3560c4	0.011070434
192	0x3d8002a4	0.06250504
193	0xbce0dfc5	-0.027450452
194	0x3c6f1cb4	0.014594246
195	0xbd2242de	-0.03961455
196	0x3c84debb	0.016219487
197	0xbdfe6997	-0.124224834
198	0x3d8f97fe	0.07011412
199	0xbdc49fd3	-0.096007966
200	0x3dcaf27c	0.099095315
201	0x3d69d033	0.05708332
202	0x3d2d5766	0.042319678
203	0x3d021cd6	0.03176578
204	0x3e08540c	0.13313311
205	0xbd98743b	-0.07444044
206	0x3d9f5cd2	0.07781376
207	0xbda111f2	-0.07864751
208	0xbe00be3e	-0.12572572
209	0x3ca275e8	0.019831613
210	0x3d1b3e28	0.037901074
211	0x3ca86320	0.020555079
212	0xbd09e5ca	-0.03366641
213	0xbdac00aa	-0.08398564
214	0x3d440fd5	0.04786666
215	0xbd48faaa	-0.049067177
216	0xbd5d549d	-0.05403577
217	0x3c212acc	0.009836864
218	0x3df277a2	0.118392244
219	0x3d9e60e9	0.07733328
220	0xbd5aaa2e	-0.053384952
221	0x3d3f78de	0.046746127
222	0xbcdd4bc3	-0.027013665
223	0x3d757f84	0.05993606
224	0x3d2e6dff	0.04258537
225	0xbd833849	-0.0640722
226	0xbc726eee	-0.0147969555
227	0x3dea76ec	0.11448464
228	0x3b80efed	0.0039348514
229	0x3c2b78a8	0.010465778
230	0x3d0d836c	0.03454916
231	0xbcbf12d3	-0.023324406
232	0x3e18b909	0.14914335
233	0xbddb1780	-0.10697842
234	0x3dc8e919	0.09810085
235	0x3ce4f5cf	0.027949242
236	0xbc94a8e6	-0.018146943
237	0x3d834ba7	0.06410914
238	0xbdd636ef	-0.104596965
239	0x3e15f6c1	0.1464491
240	0xbd431b45	-0.047633428
241	0xbd95f660	-0.07322383
242	0xbcbd31b2	-0.023094986
243	0x3d55d98d	0.052209426
244	0xbc89785d	-0.016781026
245	0x3d218e84	0.039442554
246	0x3cd217bf	0.025646089
247	0xbdb66a15	-0.08906952
248	0xbd6b4ca2	-0.05744613
249	0xbd8d21e1	-0.068912275
250	0xbd206b8b	-0.03916506
251	0x3d849555	0.06473795
252	0x3d501243	0.050798666
253	0xbe15e49c	-0.14637989
254	0xbc336f81	-0.010951878
255	0x3d94a842	0.07258655

rnn.bias_ih_l0 f4 [128]
0	0xbd82e423	-0.0639117
1	0xbcd25a87	-0.025677932
2	0xbdd37bc3	-0.1032634
3	0x3c2d6697	0.010583541
4	0xbd22a968	-0.03971234
5	0x3d17d1f2	0.037065454
6	0xbc78b23f	-0.015179216
7	0xbcaa8d54	-0.020819344
8	0xbbe57387	-0.0070022973
9	0xbc5ccde3	-0.013476822
10	0x3e034709	0.12820067
11	0x3d6b739b	0.057483297
12	0xbd1a9ebd	-0.03774904
13	0x3d6291d2	0.055314846
14	0xbc207d77	-0.009795538
15	0x3dc19870	0.09452903
16	0x3db16d73	0.08663454
17	0xbb28dd13	-0.0025766536
18	0xbd9862b4	-0.07440701
19	0xbc46e7f5	-0.012140264
20	0xbd0c0a89	-0.034189735
21	0xba95a21f	-0.0011416114
22	0x3c24c278	0.010056131
23	0xbd0910c6	-0.033463262
24	0xbdad836e	-0.08472334
25	0xbce94170	-0.028473586
26	0xbd3cee67	-0.046125796
27	0x3dc0b2a8	0.09409076
28	0xbc4cac79	-0.012492293
29	0x3d51456c	0.051091596
30	0x3cd65023	0.026161259
31	0x3dace7ad	0.08442626
32	0xbda3e0f1	-0.080018885
33	0x3ba8b620	0.005148664
34	0x3da013a5	0.07816247
35	0xbdc41718	-0.09574717
36	0xbd85cc86	-0.065331504
37	0xbd801f17	-0.0625593
38	0x3d9e400d	0.077270605
39	0xbc13a4ef	-0.009011491
40	0xbc34bde6	-0.011031603
41	0xbbd28fa0	-0.006425813
42	0x3d72cf89	0.059279952
43	0x3da1550c	0.078775495
44	0xbb106fa4	-0.00220392
45	0xbdbb5f3f	-0.09149026
46	0x3c304123	0.010757717
47	0x3d46c8ca	0.04853133
48	0xbdb29882	-0.08720495
49	0x3d374655	0.04474481
50	0xbd6cd4fd	-0.05782031
51	0x3bddc7ce	0.0067682033
52	0xbbde1682	-0.0067775855
53	0xbc4b7195	-0.012417217
54	0xbd05d792	-0.032676287
55	0x3dafae10	0.08578122
56	0x3d80892e	0.06276165
57	0xbda59246	-0.0808454
58	0x3d6563db	0.056003433
59	0x3d949720	0.07255387
60	0xbd17f4ac	-0.03709857
61	0xbd6531c2	-0.055955656
62	0xbc92aafa	-0.017903794
63	0x3d7d583f	0.061851736
64	0x3d9abca3	0.07555511
65	0x3d34642d	0.044040848
66	0x3d7a7c93	0.06115396
67	0x3c852c34	0.01625643
68	0x3c32d75f	0.010915606
69	0x3da654f8	0.08121675
70	0x3d7e866e	0.06213992
71	0xbd68a2a3	-0.056795727
72	0xbd3cb067	-0.046066668
73	0xbd3567d6	-0.04428848
74	0xbd3e2151	-0.04641849
75	0xbca6900e	-0.020332363
76	0x3cde0896	0.027103703
77	0xbce7758e	-0.028254297
78	0x3d9a3631	0.075298674
79	0x3d927afe	0.07152365
80	0xbd44b86e	-0.04802745
81	0x3d04e4b6	0.03244468
82	0xbcce8dc9	-0.025214093
83	0x3cd475ef	0.025935141
84	0x3d1633ce	0.0366705
85	0xbd0c6f40	-0.034285784
86	0x3d08a048	0.03335598
87	0xbd1772e7	-0.036974814
88	0x3c72bd8b	0.014815698
89	0xbd8abc71	-0.067742236
90	0x3ca4c188	0.020111814
91	0xbd04930e	-0.032366805
92	0xbcc3e343	-0.023912078
93	0x3c2cdab7	0.010550193
94	0xbc9c4688	-0.0190766
95	0x3d8bc50b	0.06824692
96	0xbc46a06b	-0.012123208
97	0xbd21633c	-0.039401278
98	0x3c07ecd5	0.008296211
99	0xbd15834d	-0.03650217
100	0xbdd50e68	-0.104031384
101	0xbd9b18df	-0.07573103
102	0x3c3be696	0.01146855
103	0xbc81f2df	-0.01586288
104	0xbd7609a4	-0.060067788
105	0x3cefd255	0.029275099
106	0x3dd26a2a	0.102741554
107	0x3d1ab08b	0.03776602
108	0x3c000d53	0.007815677
109	0x3cbe97d0	0.02326575
110	0xbb2b8e41	-0.002617732
111	0xb9de269a	-0.000423719
112	0x3d80ae16	0.06283204
113	0xbd669141	-0.05629087
114	0x3d93be4f	0.07214033
115	0xbd755a6f	-0.059900697
116	0x3d8a748f	0.06760513
117	0x3d657693	0.056021284
118	0xbda559fa	-0.08073802
119	0x3ce5c51f	0.028048096
120	0xbca596c3	-0.02021349
121	0x3b5bc6ef	0.0033535322
122	0x3d3348b1	0.043770496
123	0x3cfa79cb	0.030575654
124	0x3d53bd66	0.051694296
125	0xbd78d19e	-0.06074678
126	0x3daed57d	0.085368134
127	0xbd993229	-0.074802704

rnn.bias_hh_l0 f4 [128]
0	0x3d78bad6	0.060725056
1	0x3d857c3d	0.06517837
2	0xbd986b29	-0.07442314
3	0xbd34bd1d	-0.044125665
4	0x3c3309f5	0.010927667
5	0x3d5b8173	0.05359025
6	0xbd24021e	-0.04004108
7	0x3c453d64	0.012038562
8	0xbda6ad6d	-0.08138547
9	0xbd3ea6d9	-0.046545837
10	0xbcbcdaab	-0.023053488
11	0xbd41524c	-0.047197625
12	0x3da0f871	0.078598864
13	0x3d44ce44	0.048048273
14	0x3d89af6e	0.06722914
15	0xbc77760b	-0.015103827
16	0x3d6ee5d5	0.058324654
17	0x3d268238	0.04065153
18	0xbd5d68e0	-0.054055095
19	0x3c76170c	0.015020143
20	0xbd363486	-0.044483684
21	0x3c0e860f	0.008698954
22	0x3cfa9ed3	0.030593311
23	0x3d3d456a	0.046208777
24	0x3d76c437	0.06024572
25	0xbd1f4eae	-0.038893394
26	0x3da1bc00	0.07897186
27	0x3d96eaaa	0.07368977
28	0x3d08e9d8	0.033426136
29	0x3cc9007b	0.024536362
30	0x3b814467	0.003944922
31	0x3c7d6ef0	0.015468344
32	0x3d087f80	0.03332472
33	0xbd916051	-0.07098449
34	0xbd2a2148	-0.041535646
35	0xbd50781b	-0.05089579
36	0xbcb91a3a	-0.022595514
37	0xbba3e0a9	-0.005001147
38	0xbd86c20c	-0.0657998
39	0xbd209780	-0.03920698
40	0x3d6445b3	0.055730533
41	0x3da434c6	0.08017878
42	0x3c05e6ab	0.008172671
43	0xbd570b04	-0.05250074
44	0xbd846395	-0.06464306
45	0x3d92baae	0.071645126
46	0xbc495386	-0.01228798
47	0x3d70b0be	0.058762304
48	0xbdb67e34	-0.0891079
49	0xbd0d1f40	-0.03445363
50	0xbd8b11c7	-0.067905
51	0x3d7df91d	0.06200515
52	0xbcb30c18	-0.021856353
53	0xbd8805ed	-0.06641755
54	0xbc7a2c4d	-0.015269351
55	0xbc71a0b1	-0.0147477845
56	0xbd3bd794	-0.04585989
57	0xbd1d7bfb	-0.038448315
58	0xbbfe0de7	-0.007753122
59	0x3dc34dd4	0.09536329
60	0xba7456f8	-0.00093208207
61	0x3d6582ea	0.056033053
62	0x3d752691	0.059851233
63	0xbd0c7578	-0.034291714
64	0x3d9583d3	0.07300534
65	0x3d0bc3b9	0.034122203
66	0xbd339af3	-0.043848943
67	0xbd8e7cf8	-0.0695743
68	0x3b4ae686	0.0030960157
69	0x3d1f8943	0.038949262
70	0xbd73beb3	-0.059508037
71	0xbd6298e4	-0.05532159
72	0x3ca1b9b3	0.019741869
73	0x3cd13c60	0.025541484
74	0x3d78df31	0.060759727
75	0xbda6a8dd	-0.08137677
76	0xbd56b2f6	-0.052416764
77	0x3dc91a14	0.09819427
78	0x3db3206f	0.087464206
79	0x3dba9629	0.09110672
80	0xbd051659	-0.032492016
81	0x3d3c2511	0.045933787
82	0x3d7a93e2	0.06117619
83	0x3c8c377c	0.0171163
84	0x3cb26638	0.021777257
85	0x3db6f601	0.0893364
86	0x3d8e16ea	0.06937964
87	0x3d692392	0.056918688
88	0xbd92c11b	-0.07165738
89	0x3c7e73a0	0.015530497
90	0xbd1197d7	-0.035545196
91	0xbd016d46	-0.031598352
92	0x3ccae142	0.024765614
93	0xb9d7fe45	-0.0004119744
94	0xbda9a803	-0.08283999
95	0xbd80302a	-0.062591866
96	0x3d925756	0.07145564
97	0x3d962f18	0.07333201
98	0x3d975a97	0.073903255
99	0xbd96b9a0	-0.07359624
100	0xbd5d2364	-0.05398883
101	0x3d687e7f	0.05676126
102	0xbcdffd9f	-0.027342616
103	0xbd2fa721	-0.042883996
104	0x3baac9ec	0.0052120592
105	0x3d4c694f	0.049905118
106	0x3c48333e	0.012219248
107	0xbc95ccb3	-0.018286085
108	0xbd81a094	-0.06329456
109	0xbd5d98d8	-0.05410084
110	0x3d7c47d5	0.061591942
111	0xbd9613c2	-0.07327987
112	0xbc5724b4	-0.013131309
113	0x3ceceba6	0.02892096
114	0x3c6bd9e3	0.01439521
115	0xbc762869	-0.015024283
116	0xbd89e04f	-0.067322366
117	0x3d993adc	0.0748193
118	0x3d33db55	0.043910343
119	0x3cc0c52e	0.023531523
120	0x3ccf9e53	0.02534405
121	0xbd927c91	-0.071526654
122	0xbc898ff3	-0.016792273
123	0xbd5cb497	-0.05388316
124	0xbd778051	-0.060425106
125	0xbd58b095	-0.052902777
126	0x39ce8785	0.00039392352
127	0x3d91ac4e	0.07112943

fc.weight f4 [18, 128]
0	0xbdfadd9a	-0.122492984
1	0x3ea0300f	0.31286666
2	0x3ce1093d	0.027470225
3	0x3e769307	0.24079524
4	0x3e4cc26b	0.1999604
5	0xbde5712d	-0.11203227
6	0xbe240ed8	-0.16021287
7	0xbd2c65d5	-0.042089302
8	0xbe42eb26	-0.19035015
9	0xbe51ab9d	-0.20475622
10	0xbe0825c4	-0.13295656
11	0xbe11a0d4	-0.14221507
12	0xbe3bdb12	-0.18345287
13	0xbd912b07	-0.07088285
14	0xbddc26e9	-0.10749609
15	0xbcc605b6	-0.024172645
16	0xbe6030a9	-0.21893562
17	0xbe0ab9f3	-0.13547496
18	0x3d565a82	0.05233241
19	0xbd5c2133	-0.0537426
20	0xbdc151e1	-0.09439445
21	0x3e3b6939	0.18301858
22	0x3e7500c6	0.23926076
23	0x3dbc9787	0.09208589
24	0xbeb92a22	-0.36164957
25	0xbcb3d1ca	-0.021950621
26	0xbd8ecd5d	-0.06972764
27	0xbbfb627f	-0.0076716538
28	0xbda2d345	-0.07950453
29	0xbcb6b50c	-0.022303127
30	0xbb5e7af9	-0.003394781
31	0x3dc7e1b5	0.09759847
32	0x3e8b48b2	0.272039
33	0x3e50eef8	0.2040366
34	0x3e1db0f3	0.15399532
35	0xbd7a1c6c	-0.06106226
36	0x3d34b49a	0.044117548
37	0x3ec20720	0.3789606
38	0xbd3d52de	-0.046221606
39	0xbe0289ad	-0.12747832
40	0xbde15a21	-0.11003519
41	0xbe1528c6	-0.14566335
42	0xbe8dc435	-0.27688757
43	0xbdadc15c	-0.08484146
44	0xbe92deac	-0.2868551
45	0x3be51987	0.0069915685
46	0xbe2006e7	-0.15627633
47	0x3c1c6e63	0.009547803
48	0xbc8f5ebb	-0.017501226
49	0xbdbee066	-0.09320144
50	0x3e15b450	0.14619565
51	0x3ca89ad3	0.020581638
52	0xbe573a4d	-0.21018334
53	0x3d126178	0.035737485
54	0xbc93d189	-0.01804425
55	0xbe2ff269	-0.17182316
56	0xbde70bf7	-0.11281579
57	0xbde8fad9	-0.113759704
58	0x3e2377f0	0.15963721
59	0xbca219bb	-0.01978766
60	0xbdaa23a1	-0.08307577
61	0x3e003461	0.12519981
62	0x3bbf0394	0.005829284
63	0x3d7c04a0	0.06152785
64	0xbed05bd1	-0.4069505
65	0x3d6b6282	0.05746699
66	0xbc822807	-0.015888227
67	0xbc650cc1	-0.013980092
68	0x3db9ce4b	0.090725504
69	0x3e590341	0.21192648
70	0x3d7ac41b	0.061222177
71	0x3de7dbe8	0.11321241
72	0xbb911d0a	-0.0044285106
73	0x3e4359a8	0.1907717
74	0x3e241353	0.16022997
75	0xbdf924e6	-0.12165241
76	0x3e162b61	0.14664985
77	0x3dbe4b73	0.092917345
78	0xbbe7fe15	-0.0070798495
79	0x3acc0ffa	0.0015568726
80	0x3c8ca12c	0.017166696
81	0xbcc8a8e0	-0.024494588
82	0x3a17bf3c	0.0005788689
83	0x3eae66f3	0.3406292
84	0xbdff25a9	-0.12458355
85	0xbdb5a448	-0.08869225
86	0xbe8ebf82	-0.27880484
87	0x3e196e5b	0.14983504
88	0xbeb929c2	-0.3616467
89	0xbeb0e7b4	-0.34551775
90	0xbc342f94	-0.010997672
91	0xbe25b5e1	-0.16182663
92	0xbe27e43e	-0.16395661
93	0xbd8010c0	-0.06253195
94	0x3e8d2c82	0.2757302
95	0xbd67269f	-0.056433316
96	0xbe540bed	-0.20707674
97	0x3ea9fedb	0.33202252
98	0x3e2677fd	0.1625671
99	0x3c3e2bfb	0.011607165
100	0xbef097b6	-0.46990746
101	0xbcf03f51	-0.029327067
102	0xbdefaf93	-0.1170341
103	0x3e8bb472	0.27286106
104	0x3db32412	0.08747114
105	0x3e03fdaa	0.12889734
106	0xbea7b1a3	-0.32752714
107	0x3e20f944	0.15720087
108	0x3c6f0dbd	0.014590678
109	0x3de0c38e	0.10974799
110	0x3e545415	0.207352
111	0xbe234e8c	-0.15947932
112	0xbc981e29	-0.018569069
113	0xbe6773ed	-0.22602816
114	0x3dc2fceb	0.095208965
115	0xbd1cb216	-0.038255773
116	0x3bcc8c07	0.0062422785
117	0xbe14a687	-0.1451665
118	0xbe0cc63a	-0.13747492
119	0xbd5ebc88	-0.054379016
120	0x3d3b797c	0.045770153
121	0xbdd0818f	-0.10180961
122	0x3bade1ac	0.005306443
123	0x3d65a1e4	0.056062594
124	0x3de41be0	0.11138129
125	0x3e5f9fc3	0.21838288
126	0xbe018b3a	-0.12650767
127	0xbdbc13e4	-0.09183481
128	0x3dfb2f61	0.12264896
129	0xbde25612	-0.11051573
130	0xbda41676	-0.080120966
131	0xbe866b03	-0.26253518
132	0x3cf41822	0.029796664
133	0x3e20f6ed	0.15719195
134	0x3e374179	0.1789607
135	0xbd71bdec	-0.059019014
136	0x3e06ce51	0.13164641
137	0xbc1743cc	-0.009232473
138	0xbdbd8fe9	-0.09255964
139	0x3e5e7a95	0.21726449
140	0x3e19f461	0.1503463
141	0x3c8537ad	0.0162619
142	0x3c985b69	0.018598275
143	0xbd932fd0	-0.07186854
144	0x3e2d9965	0.16953047
145	0xbd258d92	-0.040418215
146	0xbd869cb3	-0.06572857
147	0x3e3087cc	0.17239302
148	0x3dbd9b0a	0.09258087
149	0xbc7f767d	-0.015592215
150	0xbe5c0809	-0.2148744
151	0x3dee0f30	0.116239905
152	0xbd89608d	-0.06707869
153	0xbd84c891	-0.064835675
154	0x3dd36933	0.103227995
155	0x3d98d4bd	0.074624516
156	0x3e060d41	0.13090993
157	0x3e134f6f	0.1438577
158	0x3e12cbcc	0.14335555
159	0xbdc18b98	-0.094504535
160	0xbd38120b	-0.044939082
161	0xbe1443ec	-0.14479035
162	0xbb4b4c57	-0.0031020844
163	0x3e189afa	0.14902869
164	0x3e435743	0.19076256
165	0xba50cb6f	-0.0007964884
166	0xbcc837a5	-0.024440596
167	0xbe459e12	-0.1929858
168	0x3e5b7189	0.21430029
169	0xbda43e49	-0.080196925
170	0x3e717aca	0.23581997
171	0x3cc3c7e9	0.023899036
172	0x3d29e28e	0.041475825
173	0xbda05823	-0.07829311
174	0xbdeff32c	-0.11716303
175	0x3c322856	0.010873875
176	0xbd20b276	-0.039232694
177	0x3d674ae2	0.0564679
178	0xbd8a45ed	-0.067516185
179	0x3d826605	0.06367115
180	0x3dc2a4a3	0.09504058
181	0xbe1cabc9	-0.15299906
182	0x3e530070	0.20605636
183	0x3dd370b5	0.103242315
184	0x3dc82c12	0.09774031
185	0xbe13b1be	-0.14423272
186	0xbd81fe2e	-0.06347309
187	0x3db2de80	0.08733845
188	0x3d924469	0.071419545
189	0xbe72cdfd	-0.23711391
190	0x3e3e054b	0.18556707
191	0x3e31991e	0.17343566
192	0xbd8f466f	-0.06995856
193	0x3e7074b4	0.23482019
194	0xbe26c48a	-0.16285911
195	0xbe16b8ce	-0.14718935
196	0xbe1fe602	-0.15615085
197	0xbe40b106	-0.18817529
198	0x3d12f577	0.035878625
199	0x3d7a40cf	0.061096963
200	0x3b9f2df4	0.004857773
201	0x3ad42b14	0.0016187155
202	0xbe39d17a	-0.18146315
203	0xbe2890b8	-0.16461456
204	0xbd587c72	-0.052853055
205	0x3cb12492	0.021623883
206	0xbd7001b0	-0.05859536
207	0xbe1718e0	-0.14755583
208	0x3d61ba63	0.055109393
209	0x3db41c64	0.087944776
210	0x3d90480d	0.070449926
211	0xbe439c13	-0.19102506
212	0x3d8c0413	0.068367146
213	0xbe2af6b5	-0.16695674
214	0x3e99c9f8	0.30036902
215	0xbde35afb	-0.111013375
216	0xbc9db770	-0.019252509
217	0x3e220c7a	0.15825072
218	0xbc967125	-0.018364498
219	0x3e86514a	0.26233894
220	0xbdd168fd	-0.10225103
221	0xbdd22719	-0.102613635
222	0xbd4faced	-0.050702024
223	0x3d32a26d	0.043611933
224	0x3e589dd4	0.21153957
225	0x3d8da3ea	0.0691603
226	0x3d35b0e2	0.04435814
227	0xbda2276b	-0.07917675
228	0x3e9e2a6e	0.30891746
229	0x3da64c34	0.08120003
230	0x3dc15fab	0.09442075
231	0x3b897be9	0.0041956794
232	0x3e3cde92	0.18444279
233	0x3d1d65f4	0.03842731
234	0xbe00c072	-0.12573412
235	0xbe1fb062	-0.15594628
236	0x3e07dab4	0.13267022
237	0xbdd869b2	-0.10567035
238	0xbe3c5a4c	-0.1839382
239	0x3e66b08e	0.22528288
240	0x3cafc8df	0.021458087
241	0xbd274214	-0.0408345
242	0x3d7ec60f	0.062200602
243	0x3d95d5a9	0.07316143
244	0x3d61afb4	0.055099204
245	0xbd091ede	-0.033476703
246	0x3c3a2f42	0.011363806
247	0xbda3c4c1	-0.07996512
248	0xbdbd7d18	-0.09252375
249	0x3d8d8c7b	0.0691156
250	0x3d2a30ef	0.041550573
251	0xbd3932a0	-0.045214295
252	0x3e0f93a0	0.14021158
253	0xbd91f42d	-0.07126651
254	0xbe322774	-0.17397863
255	0xbd43ea97	-0.047831144

fc.bias f4 [18]
0	0x3bf18780	0.007370889
1	0xbd2ae1a6	-0.0417191
2	0x3c9c84f9	0.019106375
3	0xbdda1e5a	-0.1065032
4	0xbdb28914	-0.08717552
5	0xbd827cef	-0.063714854
6	0x3da2e5f7	0.079540186
7	0xbce12b81	-0.027486565
8	0xbcba5afb	-0.022748461
9	0xbab6d4a7	-0.0013948873
10	0xbcf31f3c	-0.02967798
11	0xbccaaf66	-0.02474184
12	0x3d4df107	0.05027869
13	0xbe04d18c	-0.12970561
14	0xbc802b2e	-0.01564559
15	0x3dcdb713	0.10044684
16	0x3bd6b29e	0.0065520545
17	0xbc3b610e	-0.011436714
