01_rnn/logs/RNN/RNN_epoch_90_acc_0.7925.pth (torch, 107761 bytes, 6 tensors)

rnn.weight_ih_l0 f4 [128, 57]
0	0xbf2fd773	-0.68688124
1	0xbe7829bb	-0.24234669
2	0xbf0d32fb	-0.55155915
3	0x3e37579d	0.17904516
4	0x3e444979	0.19168653
5	0xbe1b3262	-0.15155938
6	0x3e00cc40	0.12577915
7	0x3e99787a	0.2997473
8	0xbd2f4593	-0.04279096
9	0xbcf77368	-0.030206397
10	0x3f2650a3	0.6496679
11	0x3e96dcb5	0.2946526
12	0xbed7a180	-0.42115402
13	0x3eb85ccd	0.360083
14	0xbf147008	-0.57983446
15	0x3eb7abec	0.35873353
16	0x3f5ca8b5	0.86194927
17	0x3f040b71	0.5157996
18	0xbdb5a9f2	-0.08870305
19	0x3f3fd426	0.7493309
20	0x3d9e2952	0.07722725
21	0x3f7c1ebd	0.984844
22	0x3efe20b0	0.49634314
23	0x3d3789b3	0.044809055
24	0xbf41a5f4	-0.7564385
25	0xbf1206c2	-0.5704156
26	0x3e70526e	0.23468944
27	0x3da64507	0.08118635
28	0xbe363b7c	-0.17796129
29	0xbe706f55	-0.2347997
30	0xbe6aecdf	-0.22941922
31	0x3d7ae88f	0.06125694
32	0x3d094983	0.033517372
33	0xbe0722ee	-0.13196918
34	0xbe2ddd98	-0.16979063
35	0xbbdae1ae	-0.006679735
36	0x3cde7817	0.027156873
37	0x3e9f0037	0.3105485
38	0xbd7fc473	-0.062443208
39	0x3d52fb1b	0.051509004
40	0xbe9a3ff5	-0.3012692
41	0x3e7469c0	0.23868465
42	0xbea91f30	-0.33031607
43	0xbdc53b41	-0.096304424
44	0xbdad8a48	-0.08473641
45	0xbe151a77	-0.14560877
46	0x3e3a908b	0.18219201
47	0xbdcd64af	-0.100289695
48	0x3e812c9e	0.25229353
49	0xbe966fdf	-0.29382226
50	0xbe2af862	-0.16696313
51	0xbe43e554	-0.1913045
52	0xbc98d5fd	-0.018656725
53	0xbd72bf3b	-0.059264403
54	0x3e170305	0.14747246
55	0xbd207ce3	-0.0391816
56	0xbeded4ef	-0.4352183
57	0x3f1086d8	0.56455755
58	0x3f12148c	0.570626
59	0x3e1c0a56	0.15238318
60	0x3da2388f	0.07920944
61	0xbdc81133	-0.097689055
62	0x3a8976a7	0.0010487632
63	0x3f1acb15	0.6046613
64	0x3e207fdb	0.15673773
65	0x3ea064ac	0.31326807
66	0x3e43576c	0.19076318
67	0x3f325a3a	0.69668925
68	0x3e906067	0.2819855
69	0xbef03506	-0.46915454
70	0xbf03818d	-0.51369554
71	0x3f15ce4e	0.5851792
72	0xbe567e6e	-0.20946667
73	0xbeafa49f	-0.34305283
74	0xbed2c421	-0.4116526
75	0xbf33793b	-0.7010686
76	0xbebfc4e5	-0.37454906
77	0xbee85adf	-0.4538183
78	0xbe7a647f	-0.24452399
79	0xbd110254	-0.03540261
80	0xbe951a92	-0.29121834
81	0xbf090555	-0.5352376
82	0xbd8c4032	-0.06848182
83	0x3e4f34ad	0.20234938
84	0x3eb3edfb	0.35142502
85	0xbe00b925	-0.12570627
86	0x3d221042	0.039566286
87	0x3e627752	0.2211583
88	0xbd5494a8	-0.051899582
89	0xbeb11f6a	-0.3459428
90	0x3d6aa13a	0.057282664
91	0x3b297582	0.0025857394
92	0x3e7c55c3	0.2464209
93	0x3dde8c35	0.10866586
94	0x3e7fc5ec	0.24977845
95	0xbe068363	-0.13136058
96	0xbc8a4ea9	-0.016883211
97	0x3c507aad	0.012724561
98	0x3d6cd0ec	0.05781643
99	0xbe278ed3	-0.16363077
100	0xbe2112d6	-0.15729842
101	0xbd86f3a5	-0.0658944
102	0xbe1fe0b7	-0.15613066
103	0xbd44000d	-0.04785161
104	0x3e02ff6d	0.1279275
105	0xbe0063f9	-0.12538137
106	0x3d125aae	0.03573101
107	0xbdcf4fb2	-0.101226225
108	0xbd7f8876	-0.062386
109	0x3e96cd76	0.2945363
110	0x3d80c95b	0.062884055
111	0xbed6ddbc	-0.41966045
112	0xbc9ec55f	-0.019381223
113	0xbd8d19d7	-0.06889694
114	0x3e6e28af	0.23257707
115	0x3ed8bc6b	0.42331252
116	0xbe275fbe	-0.16345116
117	0x3ec942f7	0.39308903
118	0xbe964a43	-0.29353532
119	0x3d1035fc	0.035207734
120	0xbf45a7ef	-0.7720937
121	0xbd6d30a9	-0.057907734
122	0x3e91bf87	0.28466436
123	0x3e4b06c3	0.19826798
124	0x3e97f591	0.2967954
125	0xbea92dc8	-0.3304274
126	0xbe9fd36b	-0.31215987
127	0xbeca2122	-0.39478403
128	0xbe77a252	-0.24183014
129	0xbe615171	-0.22003724
130	0xbf05c4a2	-0.5225316
131	0x3d91a061	0.07110668
132	0x3d4f6c6c	0.05064051
133	0xbcc343e3	-0.023836082
134	0x3e182ae4	0.14860111
135	0xbf610f34	-0.87913823
136	0xbe1cef5f	-0.15325688
137	0xbf253102	-0.64527905
138	0x3df3b9c0	0.119006634
139	0xbc162f7f	-0.009166597
140	0x3e694c82	0.22783092
141	0xbd97973b	-0.07401892
142	0x3c71ad9f	0.014750867
143	0x3e210b7a	0.15727034
144	0xbc433b1e	-0.01191595
145	0xbdfa5665	-0.1222351
146	0xbd70726e	-0.05870288
147	0x3d126898	0.03574428
148	0x3ec8c6f6	0.39214295
149	0x3de06d05	0.10958294
150	0x3d73524f	0.059404667
151	0xbccc6997	-0.024952693
152	0xbe0ee599	-0.13954772
153	0x3dfb9e29	0.12286026
154	0x3e01e339	0.12684335
155	0xbdc68d0f	-0.096948735
156	0x3d9612b3	0.07327785
157	0xbe01f773	-0.1269205
158	0xbd2fecbe	-0.042950384
159	0x3e013a84	0.12619978
160	0x3c6f8d55	0.0146210985
161	0x3e1ac83d	0.15115447
162	0xbe164cf5	-0.14677794
163	0xbd02bb3c	-0.031916842
164	0xbd423b47	-0.047419813
165	0xbbd3f253	-0.0064680963
166	0x3dd17a09	0.102283545
167	0x3d245db5	0.04012843
168	0xbe427f19	-0.18993796
169	0xbd30e8c0	-0.043190718
170	0x3d7b33d5	0.061328728
171	0x3d52f073	0.05149884
172	0x3e6321a4	0.22180802
173	0x3dd30375	0.10303394
174	0x3d3c6b8e	0.04600101
175	0xbe183ef8	-0.1486777
176	0x3effe565	0.49979702
177	0xbd8976db	-0.06712123
178	0xbf02be11	-0.5107127
179	0x3eb8bd8b	0.3608211
180	0x3d7db957	0.061944332
181	0xbdaa9f9b	-0.083312236
182	0x3ee61313	0.44936427
183	0xbe37f1af	-0.17963289
184	0xbebcccb2	-0.3687492
185	0x3d30f241	0.04319978
186	0x3e4111fd	0.18854518
187	0xbecb4ccc	-0.3970703
188	0x3ed9ace8	0.4251473
189	0xbe78a1e1	-0.24280502
190	0xbe45688b	-0.19278161
191	0x3e94f88b	0.29095873
192	0xbf3b593e	-0.7318305
193	0xba62169d	-0.00086245855
194	0x3f1b34f6	0.60627687
195	0xbf644fa9	-0.8918405
196	0x3ed32a1b	0.4124306
197	0xbeeae966	-0.45881194
198	0x3db00190	0.08594048
199	0x3e9c7708	0.30559564
200	0x3d9f57cf	0.0778042
201	0xbe7bb885	-0.24582107
202	0x3d221b7f	0.039577004
203	0x3d81a1b5	0.06329671
204	0x39e68241	0.00043966065
205	0xbe8f07e4	-0.27935708
206	0x3e82088d	0.2539715
207	0x3d261963	0.040551554
208	0x3e391141	0.18072988
209	0xbd6182b2	-0.05505628
210	0xbe27bc5a	-0.16380444
211	0xbd9c339b	-0.076270305
212	0x3dbc3a18	0.09190768
213	0xbc2cc718	-0.0105455145
214	0x3b80d534	0.003931666
215	0x3c565c03	0.013083461
216	0x3b45a79e	0.0030159722
217	0xbce7f38a	-0.02831437
218	0x3bd4bc31	0.0064921607
219	0x3e338109	0.17529692
220	0x3ed5eea5	0.41783634
221	0x3dbec596	0.0931503
222	0x3cf030b2	0.029320095
223	0xbf0a0ea3	-0.53928584
224	0x3c1cdcad	0.009574098
225	0xbe89ef5a	-0.26940423
226	0x3d3ff62d	0.04686563
227	0xbeb56493	-0.35428295
228	0xbd6f5e41	-0.058439497
229	0x3e6e7127	0.23285352
230	0xbf59fb28	-0.8514886
231	0x3c071d93	0.008246797
232	0x3e0712d9	0.13190784
233	0xbdf2bd32	-0.118524924
234	0xbeb7f3b6	-0.35928124
235	0xbed7c4bb	-0.4214228
236	0x3ed0d49f	0.40787217
237	0x3d094aff	0.033518787
238	0xbe2f3d00	-0.17113113
239	0xbe327070	-0.17425704
240	0xbebf648c	-0.373814
241	0xbe40a711	-0.18813731
242	0x3f07764c	0.5291488
243	0xbe92cd64	-0.28672326
244	0x3ea1b095	0.31580034
245	0xbe7c1d4d	-0.24620552
246	0x3d746ba7	0.059672978
247	0x3eb2f9e9	0.3495629
248	0xbebca183	-0.36841974
249	0x3e401cd6	0.18761
250	0xbe668db8	-0.22514999
251	0xbf0ac833	-0.5421173
252	0x3db74ccb	0.08950194
253	0xbe0fd429	-0.14045776
254	0xbd68b264	-0.05681075
255	0x3ce36662	0.02775878

rnn.weight_hh_l0 f4 [128, 128]
0	0x3e0165d7	0.12636505
1	0x3dd689ea	0.10475524
2	0xbd0ddc44	-0.03463389
3	0xbe16eb09	-0.14738096
4	0xbe4f193f	-0.20224474
5	0x3bd30570	0.006439857
6	0x3dfe001a	0.12402363
7	0xbe378c37	-0.17924581
8	0x3d9b2fb8	0.07577461
9	0x3d9af578	0.07566351
10	0x3e5c3db3	0.21507911
11	0xbe12cd2f	-0.14336084
12	0xbe0ef11a	-0.1395916
13	0xbe31c56d	-0.17360468
14	0x3bff41da	0.0077898325
15	0x3c804fe1	0.01566309
16	0xbdeb6342	-0.11493541
17	0x3e0dfa75	0.13865073
18	0xbde24246	-0.11047797
19	0x3e279654	0.1636594
20	0x3d9a62ee	0.075384006
21	0x3dabf1a9	0.083957024
22	0x3d299349	0.041400228
23	0xbdc15836	-0.09440653
24	0x3db302a4	0.08740738
25	0xbdb2ecef	-0.08736598
26	0xbda324c7	-0.07965999
27	0x3ea2b568	0.31779027
28	0xbe9944e6	-0.29935378
29	0x3e5d7b7f	0.21629141
30	0x395247a8	0.00020053855
31	0xbd99fff4	-0.07519522
32	0xbdc48099	-0.095948406
33	0x3dc0cd58	0.09414166
34	0xbd93fdb8	-0.072261274
35	0xbe80387d	-0.25043097
36	0x3e2c1a88	0.16806996
37	0xbe163ce8	-0.14671671
38	0xbe42f811	-0.19039942
39	0x3d3b8714	0.045783117
40	0x3e03d592	0.1287444
41	0xbd89d355	-0.067297615
42	0x3e3dd9df	0.18540142
43	0xbd3d8ee7	-0.04627886
44	0xbd0c9154	-0.034318283
45	0xbe20ab1d	-0.15690275
46	0xbde814ba	-0.11332078
47	0xbcf1ec1f	-0.029531537
48	0xbdc13e6e	-0.09435736
49	0x3e12d539	0.1433915
50	0xbe1bde77	-0.15221582
51	0x3d24ffbc	0.04028295
52	0xbe37f6a3	-0.17965178
53	0xbd4e4713	-0.05036075
54	0xbd27047d	-0.040775765
55	0x3d446fdf	0.04795825
56	0x3e23255c	0.1593222
57	0x3cfd6226	0.03093059
58	0x3e4ee496	0.20204386
59	0x3d966c8a	0.07344921
60	0xbe2cc6a9	-0.16872658
61	0xbde7f9ab	-0.11326917
62	0xbd89b498	-0.06723899
63	0xbe1af48c	-0.1513235
64	0xbc58fdf3	-0.01324414
65	0x3c2d7f86	0.010589486
66	0xbe857fc8	-0.26074052
67	0xbca84a75	-0.020543316
68	0xbe3bed8a	-0.18352333
69	0x3daabc83	0.08336737
70	0x3d2c1281	0.042009834
71	0xbe298dbf	-0.16557978
72	0x3e1512b4	0.14557916
73	0x3dd7f82b	0.10545381
74	0x3e56d055	0.2097791
75	0x3c162a37	0.009165338
76	0x3c8dc6ce	0.017306712
77	0x3cef5aea	0.029218156
78	0x3e027384	0.12739378
79	0xbd5f15a5	-0.054464
80	0x3caf96ab	0.021434149
81	0x3d648eea	0.055800356
82	0xbd8bc152	-0.06823982
83	0xbe3c2cd4	-0.18376476
84	0x3cb2c4ea	0.021822412
85	0xbde1e581	-0.110301025
86	0x3d620614	0.055181578
87	0x3df5211f	0.11969208
88	0x3ce72571	0.028216096
89	0x3daae08b	0.083436094
90	0xbd7df86e	-0.0620045
91	0x3d2d7d5a	0.042355873
92	0x3d0c7959	0.034295414
93	0xbe5d935e	-0.21638247
94	0x3dbc8e77	0.092068605
95	0x3b48b102	0.0030623083
96	0x3e3b5853	0.18295412
97	0x3e513ddf	0.20433758
98	0x3db30d55	0.08742777
99	0x3d38df66	0.045134924
100	0xbb821599	-0.00396986
101	0xbde798e2	-0.11308457
102	0x3cd4d855	0.025982061
103	0x3e0ace11	0.1355517
104	0x3dc117aa	0.09428342
105	0xbe549c2f	-0.20762704
106	0x3cadba56	0.021207016
107	0x3ddd9f1f	0.108213656
108	0x3d0be2ef	0.034151968
109	0x3de853e9	0.113441296
110	0x3e1177bf	0.14205836
111	0x3e0b280b	0.13589494
112	0xbe27f6b9	-0.16402711
113	0x3e1a3798	0.1506027
114	0x3d787aa1	0.060663823
115	0xbdd68521	-0.10474611
116	0xbd522d74	-0.05131288
117	0x3dd6a1f0	0.10480106
118	0x3cc78dc6	0.024359595
119	0xbe5371d5	-0.20648892
120	0x3e0de483	0.13856702
121	0xbdf7a3b9	-0.120917745
122	0x3d0a6f7a	0.03379772
123	0xbda1dfda	-0.079040244
124	0xbe1cab20	-0.15299654
125	0xbe386dfa	-0.18010703
126	0x3d5f722c	0.054552242
127	0x3d3b1d78	0.0456824
128	0xbd39bc40	-0.045345545
129	0xbd90f37f	-0.07077693
130	0x3d351099	0.044205282
131	0xbe301b90	-0.17198014
132	0x3daaf685	0.08347801
133	0x3db3ef52	0.08785881
134	0xbd05a376	-0.03262659
135	0x3d4bd52b	0.04976384
136	0xbe451e32	-0.192498
137	0x3e20716d	0.15668269
138	0xbb3b796b	-0.0028606306
139	0xbd69cd00	-0.05708027
140	0x3e18ed08	0.1493417
141	0x3c357ead	0.011077565
142	0x3da78b39	0.081808515
143	0xbcd61815	-0.02613453
144	0xbc99260c	-0.0186949
145	0x3d9ab7e7	0.07554608
146	0x3e29a69e	0.16567466
147	0xbc1a5449	-0.009419509
148	0x3d2ad7e7	0.041709807
149	0xbd213ac3	-0.03936268
150	0x3dab06ed	0.0835093
151	0x3e2adebd	0.1668653
152	0x3bf2bb3b	0.0074075735
153	0x3e270b6e	0.16312954
154	0x3cafb3e8	0.02144809
155	0xbddb786c	-0.10716328
156	0xbc183334	-0.0092895515
157	0x3d897647	0.06712013
158	0xbd6b0860	-0.057381034
159	0x3e17f8b2	0.14840963
160	0xbe28e504	-0.16493613
161	0x3e52963b	0.20565121
162	0xbe783744	-0.24239832
163	0x3d3ff27b	0.046862107
164	0xbd8083c9	-0.06275136
165	0xbd33931b	-0.043841463
166	0xbd55cba3	-0.052196156
167	0x3dc1ef78	0.09469503
168	0x3d63f312	0.05565173
169	0x3c5474f7	0.01296734
170	0xb9885c8b	-0.0002600889
171	0x3e124c0f	0.14286827
172	0x3d4e90bb	0.050430994
173	0x3c936dde	0.017996725
174	0xbe15e68a	-0.14638725
175	0x3cbc2803	0.022968298
176	0xbbed5dd6	-0.007243852
177	0xbe4dce67	-0.20098267
178	0x3df1010e	0.11767779
179	0xbe262d4f	-0.16228221
180	0xbc4b4b1e	-0.012408046
181	0x3e2d7041	0.16937353
182	0x3d00f8d0	0.031487286
183	0xbe12e187	-0.14343844
184	0x3e70d28f	0.23517822
185	0xbd4ac640	-0.049505472
186	0x3d8109df	0.06300711
187	0xbca6e78b	-0.02037408
188	0xbe538592	-0.20656422
189	0xbda554e0	-0.08072829
190	0x3e03f412	0.12886074
191	0x3d27462d	0.04083841
192	0x3d013c3a	0.031551577
193	0x3c8745fb	0.016512861
194	0x3d9edc83	0.07756903
195	0x3b0b9629	0.002129922
196	0x3c672320	0.014107496
197	0xbe178071	-0.1479509
198	0x3c558d1e	0.013034133
199	0xbe7def43	-0.24798302
200	0x3ea1fc68	0.31637883
201	0x3c7d8684	0.015473966
202	0x3d4ee2c7	0.05050924
203	0x3da8ce7a	0.08242507
204	0x3e06d2f3	0.13166408
205	0x3df86613	0.12128844
206	0x3d0bde28	0.03414741
207	0xbda5669f	-0.08076214
208	0xbebcea3c	-0.36897457
209	0xbd723382	-0.059131153
210	0x3cc95294	0.02457551
211	0x3a4c051e	0.0007782745
212	0xbe4d9f88	-0.20080388
213	0xbd8d4def	-0.0689963
214	0xbe52a1cf	-0.20569538
215	0x3dd58352	0.10425438
216	0xbd48bf75	-0.049010713
217	0x398a4d67	0.0002637908
218	0x3e0ae3f1	0.13563515
219	0x3e22f50e	0.15913793
220	0xbd822dc5	-0.06356386
221	0x3e740529	0.23830093
222	0xbd82e41c	-0.06391165
223	0x3dfc6915	0.1232473
224	0xbd02ffe1	-0.031982306
225	0xbe0f0d79	-0.13969983
226	0xbdcae246	-0.099064395
227	0x3e37669a	0.17910233
228	0xbca7aafc	-0.020467274
229	0x3d3c3327	0.04594722
230	0x3e04ef1d	0.1298184
231	0xbe2db0ff	-0.1696205
232	0x3e23b71e	0.15987822
233	0xbe42bc79	-0.19017209
234	0x3e360eaa	0.17779031
235	0xbc98c5ae	-0.018648949
236	0x3b8007c6	0.0039071767
237	0x3e2030a9	0.15643562
238	0xbe7d7bd5	-0.2475427
239	0x3e882de1	0.26597503
240	0xbdfa0aa8	-0.12209064
241	0xbe530434	-0.20607072
242	0xbe3288be	-0.17434976
243	0x3d2f9872	0.042869993
244	0xbdd9ed55	-0.106409706
245	0x3e45a6a7	0.19301854
246	0xbc2b47a8	-0.010454096
247	0xbd90ebf5	-0.07076255
248	0xbd685b5d	-0.056727756
249	0xbd8d0167	-0.06885033
250	0xbde82e2e	-0.11336933
251	0x3d56cb72	0.052440114
252	0x3ec8a870	0.39191008
253	0xbe33a827	-0.17544614
254	0x3d3f6866	0.04673042
255	0x3cd0dac0	0.025494933

rnn.bias_ih_l0 f4 [128]
0	0xbd8ee2f0	-0.06976879
1	0xbd3b8d4b	-0.045789044
2	0xbe17e9c9	-0.14835276
3	0x3caab3b1	0.020837637
4	0xbd7ffbd5	-0.062496025
5	0xbc0e0740	-0.008668721
6	0xbc80b071	-0.015709134
7	0xbce9ca68	-0.028538898
8	0xbbe63c85	-0.0070262575
9	0xbd08d35d	-0.033404697
10	0x3dc12bc6	0.09432177
11	0x3d602cc3	0.054730188
12	0xbcbe5c78	-0.023237452
13	0x3d6b65d7	0.05747017
14	0x3cafeb62	0.021474544
15	0x3dfc37b7	0.12315314
16	0x3dbf459e	0.0933945
17	0x3b319cf0	0.0027101599
18	0xbd826945	-0.06367735
19	0xbc1350b3	-0.008991408
20	0xbcbe65f1	-0.023241969
21	0x3c23af3c	0.00999051
22	0xba621f40	-0.00086258724
23	0xbd874731	-0.066053756
24	0xbd99aaca	-0.075032786
25	0xbcab82be	-0.020936366
26	0xbd2afc9e	-0.04174482
27	0x3da63944	0.08116391
28	0x3bbc18ec	0.0057402756
29	0x3d5315c2	0.05153442
30	0x3bdedfce	0.006801582
31	0x3d45aecc	0.048262402
32	0xbd9b9e45	-0.07598547
33	0xbc14d19f	-0.009083181
34	0x3d8de825	0.06929044
35	0xbde347c3	-0.11097672
36	0xbd9569f7	-0.07295602
37	0xbce1576f	-0.027507512
38	0x3dcf2d87	0.101161055
39	0x3c1cacfc	0.009562727
40	0xbc68c1bd	-0.014206347
41	0xbd1c203e	-0.038116686
42	0x3d8148a0	0.0631268
43	0x3db39509	0.087686606
44	0x3b3c95e3	0.0028775863
45	0xbda48015	-0.08032242
46	0x3bed9f20	0.007251635
47	0x3d225508	0.039631873
48	0xbd86396c	-0.06553921
49	0x3d45da8b	0.048304122
50	0xbd930fbc	-0.071807355
51	0x3baf73f9	0.005354401
52	0x3bc6d131	0.006067418
53	0x3cc4b12e	0.024010267
54	0xbd04d0d3	-0.032425713
55	0x3daebab6	0.08531706
56	0x3d971301	0.073766716
57	0xbd8835ea	-0.06650908
58	0x3d9254fd	0.071451165
59	0x3d82288e	0.063553914
60	0xbd1ad3b2	-0.037799545
61	0xbd6b9171	-0.05751175
62	0xbd0d28be	-0.034462683
63	0x3d9641f0	0.07336795
64	0x3d873a57	0.06602924
65	0x3d719bdc	0.05898653
66	0x3db692b0	0.08914697
67	0x3c8cae2a	0.017172892
68	0x3c94fc6e	0.018186774
69	0x3d16da3f	0.03682923
70	0x3d577119	0.052598093
71	0xbd7f2de7	-0.062299635
72	0xbc70de4f	-0.01470144
73	0xbd040bf9	-0.03223798
74	0xbda800b9	-0.08203263
75	0xbd22d18b	-0.039750617
76	0x3c356fc3	0.011074009
77	0xbbab0698	-0.005219292
78	0x3daa18ea	0.08305533
79	0x3d5ef8bd	0.054436434
80	0xbd63b0d4	-0.05558856
81	0x3caf5256	0.021401566
82	0xbc98985b	-0.018627336
83	0x3cda198b	0.026623508
84	0xbd0e5c4a	-0.034755982
85	0xbd0162ca	-0.031588353
86	0x3d70fddb	0.058835845
87	0xbd1ee24f	-0.038790043
88	0x3c2b7b4b	0.010466407
89	0xbd8b7264	-0.06808928
90	0xb94e7b7a	-0.0001969169
91	0x3b627748	0.003455596
92	0xbbbcb635	-0.0057590255
93	0x3c1bd4d6	0.009511193
94	0xbd50af71	-0.050948564
95	0x3d72c27e	0.059267513
96	0xbc5a7556	-0.013333639
97	0xbb610990	-0.0034337975
98	0xbc88531c	-0.016641192
99	0xbccc9ca2	-0.024977032
100	0xbda809de	-0.08205007
101	0xbda02e7c	-0.07821366
102	0x3b2e46f9	0.0026592596
103	0xbcdd1a24	-0.026990004
104	0xbd85a9ac	-0.06526503
105	0xbcaf9ef8	-0.021438107
106	0x3d909153	0.070589684
107	0x3cfdc2bc	0.030976646
108	0x3cd4e21c	0.025986724
109	0x3c9f1585	0.019419441
110	0x3a75a8fc	0.0009371189
111	0x3c1df303	0.009640458
112	0x3d063597	0.03276595
113	0xbd66003a	-0.05615256
114	0x3d616c12	0.055034705
115	0xbd6548a6	-0.055977486
116	0x3da851d9	0.08218736
117	0x3d909bbc	0.07060954
118	0xbdad9b24	-0.08476856
119	0x3cde8a45	0.027165541
120	0xbcbcc913	-0.023045098
121	0xbc9ddea7	-0.019271208
122	0x3d410811	0.047126833
123	0x3cf39cf4	0.029737927
124	0x3d33dd1b	0.043912034
125	0xbd7fa462	-0.062412627
126	0x3d8f2f49	0.06991441
127	0xbd8c89d4	-0.06862226

rnn.bias_hh_l0 f4 [128]
0	0x3d479d59	0.048734043
1	0x3d2647f1	0.040595952
2	0xbdf7ab20	-0.120931864
3	0xbcff6acc	-0.031178854
4	0xbc6b147b	-0.014348145
5	0x3be6c6db	0.0070427484
6	0xbd212aa1	-0.039347295
7	0x3b3111a2	0.0027018567
8	0xbd9f3a7a	-0.077748254
9	0xbd84ce14	-0.06484619
10	0xbd4ab432	-0.049488254
11	0xbd377eee	-0.044798784
12	0x3db2f694	0.08738437
13	0x3d4f1928	0.0505611
14	0x3dc1f657	0.09470814
15	0x3c9af608	0.018916145
16	0x3d882558	0.06647748
17	0x3d337312	0.04381091
18	0xbd359071	-0.044327203
19	0x3c89e3a5	0.016832182
20	0xbd0749a2	-0.033029206
21	0x3c9e7d4d	0.019346857
22	0x3c98e4d3	0.0186638
23	0x3c1ee153	0.009697276
24	0x3d809def	0.062801234
25	0xbcfcab5d	-0.030843431
26	0x3d9e18d9	0.07719583
27	0x3d7cff77	0.061767068
28	0x3d4a5678	0.04939887
29	0x3cd75623	0.02628619
30	0xbc6aa415	-0.014321347
31	0xbc8dbcc9	-0.017301934
32	0x3d022bff	0.03178024
33	0xbda6d930	-0.08146894
34	0xbd365759	-0.044516895
35	0xbd8bf1d7	-0.06833237
36	0xbd0465bc	-0.032323584
37	0x3cdef7e6	0.027217817
38	0xbd0ed1b8	-0.034867972
39	0xbc9cd959	-0.019146608
40	0x3d49cf8e	0.049270205
41	0x3d3525a2	0.044225343
42	0x3c6e22a9	0.014534631
43	0xbd1813de	-0.03712832
44	0xbd67607c	-0.0564885
45	0x3d992838	0.07478374
46	0xbc702f9e	-0.01465979
47	0x3d4a2cf3	0.049359273
48	0xbd89ee45	-0.067348994
49	0xbcdd2781	-0.026996376
50	0xbda6b2ac	-0.08139548
51	0x3d6d0c30	0.05787295
52	0xbc077bb1	-0.008269236
53	0xbcdfe83a	-0.027332414
54	0xbc820cf0	-0.01587531
55	0xbc282ac2	-0.0102641005
56	0xbcf1bd7a	-0.029509295
57	0xbcd69eae	-0.026198711
58	0x3c317a56	0.01083239
59	0x3dae92af	0.085240714
60	0xbb5fae7b	-0.0034131098
61	0x3d488fc9	0.04896525
62	0x3d21a685	0.039465446
63	0xbc93d0a4	-0.018043824
64	0x3d824311	0.06360448
65	0x3d4afb4a	0.049556054
66	0xbc2f1e62	-0.010688396
67	0xbd83f5e1	-0.06443382
68	0x3c302959	0.010752046
69	0xbb5c137c	-0.003358095
70	0xbd812704	-0.0630627
71	0xbd797037	-0.060898032
72	0x3d441195	0.04786833
73	0x3d0be66b	0.03415529
74	0x3ca2c835	0.019870857
75	0xbdc8463a	-0.0977902
76	0xbd8429a8	-0.06453258
77	0x3deb885e	0.11500619
78	0x3dc1c955	0.09462229
79	0x3d959de4	0.07305506
80	0xbd27305d	-0.040817607
81	0x3d0c315b	0.034226757
82	0x3d82122b	0.063511215
83	0x3c956908	0.01823856
84	0xbd485c5a	-0.0489162
85	0x3db00684	0.08594993
86	0x3dbea442	0.093086734
87	0x3d4ec676	0.050482236
88	0xbd92f206	-0.071750686
89	0x3c359d30	0.01108484
90	0xbd598edd	-0.05311476
91	0x3b892b8b	0.004186099
92	0x3d25fb56	0.040522896
93	0xba6eeeae	-0.00091145455
94	0xbde480bd	-0.111573674
95	0xbd8563e3	-0.065131925
96	0x3d877029	0.0661319
97	0x3dd47b6d	0.10375104
98	0x3d3b56c7	0.045737054
99	0xbd76c3d0	-0.060245335
100	0xbd0d3095	-0.03447016
101	0x3d439de2	0.04775799
102	0xbd0c4140	-0.034241915
103	0xbd57c85d	-0.052681316
104	0xbb519681	-0.0031980576
105	0xbaef03a6	-0.001823534
106	0xbc7d9620	-0.015477687
107	0xbcb6d1bb	-0.022316804
108	0xbd2a7dc6	-0.041623853
109	0xbd5dc173	-0.054139566
110	0x3d7de5ae	0.061986618
111	0xbd743eb1	-0.0596301
112	0xbd219f9c	-0.039458856
113	0x3ccbb29e	0.024865445
114	0x3909f91a	0.00013158136
115	0xbc5a0ff2	-0.013309466
116	0xbd3cd2b7	-0.04609939
117	0x3db5364c	0.08848247
118	0x3d0a37cd	0.033744622
119	0x3cbb5c98	0.0228713
120	0x3ca60d7f	0.020270107
121	0xbdb9465f	-0.09046625
122	0xbc2b4c74	-0.01045524
123	0xbd4f1c90	-0.05056435
124	0xbd80631c	-0.062689036
125	0xbd611863	-0.054954898
126	0xbc3237fe	-0.010877607
127	0x3d8f9f13	0.07012763

fc.weight f4 [18, 128]
0	0xbe8f4462	-0.2798186
1	0x3f1ac5d3	0.60458106
2	0xbd891e48	-0.06695229
3	0x3e8fd64a	0.28093177
4	0x3f10d071	0.56568056
5	0xbe842fd1	-0.2581773
6	0xbe9d259a	-0.3069275
7	0xbe80fe0d	-0.25193825
8	0xbf075631	-0.5286589
9	0xbe8880cf	-0.26660773
10	0xbe195f98	-0.14977872
11	0xbe6481a4	-0.22315079
12	0xbed43bd1	-0.41451886
13	0xbd42031a	-0.04736624
14	0xbe82d02f	-0.25549456
15	0xbd5191fe	-0.05116462
16	0xbf22263b	-0.63339585
17	0xbe9e3cc7	-0.30905744
18	0x3e9535ba	0.29142553
19	0x3e3e4a17	0.1858295
20	0xbeb847d7	-0.3599231
21	0x3f1ad769	0.6048494
22	0x3f01e110	0.50734043
23	0x3e0d5438	0.13801658
24	0xbf3b87ed	-0.7325428
25	0x3db1868b	0.0866824
26	0xbe236e8d	-0.1596014
27	0x3e3b94e3	0.18318515
28	0xbe2bcb5c	-0.16776794
29	0x3de6104b	0.112335764
30	0xbe30b226	-0.17255458
31	0x3d72873d	0.059211005
32	0x3f682645	0.90683395
33	0x3f135fb4	0.57567906
34	0x3e168e41	0.14702703
35	0xbe3c2b8f	-0.18375991
36	0x3e7b4552	0.24538162
37	0x3f1bc693	0.60849875
38	0xbee2ced3	-0.4429842
39	0xbe7cd468	-0.24690402
40	0xbe7465a4	-0.23866898
41	0xbf0069be	-0.5016135
42	0xbf109c1a	-0.5648819
43	0xbdace9ae	-0.08443008
44	0xbef19afe	-0.47188562
45	0x3d0e5ba3	0.03475536
46	0xbe5eea7b	-0.21769135
47	0x3e9bb9ee	0.3041529
48	0xbdfbef46	-0.12301497
49	0xbe3dc8c4	-0.18533617
50	0x3f16dfe1	0.5893536
51	0xbd7886ff	-0.060675617
52	0xbf127736	-0.5721315
53	0x3d9d267f	0.07673358
54	0xbccaaa43	-0.02473939
55	0xbee93ebd	-0.45555678
56	0xbecc5ebf	-0.39916036
57	0xbd24aa95	-0.040201742
58	0x3e38fe4e	0.1806576
59	0xbd682bdc	-0.056682453
60	0xbef2bccc	-0.47409666
61	0x3ee6b73c	0.45061672
62	0xbdc39a8e	-0.09550963
63	0x3e7db03d	0.24774261
64	0xbf4823a3	-0.7817938
65	0xbe073b2a	-0.13206163
66	0x3db466c0	0.088086605
67	0xbdece848	-0.11567742
68	0x3e6d6a9f	0.23185204
69	0x3ec0c746	0.37652034
70	0x3e8dc102	0.27686316
71	0x3e9915f0	0.2989955
72	0xbdcdb709	-0.10044677
73	0x3e500698	0.20315015
74	0x3f015ed3	0.50535315
75	0xbeb6b728	-0.35686612
76	0x3efa20b8	0.48853087
77	0x3db7f270	0.08981788
78	0xbdadacb4	-0.08480206
79	0x3b0c82a4	0.0021440173
80	0xbd5a2d45	-0.05326583
81	0x3de32829	0.11091644
82	0xbdaed150	-0.08536017
83	0x3f046603	0.5171816
84	0xbe5d4d92	-0.21611622
85	0xbe998694	-0.29985487
86	0xbeca32ad	-0.39491788
87	0x3e9ac555	0.30228677
88	0xbf3f8699	-0.74814755
89	0xbf294516	-0.6612104
90	0xbdc5240e	-0.096260175
91	0x3d2dd1e4	0.042436495
92	0xbe1389bd	-0.14408012
93	0x3c471b2f	0.012152477
94	0x3ec65019	0.38732985
95	0xbe6a1975	-0.22861274
96	0xbeac581c	-0.33660972
97	0x3efd7f39	0.49511126
98	0x3ecac10b	0.39600405
99	0x3baf6cde	0.005353554
100	0xbf76729b	-0.96268624
101	0x3db2f05a	0.0873725
102	0xbe4406e6	-0.19143257
103	0x3f122635	0.5708955
104	0x3f3eae10	0.7448435
105	0x3e756c31	0.23967053
106	0xbf112370	-0.566947
107	0x3ec8bc3f	0.3920612
108	0xbb649d71	-0.0034883881
109	0x3dc0f6a4	0.09422043
110	0x3e657354	0.22407275
111	0xbe009479	-0.12556638
112	0xbd9a3cd4	-0.07531133
113	0xbec1eefc	-0.37877643
114	0xbcb75e15	-0.022383729
115	0x3cdab245	0.026696334
116	0xbe3a08c5	-0.18167408
117	0xbd4da6f4	-0.050208047
118	0xbea151c9	-0.3150771
119	0xbe423c33	-0.18968277
120	0x3dded230	0.10879934
121	0xbdc720e0	-0.09723067
122	0xbd4da979	-0.05021045
123	0xbd339e84	-0.043852344
124	0x3e84f23f	0.2596607
125	0x3ed3a417	0.41336128
126	0xbad83bf9	-0.0016497365
127	0xbe92d299	-0.28676298
128	0x3e6fd46f	0.2342088
129	0x3d6f19ab	0.05837409
130	0xbb1aa10f	-0.0023594534
131	0xbefacdc0	-0.489851
132	0x3e4a3e95	0.19750436
133	0x3eb3d742	0.35125166
134	0x3ea6aebd	0.3255519
135	0xbe2bad15	-0.16765244
136	0x3e4732a5	0.19452913
137	0xbdcdd991	-0.10051263
138	0xbeb045e1	-0.34428313
139	0x3ddfc150	0.10925543
140	0x3e88dfb8	0.26733184
141	0x3d9aadb6	0.07552664
142	0xbd4a6296	-0.049410425
143	0xbdc8c810	-0.09803784
144	0x3e12b8e4	0.14328343
145	0x3cd2a772	0.02571461
146	0xbe44ac33	-0.19206314
147	0x3ea67b61	0.32516006
148	0x3e84df7f	0.25951764
149	0x3ba8a710	0.0051468685
150	0xbefe277a	-0.49639493
151	0x3e5197ac	0.20468014
152	0xbdbc7f23	-0.09203937
153	0xbd1c8ad5	-0.038218338
154	0x3c302b67	0.010752535
155	0x3df6c728	0.12049705
156	0x3db36c63	0.087609075
157	0x3e9629f1	0.29328874
158	0x3e86efe1	0.26354888
159	0xbe9fafd9	-0.3118885
160	0xbd3943bd	-0.045230616
161	0xbed092ca	-0.4073699
162	0xbe533fdf	-0.20629834
163	0x3f06bf90	0.5263605
164	0x3ecf11e6	0.40443343
165	0xbe66bf9e	-0.22534034
166	0x3d50d4e7	0.05098429
167	0xbefddae3	-0.4958106
168	0x3eee1a96	0.46504658
169	0xbd7d1edf	-0.06179702
170	0x3e592602	0.21205905
171	0x3e47460e	0.19460317
172	0x3cbdcfe9	0.023170428
173	0xbd3c0cf6	-0.045910798
174	0xbe3a9f0a	-0.18224731
175	0xbcb6b82e	-0.02230462
176	0xbe842c22	-0.2581492
177	0x3dccb4c8	0.09995419
178	0xbecc8ce1	-0.39951232
179	0x3d1f66dc	0.038916454
180	0x3e58e989	0.21182837
181	0xbd9f797a	-0.07786842
182	0x3f2ad312	0.6672832
183	0x3e594b5c	0.21220154
184	0x3e8f6c49	0.28012303
185	0xbe69014b	-0.227544
186	0xbd6a5cdf	-0.057217475
187	0x3da8096f	0.08204924
188	0x3d7de612	0.06198699
189	0xbf00457a	-0.5010601
190	0x3ece7161	0.40320876
191	0x3e9dae49	0.30797032
192	0x3d9f51f1	0.07779301
193	0x3f2035d9	0.62582165
194	0xbe97637e	-0.29568094
195	0xbe57a4d5	-0.21058972
196	0xbef97618	-0.4872291
197	0xbf0f6c04	-0.56024194
198	0x3e1b0cde	0.15141627
199	0x3dce9acb	0.10088118
200	0x3dd5fbe4	0.10448435
201	0xbdb69fd2	-0.08917202
202	0xbeb96fac	-0.3621801
203	0xbe9de7a8	-0.30840802
204	0x3da7c8f8	0.081926286
205	0x3dc496d9	0.095990844
206	0xbe66f161	-0.22553016
207	0xbecdaf60	-0.40172863
208	0x3e292282	0.1651707
209	0x3e90c924	0.28278458
210	0x3d5ebb42	0.0543778
211	0xbddb0f07	-0.106962256
212	0xbd7ab751	-0.06120998
213	0xbeceb266	-0.40370482
214	0x3f1f70df	0.622816
215	0xbe873671	-0.26408723
216	0xbebed5a8	-0.37272382
217	0x3ed6fc08	0.4198916
218	0xbda21115	-0.079134144
219	0x3f17dac7	0.593182
220	0xbe8942c7	-0.2680876
221	0xbe747af7	-0.23875032
222	0xbe29ce83	-0.16582684
223	0x3e35ca57	0.17752968
224	0x3f0cfd5e	0.5507411
225	0x3d602a78	0.054728
226	0x3cb96d75	0.022635201
227	0xbe3a818c	-0.1821348
228	0x3f2d1c4b	0.67621297
229	0x3cc03f26	0.023467612
230	0x3cb3798f	0.02190855
231	0xbec47df8	-0.38377357
232	0x3f1da22e	0.6157559
233	0x3e8838b6	0.26605767
234	0xbe9f022a	-0.3105634
235	0xbec11592	-0.3771177
236	0x3eb8ce5d	0.36094943
237	0xbeacef7a	-0.33776456
238	0xbeca5193	-0.3951536
239	0x3f0d0261	0.55081755
240	0xbce6242b	-0.028093418
241	0xbd6c01ed	-0.057619024
242	0x3d53205d	0.051544536
243	0x3e7a9078	0.24469173
244	0x3e06722f	0.13129495
245	0x3e3b7b19	0.18308677
246	0x3e17a6b9	0.14809693
247	0xbdb16320	-0.08661485
248	0xbc92a85f	-0.017902551
249	0x3c318ba0	0.010836512
250	0x3ee664f8	0.44998908
251	0xbdc0c530	-0.094126105
252	0x3e3029fe	0.17203519
253	0xbda9696d	-0.082720615
254	0xbea55ad4	-0.3229586
255	0x3c6b625e	0.014366714

fc.bias f4 [18]
0	0xbdd6cec3	-0.104886554
1	0xbc8e0abc	-0.017339103
2	0xbe90ba9e	-0.28267378
3	0xbd1ded8c	-0.03855662
4	0xbdcf8bde	-0.101340994
5	0xbd3ff19a	-0.04686127
6	0x3c5c4704	0.013444666
7	0x3de9ad76	0.11410038
8	0xbe14f6ce	-0.14547274
9	0x3cc7bcfa	0.024382103
10	0xbdabff45	-0.08398298
11	0x3d7ca01d	0.061676133
12	0x3e098926	0.13431224
13	0xbd57fcd9	-0.05273137
14	0x3c9ac229	0.01889141
15	0x3dedaa5a	0.116047576
16	0x3c8b13b2	0.016977165
17	0x3d297385	0.041369934
