01_rnn/logs/RNN/RNN_epoch_40_acc_0.8027.pth (torch, 107761 bytes, 6 tensors)

rnn.weight_ih_l0 f4 [128, 57]
-0.55017966 -0.23640074 -0.3436693 0.009987684 0.2196769 -0.06937694 0.13803029 0.18962425
-0.1213008 -0.007884882 0.44366053 0.2629506 -0.3684804 0.25736046 -0.47540548 0.36789474
0.3964189 0.4074033 -0.0090385815 0.54253745 0.06536319 0.6192292 0.3629685 0.24994935
-0.47326234 -0.42345482 0.16928127 0.0395743 -0.17616054 -0.16511331 -0.15750675 0.0056632548
-0.00621506 -0.088531174 -0.059912 -0.0058966293 0.020812726 0.24589026 -0.021868873 -0.041975114
-0.25790447 0.2550517 -0.20320429 -0.020880694 -0.15342355 -0.0038542 -0.009208674 0.0687822
0.13828911 -0.30430973 -0.038933016 -0.12323248 -0.14617777 -0.06116348 0.054837808 -0.040437207
-0.4681058 0.46953315 0.39393175 0.090789646 0.022839589 -0.043881007 -0.019182373 0.2580794
0.12835069 0.25415504 -0.1862796 0.44427973 0.21641526 -0.20983163 -0.32838777 0.43399528
-0.15616438 -0.25551048 -0.2967789 -0.4116778 -0.27576235 -0.3434167 -0.28132278 0.02298835
-0.327494 -0.33891922 0.045646153 0.2084026 0.36351845 -0.13255285 0.055600606 0.3027313
-0.057617586 -0.24974605 0.0796158 0.094893806 0.050814036 0.07074412 0.18041044 -0.09608495
0.027901629 -0.004201589 0.06956632 -0.16802849 -0.05640595 -0.08852004 -0.09539948 -0.0376239
0.011021563 -0.13918796 -0.08228648 0.09155019 -0.050554104 -0.0056234635 0.06490002 -0.22065268
-0.020002143 -0.18099803 0.24741827 0.26890483 -0.15009226 0.32691264 -0.17267966 0.049935415
-0.45521477 -0.124562085 0.1971915 0.17028496 0.18779287 -0.13776685 -0.13183129 -0.27972758
-0.17336926 -0.22169338 -0.4936648 0.08867049 0.07169419 -0.034995917 0.117119536 -0.59577763
-0.063572936 -0.27846783 0.11838278 0.20900787 0.10375203 -0.025726445 0.04397368 0.13703087
-0.021541698 -0.07734851 -0.051603824 -0.020415911 0.2791211 0.09533247 0.055846017 -0.093969524
-0.12069097 0.059909515 0.050340313 -0.0074492972 0.06988805 -0.1102351 -0.009355678 0.04732813
0.034441635 0.0576297 -0.12281612 0.03158587 0.05809039 0.057924036 0.03396625 0.041414212
-0.10276296 -0.044574738 0.005613062 -0.014009978 0.1945412 0.15064293 -0.032681555 -0.16313553
0.5467062 -0.17028792 -0.46321484 0.30640957 -0.05692379 -0.023263818 0.38357294 -0.05941699
-0.29877952 0.015608096 0.21637936 -0.09218367 0.34057686 -0.09986706 -0.106336154 0.07639215
-0.42752865 -0.07010158 0.5353531 -0.62529635 0.49925652 -0.3369632 0.045450997 0.3003161
0.055241667 -0.15978585 0.01616579 -0.02521862 0.0035520312 -0.08838955 0.15193267 0.024443952
0.13125198 -0.024677278 -0.102699585 -0.077872485 0.07610897 0.022765424 0.0058676717 -0.01787103
-7.963936e-05 -0.09029617 0.027088502 0.16939783 0.240712 0.0076878374 0.07333802 -0.25015056
0.009880878 -0.20726396 0.04836746 -0.17425074 0.013078386 0.13709952 -0.50312996 0.10304504
0.028187072 -0.11900036 -0.24863422 -0.33999088 0.28907117 -0.045002926 -0.02115919 -0.118429616
-0.27086112 -0.21346565 0.38875085 -0.15560323 -0.07311449 -0.22014938 0.05006427 0.24080473
-0.30932635 0.19280185 -0.24559577 -0.6159372 0.21073902 -0.19834189 -0.0035977296 0.12796994
00000000: 93d8 0cbf 0913 72be 6cf5 afbe 62a3 233c
00000010: fbf2 603e 7f15 8ebd d057 0d3e dc2c 423e
00000020: 8e6c f8bd 982f 01bc 7927 e33e 76a1 863e
00000030: 77a9 bcbe c0c4 833e 5968 f3be b35c bc3e
00000040: 6bf7 ca3e 2a97 d03e 8f16 14bc bce3 0a3f
00000050: 23dd 853d ce85 1e3f 02d7 b93e b9f2 7f3e
00000060: 714f f2be 12cf d8be 1258 2d3e a918 223d
00000070: 6e63 34be 7713 29be 7349 21be d392 b93b
00000080: b4a7 cbbb d54f b5bd 4966 75bd 8338 c1bb
00000090: 737f aa3c a8ca 7b3e 5a26 b3bc 19ee 2bbd
000000a0: 0e0c 84be 2396 823e c914 50be fd0d abbc
000000b0: 101b 1dbe bf96 7cbb fadf 16bc afdd 8c3d
000000c0: a99b 0d3e 7cce 9bbe 3a78 1fbd 4f61 fcbd
000000d0: a0af 15be 8f86 7abd 9c9d 603d 7ca1 25bd
000000e0: 90ab efbe a666 f03e 6cb1 c93e ecef b93d
000000f0: 171a bb3c 92bc 33bd 5a24 9dbc fc22 843e
00000100: 5d6e 033e 9c20 823e 14c0 3ebe a278 e33e
00000110: f69b 5d3e 1ade 56be 7122 a8be a134 de3e
00000120: 8ee9 1fbe 45d2 82be 67f3 97be 6fc7 d2be
00000130: b930 8dbe 50d4 afbe 8a09 90be 1052 bc3c
00000140: 4bad a7be d286 adbe 76f7 3a3d 7e67 553e
00000150: 171f ba3e efbb 07be 76bd 633d 99ff 9a3e
00000160: 6b00 6cbd 6ebd 7fbe 9c0d a33d af57 c23d
00000170: 6122 503d 4be2 903d 84bd 383e 30c8 c4bd
00000180: f591 e43c 7cad 89bb c978 8e3d a90f 2cbe
00000190: ed09 67bd ff49 b5bd cd60 c3bd 851b 1abd
000001a0: c993 343c 4a87 0ebe d085 a8bd aa7e bb3d
000001b0: d211 4fbd 0845 b8bb 4dea 843d c7f2 61be
000001c0: 89db a3bc 8c57 39be 375b 7d3e e5ad 893e
000001d0: c9b1 19be 1861 a73e f0d2 30be 1489 4c3d
000001e0: e911 e9be 681a ffbd 92ec 493e 2e5f 2e3e
000001f0: c64c 403e c112 0dbe c8fe 06be 7438 8fbe
00000200: b687 31be 9703 63be a2c1 fcbe e098 b53d
00000210: 67d4 923d e157 0fbd 5edc ef3d e284 18bf
00000220: 8732 82bd 5693 8ebe ac72 f23d 2906 563e
00000230: f27b d43d 44c0 d2bc bf1d 343d d251 0c3e
00000240: 3778 b0bc e568 9ebd 885e 53bd 453f a7bc
00000250: f6e8 8e3e ac3d c33d cbbe 643d 1873 c0bd
00000260: d42c f7bd ae63 753d a531 4e3d 3c19 f4bb
00000270: 7721 8f3d f1c2 e1bd 8f48 19bc 24db 413d
00000280: ac12 0d3d 1f0d 6c3d 0587 fbbd 2f60 013d
00000290: 30f0 6d3d c141 6d3d 3220 0b3d f3a1 293d
000002a0: 6375 d2bd 0094 36bd c7ed b73b 1b8a 65bc
000002b0: cf35 473e 2442 1a3e 18dd 05bd 000d 27be
000002c0: f0f4 0b3f f55f 2ebe 7f2a edbe b7e1 9c3e
000002d0: ec28 69bd c393 bebc ac63 c43e 3b5f 73bd
000002e0: a1f9 98be 19b9 7f3c 8d92 5d3e cbca bcbd
000002f0: 1760 ae3e 1a87 ccbd c5c6 d9bd 7d73 9c3d
00000300: 09e5 dabe 6b91 8fbd e70c 093f 6c13 20bf
00000310: 8d9e ff3e 7186 acbe d32a 3a3d 08c3 993e
00000320: 1645 623d e79e 23be 1e6e 843c 4897 cebc
00000330: 32c9 683b 9505 b5bd 3d94 1b3e af3e c83c
00000340: eb66 063e 0128 cabc 2954 d2bd 9c7b 9fbd
00000350: 05df 9b3d 8e7e ba3c 9945 c03b 4466 92bc
00000360: 0e04 a7b8 33ed b8bd b5e8 dd3c a076 2d3e
00000370: 357d 763e 41ea fb3b 3e32 963d bc13 80be
00000380: 68e3 213c 013d 54be f51c 463d c96e 32be
00000390: ba46 563c d163 0c3e 20cd 00bf 4709 d33d
000003a0: 93e8 e63c 76b6 f3bd f899 7ebe 4913 aebe
000003b0: 2301 943e fd54 38bd 0a56 adbc 3a8b f2bd
000003c0: 4fae 8abe bd96 5abe 5a0a c73e 7456 1fbe
000003d0: 0dbd 95bd d76e 61be 3110 4d3d 8495 763e
000003e0: 0660 9ebe d96d 453e 757d 7bbe 0fae 1dbf
000003f0: f8cb 573e 231a 4bbe e3c7 6bbb 8d0a 033e

rnn.weight_hh_l0 f4 [128, 128]
0.08779852 0.04396068 -0.021284195 -0.03168543 -0.07526077 -0.006651844 0.035270017 -0.090406604
0.073288664 0.06519452 0.06678939 -0.13092215 -0.13532636 -0.09164505 -0.05228223 0.024579674
-0.040981792 0.06664707 -0.034475155 0.0780463 0.02705962 0.02224508 0.035758097 -0.03110894
-0.0066297874 -0.038093314 0.003984205 0.22943129 -0.13368213 0.18314229 0.020888811 0.0025911122
-0.036383294 0.011700646 -0.020969378 -0.18113264 0.11597633 -0.069597766 -0.04197225 0.047971316
0.082242444 -0.05849475 0.13195275 -0.039368488 -0.015105616 -0.09390759 -0.09957211 -0.03274096
-0.02594115 0.050217036 -0.068788916 0.028863652 -0.09766627 -0.0387065 -0.016429782 0.015213681
0.11790945 0.04735984 0.1260591 0.09318503 -0.056699775 -0.053816322 -0.056846276 -0.12512715
-0.00041465735 0.1102949 -0.19321951 0.060656287 -0.07310071 0.0064051626 0.04267094 -0.15493403
0.122577146 0.08665502 0.12736814 -0.045727663 -0.05528847 0.007103882 0.09158098 -0.021538112
0.011395875 -0.040212624 0.005716325 -0.1475757 -0.020971008 -0.13706774 0.050923873 0.10842331
0.011592878 0.043677967 -0.10313776 -3.110196e-05 0.098054715 -0.12232584 0.04431782 0.009314854
0.13998812 0.12117838 0.06963794 0.023563258 0.034425564 -0.043091465 -0.033260852 0.08145965
0.09745688 -0.13321336 0.022169024 0.018018704 0.07144353 0.04443982 0.16854332 0.128177
-0.058846664 0.043561306 -0.011413296 -0.035897613 -0.01492846 0.06480305 -0.005400909 -0.14302981
0.069866024 -0.14590137 0.042285133 -0.007853137 -0.03884215 -0.17485116 0.042244118 0.040203385
-0.03827612 0.041135386 0.053916197 -0.1475187 0.0791876 0.026136538 0.0034169 0.019834489
-0.1341204 0.11278294 0.0013138346 0.0029402247 0.099236034 -0.022669064 0.019795245 -0.012351304
-0.052868344 0.069294125 0.049068477 0.009498538 0.0014594735 -0.057080336 -0.014770018 0.07823206
0.07614631 0.13022962 -0.0003140178 -0.08605665 -0.0014364674 0.06300564 -0.012065413 0.012895146
-0.16797213 0.1409346 -0.14723869 -0.016283281 -0.101440035 -0.094507754 -0.032212194 0.07957149
0.023401637 -0.020135053 0.0024378651 0.11592922 0.09146823 0.028417373 -0.11061917 0.062462624
-0.022127133 -0.11403943 0.15378293 -0.06494554 0.007836711 0.10525617 0.020479731 -0.121520616
0.079522565 -0.04689171 0.029549142 -0.043399956 -0.12390692 -0.027991753 0.106793724 0.023492478
0.04889432 -0.029043747 0.07821733 -0.008591338 -0.003951232 -0.1443721 0.038055077 -0.16162306
0.13924284 0.021680985 0.055992026 0.043776266 0.17246774 -0.012821661 0.083367266 -0.080683716
-0.21438551 -0.0029842267 0.0130754635 0.06712425 -0.1095558 -0.074112184 -0.07077045 0.033741266
-0.07332827 0.051807076 0.16789497 0.09207471 -0.025125429 0.13020638 -0.018899955 0.06598051
0.055944517 -0.100283116 -0.04372795 0.11664652 -0.018328644 0.042128906 0.04888889 -0.11797957
0.13141663 -0.104998216 0.097632304 0.061830513 -0.0032306705 0.10426063 -0.17549485 0.19924004
-0.054081324 -0.14174047 -0.10262048 0.047959317 -0.083885536 0.13047212 0.03127185 -0.050820526
-0.0904778 -0.063175224 -0.04736242 0.0638548 0.18745948 -0.13316846 0.019518146 0.084142104
00000000: b6cf b33d 1d10 343d 315c aebc 95c8 01bd
00000010: 5222 9abd b6f7 d9bb 4b77 103d 1927 b9bd
00000020: 5e18 963d b484 853d e0c8 883d 7510 06be
00000030: fe92 0abe 66b0 bbbd e425 56bd 505b c93c
00000040: 86dc 27bd 427e 883d d235 0dbd bdd6 9f3d
00000050: 23ac dd3c 503b b63c 1577 123d 2dd8 febc
00000060: b03e d9bb bc07 1cbd ef8d 823b 09f0 6a3e
00000070: f8e3 08be a789 3b3e 031f ab3c a6cf 293b
00000080: a606 15bd 11b4 3f3c f9c7 abbc d67a 39be
00000090: 0085 ed3d 4689 8ebd 18eb 2bbd 927d 443d
000000a0: ba6e a83d 3198 6fbd 9f1e 073e da40 21bd
000000b0: 8c7d 77bc 9f52 c0bd 76ec cbbd 631b 06bd
000000c0: 8982 d4bc 61b0 4d3d 34e1 8cbd 7773 ec3c
000000d0: 4105 c8bd b58a 1ebd c097 86bc ce42 793c
000000e0: 827a f13d 64fc 413d a315 013e cbd7 be3d
000000f0: 063e 68bd 816e 5cbd a4d7 68bd 5521 00be
00000100: 5e66 d9b9 4be2 e13d 56db 45be ba72 783d
00000110: d3b5 95bd 66e2 d13b b9c7 2e3d 07a7 1ebe
00000120: ba09 fb3d 3078 b13d cb6c 023e ee4c 3bbd
00000130: 2a76 62bd aec7 e83b cf8e bb3d b270 b0bc
00000140: c4b5 3a3c feb5 24bd 0250 bb3b 161e 17be
00000150: 64cb abbc 7c5b 0cbe 8d95 503d 0a0d de3d
00000160: 0ef0 3d3c abe7 323d e439 d3bd 7a73 02b8
00000170: e9d0 c83d f885 fabd 9a86 353d 549d 183c
00000180: 0c59 0f3e 5f2c f83d 569e 8e3d bc07 c13c
00000190: d201 0d3d ad80 30bd 883c 08bd 51d4 a63d
000001a0: 7997 c73d 1569 08be d09b b53c f69b 933c
000001b0: fc50 923d 8706 363d 9f96 2c3e d540 033e
000001c0: 3309 71bd 576d 323d d5fe 3abc 6009 13bd
000001d0: 8096 74bc 76b7 843d 1cfa b0bb 6876 12be
000001e0: eb15 8f3d 2b67 15be 2d33 2d3d 72aa 00bc
000001f0: f218 1fbd 2f0c 33be 2b08 2d3d 4eac 243d
00000200: 6cc7 1cbd 947d 283d 3bd7 5c3d 240f 17be
00000210: 1c2d a23d 4b1c d63c 12ee 5f3b f07b a23c
00000220: dc56 09be befa e63d f934 ac3a c9b0 403b
00000230: 433c cb3d 79b4 b9bc a329 a23c 205d 4abc
00000240: 7a8c 58bd 14ea 8d3d 07fc 483d c29f 1b3c
00000250: ce4b bf3a 12cd 69bd f2fd 71bc 2138 a03d
00000260: 99f2 9b3d ea5a 053e c1a2 a4b9 783e b0bd
00000270: d947 bcba 1a09 813d 03ae 45bc 2a46 533c
00000280: e300 2cbe 2951 103e bdc5 16be 8464 85bc
00000290: cbbf cfbd 488d c1bd eff0 03bd 61f6 a23d
000002a0: cab4 bf3c 44f2 a4bc 97c4 1f3b 4d6c ed3d
000002b0: b253 bb3d 8dcb e83c 4e8c e2bd cfd8 7f3d
000002c0: f643 b5bc 818d e9bd 4679 1d3e 2b02 85bd
000002d0: 8c65 003c 8c90 d73d 1cc5 a73c cddf f8bd
000002e0: badc a23d 8611 40bd 0b11 f23c 27c4 31bd
000002f0: e9c2 fdbd f64e e5bc abb6 da3d 4c73 c03c
00000300: 6945 483d 27ed edbc 6830 a03d afc2 0cbc
00000310: 5679 81bb 48d6 13be a4df 1b3d 8480 25be
00000320: ad95 0e3e 529c b13c e557 653d be4e 333d
00000330: 629b 303e f211 52bc 75bc aa3d 813d a5bd
00000340: e087 5bbe 0493 43bb 783a 563c 7078 893d
00000350: cb5e e0bd 21c8 97bd 19f0 90bd 4834 0a3d
00000360: 222d 96bd a833 543d a9ec 2b3e aa91 bc3d
00000370: d8d3 cdbc d254 053e 14d4 9abc ca20 873d
00000380: 1426 653d 3c61 cdbd 141c 33bd 5fe4 ee3d
00000390: f425 96bc 5c8f 2c3d b73f 483d 469f f1bd
000003a0: 1592 063e 4e09 d7bd 72f3 c73d fe41 7d3d
000003b0: a8b9 53bb 9986 d53d ecb4 33be 9505 4c3e
000003c0: 6184 5dbd 6a24 11be b02a d2bd fd70 443d
000003d0: 2ecc abbd 7c9a 053e e916 003d 2f29 50bd
000003e0: 6d4c b9bd 0362 81bd 19ff 41bd 4ec6 823d
000003f0: 61f5 3f3e 505d 08be 85e4 9f3c b252 ac3d

rnn.bias_ih_l0 f4 [128]
-0.047541935 -0.023090258 -0.11977479 0.0064585125 -0.046833687 0.012135499 -0.020304948 -0.025831444
-0.006803875 -0.015120676 0.10101428 0.05952519 -0.027808743 0.04864378 0.0088926 0.11509544
0.08777037 0.004600319 -0.078902945 -0.01724639 -0.027071932 0.0055488907 0.003215368 -0.050030597
-0.07334099 -0.017635863 -0.038328864 0.10027961 -0.011178131 0.053351637 0.009715837 0.07753956
-0.088654734 -0.0055165207 0.06816019 -0.10864024 -0.07372123 -0.043862466 0.09506809 -0.0019532877
-0.0019026969 -0.024782566 0.07101306 0.082138516 0.003573993 -0.08341381 0.010716423 0.0454966
-0.079092994 0.042885244 -0.070754305 0.0011640816 -0.0061393115 0.007161757 -0.0298592 0.083684504
0.06723308 -0.063548714 0.05118441 0.0714274 -0.039636187 -0.053945217 -0.026766531 0.057711292
0.08016775 0.05873253 0.07781543 0.020227818 0.005938119 0.077368185 0.053121455 -0.07005791
-0.021104435 -0.05338102 -0.06461323 -0.027138684 0.011994474 -0.016751278 0.07251541 0.068553954
-0.0509746 0.0296075 -0.023384536 0.041328028 -0.002820238 -0.030422408 0.047941193 -0.03883656
0.013089496 -0.06293707 0.0006634819 -0.02248912 -0.001949891 0.0072353296 -0.027134888 0.067627564
-0.0033545545 -0.0109732095 0.0015954188 -0.037405398 -0.107961826 -0.06877714 0.00822909 -0.01712559
-0.069979146 0.004701212 0.0941401 0.028559912 0.020752994 0.033638526 -0.0046359 -0.0004507997
0.05289117 -0.056838855 0.058606397 -0.06474601 0.06690095 0.06294859 -0.08283849 0.03196893
-0.02434989 -0.013594176 0.04421581 0.028069513 0.06249346 -0.07653012 0.080011785 -0.07207482
00000000: 55bb 42bd c827 bdbc 7c4c f5bd eea1 d33b
00000010: aed4 3fbd f9d3 463c 9056 a6bc 779c d3bc
00000020: 0af3 debb b6bc 77bc 93e0 ce3d b0d0 733d
00000030: 29cf e3bc b33e 473d 45b2 113c 28b7 eb3d
00000040: f4c0 b33d 46be 963b de97 a1bd 4d48 8dbc
00000050: f5c5 ddbc 78d3 b53b ecb8 523b e2ec 4cbd
00000060: cd33 96bd 1679 90bc bafe 1cbd 655f cd3d
00000070: 7b24 37bc 3f87 5a3d 2d2f 1f3c 10cd 9e3d
00000080: 9d90 b5bd eec3 b4bb 9297 8b3d c67e debd
00000090: 28fb 96bd 21a9 33bd 0fb3 c23d bb02 00bb
000000a0: ea63 f9ba cf04 cbbc 4c6f 913d 3d38 a83d
000000b0: a739 6a3b dcd4 aabd f093 2f3c a55a 3a3d
000000c0: 82fb a1bd 70a8 2f3d a2e7 90bd 1994 983a
000000d0: 472c c9bb 2cad ea3b 489b f4bc c862 ab3d
000000e0: 7fb1 893d d425 82bd bea6 513d 8748 923d
000000f0: 8e59 22bd a9f5 5cbd 7c45 dbbc ad62 6c3d
00000100: fd2e a43d 8591 703d b25d 9f3d cfb4 a53c
00000110: 8d94 c23b 3673 9e3d e295 593d 867a 8fbd
00000120: 35e3 acbc 0ea6 5abd f153 84bd f251 debc
00000130: 7884 443c fa39 89bc f682 943d 0466 8c3d
00000140: beca 50bd 6e8b f23c ed90 bfbc 9447 293d
00000150: bed3 38bb 6a38 f9bc fc5d 443d 1613 1fbd
00000160: 5375 563c 27e5 80bd 84ed 2d3a 1a3b b8bc
00000170: 7c93 ffba 5816 ed3b fc49 debc 5280 8a3d
00000180: 16d8 5bbb fac8 33bc 5f1d d13a 6736 19bd
00000190: 171b ddbd 07db 8cbd 4ed3 063c f74a 8cbc
000001a0: 3a51 8fbd a00c 9a3b 86cc c03d 7af6 e93c
000001b0: 2f02 aa3c 8dc8 093d bfe8 97bb 5059 ecb9
000001c0: 69a4 583d dccf 68bd 430d 703d 8e99 84bd
000001d0: 5e03 893d 31eb 803d 3aa7 a9bd daf1 023d
000001e0: 6c79 c7bc 1bba 5ebc a31b 353d 09f2 e53c
000001f0: 24f9 7f3d d3bb 9cbd 38dd a33d f79b 93bd

rnn.bias_hh_l0 f4 [128]
0.07475829 0.066062815 -0.0914753 -0.04722502 0.00285696 0.02835045 -0.0447006 0.006410473
-0.07979256 -0.047569674 -0.04740438 -0.043193202 0.08635799 0.041513275 0.084473215 0.0075182677
0.059991196 0.04701802 -0.05893266 0.009404767 -0.03717287 0.01520501 0.023367548 0.028147804
0.068909764 -0.027860293 0.08442342 0.08026129 0.03387941 0.027294291 -0.012084006 0.009874122
0.022564083 -0.080222115 -0.04929385 -0.0646296 -0.031786606 0.012616541 -0.045320094 -0.03158269
0.06360793 0.060198314 0.020863963 -0.04667656 -0.057694618 0.0766631 -0.011897182 0.055535812
-0.08096076 -0.034828454 -0.080649875 0.055365574 -0.02093534 -0.04582625 -0.01277856 -0.014959862
-0.039351992 -0.021946479 -0.011376789 0.093809105 -0.00414775 0.055943884 0.049530726 -0.03662967
0.07766567 0.0489999 -0.025219327 -0.06399395 -0.001734872 0.035893183 -0.06624584 -0.06861143
0.043470323 0.0151398815 0.040555686 -0.087038465 -0.06603514 0.10732667 0.08445301 0.08776991
-0.03573037 0.042843703 0.061386093 0.03267443 -0.017434292 0.09088219 0.08328933 0.053296577
-0.071762405 0.01877454 -0.0539501 -0.02173519 0.045815155 -0.0035213104 -0.0897026 -0.060758308
0.07865735 0.09964644 0.065972574 -0.073803835 -0.058857355 0.061231297 -0.029854497 -0.04364014
-0.0059230137 0.024944376 0.0053148684 -0.026441395 -0.049024183 -0.042277656 0.05836993 -0.071941
-0.021648087 0.026775487 0.0019437964 -0.020710744 -0.065496966 0.08139402 0.039473 0.027537022
0.020353472 -0.08707079 -0.01521149 -0.054805983 -0.047524042 -0.06883328 -0.0033691549 0.07112154
00000000: e01a 993d f14b 873d 6757 bbbd 066f 41bd
00000010: d63b 3b3b 343f e83c fa17 37bd f20e d23b
00000020: 486a a3bd 6bd8 42bd 182b 42bd 5beb 30bd
00000030: 75dc b03d d309 2a3d 4b00 ad3d cd5b f63b
00000040: 54b9 753d f895 403d 5f63 71bd 7416 1a3c
00000050: 9442 18bd 6f1e 793c 4d6d bf3c 3996 e63c
00000060: 9020 8d3d 453b e4bc 30e6 ac3d 0860 a43d
00000070: 23c5 0a3d 4798 df3c fffb 45bc 12c7 213c
00000080: 50d8 b83c 7e4b a4bd 59e8 49bd 865c 84bd
00000090: ac32 02bd 9cb5 4e3c 90a1 39bd da5c 01bd
000000a0: e044 823d 8292 763d e7ea aa3c ec2f 3fbd
000000b0: 3151 6cbd 8b01 9d3d 66ec 42bc 8579 633d
000000c0: c1ce a5bd 48a8 0ebd c32b a5bd 03c7 623d
000000d0: 9780 abbc 4eb4 3bbd 2a5d 51bc 361a 75bc
000000e0: 8e2f 21bd 1ac9 b3bc b665 3abc fd1e c03d
000000f0: d9e9 87bb 6a25 653d bbe0 4a3d fe08 16bd
00000100: 2e0f 9f3d 1fb4 483d c398 cebc 430f 83bd
00000110: a564 e3ba bb04 133d e6ab 87bd 2684 8cbd
00000120: f00d 323d 440d 783c b81d 263d 3941 b2bd
00000130: 6e3d 87bd 16ce db3d b3f5 ac3d b6c0 b33d
00000140: 025a 12bd e17c 2f3d fc6f 7b3d a0d5 053d
00000150: 5cd2 8ebc 7120 ba3d 9993 aa3d 834d 5a3d
00000160: 2bf8 92bd 10cd 993c c8fa 5cbd ff0d b2bc
00000170: aca8 3b3d c9c5 66bb ffb5 b7bd b4dd 78bd
00000180: 1b17 a13d 6f13 cc3d a11c 873d 7726 97bd
00000190: 6914 71bd abcd 7a3d 6b91 f4bc 01c0 32bd
000001a0: d715 c2bb 2658 cc3c 5928 ae3b a09b d8bc
000001b0: 95cd 48bd 562b 2dbd 4f15 6f3d ce55 93bd
000001c0: 5457 b1bc 4458 db3c fcc6 fe3a 94a9 a9bc
000001d0: 4623 86bd e8b1 a63d 71ae 213d 5295 e13c
000001e0: 53bc a63c 2c52 b2bd 9d39 79bc 3d7c 60bd
000001f0: 92a8 42bd 76f8 8cbd 0acd 5cbb 2ca8 913d

fc.weight f4 [18, 128]
-0.20808193 0.36382776 -0.045935746 0.21905842 0.32633182 -0.22697075 -0.23116456 -0.15673192
-0.3636085 -0.22815923 -0.12820423 -0.17394711 -0.23465043 -0.090689175 -0.20557733 -0.021278622
-0.37282217 -0.18258408 0.1237274 0.027322613 -0.19338073 0.32538062 0.39042866 0.10596976
-0.54559493 0.02799333 -0.074979916 0.019125367 -0.13360834 -0.024827281 -0.013381022 0.06511772
0.49875265 0.4092127 0.21370392 -0.11474873 0.09449778 0.52743435 -0.1546045 -0.16212052
-0.14449522 -0.31820735 -0.47375527 -0.048496872 -0.35866162 0.009082933 -0.21552432 0.07808073
-0.030581923 -0.11648749 0.29724762 -0.0042297626 -0.44645053 0.09224586 -0.03640435 -0.3108475
-0.1960779 -0.11422719 0.08998886 -0.037035182 -0.1927751 0.21994482 0.030103397 0.17031537
-0.5791686 0.0051742964 0.033477012 -0.020317903 0.088818334 0.33657268 0.13251132 0.1672159
-0.037937522 0.15940431 0.2982737 -0.23119487 0.28037187 0.07086948 -0.05884406 0.02646524
0.027437825 -0.004802416 -0.003596666 0.41557837 -0.1302298 -0.11044933 -0.4052432 0.20663363
-0.5299636 -0.54386127 -0.04412749 -0.10459139 -0.16685872 0.0021070032 0.2740747 -0.13298936
-0.28760907 0.393201 0.3417136 -0.012201273 -0.68819267 0.0153432395 -0.18828182 0.41816652
0.34701484 0.19205552 -0.4406219 0.27756512 -0.065298244 0.1441088 0.24263418 -0.16142766
-0.044122145 -0.27064836 0.03754226 0.014923597 -0.053807262 -0.15022375 -0.20183022 -0.083268836
0.06664361 -0.07017548 -0.06545561 0.023974653 0.21362786 0.33339304 -0.06803312 -0.14702776
0.1792651 -0.057575066 -0.09550849 -0.32036284 0.08213257 0.24093607 0.27476957 -0.15719831
0.14718719 -0.07033607 -0.16903181 0.16418871 0.22933027 0.028448414 0.0057325796 -0.10939143
0.1895907 -0.05926038 -0.10134318 0.26317954 0.1657873 -0.013104017 -0.33904004 0.12289863
-0.09374371 -0.085909374 0.05841715 0.10493802 0.13815214 0.20753926 0.17478319 -0.19401212
-0.080977 -0.26326346 -0.10633359 0.29864228 0.27903402 -0.07794182 0.006705413 -0.28515047
0.3070238 -0.021044422 0.2966659 0.0679915 0.049176466 -0.06686002 -0.11750809 -0.022857929
-0.096447416 0.0998687 -0.18769266 0.0799185 0.18270637 -0.16344206 0.36843577 0.15850632
0.13399376 -0.14832155 -0.017436448 0.07454969 0.06373941 -0.3672014 0.26908088 0.20163284
0.0009366585 0.3654855 -0.19575623 -0.16062687 -0.26416683 -0.34264365 0.10500506 0.07734126
0.034614764 -0.0083573265 -0.2421516 -0.2289201 0.0025004917 0.058998466 -0.09572742 -0.22694236
0.06485829 0.12067548 0.07208283 -0.16181566 -0.016431207 -0.26496226 0.40950003 -0.1771036
-0.14953008 0.27089185 -0.0050578928 0.429348 -0.16200541 -0.17617916 -0.07580627 0.05889077
0.33433133 0.082921565 0.0034127 -0.11381946 0.5062718 0.0974974 0.07617195 -0.18313536
0.28696483 0.08427922 -0.1640706 -0.19938785 0.18580434 -0.18124823 -0.28878745 0.35035723
-0.024980303 -0.06874123 0.0859492 0.15746933 0.098555416 0.063970834 0.04937263 -0.08260491
-0.0790437 0.03937654 0.21715446 -0.038132362 0.11883297 -0.07660462 -0.25864896 0.004968826
00000000: 6e13 55be a247 ba3e 1f27 3cbd da50 603e
00000010: f714 a73e 056b 68be 67b6 6cbe 557e 20be
00000020: e52a babe 93a2 69be f847 03be 311f 32be
00000030: 3448 70be 3fbb b9bd dd82 52be 8150 aebc
00000040: 8ce2 bebe 52f7 3abe cb64 fd3d acd3 df3c
00000050: 9905 46be 4a98 a63e 44e6 c73e ac06 d93d
00000060: 1cac 0bbf 4552 e53c 128f 99bd cdac 9c3c
00000070: a0d0 08be 9562 cbbc 133c 5bbc 705c 853d
00000080: 825c ff3e 5484 d13e 33d5 5a3e 6201 ebbd
00000090: 0d88 c13d f005 073f a450 1ebe ec02 26be
000000a0: 8ef6 13be 13ec a2be 0d90 f2be a8a4 46bd
000000b0: 7fa2 b7be 95d0 143c 68b2 5cbe cae8 9f3d
000000c0: f186 fabc fe90 eebd d730 983e d299 8abb
000000d0: 2a95 e4be 66eb bc3d ba1c 15bd 6727 9fbe
000000e0: a5c8 48be f2ef e9bd 144c b83d 34b2 17bd
000000f0: d666 45be 3739 613e 669b f63c 2767 2e3e
00000100: 6544 14bf 258d a93b 311f 093d bb71 a6bc
00000110: 63e6 b53d 4153 ac3e 0cb1 073e a53a 2b3e
00000120: 6064 1bbd e23a 233e 55b7 983e 59be 6cbe
00000130: e78c 8f3e 0524 913d 7806 71bd a2cd d83c
00000140: 4ac5 e03c 965d 9dbb 0bb6 6bbb b0c6 d43e
00000150: f65a 05be 4233 e2bd 097c cfbe c497 533e
00000160: b2ab 07bf 7e3a 0bbf 07bf 34bd 0334 d6bd
00000170: 03dd 2abe a615 0a3b 8553 8c3e 5d2e 08be
00000180: 7f41 93be a451 c93e 16f5 ae3e d9e7 47bc
00000190: 652d 30bf 3662 7b3c f3cc 40be ec19 d63e
000001a0: eeab b13e 34aa 443e 3299 e1be 041d 8e3e
000001b0: 16bb 85bd 4291 133e 1875 783e 4b4d 25be
000001c0: 6cb9 34bd 6c92 8abe eac5 193d 1a82 743c
000001d0: 0165 5cbd 41d4 19be 95ac 4ebe da88 aabd
000001e0: 727c 883d 29b8 8fbd 970d 86bd 7e66 c43c
000001f0: 43c1 5a3e 7eb2 aa3e f354 8bbd 728e 16be
00000200: 4591 373e d5d3 6bbd f599 c3bd 9906 a4be
00000210: 1f35 a83d f2b7 763e 99ae 8c3e 98f8 20be
00000220: 3db8 163e 5c0c 90bd ad16 2dbe 1621 283e
00000230: 8ed5 6a3e a60c e93c 5dd8 bb3b 9d08 e0bd
00000240: 1124 423e 03bb 72bd 038d cfbd 78bf 863e
00000250: 25c4 293e 3bb2 56bc a896 adbe 47b2 fb3d
00000260: b4fc bfbd 41f1 afbd d246 6f3d bfe9 d63d
00000270: c177 0d3e 2c85 543e 5dfa 323e 1dab 46be
00000280: 45d7 a5bd 78ca 86be 6dc5 d9bd a4e7 983e
00000290: 8cdd 8e3e f69f 9fbd 15b9 db3b 3eff 91be
000002a0: 3932 9d3e 5a65 acbc 98e4 973e 213f 8b3d
000002b0: 436d 493d e8ed 88bd 15a8 f0bd 8d40 bbbc
000002c0: 3986 c5bd f687 cc3d 8132 40be 4fac a33d
000002d0: 6117 3b3e 5b5d 27be 9da3 bc3e 7b4f 223e
000002e0: a935 093e 9be1 17be e2d6 8ebc 82ad 983d
000002f0: cf89 823d d201 bcbe f8c4 893e d778 4e3e
00000300: 178a 753a ea20 bb3e 5274 48be 5f7b 24be
00000310: e040 87be fd6e afbe e50c d73d 1865 9e3d
00000320: 36c8 0d3d 2bed 08bc 97f6 77be 086a 6abe
00000330: 4adf 233b 60a8 713d bd0c c4bd 9463 68be
00000340: 6cd4 843d b524 f73d 2aa0 933d 01b3 25be
00000350: bd9a 86bc 22a9 87be fda9 d13e a55a 35be
00000360: 6a1e 19be 56b2 8a3e aebc a5bb 80d3 db3e
00000370: bfe4 25be 4f68 34be 5140 9bbd 7337 713d
00000380: 7a2d ab3e c8d2 a93d 9ba7 5f3b 2d1a e9bd
00000390: 079b 013f b8ac c73d 0a00 9c3d d687 3bbe
000003a0: 0eed 923e 959a ac3d 2002 28be 542c 4cbe
000003b0: 7e43 3e3e 2399 39be f3db 93be 0662 b33e
000003c0: 7ea3 ccbc 34c8 8cbd 2206 b03d a43f 213e
000003d0: 6cd7 c93d 2403 833d f43a 4a3d c32c a9bd
000003e0: aae1 a1bd 4b49 213d bd5d 5e3e ae30 1cbd
000003f0: b35e f33d e2e2 9cbd a36d 84be 89d1 a23b

fc.bias f4 [18]
-0.059031513 -0.012051442 -0.088390335 -0.056561626 -0.14841564 -0.01867323 0.01990365 0.030572807
-0.06373471 0.007774045 -0.051628266 -0.045574572 0.08310453 -0.12160315 -0.01932423 0.14346273
0.009094429 -0.012003909
00000000: 07cb 71bd 6973 45bc fe05 b5bd 2aad 67bd
00000010: 45fa 17be 9af8 98bc fb0c a33c d373 fa3c
00000020: 5887 82bd 6bbd fe3b 2978 53bd 67ac 3abd
00000030: b532 aa3d 130b f9bd d94d 9ebc e5e7 123e
00000040: cd00 153c 0bac 44bc
