text_classify/logs/RNN/RNN_epoch_20_acc_0.7791.pth (torch, 107761 bytes, 6 tensors)

rnn.weight_ih_l0 f4 [128, 57]
0	0xbee12716	-0.43975133
1	0xbe8833b3	-0.26601943
2	0xbe458ab9	-0.192912
3	0xbdb26b75	-0.08711902
4	0x3e02ebb3	0.12785225
5	0x3b08d025	0.0020876017
6	0x3daadd09	0.0834294
7	0x3e0c61ec	0.13709229
8	0xbe274ce6	-0.16337928
9	0xbd8b9dee	-0.06817232
10	0x3ebd9c23	0.37033185
11	0x3e8ac6a7	0.27104685
12	0xbe943811	-0.28949025
13	0x3e8ac7cb	0.27105555
14	0xbebbd283	-0.36684045
15	0x3e74e1e9	0.23914303
16	0x3e0c75c2	0.13716796
17	0x3eaa3339	0.33242205
18	0x3c220415	0.009888669
19	0x3eb18ca4	0.34677613
20	0xbc5d7522	-0.013516696
21	0x3ee00893	0.43756542
22	0x3e5193cb	0.20466535
23	0x3e98482a	0.29742557
24	0xbe348d5f	-0.17632054
25	0xbee986a1	-0.45610526
26	0x3df0f1c0	0.1176486
27	0x3d1caf5b	0.03825317
28	0xbd9b2b77	-0.0757665
29	0xbd4da137	-0.050202575
30	0xbd8966b5	-0.06709043
31	0xbcf01a0c	-0.029309295
32	0xbd035745	-0.03206565
33	0xbd4820cc	-0.048859403
34	0xbcd790cf	-0.026314167
35	0xbd5c0ec1	-0.053725008
36	0x3cbe0f96	0.023200791
37	0x3df31881	0.11869908
38	0x3bae619c	0.0053216945
39	0xbd01c808	-0.031684905
40	0xbe52b583	-0.20577054
41	0x3dd1dc8e	0.102471456
42	0xbe93836b	-0.288112
43	0xbca11227	-0.019661976
44	0xbe333947	-0.17502318
45	0xbc1bac44	-0.009501521
46	0xbdef1084	-0.11673072
47	0x3d5966c5	0.053076524
48	0x3dbdeafe	0.09273337
49	0xbe588c04	-0.21147162
50	0x3da8b8ea	0.082383946
51	0xbcb9471c	-0.022616915
52	0xbe573f4d	-0.21020241
53	0xbd7db4ca	-0.061939992
54	0x3d2fe679	0.042944405
55	0xbd27bc03	-0.040950786
56	0xbe950657	-0.291064
57	0x3ee19287	0.44057104
58	0x3e79f6ec	0.244106
59	0x3d9a75e0	0.07542014
60	0xbdabe8cf	-0.08394014
61	0xbc5b1867	-0.013372517
62	0xbcd52e36	-0.026023012
63	0x3da93f73	0.08264055
64	0x3dcd24fb	0.10016819
65	0x3e6522ea	0.223766
66	0xbe324e56	-0.17412695
67	0x3ebbf96b	0.36713728
68	0x3dd8787c	0.105698556
69	0xbdb88a2c	-0.09010729
70	0xbe8edf37	-0.27904674
71	0x3eb06e46	0.34459132
72	0xbdfe48bf	-0.12416219
73	0xbe6e7195	-0.23285516
74	0xbe5cd293	-0.21564703
75	0xbea0ab49	-0.3138068
76	0xbe7afead	-0.24511214
77	0xbe4edd3d	-0.20201583
78	0xbe9729ea	-0.29524165
79	0xbc0cd4ea	-0.008595685
80	0xbe8a224b	-0.26979288
81	0xbe64a9cd	-0.22330399
82	0x3db58595	0.088633694
83	0x3e352783	0.17690854
84	0x3e84a101	0.25904086
85	0xbdeb3f1d	-0.11486647
86	0x3dc09dc3	0.09405091
87	0x3e5657b0	0.20931888
88	0xbc72b60a	-0.014813909
89	0xbe28bcc9	-0.16478266
90	0x3d54473e	0.051825754
91	0x3e2cf946	0.16891965
92	0x3d0d5af5	0.03451057
93	0xbc6e9e2b	-0.014564077
94	0x3e33f97e	0.17575642
95	0xbd8cd2b7	-0.06876128
96	0x3b64cf8f	0.0034913754
97	0xbb4567ad	-0.003012161
98	0x3da193f3	0.07889547
99	0xbe247866	-0.16061553
100	0x3c1f7a5b	0.009733762
101	0xbda0d12b	-0.078523956
102	0xbdbe6c6c	-0.092980236
103	0xbd369ccc	-0.044583127
104	0x3d2db9ae	0.042413406
105	0xbd58af96	-0.052901827
106	0xbe1f9fcf	-0.15588306
107	0x3d644cc3	0.05573727
108	0xbd8b6d38	-0.06807941
109	0xbd85fa50	-0.06541884
110	0x3d869a33	0.0657238
111	0xbe21e966	-0.1581169
112	0xbca5f086	-0.020256292
113	0xbeb20c54	-0.3477503
114	0x3e5b8d78	0.21440685
115	0x3e51cb60	0.20487738
116	0xbe0ba7ec	-0.13638276
117	0x3e82823f	0.25489995
118	0xbe0eeac8	-0.1395675
119	0x3bb1c06d	0.0054245503
120	0xbead5aaa	-0.33858234
121	0xbc298df6	-0.0103487875
122	0x3e551dfe	0.20812222
123	0x3e2fdf00	0.17174911
124	0x3da71251	0.081577905
125	0xbdc48528	-0.0959571
126	0xbd7d3da5	-0.061826367
127	0xbe929538	-0.2862947
128	0xbdc0d595	-0.094157375
129	0xbe6204e7	-0.22072183
130	0xbebb3387	-0.3656275
131	0x3d77e2e2	0.060519107
132	0x3de81004	0.1133118
133	0xbd02baa9	-0.031916294
134	0x3de85a3f	0.11345338
135	0xbefc5ede	-0.49291128
136	0xbbc8082b	-0.0061044893
137	0xbdc30c97	-0.09523886
138	0x3da9c15e	0.08288835
139	0x3e805fb5	0.2507302
140	0xbb100dae	-0.002198081
141	0xbca5d7d8	-0.020244524
142	0x3cb6affc	0.022300713
143	0x3d9578a5	0.07298402
144	0xbd3952ff	-0.045245167
145	0xbcc477aa	-0.023982842
146	0xbd407f88	-0.046996623
147	0xbb7768ec	-0.0037751747
148	0x3e48c250	0.19605374
149	0x3d8fb4aa	0.07016881
150	0x3c9e94ae	0.019358005
151	0xbd6aa375	-0.05728479
152	0xbd525395	-0.05134924
153	0x3d7be604	0.061498657
154	0x3cef2e25	0.029196808
155	0xbbeb72e1	-0.0071853255
156	0x3d5a1019	0.05323801
157	0xbdb4819e	-0.08813785
158	0x3ca99e57	0.020705385
159	0x3d24cfa2	0.040237077
160	0x3d018403	0.031620037
161	0xbbfb5bcc	-0.007670855
162	0xbe0ca332	-0.13734129
163	0x3d9c4db6	0.0763201
164	0x3d4c6f72	0.04991097
165	0x3d5c5d7d	0.053800095
166	0x3cd09a3b	0.025464168
167	0x3d2bc963	0.041940104
168	0xbda12962	-0.07869221
169	0xbd38e554	-0.04514058
170	0xbaade04c	-0.0013265698
171	0x3b484f65	0.00305649
172	0x3e197627	0.14986478
173	0x3e1ca497	0.15297161
174	0xbda0efb4	-0.0785822
175	0xbe0cb441	-0.13740636
176	0x3ecd39e9	0.40083244
177	0xbe37096c	-0.17874688
178	0xbec991fc	-0.3936919
179	0x3e92f714	0.2870413
180	0xbdb751ae	-0.08951126
181	0x3d88fc15	0.06688706
182	0x3ea46ebc	0.32115734
183	0xbd210a31	-0.03931636
184	0xbea87035	-0.32898107
185	0x3d189062	0.03724707
186	0x3e8ce85e	0.27521032
187	0x3d01b18a	0.031663455
188	0x3e8f3d6b	0.27976546
189	0xbd567dac	-0.052365944
190	0xbd81fffe	-0.06347655
191	0x3cef8963	0.029240316
192	0xbed26b6c	-0.4109758
193	0xbe2d25db	-0.16908972
194	0x3ed80bdd	0.4219655
195	0xbef90a15	-0.48640504
196	0x3eddf4d4	0.43350852
197	0xbe8ca10d	-0.27466622
198	0xbbb772d8	-0.0055984072
199	0x3e958131	0.29200128
200	0x3ca58d0b	0.020208856
201	0xbdd09521	-0.10184694
202	0x3cefea56	0.029286545
203	0xbd65ace9	-0.056073103
204	0x3b7d5161	0.0038653242
205	0xbd98b2ed	-0.074560024
206	0x3e248877	0.16067682
207	0x3c35de5b	0.011100377
208	0x3dcabd46	0.09899382
209	0xbd18c16c	-0.037293836
210	0xbd5c427a	-0.053774334
211	0xbd8b59a6	-0.068042085
212	0x3dbd62b9	0.092473455
213	0x3da6fa24	0.08153179
214	0x3bff245d	0.0077863173
215	0xbcabb292	-0.020959172
216	0x3d27e21b	0.040987115
217	0xbdc114b3	-0.09427776
218	0x3d19917d	0.037492264
219	0x3dc14089	0.09436137
220	0x3e352154	0.17688495
221	0x3d5a39cf	0.053277787
222	0x3d4bcb00	0.049754143
223	0xbde42d96	-0.11141507
224	0x3c23f168	0.010006286
225	0xbe321894	-0.17392188
226	0x3d48a0bd	0.048981417
227	0x3a809331	0.0009809491
228	0xbc12c59b	-0.008958246
229	0x3ccabd0d	0.02474835
230	0xbe9a040d	-0.30081216
231	0x3d8429c3	0.06453278
232	0x3b4f44d2	0.0031626713
233	0xbe531a1b	-0.20615427
234	0xbe71b257	-0.23603188
235	0xbe7b58fc	-0.24545664
236	0x3e749588	0.23885167
237	0x3bfe820b	0.007766967
238	0x3d49ef40	0.049300432
239	0xbd42792e	-0.047478847
240	0xbe66f542	-0.22554496
241	0xbe39e322	-0.1815305
242	0x3ea441a9	0.32081345
243	0xbd3f4d48	-0.04670456
244	0xbe1862c9	-0.14881434
245	0xbe4677db	-0.19381659
246	0x3bd7af93	0.0065822094
247	0x3e126c51	0.14299132
248	0xbe70a537	-0.23500524
249	0x3e201822	0.15634206
250	0xbe505de0	-0.2034831
251	0xbef8cfa7	-0.48595926
252	0x3e37105a	0.17877331
253	0xbe126ab5	-0.14298518
254	0xbbe82949	-0.0070849997
255	0x3d4eb768	0.05046788

rnn.weight_hh_l0 f4 [128, 128]
0	0x3dcc3def	0.099727504
1	0x3cd22c14	0.025655784
2	0xbc3b1749	-0.011419126
3	0x3c85217c	0.016251318
4	0x3b8704a3	0.004120426
5	0x3cef7754	0.029231705
6	0x3cd56545	0.026049266
7	0xbd92e272	-0.07172097
8	0x3d335ec4	0.043791547
9	0x3d7b39e4	0.061334506
10	0x3c846ed0	0.01616612
11	0xbdf8591f	-0.121263735
12	0xbdfa13ff	-0.12210845
13	0xbd265456	-0.040607773
14	0xbc8c132d	-0.017098987
15	0x3ccfbf0f	0.025359659
16	0xbca5a8ad	-0.020222032
17	0x3da485e5	0.08033351
18	0xbc7cfbab	-0.015440862
19	0x3d3becc8	0.04588011
20	0x3bb95904	0.0056563634
21	0x3c978410	0.01849559
22	0x3becdfb1	0.0072288145
23	0xbab7b7ec	-0.0014016605
24	0x3c397f4b	0.011321853
25	0x3cbac672	0.022799704
26	0x3d012120	0.03152573
27	0x3e2d2a95	0.16910775
28	0xbdcc19da	-0.09965868
29	0x3e04fc29	0.12986816
30	0x3c86aed2	0.016440783
31	0x3d34f852	0.04418213
32	0xbd022c06	-0.031780265
33	0x3b0ba190	0.0021306016
34	0x3d1849d8	0.037179798
35	0xbe2e0108	-0.16992581
36	0x3dc5c74f	0.09657156
37	0xbd80dc27	-0.06291991
38	0xbcaab70f	-0.020839242
39	0xbb914726	-0.0044335304
40	0x3ddb4e31	0.10708273
41	0x3b8e1b15	0.0043367245
42	0x3d9fd58f	0.07804405
43	0xbce44046	-0.02786268
44	0x3caa6878	0.020801768
45	0xbd963459	-0.07334203
46	0xbd98a7d2	-0.07453884
47	0xbd4ef179	-0.050523255
48	0xbd952cae	-0.072839126
49	0xbaa7f6ec	-0.0012814677
50	0xbd4a14d7	-0.04933628
51	0x3d142bd5	0.036174614
52	0xbd18a851	-0.037269894
53	0xbd3174a7	-0.04332414
54	0x3cb13c49	0.021635192
55	0xbb962b6b	-0.0045828125
56	0x3c51b602	0.012799742
57	0x3d33071c	0.043707952
58	0x3dfe4685	0.12415794
59	0x3d8d13c8	0.068885386
60	0xbd03a010	-0.03213507
61	0xbbefc03b	-0.007316617
62	0xbd470dfe	-0.04859733
63	0xbd7c197c	-0.06154774
64	0x3d8e26c6	0.06940989
65	0x3dbab1ae	0.09115921
66	0xbdc0efbd	-0.094207264
67	0x3d974ad3	0.073873185
68	0xbda1d646	-0.079021975
69	0xbd02ad51	-0.03190357
70	0x3c5f7e13	0.013640898
71	0xbe0d7b0c	-0.1381647
72	0x3dc97d68	0.098383725
73	0x3d977eaf	0.0739721
74	0x3dbff464	0.09372786
75	0xbd198569	-0.037480745
76	0xbda1f37f	-0.07907771
77	0xbcb9233d	-0.02259981
78	0x3dc9beb0	0.09850824
79	0xbbdc8055	-0.0067291656
80	0xbc619eea	-0.013770798
81	0xbc924d10	-0.017859012
82	0xbaa2a824	-0.0012409729
83	0xbde73985	-0.11290268
84	0xbd57d278	-0.052690953
85	0xbddfa040	-0.10919237
86	0x3d97cad5	0.07411734
87	0x3de4f251	0.11179031
88	0x3d527bd5	0.051387627
89	0x3ca227c5	0.019794354
90	0xbdf81046	-0.12112479
91	0xbcc5c132	-0.024139974
92	0x3dd4cf61	0.10391117
93	0xbda39910	-0.07988179
94	0x3d2a8b8f	0.041637
95	0x3c5ce307	0.013481862
96	0x3dbb2bc3	0.09139206
97	0x3e0fc16f	0.14038633
98	0x3cf84c07	0.03030969
99	0x3d0a7897	0.03380641
100	0x3d50b11a	0.050950147
101	0xbcacb5ee	-0.021082845
102	0xbc26392f	-0.01014547
103	0x3d850a43	0.06496098
104	0x3db56e60	0.08858943
105	0xbdd3b3ce	-0.103370294
106	0x3d19b880	0.03752947
107	0xbd7b3632	-0.06133098
108	0xba237cc9	-0.0006236551
109	0x3d0d825e	0.034548156
110	0x3e27dcb3	0.16392784
111	0x3e04f1e7	0.12982903
112	0xbd21e179	-0.039521668
113	0xbc03b08f	-0.0080377
114	0x3b54821f	0.003242619
115	0x3c21d06b	0.009876351
116	0x3cc1bc19	0.023649262
117	0x3d72464f	0.059149083
118	0xbb3115f5	-0.0027021144
119	0xbdee3a47	-0.11632209
120	0x3ceb770b	0.028743288
121	0xbd90be26	-0.07067518
122	0x3d80ce42	0.062893406
123	0x3c552c92	0.013011115
124	0xbd8443e0	-0.06458259
125	0xbe2490d7	-0.16070877
126	0x3c961c20	0.018323958
127	0x3d3c2713	0.0459357
128	0x3bafd5e1	0.0053660725
129	0x3d76d089	0.06025747
130	0x3d699b31	0.057032768
131	0xbe01e459	-0.12684764
132	0x3d1acca9	0.037792835
133	0x3cd100ca	0.025513072
134	0xbbd341cd	-0.006447053
135	0xbc9471b5	-0.018120626
136	0xbdc4e804	-0.09614566
137	0x3da7b68c	0.08189115
138	0x3d0e87ef	0.034797605
139	0x3c108dc7	0.008822865
140	0x3da0d3a1	0.07852865
141	0xbd1fba8c	-0.038996264
142	0x3c720ee6	0.01477406
143	0xbc28131a	-0.01025846
144	0xbd1ecb6a	-0.03876821
145	0x3d7a4ecc	0.061110303
146	0xbc6a0a91	-0.014284746
147	0x3c6dae64	0.01450691
148	0xbc28a92b	-0.010294239
149	0xbd96942d	-0.07352481
150	0xbd37f1c7	-0.04490831
151	0x3d570d57	0.052502956
152	0x3da97413	0.082740925
153	0x3deb4120	0.11487031
154	0x3ccfa38b	0.025346538
155	0xbd899486	-0.06717782
156	0xbc449ec1	-0.0120007405
157	0x3cf8a123	0.030350273
158	0x3c630ef7	0.013858548
159	0xbd183cb1	-0.037167255
160	0xbe0b73c0	-0.13618374
161	0x3de9b1b7	0.114108495
162	0xbda379c0	-0.07982206
163	0xbc456cf8	-0.012049906
164	0xbda7c6be	-0.08192204
165	0xbdf08a83	-0.11745169
166	0xbd35d8bd	-0.04439615
167	0x3d1939e6	0.037408732
168	0x3d59c2c3	0.053164255
169	0xbcbee3fc	-0.02330207
170	0xbb6df734	-0.0036310675
171	0x3db3e9cd	0.08784828
172	0x3e1c28db	0.1524996
173	0x3c29af4b	0.0103567345
174	0xbdd0804a	-0.10180719
175	0x3d28e895	0.041237433
176	0xbc984ddb	-0.018591812
177	0xbdbbcea9	-0.09170277
178	0x3dde8e45	0.108669795
179	0xbc8ce843	-0.017200595
180	0xbc28767a	-0.010282153
181	0x3d84b381	0.0647955
182	0x3d0958c8	0.033531934
183	0xbdac154b	-0.08402499
184	0xbb6daa18	-0.0036264714
185	0xbcf84d90	-0.030310422
186	0x3acf1807	0.0015800007
187	0xbd32bdf7	-0.043638196
188	0xbd630545	-0.055424947
189	0xbd57231d	-0.05252372
190	0x3dbc11ef	0.09183108
191	0xbc6227ea	-0.013803462
192	0x3d53ff28	0.051757008
193	0xbd3058a0	-0.04305327
194	0x3d8bdbbe	0.06829022
195	0xbd040526	-0.032231472
196	0x3c198561	0.009370179
197	0xbdeac48b	-0.11463269
198	0x3d4e1394	0.05031164
199	0xbe026760	-0.12734747
200	0x3dde3ab2	0.10851039
201	0x3d3c6d32	0.046002574
202	0x3d9c5106	0.076326415
203	0x3d0920b1	0.033478443
204	0x3e12587f	0.14291571
205	0xbd53169b	-0.05153523
206	0x3da65fd3	0.08123746
207	0xbda73d07	-0.08165937
208	0xbe2c9ef5	-0.16857512
209	0x3c7f3b48	0.015578099
210	0x3cac4a1e	0.021031436
211	0x3d733296	0.059374414
212	0xbd4d4178	-0.050111264
213	0xbda99846	-0.08280997
214	0x3ca17e0f	0.01971343
215	0xbc293213	-0.01032688
216	0xbd597ca7	-0.053097393
217	0x3d0bc494	0.03412302
218	0x3e0b1285	0.13581283
219	0x3d8ee434	0.0697712
220	0xbd4140d2	-0.047180958
221	0x3d8916ca	0.066938
222	0xbc8d2001	-0.017227175
223	0x3d5b4448	0.053531915
224	0x3d664f23	0.056227814
225	0xbdc69f19	-0.09698314
226	0xbcb1b1a4	-0.021691151
227	0x3dd30235	0.10303155
228	0xbb86c182	-0.0041124234
229	0x3c551a22	0.013006719
230	0x3cddda00	0.02708149
231	0xbd036b13	-0.032084536
232	0x3e0fec99	0.14055099
233	0xbdb49eb8	-0.08819336
234	0x3db25c6b	0.087090336
235	0x3d57a7e1	0.052650336
236	0xbbf681f2	-0.007522815
237	0x3d9e4846	0.07728629
238	0xbe00e7b5	-0.12588389
239	0x3e29b3ec	0.16572541
240	0xbd1c3e49	-0.038145337
241	0xbdcd8390	-0.10034859
242	0xbd2f3245	-0.04277255
243	0x3d361d66	0.04446163
244	0xbd6e9dc5	-0.05825593
245	0x3d9dc4d0	0.07703555
246	0x3c8a90c4	0.016914733
247	0xbd9237ec	-0.071395725
248	0xbda696f1	-0.081342585
249	0xbd6d54b8	-0.057942122
250	0xbcf1b6f5	-0.029506186
251	0x3d6b6b0f	0.057475146
252	0x3d94a92c	0.072588295
253	0xbe0be13b	-0.13660137
254	0xbb16601a	-0.0022945465
255	0x3da68083	0.081299804

rnn.bias_ih_l0 f4 [128]
0	0xbd73be9a	-0.059507944
1	0xbd0a55c1	-0.033773188
2	0xbde09c63	-0.109673284
3	0x3c4179e6	0.011808848
4	0xbd413cdc	-0.04717718
5	0x3cf77edd	0.03021186
6	0xbcb460bd	-0.022018785
7	0xbcb14fff	-0.02164459
8	0xbbc4cf6f	-0.0060061733
9	0xbc36cedb	-0.011157717
10	0x3dff6394	0.12470165
11	0x3d6e1f69	0.058135424
12	0xbd0c4d4e	-0.03425341
13	0x3d5783af	0.052615818
14	0xbc149580	-0.009068847
15	0x3dd48c64	0.1037834
16	0x3db47acd	0.08812485
17	0x3b2d44bf	0.002643868
18	0xbd9e7e73	-0.07738962
19	0xbc812a36	-0.015767198
20	0xbd0d2d2a	-0.0344669
21	0x38a53599	7.8777965e-05
22	0x3bed0df9	0.0072343317
23	0xbd2885be	-0.04114317
24	0xbd9806ef	-0.074231975
25	0xbcaa581c	-0.020793967
26	0xbd2f90e0	-0.042862773
27	0x3dd71714	0.10502449
28	0xbc64aea0	-0.0139576495
29	0x3d60eaf5	0.054911572
30	0x3c98308a	0.018577833
31	0x3dab1fa8	0.08355647
32	0xbdaf5089	-0.08560283
33	0x3abb9f6b	0.0014314478
34	0x3da0946c	0.07840809
35	0xbdd5522e	-0.10416065
36	0xbd8bf8a7	-0.06834536
37	0xbd81db23	-0.06340625
38	0x3dbc6ceb	0.09200462
39	0xb99a7400	-0.00029459596
40	0xbbaaf275	-0.0052168914
41	0xbc64774c	-0.013944458
42	0x3d8ab321	0.067724474
43	0x3da62ef2	0.08114423
44	0x3bd914a6	0.006624776
45	0xbdafea1b	-0.08589574
46	0x3c47089d	0.01214805
47	0x3d3f3774	0.046683744
48	0xbdacc3f2	-0.08435811
49	0x3d2c4184	0.042054668
50	0xbd6d703f	-0.057968374
51	0x3be741a2	0.0070573846
52	0xbb496c73	-0.0030734807
53	0xbc386e0b	-0.011256705
54	0xbcd5badb	-0.026090076
55	0x3da63975	0.08116428
56	0x3d82366d	0.06358037
57	0xbd990f4e	-0.07473622
58	0x3d53a651	0.051672284
59	0x3d9e028b	0.07715329
60	0xbd34162d	-0.04396646
61	0xbd5dd50b	-0.05415825
62	0xbcd3890a	-0.025822181
63	0x3d647235	0.05577298
64	0x3da47bd3	0.0803143
65	0x3d3cc139	0.04608271
66	0x3d8f8ea2	0.07009627
67	0x3c8a1f03	0.01686049
68	0x3bf66ad8	0.007520061
69	0x3dab80cf	0.08374178
70	0x3d69a46e	0.057041578
71	0xbd8670d7	-0.06564491
72	0xbd05a738	-0.032630175
73	0xbd4f8c09	-0.050670657
74	0xbd52645c	-0.05136524
75	0xbcb349a7	-0.021885706
76	0x3cace498	0.021105096
77	0xbcce3646	-0.025172364
78	0x3d998c03	0.07497408
79	0x3d982770	0.07429397
80	0xbd48a475	-0.048984963
81	0x3d0d9f65	0.03457584
82	0xbccd6287	-0.025071396
83	0x3cec4390	0.02884081
84	0x3ca217b6	0.019786697
85	0xbce43974	-0.027859427
86	0x3d22b9e3	0.039728057
87	0xbd1f8445	-0.0389445
88	0x3ca89208	0.020577446
89	0xbd8b0d60	-0.067896605
90	0x3b9007e3	0.0043954714
91	0xbd0698fc	-0.03286074
92	0xbc3dcf6b	-0.011585097
93	0x3c3ae464	0.011406992
94	0xbca36ea7	-0.019950224
95	0x3d8c56a7	0.06852465
96	0xbbce005f	-0.0062866653
97	0xbceffadf	-0.02929443
98	0x3bbc523b	0.0057471073
99	0xbd1f98a3	-0.038963925
100	0xbdec656e	-0.11542784
101	0xbd95151a	-0.072794154
102	0x3c7e8450	0.015534475
103	0xbc7c8b8b	-0.015414129
104	0xbd90dfd0	-0.07073939
105	0x3ca300d9	0.019897865
106	0x3dd745b1	0.105113395
107	0x3d145b88	0.036220104
108	0x3c422f53	0.011852103
109	0x3cffd52e	0.031229582
110	0xbbb37b86	-0.0054773716
111	0xbb07328a	-0.002062949
112	0x3d7905ac	0.060796425
113	0xbd542de4	-0.051801577
114	0x3d81a6a6	0.06330614
115	0xbd8072d8	-0.06271905
116	0x3d826591	0.063670285
117	0x3d769224	0.060197964
118	0xbda69071	-0.08133019
119	0x3cda36ef	0.026637523
120	0xbcca4997	-0.024693293
121	0x3b5a53a5	0.0033314016
122	0x3d38a75c	0.04508148
123	0x3d155148	0.03645447
124	0x3d660e52	0.056166
125	0xbd92fbf4	-0.071769625
126	0x3db16d29	0.08663399
127	0xbd9f5f42	-0.07781841

rnn.bias_hh_l0 f4 [128]
0	0x3d83c75e	0.06434511
1	0x3d6778d7	0.056511726
2	0xbda5eaee	-0.0810145
3	0xbd2e4f95	-0.042556364
4	0x3b4e11c3	0.0031443692
5	0x3d3f01fd	0.046632756
6	0xbd3f61f1	-0.046724264
7	0x3c34556a	0.011006692
8	0xbda3adfa	-0.07992168
9	0xbd344d0e	-0.044018798
10	0xbcd1ba10	-0.025601417
11	0xbd3bf434	-0.045887187
12	0x3da6a18a	0.0813628
13	0x3d39f004	0.045394912
14	0x3d8a2e6c	0.067471355
15	0xbba913bd	-0.0051598237
16	0x3d75bb4a	0.059993066
17	0x3d3ac742	0.045600183
18	0xbd6a26a4	-0.057165757
19	0x3c37de20	0.011222392
20	0xbd37133e	-0.044696085
21	0x3c21813b	0.009857471
22	0x3ce27242	0.027642373
23	0x3d1bc306	0.038027786
24	0x3d8f008d	0.06982527
25	0xbcff2aac	-0.031148277
26	0x3da6ce46	0.08144812
27	0x3dad9270	0.08475196
28	0x3d01ba7c	0.031671986
29	0x3ce9a9cf	0.028523354
30	0xbb654c89	-0.0034988245
31	0x3c764944	0.015032116
32	0x3cdd69f4	0.027028061
33	0xbd980230	-0.07422292
34	0xbd260a5d	-0.040537227
35	0xbd7415e6	-0.059591196
36	0xbcd3fe41	-0.025878074
37	0xbbcb7e2e	-0.00621011
38	0xbd4d7ade	-0.050166003
39	0xbcf83840	-0.03030026
40	0x3d7a5e93	0.06112535
41	0x3d93b149	0.07211549
42	0x3c8ac29b	0.016938498
43	0xbd49f5c0	-0.04930663
44	0xbd6301e6	-0.055421732
45	0x3d9c15f2	0.07621373
46	0xbc302c14	-0.010752697
47	0x3d68dbe9	0.056850348
48	0xbdb0a394	-0.0862495
49	0xbd1619d1	-0.036645714
50	0xbd8b3e26	-0.06798963
51	0x3d7dbc0b	0.06194691
52	0xbc93ed1c	-0.018057398
53	0xbd84f372	-0.06491746
54	0xbc100ec3	-0.008792582
55	0xbc9974f7	-0.018732531
56	0xbd35b0b2	-0.044357963
57	0xbd058d7a	-0.032605626
58	0xbc3f6b59	-0.0116833085
59	0x3dcc6dfa	0.09981914
60	0xbc03857b	-0.00802743
61	0x3d69fd1d	0.057126153
62	0x3d52b6db	0.051443916
63	0xbd22e18b	-0.039765876
64	0x3d9f4b82	0.07778074
65	0x3d14622d	0.03622644
66	0xbd0c45ed	-0.034246374
67	0xbd8c255a	-0.06843062
68	0xb98342ab	-0.0002503594
69	0x3d2af7ac	0.041740105
70	0xbd82bf4d	-0.06384144
71	0xbd8370db	-0.0641801
72	0x3d063411	0.0327645
73	0x3c995b28	0.018720224
74	0x3d61d96e	0.055138998
75	0xbda90de7	-0.08254605
76	0xbd6d3896	-0.057915293
77	0x3dcdc90c	0.10048112
78	0x3db24e35	0.08706323
79	0x3dc0020f	0.09375393
80	0xbd0968cb	-0.033547204
81	0x3d4486ca	0.047980107
82	0x3d78efbe	0.06077551
83	0x3ca47959	0.020077394
84	0x3ba36a99	0.0049870727
85	0x3dc287a6	0.09498529
86	0x3d9aacec	0.075525135
87	0x3d5ea707	0.05435851
88	0xbd85d71c	-0.065351695
89	0x3c73579c	0.014852431
90	0xbd508899	-0.05091152
91	0xbd037855	-0.03209718
92	0x3d16ad66	0.03678646
93	0x3a06aeb4	0.0005137727
94	0xbdaa9fc4	-0.08331254
95	0xbd7bde8f	-0.061491545
96	0x3d9d37d6	0.076766655
97	0x3da96e47	0.08272987
98	0x3d9149e5	0.070941724
99	0xbd9b49fa	-0.07582469
100	0xbd868db1	-0.06569994
101	0x3d711c6c	0.058864996
102	0xbcbcaef5	-0.023032645
103	0xbd2d1e66	-0.04226532
104	0xbbc058ac	-0.0058699455
105	0x3d257878	0.04039809
106	0x3c786338	0.015160374
107	0xbc9f937a	-0.019479502
108	0xbd70e3c9	-0.058810983
109	0xbd3afbe8	-0.045650393
110	0x3d6ee9da	0.058328487
111	0xbd987ef5	-0.0744609
112	0xbc70ab1d	-0.014689234
113	0x3d06a751	0.03287441
114	0x3bc21f00	0.0059241056
115	0xbc947a86	-0.01812483
116	0xbd903275	-0.07040874
117	0x3da18aa5	0.078877725
118	0x3d2e383c	0.042534098
119	0x3cb57290	0.022149354
120	0x3ca8929c	0.020577721
121	0xbd919150	-0.07107794
122	0xbc7767c9	-0.015100428
123	0xbd427351	-0.047473256
124	0xbd624c05	-0.05524828
125	0xbd83055f	-0.06397509
126	0x3b0fccc0	0.002194211
127	0x3d899e04	0.06719592

fc.weight f4 [18, 128]
0	0xbe27d40e	-0.16389486
1	0x3ea90cbc	0.33017528
2	0x3c36c6f2	0.011155831
3	0x3e780bfa	0.24223319
4	0x3e86ec8d	0.2635235
5	0xbe2a97d9	-0.16659488
6	0xbe4fa6cb	-0.2027847
7	0xbd8afc8c	-0.06786451
8	0xbe88d32d	-0.26723614
9	0xbe69977a	-0.2281169
10	0xbde09dd4	-0.10967603
11	0xbe290284	-0.16504866
12	0xbe5eeeca	-0.21770778
13	0xbdb64c08	-0.089012206
14	0xbe0ea750	-0.13931012
15	0xbcab7b8f	-0.02093294
16	0xbe99166e	-0.29899925
17	0xbe220d91	-0.15825488
18	0x3d84d1a1	0.06485296
19	0xbd17c792	-0.03705556
20	0xbe1773d5	-0.1479028
21	0x3e7472ef	0.23871969
22	0x3e9aaf07	0.3021166
23	0x3db6fc22	0.08934809
24	0xbedf92a3	-0.43666562
25	0xbbce5676	-0.006296928
26	0xbd95587d	-0.072922684
27	0x3b8c0bcb	0.004273867
28	0xbdf4b691	-0.11948884
29	0xbd182592	-0.037145205
30	0xbc419c60	-0.011817068
31	0x3dd28850	0.10279906
32	0x3ebf2178	0.37330222
33	0x3ea51dd3	0.32249317
34	0x3e499cbe	0.19688699
35	0xbdc60188	-0.09668261
36	0x3d8a56dc	0.06754848
37	0x3ef70c95	0.48251787
38	0xbdc15bf0	-0.09441364
39	0xbe0bd9ce	-0.13657305
40	0xbdd51a3e	-0.10405396
41	0xbe67c474	-0.22633535
42	0xbec7045a	-0.38870507
43	0xbd9f2771	-0.07771195
44	0xbeb1c01d	-0.34716883
45	0x3c251c78	0.010077588
46	0xbe3f595d	-0.18686433
47	0x3ca134ba	0.019678462
48	0xbb258303	-0.002525509
49	0xbdd12b86	-0.102133796
50	0x3e562ba2	0.20915082
51	0x3c8cda3c	0.017193906
52	0xbea20d9f	-0.31651017
53	0x3d445c77	0.047939744
54	0xbd1beae2	-0.0380658
55	0xbe8ad50c	-0.27115667
56	0xbe1bfcd9	-0.15233172
57	0xbe0bca6d	-0.13651438
58	0x3e01211d	0.12610288
59	0xbcf0199a	-0.029309083
60	0xbdca8e99	-0.098904796
61	0x3e2a849a	0.16652146
62	0x3cbfd48d	0.023416782
63	0x3ddc2ed8	0.10751122
64	0xbf003a95	-0.5008939
65	0x3d3f8548	0.046757966
66	0xbc567248	-0.01308877
67	0xbc248335	-0.010041048
68	0x3dafcbdd	0.08583806
69	0x3e90c1d4	0.2827288
70	0x3dddd02c	0.10830721
71	0x3e29ffb2	0.16601446
72	0xbc8248b1	-0.015903803
73	0x3e3c198e	0.18369123
74	0x3e6a5ef6	0.22887787
75	0xbe2be046	-0.16784772
76	0x3e5cb910	0.2155497
77	0x3da9e414	0.082954556
78	0xbcdbfa37	-0.02685271
79	0x3cb28a7e	0.021794554
80	0x3cbfa209	0.023392694
81	0xbca9dc81	-0.020735027
82	0x3bcf7212	0.006330737
83	0x3ecfe710	0.40605974
84	0xbde9e298	-0.114201725
85	0xbd8e0634	-0.06934777
86	0xbebd74e0	-0.3700323
87	0x3e322f6f	0.17400907
88	0xbee07611	-0.43840078
89	0xbeee0faf	-0.4649634
90	0xbc0c665e	-0.008569328
91	0xbe2e3806	-0.17013559
92	0xbe2dfae0	-0.16990232
93	0xbd1baf72	-0.038009115
94	0x3e9175a4	0.28410065
95	0xbda33efd	-0.079709984
96	0xbe8b7631	-0.2723861
97	0x3ec00a23	0.37507734
98	0x3e88086c	0.26568925
99	0xbc04a693	-0.008096355
100	0xbf11e4c9	-0.56989723
101	0xbc3bfefe	-0.011474369
102	0xbe3b2daa	-0.18279138
103	0x3ebdf1a5	0.37098423
104	0x3e5cdf40	0.21569538
105	0x3e2f5f34	0.17126161
106	0xbeca76e8	-0.39543843
107	0x3e68caa7	0.22733556
108	0xbc1f685f	-0.009729474
109	0x3e0d1bae	0.1378009
110	0x3e7efcd2	0.24901131
111	0xbe300433	-0.17189102
112	0xbcf8e128	-0.0303808
113	0xbe82ec1e	-0.25570768
114	0x3dc6f51c	0.0971472
115	0xbc759af5	-0.014990558
116	0xbc9ff82d	-0.01952752
117	0xbe2bfa93	-0.16794805
118	0xbe23f458	-0.16011178
119	0xbd72a8e6	-0.059243105
120	0x3d4651b3	0.04841776
121	0xbdbe4d6f	-0.09292113
122	0xbd0f589d	-0.034996618
123	0x3d9fb1b6	0.077975675
124	0x3e1c8bdb	0.15287726
125	0x3e8da09a	0.27661592
126	0xbdfcbfcf	-0.12341272
127	0xbdda65f8	-0.1066398
128	0x3e1ef478	0.15522945
129	0xbde799bb	-0.11308619
130	0xbda9a2be	-0.08282994
131	0xbe8a0e7d	-0.2696418
132	0x3d13f5bb	0.03612302
133	0x3e37992b	0.17929523
134	0x3e5eb2d7	0.2174791
135	0xbdc42043	-0.09576466
136	0x3e31697e	0.17325398
137	0xbc96d725	-0.018413136
138	0xbde0505b	-0.109528266
139	0x3e621fa6	0.22082385
140	0x3e405a19	0.1878437
141	0x3ce7afbc	0.028282039
142	0x3c148d9c	0.009066965
143	0xbdadb78c	-0.084822744
144	0x3e41c1f5	0.18921645
145	0xbd461d7c	-0.048367962
146	0xbd855203	-0.06509783
147	0x3e6319ef	0.22177862
148	0x3df7faf7	0.121084146
149	0xbd0f888b	-0.035042327
150	0xbe885664	-0.2662841
151	0x3de8cd9f	0.11367344
152	0xbda10964	-0.07863119
153	0xbd912200	-0.07086563
154	0x3dc41241	0.09573794
155	0x3da647c8	0.0811916
156	0x3e17f28c	0.14838618
157	0x3e27e59b	0.16396181
158	0x3e1d70ee	0.1537511
159	0xbdf6747a	-0.12033935
160	0xbd730023	-0.059326302
161	0xbe471791	-0.19442584
162	0xbd357b0f	-0.04430681
163	0x3e397cae	0.18113968
164	0x3e69c4fa	0.22829047
165	0xbc751333	-0.014958191
166	0xbc43d91a	-0.0119536165
167	0xbe67482f	-0.2258613
168	0x3e7ae095	0.24499734
169	0xbd8d3b1d	-0.068960406
170	0x3e92d3e8	0.28677297
171	0x3d05d7ca	0.032676496
172	0x3d9cc355	0.07654444
173	0xbd9ad1e8	-0.07559568
174	0xbde70158	-0.11279553
175	0x3b22d016	0.0024843267
176	0xbd2ee34f	-0.042697247
177	0x3d8beb74	0.068320185
178	0xbde182ce	-0.11011277
179	0x3d9c4afe	0.07631491
180	0x3e0d65a4	0.13808304
181	0xbe2ea86c	-0.17056435
182	0x3e81bda1	0.25339988
183	0x3e0f38c8	0.13986504
184	0x3de09b8c	0.10967168
185	0xbe1d0eb5	-0.15337642
186	0xbd4ea201	-0.050447468
187	0x3da15c79	0.07878966
188	0x3da362e4	0.07977846
189	0xbe95869e	-0.29204267
190	0x3e5cdaf0	0.21567893
191	0x3e432345	0.19056423
192	0xbd4071a2	-0.04698337
193	0x3e986515	0.2976462
194	0xbe3511a6	-0.17682514
195	0xbe16b7b4	-0.14718515
196	0xbe42211a	-0.1895794
197	0xbe8a0802	-0.26959234
198	0x3d6287ee	0.055305414
199	0x3d8b5ef9	0.06805224
200	0x3c5cc9ce	0.013475848
201	0xbb2dc744	-0.0026516477
202	0xbe647421	-0.22309925
203	0xbe3c0ba6	-0.18363819
204	0xbd226982	-0.0396514
205	0x3d23d1cf	0.03999501
206	0xbd947cb3	-0.07250347
207	0xbe3cdac2	-0.18442824
208	0x3d5ab24e	0.0533927
209	0x3dba3b73	0.0909337
210	0x3d74d35c	0.05977188
211	0xbe3ce6fa	-0.18447486
212	0x3d2759f0	0.040857255
213	0xbe54f9fa	-0.20798483
214	0x3eb7050d	0.3574604
215	0xbe03a95c	-0.12857574
216	0xbd33d6d1	-0.043906037
217	0x3e59a0dc	0.21252769
218	0xbc46518a	-0.012104401
219	0x3ea0f92c	0.31440103
220	0xbdf590ce	-0.1199051
221	0xbdfe7555	-0.12424723
222	0xbd4385d7	-0.04773506
223	0x3d542fa9	0.051803265
224	0x3e86d995	0.26337877
225	0x3d917fbb	0.07104441
226	0x3cbd2406	0.023088466
227	0xbdbaf864	-0.09129408
228	0x3ed2eb32	0.41195065
229	0x3de3c30f	0.11121189
230	0x3db6e395	0.089301266
231	0xbd6b4623	-0.057439934
232	0x3e61933d	0.22028823
233	0x3d520e62	0.051283248
234	0xbe0f852c	-0.14015645
235	0xbe35346e	-0.17695782
236	0x3e24a341	0.16077901
237	0xbdfa63f5	-0.122260965
238	0xbe620832	-0.22073439
239	0x3e8bfe53	0.2734247
240	0x3c57ec66	0.01317892
241	0xbd537cfb	-0.051632863
242	0x3da7530d	0.081701376
243	0x3de61303	0.11234095
244	0x3d9faa39	0.07796139
245	0x3c42dda6	0.011893665
246	0x3d1234db	0.03569494
247	0xbda9abf7	-0.08284753
248	0xbdcfa8be	-0.10139607
249	0x3d80adc9	0.06283147
250	0x3dc38be7	0.09548169
251	0xbca29a5a	-0.019848991
252	0x3e1eb961	0.15500404
253	0xbd8f1928	-0.0698722
254	0xbe538608	-0.20656598
255	0xbcf13192	-0.029442582

fc.bias f4 [18]
0	0xbcce8b59	-0.02521293
1	0xbd2253a0	-0.039630532
2	0xbc9aa7fb	-0.018878927
3	0xbda440cc	-0.080201715
4	0xbe04109d	-0.12896962
5	0xba0ce583	-0.0005374776
6	0x3d6e0c7f	0.058117386
7	0xbbe89e5b	-0.0070989556
8	0xbd07c2d3	-0.033144783
9	0x3a455d6e	0.0007528876
10	0xbd4ee2d8	-0.050509304
11	0xbd1874ba	-0.037220694
12	0x3d6a456a	0.057195105
13	0xbe057606	-0.13033304
14	0xbcb8c12c	-0.022553049
15	0x3e00a0d4	0.12561351
16	0x3b972172	0.0046121413
17	0xbcb1a411	-0.021684678
