text_classify/logs/RNN/RNN_epoch_70_acc_0.8035.pth (torch, 107761 bytes, 6 tensors)

rnn.weight_ih_l0 f4 [128, 57]
000000 94 6d 29 bf d0 a1 57 be c6 ca f5 be 5b b3 18 3e
       -0.6618283 -0.2105782 -0.48006266 0.14912169
000010 52 a8 6e 3e a6 ea 19 be a7 d1 fc 3d e0 d4 89 3e
       0.23306397 -0.15030918 0.123446755 0.26920223
000020 ac 33 60 bd 01 f0 14 bd 5a 03 12 3f ef 7d 88 3e
       -0.05473678 -0.036361698 0.57036364 0.2665858
000030 3a c1 c8 be 42 4f a0 3e 81 96 0a bf 84 7c bf 3e
       -0.3920992 0.3131047 -0.541359 0.37399685
000040 a9 06 36 3f d5 6a f5 3e 9c 75 94 bd 08 60 36 3f
       0.7110391 0.4793307 -0.07248995 0.7124028
000050 22 54 8a 3d 50 92 53 3f c8 a5 ee 3e a9 c3 f1 3d
       0.06754328 0.8264513 0.46610856 0.11804897
000060 eb 37 34 bf 9d e0 02 bf 4f 15 5c 3e 68 85 57 3d
       -0.70397824 -0.5112398 0.21492504 0.05261746
000070 ee a6 38 be ed b0 6d be 13 d5 5f be a3 3c 44 3d
       -0.18032429 -0.23212023 -0.21858625 0.04790939
000080 df 44 fa bb bf 03 ea bd ca 9d dc bd ca 94 2e bc
       -0.0076376046 -0.11426496 -0.107722834 -0.010655591
000090 a6 4c 2a 3d c8 23 a3 3e 20 8f 36 bd 5c f3 df 3c
       0.041577004 0.31863236 -0.04457009 0.027337722
0000a0 df 58 8b be ce 0c 88 3e 1f 2d 62 be df d6 5c bd
       -0.2721624 0.2657227 -0.22087525 -0.053915855
0000b0 80 09 e3 bd 0d bd d3 bd 86 16 f5 3d b7 b8 1f bd
       -0.11085796 -0.10338793 0.11967187 -0.038994517
0000c0 e5 a6 50 3e f2 a2 90 be e7 07 08 be e5 f4 64 be
       0.20376165 -0.28249317 -0.13284265 -0.22359045
0000d0 78 c4 d3 bd 40 d4 75 bd 28 80 af 3d 83 86 22 bd
       -0.10340208 -0.06001687 0.08569366 -0.03967906
0000e0 13 17 df be 95 32 0a 3f 32 5c 04 3f 54 aa d9 3d
       -0.43572292 0.5398343 0.5170318 0.10628191
0000f0 54 b8 9b 3d 63 59 9e bd 96 bd 58 bc 01 86 ff 3e
       0.07603517 -0.07731893 -0.013228795 0.49906924
000100 95 eb 11 3e 4c d4 95 3e 9c 75 13 3d db b0 17 3f
       0.14250024 0.29263532 0.036000833 0.59254235
000110 98 3e 93 3e f9 b9 b7 be 2d 40 dd be 34 5f 0b 3f
       0.28758693 -0.35884073 -0.43213025 0.54442143
000120 30 a6 33 be 02 a5 94 be 7e 92 cc be 9c e4 15 bf
       -0.17543864 -0.2903214 -0.39955515 -0.58551955
000130 09 9f b2 be ed 9e cf be 29 27 7f be 1e 1e d0 3c
       -0.3488696 -0.40550938 -0.24917282 0.025404986
000140 90 ce a0 be 5c aa fa be ef 3f 98 bd 46 28 3d 3e
       -0.31407595 -0.489581 -0.07434069 0.18472394
000150 84 c0 ba 3e f3 cc 0d be b6 45 76 3d 43 ee 81 3e
       0.36475003 -0.13847713 0.060125075 0.25377092
000160 17 02 1f bd 46 2d 94 be 99 5e 68 3d 2b 53 1a 3c
       -0.038820352 -0.2894079 0.05673084 0.009419243
000170 21 2d 3d 3e 40 e4 c4 3d c8 2c 5f 3e 8c c0 0e be
       0.18474247 0.09613848 0.21794426 -0.13940638
000180 34 e0 4a bb 26 58 69 3c 2d c0 93 3d 50 e6 34 be
       -0.003095639 0.014242208 0.07214389 -0.17665982
000190 9f 3d 0e be bf 03 af bd f2 9b 13 be 55 e2 02 3c
       -0.13890694 -0.085456364 -0.14414957 0.007988532
0001a0 d6 03 8d 3d d5 ca e4 bd 33 8d 17 3c 6b e9 dc bc
       0.06885497 -0.111715 0.009249973 -0.026966771
0001b0 a8 65 98 bd 08 b0 36 3e 20 6c 82 3d 4d f2 ac be
       -0.074412644 0.17840588 0.063682795 -0.3377861
0001c0 14 c9 a0 bc 21 4d 34 bd d2 4a 71 3e b2 fe b6 3e
       -0.019627132 -0.04401887 0.23563698 0.35741192
0001d0 82 76 14 be 5f 68 c5 3e d3 ce 81 be 0e 49 86 3d
       -0.14498332 0.3855619 -0.25353107 0.06556903
0001e0 3c 90 21 bf b2 d1 f7 bd 38 29 71 3e 97 ac 25 3e
       -0.6311071 -0.12100543 0.2355088 0.16179119
0001f0 36 fa 88 3e 00 84 5f be 06 cc 8a be 85 90 b6 be
       0.26753396 -0.21827698 -0.27108783 -0.35657135
000200 d0 bc 52 be 72 4d 79 be 1c 06 10 bf 18 70 a4 3d
       -0.20579839 -0.2434595 -0.5625932 0.08029193
000210 ae 2b b0 3d c1 af d8 bc 4a c6 08 3e 6e b1 42 bf
       0.08602081 -0.026450993 0.13356891 -0.76051986
000220 c6 dd 0b be 30 14 03 bf 4c 7d 00 3e 5d 03 af 3d
       -0.13658819 -0.5120268 0.12547797 0.08545563
000230 cf b0 48 3e a0 fc 8a bd fc 98 32 3d 92 c9 1a 3e
       0.19598697 -0.06786466 0.04360293 0.15115955
000240 ac 79 bb bc 96 cd fa bd ca d0 1d bd 73 04 9c 3c
       -0.022885166 -0.12246244 -0.038529195 0.01904509
000250 e2 44 ac 3e a8 72 c9 3d d4 b8 3b 3d 20 97 5d bd
       0.33646303 0.09836322 0.045830563 -0.054099202
000260 4a f3 22 be 2f 46 9e 3d db 6e e8 3d dd de 9b bd
       -0.1591312 0.0772823 0.11349269 -0.07610867
000270 a0 21 5c 3d 75 97 f1 bd a9 c8 17 bd ed 42 de 3d
       0.053743005 -0.11796466 -0.0370566 0.10852609
000280 b7 99 1d 3d 93 30 f7 3d be 7a 11 be 76 44 fc bc
       0.038476672 0.12069812 -0.14206979 -0.030794363
000290 f1 b9 f7 bb f5 78 81 3c b5 12 77 3d e7 73 26 3d
       -0.0075600077 0.015804747 0.060320575 0.040637877
0002a0 04 96 0b be 7d 27 33 bd 5b a7 bd 3c b0 51 91 3c
       -0.13631445 -0.04373883 0.02315109 0.017739147
0002b0 f0 82 4d 3e c9 27 df 3d b7 a7 38 3d 3b b2 25 be
       0.2006948 0.1089626 0.04508182 -0.16181271
0002c0 a6 74 0f 3f 3b d8 b1 bd 41 12 fe be 1b 27 af 3e
       0.56037366 -0.08683821 -0.49623302 0.34209523
0002d0 fd 55 d5 3c 20 d3 71 bd 56 e9 d4 3e 12 64 bf bd
       0.026041979 -0.059039235 0.4158427 -0.09345259
0002e0 e3 31 a9 be 8f 8f f4 3c 37 c8 65 3e 75 b9 8f be
       -0.33045873 0.02985361 0.22439657 -0.2807118
0002f0 42 d9 cb 3e 68 ef 5c be 66 32 40 be 06 3b 4b 3e
       0.39814192 -0.21575701 -0.18769225 0.19846734
000300 a8 84 14 bf 55 96 7a 3c 96 ae 18 3f 52 c2 4d bf
       -0.5801492 0.015294631 0.59641397 -0.80374634
000310 e9 e0 f3 3e f9 43 cf be 89 35 92 3d af aa a1 3e
       0.4763253 -0.40481547 0.07139117 0.31575534
000320 85 44 9b 3d 60 b6 48 be 6e ca 1e 3d fe da cf 3c
       0.075814284 -0.1960082 0.03876727 0.025372978
000330 16 f8 e9 ba 76 11 46 be de 47 44 3e eb 36 0b 3d
       -0.0017850425 -0.19342598 0.1916804 0.03398792
000340 d4 98 3d 3e 94 e8 77 bd 64 e3 13 be 31 4e 9d bd
       0.1851533 -0.06052454 -0.14442211 -0.076809295
000350 37 b0 da 3d 56 2e 45 3d f2 2b 9e 3c 0a 80 59 bc
       0.106781416 0.048139893 0.019308064 -0.013275156
000360 9b c4 9f bb 6d 10 2b bd 45 19 77 3c bb 35 27 3e
       -0.004875732 -0.04176371 0.015081708 0.1632909
000370 6c e5 b2 3e aa 1c 3c 3d 79 30 37 3d 50 0e d0 be
       0.3494066 0.045925774 0.04472396 -0.4063592
000380 6f da 1e 3c 69 21 74 be db 65 42 3d 16 f2 9b be
       0.009695633 -0.2384087 0.04746042 -0.30458134
000390 84 35 1b bd e1 28 6c 3e b1 5a 3f bf 29 62 63 3d
       -0.037892833 0.23062469 -0.7474776 0.055513535
0003a0 01 ec c1 3d 7e 37 d5 bd 1c 3e 96 be 88 6f c5 be
       0.09468842 -0.10410975 -0.2934426 -0.38561654
0003b0 8e f7 bc 3e 30 67 17 bd 62 ec e9 bd ab b4 22 be
       0.3690762 -0.03696364 -0.114220396 -0.15889232
0003c0 10 74 ac be 8e a1 49 be 92 29 f3 3e e3 77 71 be
       -0.336823 -0.19690534 0.47492653 -0.2358089
0003d0 3d 79 5c 3e 08 f9 64 be 4c ec 0e 3d 50 4f 90 3e
       0.21530624 -0.22360623 0.03489332 0.2818551
0003e0 86 be a8 be 9a 8b 36 3e 91 3b 81 be 62 71 15 bf
       -0.32957858 0.17826691 -0.25240758 -0.58376133
0003f0 6f 3a 11 3e 12 32 54 be 8f 2f 83 bd 8a 18 89 3d
       0.14182447 -0.20722225 -0.064055555 0.066941336

rnn.weight_hh_l0 f4 [128, 128]
000000 3a 67 f5 3d 67 15 8f 3d a9 77 08 bd 77 3f c1 bd
       0.119825795 0.06986504 -0.03331724 -0.09435933
000010 f4 bd 2a be 57 75 16 bc c0 ba cc 3d 9c 05 1b be
       -0.16674024 -0.009183249 0.09996557 -0.15138859
000020 48 9c 85 3d 45 26 ab 3d 56 a2 2d 3e 72 0d 01 be
       0.06523949 0.08356909 0.16956457 -0.12602785
000030 64 fa 08 be 33 6c 16 be e2 e1 4f bc 75 14 c7 3c
       -0.13376766 -0.14689712 -0.012688132 0.024301747
000040 8f dc bc bd fb 01 0d 3e 8a fb b4 bd cd e2 08 3e
       -0.09221756 0.13770287 -0.0883704 0.13367768
000050 ea 54 60 3d 1a 99 5f 3d 7e 89 75 3d ef 8d ab bd
       0.05476848 0.05458937 0.059945576 -0.08376681
000060 fd 01 69 3d 15 87 8f bd 86 09 31 bd ba c4 93 3e
       0.05688666 -0.07008187 -0.043221973 0.28861028
000070 ba e0 6e be d5 43 4c 3e 23 44 8e 3c 49 f8 71 bd
       -0.23327914 0.19947751 0.017366474 -0.059074674
000080 ae 09 99 bd 95 46 95 3d df 5c 77 bd 04 a6 61 be
       -0.074725494 0.07288853 -0.060391303 -0.22035986
000090 3d fd 0a 3e ec 9e 09 be c8 c1 07 be 6d 97 7f 3d
       0.13573165 -0.1343953 -0.13257515 0.06240027
0000a0 c0 ed de 3d ba 35 39 bd d8 ee 1c 3e 74 4d 1a bd
       0.10885191 -0.045217253 0.15325487 -0.03767152
0000b0 bb c0 08 bd 7e 18 04 be 12 ea cb bd 4d dc fb bc
       -0.033386927 -0.12899968 -0.09956755 -0.030744696
0000c0 b8 87 65 bd d8 cc ee 3d 55 c5 12 be b1 78 b9 3c
       -0.056037635 0.116601646 -0.14333089 0.022640558
0000d0 3d 5b 30 be 59 04 3f bd 7d ed 10 bd c4 9e 12 3d
       -0.17222305 -0.046635006 -0.035382736 0.035795942
0000e0 5d 2e 18 3e f3 07 5d 3d 83 6a 30 3e dd c1 8d 3d
       0.14861436 0.05396266 0.17228131 0.06921742
0000f0 5d 89 1a be 4e a8 b2 bd f8 0d 5f bd 9d fd 22 be
       -0.15091462 -0.08723508 -0.05445668 -0.15917058
000100 36 91 6a bc e6 06 63 3d 09 75 88 be 8f c3 c3 bb
       -0.014316848 0.0554265 -0.2665179 -0.00597424
000110 a1 34 13 be fd fd 91 3d ea 40 4f 3d 25 88 35 be
       -0.14375545 0.071285225 0.050599016 -0.17727716
000120 fc d2 0d 3e 68 56 c0 3d 0b 31 3c 3e 2b 64 3a bc
       0.13850015 0.09391481 0.18378083 -0.011376421
000130 6a a4 3b bc be 98 0a 3b ad d2 e1 3d 04 8a 47 bd
       -0.011452774 0.002114817 0.11026511 -0.048715606
000140 33 e6 01 3b ca bb 48 3c e9 e1 a2 bc b0 34 34 be
       0.0019821047 0.012251804 -0.019883113 -0.17598224
000150 9f 79 96 3c 74 ad 01 be fc 96 52 3d 26 c1 eb 3d
       0.01836854 -0.12663823 0.05141352 0.115114495
000160 a9 b2 03 3d 13 dc 8b 3d f0 4c 95 bd 67 c2 84 3c
       0.032152805 0.06829085 -0.07290065 0.01620598
000170 cf d9 5b 3d 60 a6 55 be 0e 3f 9f 3d 96 0a 92 3c
       0.053674515 -0.20864248 0.077756986 0.017827313
000180 32 ce 2d 3e 08 c4 24 3e 55 12 b6 3d 6b 0b 1a 3d
       0.16973189 0.16090405 0.08890215 0.037608545
000190 c4 e6 70 3c 89 85 a1 bd 59 1e 56 3c 1c 44 ea 3d
       0.014703456 -0.07886798 0.013068759 0.11438772
0001a0 4a a7 d9 3d 0e 3d 3d be f3 c0 84 3c 79 47 9b 3d
       0.10627611 -0.18480322 0.016205287 0.07581992
0001b0 8b d6 2e 3d 4c 12 d8 3d a3 8a 11 3e 8a b6 11 3e
       0.042685073 0.10550365 0.14213042 0.1422979
0001c0 65 88 ff bd 5c 17 e8 3d ac eb 44 3d 1f af 99 bd
       -0.12477187 0.113325804 0.048076317 -0.07504105
0001d0 4e 41 1b bd b7 4a ba 3d 7b b5 b5 3b 78 8c 2e be
       -0.037904076 0.09096282 0.005545316 -0.17045772
0001e0 6a 11 02 3e 1d bc 0c be 2d 66 f0 3c b0 b0 4a bd
       0.12701955 -0.13743635 0.029345596 -0.04948491
0001f0 89 67 d9 bd 50 72 40 be 93 74 59 3d fe 11 2e 3d
       -0.10615451 -0.18793607 0.05308969 0.042497627
000200 7c 52 4a bd f8 80 48 bd 40 29 22 3d 05 7c 22 be
       -0.04939507 -0.04895112 0.03959012 -0.15867622
000210 9f 31 98 3d e7 07 5b 3d 58 e0 ce bc a4 5b 25 3d
       0.074313395 0.053474333 -0.02525346 0.0403706
000220 e8 1d 37 be fd f0 03 3e af 6e 68 3b b1 8a ef bc
       -0.17882502 0.12884898 0.0035466363 -0.029240938
000230 c1 64 03 3e 9d 4b e3 3b fc a5 97 3d 92 84 ca bc
       0.12831403 0.006936504 0.07404706 -0.024721418
000240 93 6a 2e bd 86 87 91 3d 11 ad 07 3e 6e 7b 27 3c
       -0.042582106 0.07105927 0.13249613 0.010222299
000250 46 ab 89 3c 35 93 2d bd b3 59 5d 3d 15 bf 12 3e
       0.016805302 -0.042376716 0.054040622 0.14330705
000260 76 e1 12 3d af 21 08 3e 9c ac 37 3c 75 5b ce bd
       0.035859548 0.132941 0.011210587 -0.10076038
000270 44 99 51 bc 7b 46 96 3d 14 5e 46 bd 8d 3d e1 3d
       -0.012792889 0.07337662 -0.048429564 0.10998068
000280 1c 9a 30 be 4e d9 3a 3e d8 c4 44 be 65 6d 93 3c
       -0.17246288 0.18246958 -0.19215715 0.0179965
000290 65 ed 87 bd 75 7a 91 bd 2b ae 8c bd d0 95 ab 3d
       -0.06637076 -0.07103435 -0.068691574 0.08378184
0002a0 82 01 21 3d 1b 9a 11 bb 67 8f cb bb d7 28 25 3e
       0.03930808 -0.0022217098 -0.0062121633 0.1612886
0002b0 f0 4d 8b 3d 65 fe a5 3c 68 a4 16 be 7f 38 26 3d
       0.06801975 0.020262906 -0.14711154 0.040581223
0002c0 23 ff aa bc 49 2f 22 be 3d e8 09 3e ae a4 e6 bd
       -0.020873612 -0.1583835 0.13467498 -0.11261879
0002d0 99 1e e7 3c 2e 81 14 3e e5 00 fd 3c b4 a9 0e be
       0.028212832 0.14502403 0.030884216 -0.13931924
0002e0 67 00 45 3e c8 7a 31 bd 8c f6 59 3d 88 9a 7d bc
       0.19238435 -0.043329984 0.05321364 -0.015478738
0002f0 1c 06 49 be c9 19 44 bd 76 a6 04 3e 9f 0b 67 3d
       -0.19631237 -0.047876153 0.12954125 0.056407567
000300 da 99 1a 3d 1d 9a 48 bb 66 be 72 3d ad 07 a1 3c
       0.03774438 -0.0030609437 0.05926361 0.01965698
000310 e7 39 b0 3b 4b 40 23 be d0 a4 98 3c 59 37 5d be
       0.0053779962 -0.15942495 0.018633276 -0.21603145
000320 dc 56 85 3e d4 bc 1c 3d 75 b7 3e 3d b0 3c 83 3d
       0.2604283 0.038266018 0.046561677 0.064080596
000330 8b ab 0f 3e 9b 3b 8a 3d 77 24 70 3d e5 17 a9 bd
       0.14030282 0.0674965 0.058628526 -0.08256511
000340 52 3a 9c be 81 e1 3a bd de 7f 02 3d 45 00 03 3d
       -0.30513245 -0.045625214 0.031860225 0.03198268
000350 a1 fa 43 be a9 db 80 bd 48 df 32 be c4 11 8d 3d
       -0.19138576 -0.06291897 -0.17467988 0.06888154
000360 1f a1 6c bd 90 9e a7 3c 77 70 25 3e bf 4e 1d 3e
       -0.057770845 0.02046135 0.16156183 0.1536207
000370 15 65 55 bd e9 e8 57 3e 14 b9 14 bd 0d 79 c1 3d
       -0.052098352 0.21084942 -0.036309317 0.09446917
000380 d8 3b ff 3b af 42 f9 bd 28 f4 a2 bd 5f db 12 3e
       0.0077891164 -0.12170922 -0.07956725 0.14341496
000390 94 73 06 bd b3 a5 4a 3d 6f 94 dd 3d 69 04 27 be
       -0.032825068 0.04947443 0.10819327 -0.16310276
0003a0 6a 21 08 3e 35 bd 22 be 4d 5e 24 3e 3f d4 7e 3b
       0.13293996 -0.15892489 0.16051598 0.0038883833
0003b0 a6 78 01 3c be 80 11 3e 2c c7 67 be 22 15 80 3e
       0.0079023 0.14209267 -0.22634572 0.25016123
0003c0 c2 ed c6 bd 32 12 3e be 91 07 34 be 01 85 3b 3d
       -0.097133175 -0.18561628 -0.17581011 0.04578114
0003d0 17 61 c9 bd 48 ce 3c 3e d3 70 dd 3b 87 a3 8c bd
       -0.098329715 0.18438065 0.0067578345 -0.06867128
0003e0 01 17 ab bd ba f3 8c bd 41 92 c2 bd 8e e7 6c 3d
       -0.08353997 -0.06882425 -0.09500552 0.057838015
0003f0 8c 38 aa 3e 75 0e 2a be 82 fe 31 3d d2 95 34 3d
       0.33246267 -0.16607077 0.04345561 0.044088192

rnn.bias_ih_l0 f4 [128]
000000 25 13 75 bd 7c 1e 16 bd 87 fa 10 be 1d b5 71 3c
       -0.05983271 -0.036650166 -0.14158069 0.014752653
000010 72 68 6f bd e0 da 13 bc c9 41 af bc 78 55 df bc
       -0.058449216 -0.009024352 -0.021393673 -0.027262434
000020 ea e1 32 bc b2 40 07 bd 40 4d ce 3d cb be 5c 3d
       -0.01091812 -0.033020683 0.10073328 0.05389289
000030 bf 67 ad bc 48 7b 6b 3d 30 40 bb 3c d5 7b f9 3d
       -0.021167634 0.057490617 0.022857755 0.12181822
000040 8e 9d bd 3d cf 41 7c 3a a0 e2 98 bd 95 f3 14 bc
       0.09258567 0.00096228434 -0.074651 -0.009091278
000050 9f a4 b2 bc 34 82 16 3c f8 cc 15 3b 79 5b 7d bd
       -0.021807013 0.009186316 0.0022857767 -0.061854813
000060 8d 35 9d bd 9c 32 b7 bc f5 e0 21 bd 82 5d ab 3d
       -0.076762296 -0.022363 -0.039521176 0.083674446
000070 32 9c 23 ba a8 3f 4a 3d 46 32 b0 3b 98 63 6d 3d
       -0.00062412315 0.049377114 0.005377087 0.057956308
000080 fd 9b 9e bd 66 cf 13 bc f1 11 7f 3d 9a 6d e1 bd
       -0.07744596 -0.009021616 0.06227297 -0.11007233
000090 13 65 99 bd 78 04 da bc c3 be d4 3d aa 28 af 3a
       -0.074899815 -0.026613459 0.103879474 0.0013363559
0000a0 66 65 fc bb 98 80 01 bd bb 59 8a 3d 9c 44 bb 3d
       -0.0077025173 -0.031616777 0.06755396 0.091439456
0000b0 bf 5b c1 3a e0 4f ad bd 2e 2a 2f 3c 79 74 35 3d
       0.0014752074 -0.084625006 0.010691209 0.04430053
0000c0 24 4f 99 bd 09 69 3e 3d b3 18 96 bd 59 7a a7 38
       -0.07485798 0.046486888 -0.0732893 7.9859696e-05
0000d0 86 a5 8a 3a 7a 89 ac 3c 1b 6b 00 bd 97 cb b1 3d
       0.0010577894 0.021061648 -0.031352144 0.0868141
0000e0 87 4d 99 3d 4b 77 89 bd 55 de 7e 3d 9c 3e 89 3d
       0.0748549 -0.067122065 0.06222375 0.06701395
0000f0 db e0 1e bd f7 e1 63 bd 61 2f f1 bc 17 f1 89 3d
       -0.038788658 -0.05563542 -0.029441537 0.06735437
000100 ae 15 8e 3d 71 71 8a 3d 3d b5 a6 3d 99 98 8d 3c
       0.06937729 0.067599185 0.08140037 0.017284678
000110 4d 13 9d 3c 27 f5 4f 3d b5 c4 51 3d df 7a 85 bd
       0.019174242 0.050770905 0.051212985 -0.065175764
000120 4c c5 4e bc 9d ec 26 bd 5c a1 9d bd f7 ae 0b bd
       -0.012620281 -0.040752996 -0.076967925 -0.034102406
000130 55 85 eb 3b 8a 97 05 bc 74 93 9c 3d db 9c 67 3d
       0.0071875253 -0.0081538055 0.07645312 0.056546073
000140 3c 18 59 bd 79 7a ad 3c 8d c7 a9 bc 6d b5 0f 3d
       -0.053001627 0.021176564 -0.020725036 0.03508513
000150 c2 e2 d6 bc 2a 10 15 bd 21 a5 6e 3d 8c ce 13 bd
       -0.026231173 -0.03639237 0.058262948 -0.03608565
000160 cd c4 f3 3b 33 6e 88 bd 23 bd 43 3b 1d e3 dd b9
       0.007439232 -0.06661644 0.0029867373 -0.00042321617
000170 bf 44 a6 bb 51 4b a0 3b 03 d4 3f bd bd 5e 67 3d
       -0.005074113 0.004891791 -0.04683305 0.056486834
000180 2c 81 d2 bb 8b 9e 4e bb e8 67 44 bc 79 55 fc bc
       -0.00642409 -0.0031527604 -0.011987664 -0.030802475
000190 24 e8 c4 bd 43 e4 98 bd 5f cf 58 3b f0 80 ce bc
       -0.0961459 -0.074654125 0.0033082587 -0.025207967
0001a0 af f9 89 bd 63 cd 96 bc 43 47 94 3d e6 a7 e5 3c
       -0.067370765 -0.018408483 0.072401546 0.028034162
0001b0 81 2d dd 3c 38 03 c9 3c 4c 06 2f bb e5 c6 da 3b
       0.026999237 0.024537668 -0.0026706634 0.006676542
0001c0 6d d5 27 3d f4 42 76 bd a9 d7 5c 3d 59 af 75 bd
       0.040975023 -0.060122445 0.053916607 -0.059981678
0001d0 65 88 99 3d b0 03 8e 3d e1 1d ad bd c9 34 09 3d
       0.07496718 0.06934297 -0.084529646 0.033497605
0001e0 57 b4 c4 bc 3f de 92 bc 67 74 44 3d 6a 1e d3 3c
       -0.024011774 -0.01792824 0.047962572 0.025771338
0001f0 4b 9d 73 3d db be 81 bd 17 b7 92 3d 08 e9 8b bd
       0.05947618 -0.06335231 0.07163828 -0.068315566

rnn.bias_hh_l0 f4 [128]
000000 c7 79 76 3d e7 34 50 3d 18 16 e9 bd 96 56 1b bd
       0.06017473 0.0508317 -0.11381167 -0.03792437
000010 f3 c2 1e bc c9 a8 e1 3b 0c ae 39 bd 3e 5c 8f 3b
       -0.009690034 0.006886576 -0.045332 0.00437501
000020 cb 09 a9 bd 10 d6 84 bd f7 eb 37 bd 01 1a 40 bd
       -0.08253821 -0.06486142 -0.044902768 -0.0468998
000030 2f 14 ba 3d 90 d2 4e 3d 0d b3 c6 3d 71 2f 85 3c
       0.09085881 0.050493777 0.0970212 0.016257973
000040 35 ca 85 3d 6e 6d 2e 3d 7a 81 61 bd c0 c1 8b 3c
       0.065327086 0.04258483 -0.05505512 0.01706016
000050 60 eb 01 bd cf df 98 3c 60 b7 b4 3c 2b 6f 73 3c
       -0.03171861 0.018661408 0.022060096 0.0148580475
000060 a9 a8 80 3d 6d b1 04 bd 75 be a5 3d ce 22 83 3d
       0.06282169 -0.03239577 0.080929674 0.06403123
000070 13 8a 32 3d 9a 09 c3 3c ed 2f 83 bc f8 49 0a bc
       0.04358871 0.02380829 -0.016014064 -0.008440487
000080 15 cb 01 3d d8 9a a8 bd d1 00 59 bd cc fb 88 bd
       0.031687815 -0.08232659 -0.052979294 -0.066886514
000090 ec 3e 0a bd 20 fc eb 3c 37 c2 0a bd d5 39 e3 bc
       -0.033751413 0.028806746 -0.033876624 -0.027737537
0000a0 55 c0 67 3d 8d 0d 54 3d 07 48 96 3c 9d 32 0f bd
       0.056579906 0.051770736 0.018344892 -0.034960378
0000b0 6a 35 70 bd 0c 61 94 3d dd 63 3c bc ea cd 5d 3d
       -0.05864469 0.07245073 -0.011498419 0.054151453
0000c0 01 10 9d bd d1 df f3 bc 75 fb a9 bd b2 2c 5a 3d
       -0.07669068 -0.02976981 -0.08299915 0.05326528
0000d0 0f 8b 5c bc 0b 67 fd bc be 11 6f bc ab 85 23 bc
       -0.0134608885 -0.030932924 -0.014591632 -0.009980599
0000e0 38 91 f3 bc a9 72 d7 bc 53 f7 5a 3a 05 39 b6 3d
       -0.029732332 -0.026299791 0.0008352894 0.08897594
0000f0 48 f2 81 bb e5 c8 55 3d df 0f 3a 3d e2 95 ce bc
       -0.0039656498 0.05219354 0.045425292 -0.025217954
000100 40 0e 89 3d e3 c4 6d 3d 4b 67 a1 bc 7d da 85 bd
       0.06692171 0.058049094 -0.019702574 -0.06535814
000110 2c cb 3e 3c 76 0a 25 3c 27 ff 86 bd ce 92 82 bd
       0.01164512 0.010073295 -0.06591635 -0.06375657
000120 c4 d8 4f 3d 72 f3 d8 3c 12 df d6 3c 50 37 be bd
       0.050743833 0.026483271 0.026229415 -0.09287894
000130 8b 16 8e bd 25 a6 e8 3d d3 90 b4 3d 1a 6c 9a 3d
       -0.069378935 0.113598146 0.088166855 0.0754015
000140 1b d3 1b bd 2e f0 0b 3d 29 d2 7f 3d 29 db d9 3c
       -0.038043123 0.0341646 0.062456284 0.026593762
000150 f1 2d 26 bd 2e 3e a9 3d dd 5b be 3d ca 7e 5e 3d
       -0.040571157 0.08263813 0.09294865 0.054320134
000160 84 48 9b bd 16 38 5e 3c 11 45 4f bd 5f f9 a5 39
       -0.07582191 0.013563177 -0.050602976 0.00031657048
000170 ab 31 2b 3d 50 92 b9 bb 8b a6 dd bd d3 51 8e bd
       0.041795414 -0.0056631938 -0.10822781 -0.069492005
000180 c0 a7 97 3d 45 d8 d7 3d d4 a4 51 3d eb 3a 88 bd
       0.07405043 0.10539297 0.051182583 -0.06651863
000190 84 73 44 bd 4f bf 58 3d 05 84 0b bd cb d1 51 bd
       -0.047961727 0.05291682 -0.03406145 -0.051225465
0001a0 14 f8 93 bb 89 bb be 3a bb cd 71 bc 9b 77 d4 bc
       -0.004515657 0.001455174 -0.014758523 -0.025935939
0001b0 22 dc 29 bd eb 9d 4c bd 73 4b 72 3d 52 fe 81 bd
       -0.0414697 -0.04995529 0.059153985 -0.06347336
0001c0 53 c1 03 bd b5 9a b3 3c 46 ad dc ba 26 65 89 bc
       -0.03216679 0.021924356 -0.0016836307 -0.016771864
0001d0 ac 11 61 bd 38 15 b3 3d 5d 5c 11 3d 87 c9 ee 3c
       -0.054948494 0.087442815 0.035488475 0.02914883
0001e0 a9 a3 a2 3c 2e 60 b8 bd 12 96 29 bc f5 88 63 bd
       0.01985343 -0.0900272 -0.010350721 -0.055550534
0001f0 64 91 46 bd 24 8e 64 bd f5 c7 26 bc 97 db 93 3d
       -0.0484785 -0.05579962 -0.010179509 0.07219618

fc.weight f4 [18, 128]
000000 70 c3 89 be d1 b4 01 3f 2f 83 ce bd 79 b7 6f 3e
       -0.2690692 0.5066653 -0.10083615 0.23409833
000010 09 30 e9 3e b3 46 84 be 2f e3 91 be b3 53 6e be
       0.4554446 -0.2583519 -0.2849364 -0.23274116
000020 06 97 f4 be 8a a9 6e be 53 cb 13 be b6 4d 56 be
       -0.47771472 -0.23306862 -0.14433031 -0.20928082
000030 33 bc a7 be f7 f2 85 bd cc 9b 7a be e3 e0 28 bd
       -0.32760772 -0.065404825 -0.24473494 -0.041230094
000040 59 91 ff be cd 2a 8b be 16 c4 6e 3e 7b b1 ee 3d
       -0.4991558 -0.27181092 0.23316988 0.116549455
000050 04 84 95 be 3b f2 03 3f 02 f6 ea 3e 80 7f 03 3e
       -0.29202282 0.5154149 0.45890814 0.12841606
000060 1f 6a 2c bf 78 80 8e 3d ab 22 fd bd 77 68 e3 3d
       -0.6734943 0.06958097 -0.12360128 0.111039095
000070 d7 8f 14 be 38 03 58 3d e9 22 bf bd 1f 83 6b 3d
       -0.14507996 0.052737445 -0.093328305 0.057498094
000080 e2 4a 3b 3f b6 c7 01 3f 61 38 35 3e d1 d9 2c be
       0.7316114 0.5069536 0.17697288 -0.16879965
000090 1a f7 3c 3e b8 fd 0c 3f da 2f ab be a3 b7 5a be
       0.18453637 0.55074644 -0.33434945 -0.21359114
0000a0 45 54 39 be 1e 69 d7 be 5f 1d 09 bf 4f ee a2 bd
       -0.18098553 -0.42072386 -0.5356044 -0.0795561
0000b0 b4 5e d9 be bc a5 0b 3d f7 63 6a be 72 b5 69 3e
       -0.42455065 0.034093603 -0.22889696 0.22823122
0000c0 ac 14 5d bd 0e 63 1c be 65 aa f1 3e 4a ee 54 bd
       -0.053974792 -0.15272161 0.47200313 -0.051985063
0000d0 d0 e5 05 bf 72 97 d6 3d 41 12 b6 bc f6 01 c5 be
       -0.5230379 0.10478105 -0.022225501 -0.3847806
0000e0 3e f3 a5 be 65 30 97 bd 94 f7 16 3e 26 8d 52 bd
       -0.32412142 -0.073822774 0.14742881 -0.05140414
0000f0 c9 08 be be f6 d7 b5 3e 2e 26 51 bd e0 14 66 3e
       -0.37116078 0.35516328 -0.0510618 0.224689
000100 44 e3 37 bf a6 e3 aa bd 73 84 91 3d b3 b6 8e bd
       -0.71831155 -0.08344202 0.07105341 -0.06968441
000110 4c 6f 35 3e a6 e7 b8 3e 7b ff 50 3e 00 f0 66 3e
       0.17718238 0.36114234 0.20409958 0.2255249
000120 d0 ca b7 bd 14 2f 31 3e f5 33 d5 3e 86 5d a0 be
       -0.0897423 0.17303115 0.41641203 -0.31321353
000130 2e f8 d2 3e c5 be b4 3d 2c f5 a1 bd 97 87 13 bc
       0.4120497 0.08825449 -0.07908091 -0.009004495
000140 45 97 01 bd a9 96 56 3d 86 98 81 bd 15 ca ed 3e
       -0.031638402 0.052389774 -0.0632792 0.4644324
000150 54 fd 3f be a9 e1 79 be be 31 ca be e4 d0 87 3e
       -0.18748981 -0.24402489 -0.39491075 0.26526558
000160 d8 95 22 bf 9d cf 19 bf 24 c3 ac bd cc ec ec ba
       -0.63509893 -0.6008242 -0.084356576 -0.0018075942
000170 e5 f6 15 be 59 38 a0 3c 03 11 a2 3e 0d bb 44 be
       -0.14644964 0.019558119 0.31653604 -0.19211979
000180 0b c8 a0 be c9 8d e2 3e a0 c6 bb 3e dd bb a0 ba
       -0.3140262 0.44248798 0.36674976 -0.0012263019
000190 83 b5 5a bf 62 ca 1b 3d 80 ea 38 be f7 bf 01 3f
       -0.85433215 0.038034804 -0.18058205 0.5068354
0001a0 b4 35 17 3f 82 de 67 3e 83 36 02 bf ff c1 b3 3e
       0.5906632 0.22643474 -0.5086443 0.35108945
0001b0 3a cc 5c bd 0a a6 08 3e 4e 5a 63 3e cc 41 00 be
       -0.053905703 0.13344589 0.22202417 -0.125251
0001c0 bd 3f 30 bd e9 fb a4 be bc 3a 4e bc 76 c6 31 3d
       -0.043029536 -0.32223442 -0.012587246 0.043402158
0001d0 a2 a1 18 be 01 d6 c4 bd e6 53 86 be 37 d7 1b be
       -0.14905408 -0.096111305 -0.26235884 -0.15218817
0001e0 bf 8a ed 3d 84 05 8e bd b1 a8 93 bd 5e bb 19 bd
       0.11598729 -0.06934646 -0.0720991 -0.037532203
0001f0 6e b0 86 3e d0 68 cc 3e eb f7 39 bc 0e be 6c be
       0.2630648 0.39923716 -0.011350612 -0.23119375
000200 ab d6 5a 3e f1 39 d7 3c 86 0d 6b bd b3 c2 d6 be
       0.21370952 0.026272746 -0.057385944 -0.4194542
000210 71 03 0d 3e f2 bc a3 3e 08 8c a2 3e 1b e0 3e be
       0.13770844 0.3198009 0.3174746 -0.18640177
000220 b8 a7 21 3e fa a7 b2 bd 13 1e 91 be ad 01 ee 3d
       0.15786636 -0.08723445 -0.28343257 0.116214134
000230 3b 22 85 3e 76 f3 3f 3d 50 67 e4 bc 60 39 d1 bd
       0.26002678 0.04686304 -0.027881294 -0.102160215
000240 23 95 1d 3e 2f b9 4c 3b d8 83 29 be 88 e4 94 3e
       0.15388922 0.0031238308 -0.165542 0.29080606
000250 2a ea 67 3e 17 e5 6a bb 5a fb d9 be 87 3e 30 3e
       0.2264792 -0.0035842115 -0.4257458 0.17211352
000260 7a d8 d9 bd 32 08 8c bd 54 84 db 3c 2d 93 00 3e
       -0.10636993 -0.06837501 0.026796497 0.12556143
000270 62 be f6 3d 5e 95 83 3e 6c 0f 61 3e 54 62 95 be
       0.120480314 0.25699896 0.21978539 -0.2917658
000280 52 4f 99 bd b2 83 b7 be 7b 08 2b be e3 f4 ea 3e
       -0.07485832 -0.35842663 -0.16702454 0.4588996
000290 e0 b8 b0 3e 9e 26 37 be 70 c1 55 3d 72 a6 cf be
       0.34516048 -0.17885825 0.05218643 -0.40556675
0002a0 00 db cf 3e 47 2e 39 bd 99 7d 7d 3e bc bb 1a 3e
       0.4059677 -0.04521015 0.24754943 0.15110677
0002b0 8c 59 e7 3c 16 e4 4e bd e0 ae 24 be 8c 93 ac bc
       0.028240941 -0.05051049 -0.16082335 -0.02106645
0002c0 3f 49 3e be 62 44 d0 3d cc f1 9e be 72 bc 61 3d
       -0.18582629 0.10169293 -0.3104385 0.055111356
0002d0 44 ec 4e 3e 03 57 eb bd d7 63 0e 3f 6e b1 4b 3e
       0.20207316 -0.114912055 0.55621094 0.19891903
0002e0 1e 5c 5e 3e 49 a8 3b be 5c 69 ec bc 31 c8 a2 3d
       0.21714827 -0.18325914 -0.028858833 0.0794834
0002f0 2e c2 55 3d 4a c9 e7 be cc 13 b2 3e 9c 7b 75 3e
       0.052187137 -0.4527076 0.3478073 0.23972934
000300 b0 55 17 3d 31 4a 09 3f 5d c0 7b be 68 6d 46 be
       0.036946952 0.5362883 -0.245851 -0.19377673
000310 5d c2 cd be e9 a7 e8 be 75 a2 12 3e 24 dc bb 3d
       -0.4018735 -0.45440605 0.14319785 0.09172848
000320 7f 95 9f 3d 2e 8f 2b bd 0c 77 9c be 26 1e 8e be
       0.07792186 -0.041884594 -0.30559576 -0.27757376
000330 f3 0f 86 3d 1d 1a 6d 3d cd 0c 23 be 74 dd a0 be
       0.06546011 0.05788623 -0.15922852 -0.31418955
000340 64 cd ea 3d eb ff 43 3e 83 8e 83 3d 82 4c 08 be
       0.114649564 0.19140594 0.06423666 -0.13310435
000350 3d ea 32 bd ea 61 ae be 98 bc 01 3f 73 b3 6a be
       -0.04368042 -0.34059078 0.50678396 -0.22920017
000360 8c c6 97 be a0 29 bc 3e cf 59 70 bd 3d 1b 0c 3f
       -0.29643667 0.36750507 -0.0586794 0.5472906
000370 1d 39 62 be 61 e6 68 be 0f 7b e5 bd 83 d2 f7 3d
       -0.220921 -0.22744133 -0.11205112 0.12100699
000380 1c 82 f3 3e 29 2d 84 3d 93 4d f0 3c 3c c4 1d be
       0.47560203 0.06453926 0.029333865 -0.15406889
000390 bf 08 1e 3f 7c 6d 1a 3d 5b c1 38 3d b4 9a a4 be
       0.61732095 0.03770207 0.045106273 -0.3214928
0003a0 5c 7b f6 3e 10 2f 37 3e 91 b5 83 be fb 62 99 be
       0.4814099 0.17889047 -0.25724462 -0.2995833
0003b0 ce 59 94 3e 23 68 88 be bf 46 b1 be 73 a5 ec 3e
       0.28974766 -0.2664195 -0.34624287 0.46219978
0003c0 ff bf 00 bd c5 5b 8d bd 67 06 7d 3d 16 b9 57 3e
       -0.0314331 -0.06902269 0.061773684 0.21066698
0003d0 1c 1f f8 3d ea 5d 09 3e a1 6c c0 3d 47 41 b9 bd
       0.12115309 0.13414732 0.09395719 -0.09045654
0003e0 20 3a 1a bd d2 02 04 3d 2f 55 b2 3e 9b b2 ad bd
       -0.03765309 0.032229252 0.34830615 -0.08481332
0003f0 7c 24 05 3e 83 5d 8a bd e6 20 9a be bb 18 dc 3c
       0.13002199 -0.06756117 -0.30103225 0.026867261

fc.bias f4 [18]
000000 7b 33 a8 bd bc 7c a1 bb 9c ef 4a be 89 c8 31 bd
       -0.08212944 -0.0049281996 -0.19817966 -0.043404136
000010 5d eb 02 be 78 08 44 bd d2 91 f1 3b 9e 48 c1 3d
       -0.12785096 -0.04785964 0.0073721195 0.09437679
000020 ef f2 e5 bd 69 32 7e 3c e4 f9 5c bd 41 f4 81 3c
       -0.112279765 0.015514948 -0.05394925 0.01586354
000030 95 3e e1 3d 4e cd bf bd b3 94 9f 3a 14 98 01 3e
       0.10998265 -0.09365331 0.0012175053 0.1265567
000040 39 f8 99 3c 3d 53 9e 3c
       0.01879512 0.0193268
