text_classify/logs/RNN/RNN_epoch_60_acc_0.7988.pth (torch, 107761 bytes, 6 tensors)

rnn.weight_ih_l0 f4 [128, 57]
000000 69 eb 23 bf 49 cd 54 be 37 6c db be 14 b8 ea 3d
       -0.6403108 -0.20781435 -0.42856 0.11460891
000010 9a c1 72 3e 8e ac 06 be a4 36 00 3e 22 33 80 3e
       0.23706666 -0.13151762 0.12520844 0.2503901
000020 24 8e 88 bd b0 00 19 bc 56 ea 02 3f b8 23 77 3e
       -0.06667736 -0.009338543 0.5113882 0.2413472
000030 42 fa bd be 1d d7 8e 3e 8b 13 03 bf 6a 11 c2 3e
       -0.37104994 0.27898493 -0.51201695 0.3790391
000040 01 1d 1e 3f bd e0 ea 3e da 81 56 bd 49 6b 2e 3f
       0.61763006 0.45874587 -0.05236993 0.68132454
000050 4f 9d 85 3d 8a f0 43 3f 21 b8 e2 3e 40 22 1f 3e
       0.06524145 0.7653891 0.44281104 0.15540409
000060 9f c7 23 bf 1f 38 f4 be 64 e1 4b 3e a7 dc 04 3d
       -0.6397647 -0.47699067 0.19910198 0.032436993
000070 05 90 42 be 3d 54 5f be c6 78 57 be 8d 76 66 3d
       -0.19000252 -0.21809478 -0.21042165 0.056265403
000080 6e a5 84 bc 84 c9 e8 bd 85 82 ad bd fc 09 c6 bb
       -0.016192164 -0.11366561 -0.0847216 -0.0060436707
000090 e2 35 08 3d 52 8f a8 3e 3a cf 52 bd 1b c8 b9 3b
       0.03325451 0.32921845 -0.051467158 0.0056696064
0000a0 8d 83 89 be 82 ac 81 3e 0b 4b 2e be 73 b3 05 bd
       -0.26858178 0.25326926 -0.17020814 -0.03264184
0000b0 f8 53 f2 bd 61 49 a2 bd 10 2c aa 3d 18 ee 07 3c
       -0.11832422 -0.07924152 0.083091855 0.008296512
0000c0 b0 4e 33 3e 05 81 96 be fd e5 f9 bd 7a 7b 5c be
       0.17510486 -0.2939531 -0.1220207 -0.21531478
0000d0 07 02 fb bd 80 62 77 bd 34 aa 91 3d d5 8d 23 bd
       -0.12256246 -0.06039667 0.07112542 -0.039930183
0000e0 aa 6f e8 be da 30 04 3f 3f 55 f6 3e 5b 86 cc 3d
       -0.45397693 0.5163704 0.48111913 0.09986564
0000f0 a4 9d 82 3d a9 38 78 bd 92 2c 04 bd 68 ae df 3e
       0.06377724 -0.06060091 -0.032269068 0.4368775
000100 69 80 08 3e 8a ed 91 3e 21 4f 8a bd be a9 0a 3f
       0.13330235 0.2850154 -0.06753374 0.54165256
000110 34 dc 8b 3e 87 90 a8 be 69 b2 cf be e3 6f 04 3f
       0.2731644 -0.32922766 -0.40565804 0.51733226
000120 c1 80 22 be 12 15 83 be ae 1e c1 be 57 80 03 bf
       -0.15869428 -0.25602013 -0.3771872 -0.51367706
000130 b8 10 a0 be b9 55 c8 be da f3 88 be ea 41 2f 3d
       -0.31262755 -0.391279 -0.26748544 0.04278747
000140 c1 e3 ac be 8a e6 e3 be 91 9c 30 bd e5 df 41 3e
       -0.33767512 -0.44511825 -0.043118063 0.18933065
000150 30 d6 bb 3e 61 6d 16 be 37 a6 87 3d 73 22 93 3e
       0.3668685 -0.14690162 0.066235 0.2873722
000160 7b 1d 52 bd b5 58 8d be 82 cc 91 3d 2a 16 e6 3c
       -0.051297646 -0.2760674 0.07119085 0.02808674
000170 20 2e 07 3e 3c 9a b8 3d 1e 86 57 3e d6 b0 08 be
       0.13201189 0.09013793 0.21047255 -0.13348708
000180 3c ab 4c 3c d1 1e 98 3c 84 1d 8f 3d b0 95 3f be
       0.012491997 0.018569382 0.069880515 -0.18709445
000190 65 11 e8 bd bb 70 bd bd a4 27 0b be a3 62 3a 3c
       -0.11331443 -0.09250017 -0.1358934 0.011376056
0001a0 c6 37 23 3d 95 35 fe bd 81 8a 89 bc 0b ab e0 3c
       0.03984811 -0.12412564 -0.016789677 0.02742531
0001b0 65 9e 7a bd be f3 c1 3d c4 3f 83 3d 20 63 99 be
       -0.061186213 0.09470318 0.06408647 -0.2995844
0001c0 f0 cd a1 bc 47 c8 8a bd 3e 7f 79 3e dd 71 a6 3e
       -0.019751519 -0.06776481 0.24364945 0.32508746
0001d0 36 40 16 be 36 fa bf 3e 64 77 67 be 00 73 86 3d
       -0.14672932 0.37495583 -0.22604138 0.06564903
0001e0 da 35 12 bf e9 d6 13 be 3f 73 56 3e 80 46 2c 3e
       -0.5711342 -0.1443745 0.209424 0.16823769
0001f0 c5 29 83 3e 3f 16 44 be 7a 60 6d be 3f 16 aa be
       0.25617805 -0.19149111 -0.23181334 -0.33220097
000200 c5 ac 47 be a8 f5 81 be 25 5f 0e bf 22 71 a8 3d
       -0.194995 -0.25382733 -0.5561393 0.08224703
000210 00 6f ac 3d 23 83 b4 bc 46 c2 06 3e 5d 5d 35 bf
       0.08419609 -0.022035187 0.13160047 -0.70845586
000220 2b 9a db bd 26 55 de be e6 89 fa 3d d9 1a 08 3e
       -0.107227646 -0.43424338 0.12233333 0.13291492
000230 5a 0f 32 3e 8c 3f 71 bd 86 19 5e 3d 21 d5 13 3e
       0.17388669 -0.058898494 0.05422356 0.14436771
000240 fe 41 a5 bc 32 3c f0 bd 86 a4 00 bd 5f 39 16 3c
       -0.02017307 -0.11730231 -0.0314069 0.009168952
000250 6b 2c a4 3e 88 13 c4 3d ae d7 32 3d d4 75 93 bd
       0.32065138 0.09574038 0.04366272 -0.07200208
000260 2e 9a 21 be 00 41 7b 3d ca d2 c2 3d 86 9c 54 bd
       -0.15781471 0.061341286 0.09512861 -0.051907085
000270 b8 8c 3b 3d 0b e1 f5 bd 13 f9 cd bc 2f cc ca 3d
       0.045788497 -0.12005814 -0.025143182 0.09902226
000280 5a 04 27 3d 00 f7 c1 3d b5 16 07 be e7 c4 0e bd
       0.040775634 0.0947094 -0.13192256 -0.03485575
000290 9c 26 77 3c 17 9e d2 3c 36 34 93 3d a8 81 27 3d
       0.015084889 0.025710149 0.07187693 0.040895134
0002a0 9b a0 fe bd e1 49 34 bd ef 43 ff ba 78 04 52 3b
       -0.12432977 -0.04401577 -0.0019475202 0.003204612
0002b0 b5 66 42 3e a5 6e 00 3e 0a 3c 0f 3d 84 bc 34 be
       0.18984492 0.12542208 0.034969367 -0.17650038
0002c0 f7 f8 11 3f 75 2d e5 bd 44 b3 f5 be 0f 50 ac 3e
       0.57020515 -0.11190311 -0.4798833 0.3365483
0002d0 e9 18 b6 bc d5 68 39 bd 1e 98 cb 3e 35 a2 9b bd
       -0.022228675 -0.04526599 0.39764494 -0.07599298
0002e0 eb 95 9f be 48 37 d6 3c fe 20 69 3e 4a 05 6a be
       -0.31169066 0.026149407 0.22766492 -0.2285358
0002f0 dc 45 c5 3e f2 df 3e be 54 69 2c be c8 5b 20 3e
       0.3852986 -0.18640116 -0.16837054 0.15660012
000300 69 ef 04 bf 61 96 43 bc f2 ae 15 3f df dc 3f bf
       -0.5192781 -0.011937709 0.5847007 -0.749464
000310 9f 88 fa 3e fd 92 c3 be be 25 83 3d e2 6b a2 3e
       0.4893236 -0.3819808 0.06403683 0.31722933
000320 f6 d1 9a 3d fa 16 3e be 1f b9 d6 3c 46 f0 64 3b
       0.07559578 -0.18563452 0.02621132 0.0034933253
000330 b5 2b 8a bb 49 1f 23 be c8 18 25 3e b0 e1 15 3d
       -0.004216636 -0.15929903 0.16122735 0.036592185
000340 90 d8 37 3e 10 b3 3e bd ba ae 10 be b1 fc 99 bd
       0.17953706 -0.046557486 -0.14129153 -0.075189
000350 11 93 d4 3d 77 2a 2b 3d ec b1 93 3c 6c 5a ae bc
       0.10379613 0.041788545 0.018029176 -0.02128335
000360 a8 62 80 bc 8b 4d 5f bd a4 4f de 3c b0 8b 2f 3e
       -0.015672043 -0.05451731 0.027137585 0.1714313
000370 a4 17 9c 3e 94 ae 9a 3c 15 dc 64 3d 6d 19 be be
       0.30486786 0.018882073 0.05587395 -0.37128773
000380 e3 db 1f 3c 06 d2 6c be db a0 43 3d 01 90 8f be
       0.009757015 -0.23126993 0.047760826 -0.28039554
000390 0e 8f ad bc 71 1e 60 3e 11 ea 2c bf 36 37 a1 3d
       -0.021186378 0.21886612 -0.67544657 0.07871859
0003a0 fe a4 89 3d dd b9 cb bd d1 2c 93 be b0 64 bf be
       0.06720923 -0.0994756 -0.2874513 -0.37381506
0003b0 f8 8b b3 3e 17 b9 8b bd bf a8 b0 bd f6 2e 1f be
       0.35067725 -0.068224125 -0.08625936 -0.15545258
0003c0 6f 8f a1 be 9f 91 46 be b9 64 e2 3e 0c 80 5f be
       -0.31554744 -0.19391488 0.4421747 -0.2182619
0003d0 0b 76 e4 3d 58 06 5c be 52 e3 42 3d bf 28 89 3e
       0.111553274 -0.21486795 0.04758007 0.267889
0003e0 d2 1c a7 be 87 13 4a 3e 3d ee 83 be ff 39 1c bf
       -0.32639176 0.19734012 -0.257677 -0.61025995
0003f0 70 41 30 3e e9 d1 64 be 03 7a 57 bd 6b 0e c8 3d
       0.17212462 -0.223457 -0.052606594 0.09768375

rnn.weight_hh_l0 f4 [128, 128]
000000 f1 5c db 3d 8f 6f 7d 3d 88 bf ff bc 1f 77 8f bd
       0.107110865 0.06187397 -0.031219259 -0.070051424
000010 a5 ed 13 be f0 c4 6b bc c1 da bb 3d 9e 20 0a be
       -0.14446123 -0.014390215 0.09172583 -0.13489005
000020 c1 5a 88 3d f2 3b ad 3d ba 3f 10 3e e6 1a 01 be
       0.06657935 0.08458699 0.1408681 -0.12607917
000030 83 d0 0e be 61 c0 0b be 68 d6 0e bd f5 1b ec 3c
       -0.13946728 -0.13647605 -0.034872442 0.028821925
000040 b7 9a 94 bd 55 ef f5 3d 14 7d 9a bd f4 bc dc 3d
       -0.07256072 0.120085396 -0.07543388 0.107782274
000050 07 0a 3f 3d b6 a8 2d 3d bb 35 68 3d cf 07 84 bd
       0.046640422 0.042397223 0.056691866 -0.06446802
000060 77 30 f7 3c 01 26 87 bd 93 62 9f bc 05 49 89 3e
       0.030174477 -0.065990455 -0.019456184 0.26813522
000070 33 75 49 be f1 1b 49 3e 2d a9 8b 3c 1a ed 7d bd
       -0.19673614 0.19639565 0.017048443 -0.061993696
000080 3a 7e 88 bd 96 ab 50 3d b2 00 45 bd 23 b7 50 be
       -0.06664701 0.050944887 -0.048096366 -0.20382361
000090 57 b1 02 3e ea 41 f1 bd 87 17 c9 bd 36 63 8f 3d
       0.12762962 -0.1178015 -0.098189406 0.07001345
0000a0 db 78 c0 3d 63 07 79 bd 14 97 15 3e d9 00 1f bd
       0.09398051 -0.06079806 0.14608413 -0.038819168
0000b0 1e 0f f3 bc b8 8c ef bd a1 30 ca bd ae 0e 0d bd
       -0.029670294 -0.11696762 -0.098725565 -0.034437828
0000c0 95 6a f5 bc 4b 60 cf 3d fd f4 f1 bd 52 f1 64 3c
       -0.029958049 0.10125788 -0.11814306 0.013973551
0000d0 00 84 24 be 52 8a 2f bd f6 12 1e bd 28 38 e7 3c
       -0.16065979 -0.042856522 -0.0385923 0.02822502
0000e0 e5 e7 18 3e 55 6d 80 3d 78 dd 1a 3e 1d de 97 3d
       0.1493221 0.062708534 0.15123546 0.074154116
0000f0 3b 31 03 be bb 00 92 bd d8 41 58 bd 3e c0 20 be
       -0.12811749 -0.071290456 -0.05279717 -0.15698335
000100 4c 98 60 bc a7 06 b0 3d 78 73 84 be 76 2c 55 3c
       -0.013708185 0.08595019 -0.25869346 0.013011089
000110 a0 d6 e8 bd 72 72 68 3d 4c cf 67 3d f8 10 37 be
       -0.113690615 0.05674977 0.056594178 -0.17877567
000120 36 14 0a 3e 95 78 ba 3d 0c f1 27 3e 35 32 cb bc
       0.13484272 0.091050304 0.16400546 -0.024804214
000130 e2 47 c0 bc b4 3f 19 3b a6 49 d5 3d 54 a9 28 bd
       -0.023471776 0.0023383917 0.10414438 -0.04117711
000140 f5 5e 29 3a c3 6b 64 bc dc 32 ee bb e4 3e 37 be
       0.0006460988 -0.013941708 -0.0072692465 -0.17895085
000150 50 8a 3b 3c 9f 71 06 be f6 9a 46 3d 0c f3 eb 3d
       0.0114465505 -0.1312928 0.048487626 0.11520967
000160 cb 6d c9 3c 16 d3 80 3d a7 bf b0 bd 92 9c 8d 3b
       0.024588486 0.062902614 -0.08630305 0.004321643
000170 b2 4b 85 3d 3c b4 40 be 95 f9 98 3d 89 25 40 3c
       0.06508578 -0.18818754 0.07469479 0.011727699
000180 78 1a 24 3e 80 40 0d 3e 6f 8e ba 3d aa 3e f8 3c
       0.16025722 0.13794136 0.09109198 0.030303318
000190 05 10 f3 3c 0e 13 86 bd f4 64 73 39 3d f2 d2 3d
       0.029670725 -0.06546603 0.00023211894 0.103001095
0001a0 bf 9c d4 3d 8f 86 2b be 40 6a c3 3b ed b3 84 3d
       0.103814594 -0.16750549 0.0059635937 0.064796306
0001b0 6b 14 73 3d 50 b9 b6 3d 4a 2e 1c 3e 12 01 07 3e
       0.059345644 0.08922064 0.15252033 0.13184002
0001c0 fe ae e0 bd 9c 6f b2 3d b5 88 0a 3d 85 53 75 bd
       -0.10970877 0.08712694 0.03382178 -0.059894104
0001d0 09 65 03 bd 64 bc b4 3d 32 19 96 bb 8b 76 20 be
       -0.032078777 0.08824995 -0.0045806402 -0.1567022
0001e0 59 d0 dc 3d 61 48 16 be 88 0c d8 3c c7 43 0f bd
       0.10781927 -0.14676048 0.026373163 -0.034976747
0001f0 d9 b1 a6 bd 26 0b 4d be fa 49 5f 3d d7 72 37 3d
       -0.081393905 -0.20023784 0.05451391 0.044787254
000200 ff c0 48 bd 78 80 f1 bc 43 69 2c 3d c7 c0 20 be
       -0.04901218 -0.029480204 0.042092573 -0.15698539
000210 6a ca 99 3d dc 7c f7 3c 4a 0f 41 bc 09 55 0d 3d
       0.075093105 0.030210905 -0.01178343 0.034504924
000220 61 44 2c be bf 5e e8 3d 84 12 28 3c 56 a4 ad bc
       -0.1682296 0.113461964 0.010258321 -0.021196526
000230 34 1e f6 3d e2 d7 3e bb 33 cf 59 3d 8f be 83 bc
       0.120174795 -0.0029120375 0.053176116 -0.016082076
000240 3f 94 3a bd 3a 0c 82 3d 43 06 e8 3d 58 50 9e 3c
       -0.045551535 0.06349988 0.11329319 0.01932542
000250 25 e2 04 3c 56 c9 3d bd 28 b3 1a 3d ed d8 00 3e
       0.008110558 -0.046334587 0.037768513 0.1258275
000260 07 3d 4b 3d 0a 6c 08 3e d9 26 b9 3b d5 c4 c5 bd
       0.049618747 0.13322464 0.005650383 -0.09656683
000270 80 1d 70 bc 60 b5 8d 3d 6c 68 27 bd fc 50 ad 3d
       -0.014655471 0.0691936 -0.04087107 0.08462712
000280 2e f0 3c be cf ff 32 3e 17 7c 3a be e3 d2 90 ba
       -0.18450996 0.17480396 -0.18211399 -0.0011049177
000290 11 aa a4 bd 06 79 9c bd 78 d3 7e bd 22 31 c0 3d
       -0.0804025 -0.07640271 -0.06221339 0.09384371
0002a0 09 c9 05 3d e4 53 a4 bb d0 02 87 3a 8f 3c 24 3e
       0.032662425 -0.0050148834 0.0010300521 0.16038726
0002b0 99 22 90 3d 22 15 dc 3c 70 8b 0f be 1b 73 3d 3d
       0.07037849 0.026865546 -0.14018035 0.04625235
0002c0 55 a4 ad bc b1 85 10 be 1a 02 1d 3e 66 8c c6 bd
       -0.021196524 -0.14113499 0.15332833 -0.096947476
0002d0 93 9c 0f 3d af e6 fc 3d 02 dd c9 3c f1 0f 0d be
       0.03506143 0.12348687 0.024641518 -0.13775612
0002e0 27 c5 20 3e be 93 42 bd 5e a4 4a 3d e0 b7 94 bc
       0.15700208 -0.04750418 0.04947316 -0.018154085
0002f0 69 34 38 be e3 85 f9 bc f2 52 01 3e 6a d9 5a 3d
       -0.17988743 -0.03045935 0.12629297 0.05343
000300 63 cd 13 3d 03 9d 50 bb a2 7b 66 3d 25 af 9b 3c
       0.036084544 -0.0031831868 0.05627025 0.019004414
000310 2c bf 16 3c f1 09 24 be b9 37 ac 3c eb 86 45 be
       0.009200852 -0.16019417 0.021022664 -0.19289748
000320 d9 ae 68 3e c2 3e 0c 3d 30 3d 49 3d d9 d5 4e 3d
       0.22722949 0.034239538 0.04913062 0.05049691
000330 68 f8 17 3e ff 42 29 3d d3 7b 9e 3d 09 00 a8 bd
       0.14840853 0.041323658 0.07738461 -0.08203132
000340 dc 93 8d be a0 bc 06 bd f8 79 b5 3c 60 49 55 3d
       -0.2765187 -0.03289473 0.022152886 0.05207193
000350 19 b9 32 be 98 19 78 bd 13 a6 14 be e2 98 6f 3d
       -0.17453422 -0.060571283 -0.14516477 0.05849541
000360 01 0d 7c bd 2e 2f 13 3d 22 a4 2d 3e ff ce 14 3e
       -0.06153584 0.035933666 0.16957143 0.14532088
000370 eb d4 0e bd c7 e8 46 3e c8 35 f5 bc 23 a0 9f 3d
       -0.034871023 0.19424735 -0.029932871 0.077942155
000380 38 84 e2 3c 4c a0 de bd 92 ba 80 bd ec 85 01 3e
       0.027650937 -0.10870418 -0.062855855 0.12648743
000390 c2 db f6 bc 8b b8 71 3d e9 b0 b6 3d 4f a7 22 be
       -0.030134086 0.059013885 0.08920462 -0.15884136
0003a0 f7 a3 05 3e 07 e4 0a be f8 b8 15 3e 04 a6 f8 3c
       0.13050829 -0.13563548 0.14621341 0.0303526
0003b0 f3 44 eb 3a 53 da 02 3e 2c bf 57 be 2b 3d 74 3e
       0.0017949626 0.12778597 -0.2106902 0.23851459
0003c0 1b 8e b3 bd 28 3a 34 be 87 01 19 be 0c 5a 24 3d
       -0.08767339 -0.1760031 -0.14941989 0.040124938
0003d0 12 0a bb bd 77 73 30 3e 06 23 7c 3c 33 f3 63 bd
       -0.0913278 0.17231546 0.01538921 -0.055651855
0003e0 2a 25 bf bd 2c ad 82 bd 5d 56 ac bd 8a 17 73 3d
       -0.0933326 -0.06380686 -0.0841491 0.05934862
0003f0 3a e7 97 3e 41 1b 1d be 82 5c 1b 3d ab a0 79 3d
       0.296686 -0.15342428 0.03793002 0.06094424

rnn.bias_ih_l0 f4 [128]
000000 0f 46 70 bd 8d a9 00 bd 81 85 0a be d9 32 25 3c
       -0.058660563 -0.031411696 -0.1352749 0.010082924
000010 40 38 62 bd 91 d2 06 bc e8 a1 ae bc e9 41 dc bc
       -0.055229425 -0.008228914 -0.021317437 -0.026886897
000020 45 32 03 bc 61 86 f4 bc 5d 70 d1 3d e3 a7 62 3d
       -0.008007591 -0.029849233 0.1022651 0.05533589
000030 56 dc bc bc 71 5c 65 3d 32 b6 aa 3c 70 e2 f4 3d
       -0.023054283 0.055996362 0.02083883 0.11957252
000040 65 ca ba 3d 03 30 5e 36 6d 50 9c bd 0a 8d 2e bc
       0.09120635 3.3108524e-06 -0.076325275 -0.0106537435
000050 ce 84 ab bc b6 27 0c 3c 51 bd 74 3b cf 30 71 bd
       -0.02093735 0.00855439 0.0037344287 -0.058884438
000060 79 c3 9b bd 43 39 b3 bc b9 5d 21 bd 78 88 b6 3d
       -0.07605643 -0.02187789 -0.03939602 0.08912748
000070 7c 56 5a bb 1e 8a 4b 3d bd 6c 83 3b bd 16 85 3d
       -0.003331571 0.049692266 0.0040107653 0.064984776
000080 b7 48 a8 bd 63 19 0b bc 67 35 80 3d 2d 09 df bd
       -0.08216994 -0.008489939 0.06260186 -0.10890422
000090 48 92 97 bd 04 2d f1 bc 01 c0 d1 3d 0b 91 97 3a
       -0.07400948 -0.02944041 0.102417 0.0011563612
0000a0 7e 27 a2 bb 79 53 ee bc db b0 8d 3d f7 70 b3 3d
       -0.0049485555 -0.029092537 0.06918498 0.08761781
0000b0 f9 c3 7c 38 bf 48 b1 bd 9f 61 2c 3c 47 36 36 3d
       6.0263996e-05 -0.08656453 0.010521322 0.044485357
0000c0 d2 32 a0 bd 90 5a 41 3d 89 09 96 bd da 72 59 bb
       -0.07822193 0.047205508 -0.073260374 -0.003318003
0000d0 17 aa 54 bb 49 d0 9c 3c 07 17 fa bc 78 a0 af 3d
       -0.0032450014 0.019142287 -0.030528558 0.08575529
0000e0 8c 80 94 3d c3 0f 81 bd 0b ef 6f 3d b6 e1 8d 3d
       0.07251081 -0.063018344 0.05857758 0.069278166
0000f0 65 59 19 bd 2a 91 58 bd 68 6b c6 bc 1a 70 80 3d
       -0.03743877 -0.052872814 -0.024221137 0.06271382
000100 86 4a 96 3d 1a d1 86 3d d0 c4 a5 3d 35 eb 9a 3c
       0.07338433 0.06582852 0.0809418 0.018910984
000110 72 60 96 3c a6 d3 79 3d 2a 1b 5a 3d bb 2a 8b bd
       0.018356536 0.06099286 0.053248562 -0.067952596
000120 a4 ba 53 bc bd 53 35 bd 58 00 95 bd 92 a3 ec bc
       -0.012922917 -0.044269312 -0.07275456 -0.02888659
000130 1c 54 d3 3b c3 aa 36 bc 4f 41 94 3d 2d 52 74 3d
       0.0064492356 -0.011149111 0.07239019 0.05964868
000140 24 f5 53 bd e3 70 bb 3c 84 04 b4 bc 92 f8 1d 3d
       -0.051747456 0.022880977 -0.02197481 0.038567133
000150 5e 43 9a bc 9b 1b 1c bd 42 43 68 3d 9a 3e 16 bd
       -0.018830951 -0.038112264 0.056704767 -0.036680795
000160 d4 b1 e6 3b a2 ed 87 bd 40 18 1c 3b 63 93 d3 bb
       0.0070402417 -0.06637122 0.0023818165 -0.006456779
000170 d1 cb 66 bb a9 10 b3 3b 36 3f 24 bd 7d 6e 73 3d
       -0.00352167 0.0054646325 -0.040099345 0.05943154
000180 aa 10 dc bb 27 c4 65 bb fa 24 25 bc dc 67 04 bd
       -0.0067158537 -0.0035059543 -0.010079617 -0.03232561
000190 d6 c4 d2 bd fb 02 92 bd 19 03 6c 3b 75 7f b7 bc
       -0.1029145 -0.07129475 0.0036012589 -0.022399643
0001a0 e8 c6 8a bd d1 a5 40 bc bd e4 9c 3d 61 54 fa 3c
       -0.067762196 -0.011758284 0.07660816 0.030557813
0001b0 e5 88 e7 3c c3 77 e1 3c 58 c6 7f bb b3 52 42 3b
       0.028263519 0.027522927 -0.0039028134 0.0029651343
0001c0 fd 1a 33 3d f5 47 73 bd 4c 2a 63 3d a1 e1 7d bd
       0.04372691 -0.059394795 0.05546026 -0.061982755
0001d0 7c 27 91 3d b8 b7 87 3d f1 c9 af bd 46 bc 08 3d
       0.07087609 0.066268384 -0.08583439 0.033382677
0001e0 7e 8e bf bc ea 67 8e bc 1e a1 3d 3d ec 49 dc 3c
       -0.023383375 -0.017383534 0.04629623 0.026890717
0001f0 c7 71 86 3d b7 21 8a bd c0 d5 94 3d 91 1a 8c bd
       0.0656467 -0.06744712 0.07267332 -0.06841005

rnn.bias_hh_l0 f4 [128]
000000 34 63 7e 3d 66 ee 67 3d 04 d0 db bd cc d4 2f bd
       0.062106326 0.05662384 -0.10733035 -0.04292755
000010 d3 e7 c9 bb 1d 06 ff 3b ea fc 39 bd ff 39 a2 3b
       -0.006161669 0.007782711 -0.045407213 0.0049507613
000020 79 01 a4 bd d5 81 7d bd 1b 6c 35 bd c0 cd 3c bd
       -0.080080934 -0.061891396 -0.04429255 -0.046094656
000030 b1 aa b7 3d 53 85 48 3d 9f 86 c3 3d 78 a1 5a 3c
       0.08968104 0.048955273 0.09547161 0.013344161
000040 a9 9c 82 3d 03 94 2b 3d 0b db 67 bd 33 50 80 3c
       0.06377537 0.0418892 -0.05660538 0.015663242
000050 88 3a fd bc 63 30 94 3c d9 9b c1 3c d1 06 96 3c
       -0.030911699 0.018089479 0.023633884 0.018313797
000060 d0 e9 83 3d 52 f7 02 bd d3 8f a7 3d b7 0c 8e 3d
       0.064410806 -0.031974144 0.08181729 0.06936019
000070 79 98 28 3d 14 4b c4 3c 32 7d 8f bc d2 26 f0 ba
       0.041161034 0.023961581 -0.017515752 -0.0018322116
000080 84 8b e2 3c 54 77 a8 bd b0 a4 5a bd 34 08 86 bd
       0.027654417 -0.08225885 -0.053379714 -0.06544533
000090 25 88 05 bd 0e b3 d7 3c 03 52 14 bd 4d 35 e6 bc
       -0.03260054 0.026330497 -0.036211025 -0.028101588
0000a0 af b2 74 3d c0 8d 60 3d c3 17 a1 3c bb 20 22 bd
       0.05974072 0.054822683 0.01966465 -0.039581995
0000b0 0f 90 77 bd 51 71 92 3d 7b 79 41 bc 1c d1 5e 3d
       -0.06044012 0.0715052 -0.011808748 0.05439864
0000c0 c1 f9 a3 bd 02 f1 f1 bc 90 0c aa bd af a2 4d 3d
       -0.08006621 -0.029533867 -0.08303177 0.050203975
0000d0 cc 45 92 bc 20 e9 07 bd 94 d6 5f bc 08 e8 3e bc
       -0.017855547 -0.03318131 -0.013661999 -0.011652
0000e0 73 18 06 bd c5 b6 b3 bc e5 ab 51 bb 0d 25 bb 3d
       -0.03273816 -0.021937737 -0.0031993326 0.09137926
0000f0 f5 fb 1c bb 33 e5 63 3d b9 62 51 3d 74 66 f9 bc
       -0.002395389 0.055638503 0.05111954 -0.030444361
000100 0b 3b 91 3d d6 44 66 3d e7 66 aa bc 0a 98 83 bd
       0.0709134 0.05621799 -0.02080102 -0.064254835
000110 a2 9d 30 3c 3b 26 a4 3c 8e 58 84 bd ea 3d 88 bd
       0.01077977 0.020037761 -0.06462203 -0.06652434
000120 e1 3f 50 3d 8f a1 bf 3c af bc fe 3c d1 4b b4 bd
       0.05084217 0.023392467 0.03109583 -0.08803523
000130 b6 97 90 bd ae 17 e4 3d 91 65 ac 3d 54 05 a1 3d
       -0.070601866 0.11137329 0.0841781 0.078623444
000140 b8 4c 16 bd 83 41 13 3d 9d db 7c 3d ae f0 f5 3c
       -0.03669426 0.03595115 0.061732877 0.030021992
000150 7c 3d 08 bd 75 43 a7 3d fc 9d bb 3d b4 66 5e 3d
       -0.03326176 0.08167163 0.091609925 0.054297164
000160 f5 2d 9d bd 00 8d 6a 3c 05 23 53 bd 53 2e bb bb
       -0.07674781 0.014315844 -0.05154707 -0.0057123094
000170 85 c4 32 3d 43 fd a8 bb dd a7 d0 bd fd eb 89 bd
       0.043644447 -0.0051571443 -0.101882674 -0.06734464
000180 cc 19 98 3d 43 87 d8 3d c6 18 5b 3d f8 cf 8b bd
       0.07426795 0.10572674 0.053490423 -0.06826776
000190 51 ed 5e bd 59 d0 69 3d b3 48 0b bd a4 fd 46 bd
       -0.05442554 0.05708346 -0.03400488 -0.048581734
0001a0 fa c1 93 bb ad db 06 3c 0c eb 35 bc 81 97 c2 bc
       -0.004509208 0.008231086 -0.011103403 -0.023753883
0001b0 c9 74 26 bd f8 51 42 bd be d9 6e 3d f1 80 8a bd
       -0.04063872 -0.047441453 0.058313124 -0.06762875
0001c0 49 c2 f4 bc 74 d1 bd 3c ab f0 00 ba 22 8c 97 bc
       -0.029877799 0.023171164 -0.0004918675 -0.018499438
0001d0 c8 31 75 bd 45 05 ad 3d b7 20 0f 3d c7 9e ed 3c
       -0.05986193 0.08448271 0.03494331 0.029006375
0001e0 c3 0f aa 3c d0 31 b8 bd bf ee 4a bc cf 0e 61 bd
       0.020759469 -0.08993876 -0.012386023 -0.054945763
0001f0 90 17 30 bd d0 21 75 bd 22 4e 1e bc 44 7c 95 3d
       -0.04299122 -0.0598467 -0.009662183 0.072990924

fc.weight f4 [18, 128]
000000 3f 9e 87 be 0b 2a e9 3e 27 72 b8 bd 63 21 5e 3e
       -0.2648792 0.4553989 -0.09006148 0.21692424
000010 2d b7 d1 3e 30 7f 81 be f5 7d 84 be 04 43 59 be
       0.40960065 -0.2529235 -0.25877348 -0.2121697
000020 dc 3e e3 be b8 9b 69 be 5e b6 0f be 7d 57 41 be
       -0.44383895 -0.22813308 -0.14034411 -0.1888103
000030 3c 8a 8f be f6 fb 97 bd 45 32 73 be 79 e6 07 bd
       -0.28035152 -0.074211046 -0.23749645 -0.03317878
000040 04 60 e3 be 57 de 79 be ba ef 4d 3e 45 0b ab 3d
       -0.44409192 -0.24401222 0.2011098 0.08351759
000050 b5 52 81 be c0 eb e7 3e 3c aa e0 3e 36 f1 01 3e
       -0.25258413 0.4529705 0.4387988 0.12689671
000060 c3 e3 21 bf 48 40 75 3d 76 16 c7 bd e5 d8 a4 3d
       -0.6323816 0.059875757 -0.09721081 0.08049182
000070 61 dc 0d be 77 c4 b4 3c 49 c6 69 bd ca a2 60 3d
       -0.13853599 0.022066338 -0.057073865 0.054842748
000080 d6 4a 26 3f f6 ef f3 3e 90 55 3e 3e 6e f3 22 be
       0.6495794 0.47644013 0.18587327 -0.15913174
000090 29 e0 14 3e 5b fd 0a 3f 6c 8e 89 be e5 b7 48 be
       0.14538635 0.5429284 -0.26866472 -0.196014
0000a0 2e 84 32 be 63 90 c5 be 0b de 01 bf 0f 11 88 bd
       -0.17433235 -0.3858672 -0.50729436 -0.06643879
0000b0 92 36 d0 be f9 9f f0 3c 05 44 65 be d0 0c 37 3e
       -0.40666634 0.029373156 -0.22389229 0.17875981
0000c0 61 7c 24 bd 42 81 0f be b3 8e d4 3e b3 9f 2c bd
       -0.04015768 -0.14014152 0.4151512 -0.04214449
0000d0 20 7b 00 bf 4b fe f5 3d 1e d0 d8 bc bf 53 b3 be
       -0.50187874 0.12011393 -0.026466426 -0.3502483
0000e0 85 80 8c be fd f6 b8 bd 88 cb 00 3e 10 b1 2d bd
       -0.27441803 -0.09031484 0.12577641 -0.042405188
0000f0 d6 3f 9e be f2 ff 98 3e 29 9b 61 bc c9 e9 5a 3e
       -0.30908078 0.2988277 -0.013769903 0.21378244
000100 58 e0 2c bf d6 33 58 bd 40 7f 76 3d ea 2b 39 bd
       -0.6752982 -0.05278381 0.06017995 -0.045207895
000110 8c 9a 16 3e 59 4c bb 3e 2d ed 2f 3e 87 9e 4d 3e
       0.14707392 0.36581686 0.17180319 0.20080005
000120 56 de 9f bd 4c af 2a 3e eb 75 ba 3e 04 a8 93 be
       -0.07806079 0.16668433 0.3641809 -0.28839123
000130 d9 25 bf 3e ed c2 ae 3d be 58 94 bd b7 eb 92 bb
       0.37333563 0.08533273 -0.07243489 -0.004483666
000140 14 22 81 bb 9f 53 c6 3c be 9f 3d bd 62 e9 e4 3e
       -0.00394083 0.024209796 -0.04629492 0.44709307
000150 1a d3 2e be 4f 82 50 be a4 53 c7 be a1 13 75 3e
       -0.17072716 -0.20362209 -0.38931 0.23933269
000160 22 46 19 bf fb cc 12 bf 82 29 87 bd bf db 0b bd
       -0.5987264 -0.57344025 -0.06599714 -0.034145113
000170 a0 31 17 be 2e 00 b6 3c 67 4b 97 3e b8 4b 2e be
       -0.14765024 0.022216883 0.29549715 -0.17021072
000180 ca 96 9a be 0b a3 db 3e ce 38 b7 3e 58 4e 09 bc
       -0.30193168 0.4289783 0.35785526 -0.008380495
000190 a7 b2 4d bf b8 d4 01 3d b4 a3 35 be 4b d9 f7 3e
       -0.80350727 0.031697005 -0.17738229 0.4840797
0001a0 5b 24 02 3f cd 78 5d 3e 0e 7e fa be a5 43 ab 3e
       0.50836724 0.21628113 -0.48924297 0.33450046
0001b0 56 6c 96 bd 8d e6 08 3e f4 8c 63 3e 13 44 fc bd
       -0.07344882 0.13369198 0.22221738 -0.123176716
0001c0 88 a5 08 bd 19 89 99 be 81 2a f5 3b 72 d7 31 3d
       -0.033360988 -0.2998741 0.0074818735 0.043418355
0001d0 9d 8e ed bd 0f 80 e6 bd 93 cb 73 be 14 f4 02 be
       -0.11599467 -0.11254894 -0.23808126 -0.12788421
0001e0 3b 79 e1 3d 44 e1 88 bd d9 5f 95 bd 09 18 9f bc
       0.11009451 -0.06683591 -0.07293672 -0.01942064
0001f0 dd 14 85 3e 0c ce c2 3e 87 a9 a4 bc 04 71 4b be
       0.2599248 0.38047826 -0.020100368 -0.19867331
000200 ab 47 4e 3e ae fc 83 3b de a5 9e bd a0 f5 c5 be
       0.20144527 0.0040279245 -0.077464804 -0.3866396
000210 23 a8 f0 3d b5 13 99 3e 83 5d 9e 3e df 2f 3e be
       0.117508195 0.29897848 0.3093072 -0.18572949
000220 9c 77 1e 3e 56 79 ac bd d4 64 79 be 99 c2 f7 3d
       0.15475315 -0.084215805 -0.24354869 0.120976634
000230 69 c1 7f 3e bf be 1c 3d b1 bb 87 bc 9b 50 d9 bd
       0.24976124 0.038267847 -0.01656899 -0.106110774
000240 d9 5e 28 3e 27 83 9c bc 58 6e 19 be 29 d7 8f 3e
       0.16442432 -0.019105507 -0.14983499 0.28093842
000250 dc 2f 5a 3e 2d ce 39 bc 31 de c9 be 62 fc 20 3e
       0.2130732 -0.01134066 -0.3942733 0.15721276
000260 45 03 df bd d1 e1 9b bd 66 de 00 3d f9 c6 f2 3d
       -0.108892955 -0.076114304 0.031462096 0.11854357
000270 f8 c7 02 3e c8 be 70 3e 8c 22 4b 3e a6 88 8a be
       0.12771595 0.23510277 0.19837397 -0.2705738
000280 72 48 b1 bd ac 4b ab be 18 ec 1c be c7 fd d4 3e
       -0.08656396 -0.3345617 -0.15324438 0.41599867
000290 b9 b0 a3 3e 2b f7 1b be 77 b7 2b 3d a9 04 bb be
       0.31970766 -0.15231006 0.041923013 -0.36526993
0002a0 9b 7f be 3e 3c 7f f3 bc d6 ed 86 3e 9d 27 fe 3d
       0.3720673 -0.029723756 0.2635333 0.124098994
0002b0 0e a1 08 3d 4b be 65 bd 8c 00 11 be e5 b8 d7 bc
       0.03335672 -0.05608968 -0.14160365 -0.026333282
0002c0 f4 e2 19 be ef c3 cf 3d 68 93 8c be 52 3a 82 3d
       -0.15027982 0.10144793 -0.27456212 0.0635878
0002d0 fb bb 46 3e b2 fc 08 be 46 25 fd 3e 73 42 45 3e
       0.19407646 -0.13377646 0.494425 0.1926363
0002e0 e4 5e 39 3e ad 41 2a be 17 b8 b1 bc 3d 53 9b 3d
       0.18102604 -0.16626616 -0.021694226 0.07584236
0002f0 48 a4 54 3d 83 01 db be 2a 3d a4 3e df a2 59 3e
       0.051914483 -0.4277459 0.32077914 0.21253537
000300 01 9d dc 3c 69 e9 f4 3e 69 7f 69 be f2 13 39 be
       0.026930334 0.47834328 -0.2280251 -0.18074015
000310 6b 61 b7 be a9 0c d7 be 53 5e 06 3e 2c fa af 3d
       -0.35816512 -0.42001846 0.1312192 0.085926384
000320 df f6 82 3d 8d 05 eb bc 53 fe 94 be 93 d7 84 be
       0.06394743 -0.02868917 -0.29100284 -0.2594572
000330 da 05 39 3d 05 ea 6a 3d 0f 7a 03 be aa 9a 8b be
       0.045171596 0.057352085 -0.1283953 -0.27266437
000340 f5 06 be 3d f7 76 20 3e 48 5e 91 3d 9e 77 10 be
       0.09278671 0.15670381 0.07098061 -0.1410813
000350 d4 12 20 bd 3c 68 9f be 9d ff ed 3e de a8 57 be
       -0.039080456 -0.31134212 0.4648408 -0.21060511
000360 ec df 85 be 26 94 ac 3e 40 00 11 bd 47 b9 04 3f
       -0.261474 0.33706778 -0.03540063 0.5184521
000370 70 3c 4c be 17 af 5a be 8d 61 c4 bd 64 d7 c6 3d
       -0.1994493 -0.21355854 -0.09588919 0.09709051
000380 c7 3d da 3e b1 68 82 3d c9 00 8e 3c c5 3d 08 be
       0.42625257 0.063676246 0.017334359 -0.13304813
000390 91 a5 13 3f dc 69 5b 3d d7 8a 4f 3d 9a cf 92 be
       0.5767451 0.053567752 0.050669517 -0.28674012
0003a0 46 fe d0 3e c1 cc 0b 3e 60 a8 67 be 70 4d 85 be
       0.40818995 0.13652326 -0.22622824 -0.26035643
0003b0 c8 a2 84 3e 0f ba 70 be 01 a1 a7 be 92 22 d7 3e
       0.25905442 -0.23508476 -0.32740024 0.42018563
0003c0 5d 1e 00 bd d6 22 97 bd 6e 78 8a 3d fc 1a 47 3e
       -0.031278957 -0.07379691 0.067612514 0.19443887
0003d0 75 5d f3 3d 8a bf d7 3d 94 f3 97 3d 19 c9 bb bd
       0.1188306 0.1053458 0.07419506 -0.09169216
0003e0 17 b8 4e bd 9d 9d 21 3d 59 c5 98 3e 77 e9 a8 bd
       -0.05046853 0.039456952 0.29838064 -0.08247655
0003f0 c5 58 e6 3d 41 85 8d bd bb 05 94 be 1f 12 ea 3c
       0.112474 -0.06910182 -0.28910622 0.028573094

fc.bias f4 [18]
000000 1b 56 99 bd 06 92 a2 bb 3e 7a 26 be e7 23 34 bd
       -0.074871264 -0.004961255 -0.16257569 -0.04397955
000010 39 b6 0c be f6 4f 2f bd 27 53 2f 3c ae 2a 92 3d
       -0.13741387 -0.042800866 0.010700977 0.07137047
000020 3a c4 bd bd 31 c7 26 3c 3e 62 3f bd 15 df 16 bc
       -0.09265943 0.010179327 -0.04672455 -0.00920846
000030 e3 98 d1 3d 2a 75 d7 bd c6 75 26 bc 9b 88 0a 3e
       0.10234239 -0.10520394 -0.010159915 0.13528673
000040 3e 57 a2 3c 57 55 d3 3b
       0.019816991 0.0064493823
