text_classify/logs/RNN/RNN_epoch_30_acc_0.7968.pth (torch, 107761 bytes, 6 tensors)

rnn.weight_ih_l0 f4 [128, 57]
-0.5057333 -0.24190988 -0.2620005 -0.06813857 0.18446968 -0.03938351 0.13738544 0.15693225
-0.1419291 -0.046433643 0.43857038 0.28071278 -0.33143947 0.27307326 -0.44082272 0.3116762
0.26231253 0.37939236 0.003751998 0.43701696 0.05286347 0.5337611 0.28207707 0.29387623
-0.34752247 -0.43324685 0.14339873 0.046039067 -0.13094714 -0.11546545 -0.09565611 -0.0136603825
-0.009937525 -0.071021155 -0.045496114 -0.021342997 0.0016405606 0.17978872 -0.0012130237 -0.04221521
-0.2552954 0.19204278 -0.23945023 -0.03058758 -0.17245272 0.0040696724 -0.05086292 0.082776286
0.13364649 -0.25902808 0.02158092 -0.06502114 -0.14453581 -0.061550517 0.05204718 -0.040693022
-0.41094726 0.4539759 0.32257956 0.0847704 -0.005075133 -0.03441878 -0.0064632134 0.16561356
0.12082736 0.24213636 -0.18205263 0.408773 0.17048116 -0.15284716 -0.30014253 0.39366356
-0.15432376 -0.2614775 -0.2590159 -0.37008923 -0.2699496 -0.30052087 -0.2921633 0.013281945
-0.30999967 -0.2965704 0.061933916 0.20886019 0.3374858 -0.12498647 0.0760705 0.26825762
-0.042380404 -0.22132385 0.07726868 0.14038636 0.04090405 0.030199826 0.17757173 -0.08321897
0.017925484 4.8713915e-05 0.07267835 -0.14336134 -0.025654897 -0.091248155 -0.08940039 -0.05452731
0.0075318506 -0.10444413 -0.12159079 0.073954046 -0.061681494 -0.05804252 0.06531074 -0.19665612
-0.020128878 -0.26424733 0.23791464 0.24204132 -0.13567388 0.30016983 -0.15793552 0.04311696
-0.41063744 -0.0775229 0.20734356 0.16941743 0.12705061 -0.1107433 -0.10147507 -0.27541623
-0.13863787 -0.21583548 -0.4378731 0.07632908 0.07353891 -0.04227742 0.105280496 -0.54260296
-0.033932686 -0.18379243 0.10321967 0.23668984 0.044929862 -0.015929243 0.031214563 0.106670946
-0.038817406 -0.053091176 -0.04847322 -0.011893571 0.24969742 0.09155821 0.05124561 -0.0859138
-0.087614276 0.059798364 0.036011185 -0.0017408237 0.060854033 -0.10945757 0.008467866 0.03269969
0.03233204 0.029104985 -0.13436946 0.06876399 0.056663916 0.06349935 0.017167853 0.041676473
-0.0955687 -0.0448566 0.015894406 -0.009315325 0.18058929 0.15113916 -0.0568076 -0.14416787
0.51670116 -0.18758312 -0.43317926 0.29452357 -0.06978693 0.0113313105 0.36882526 -0.059942443
-0.30125946 0.018442534 0.23606142 -0.02066507 0.30574152 -0.07729049 -0.08036012 0.060401432
-0.41070956 -0.11584706 0.5029377 -0.5635306 0.48290884 -0.3078882 0.029778173 0.31170875
0.032704763 -0.14086634 0.020999726 -0.039250888 -0.0032998268 -0.08089749 0.15930532 0.031391233
0.10734521 -0.027318532 -0.0740198 -0.0880234 0.07462446 0.04441607 -0.010462196 -0.014512727
0.024994262 -0.10456205 0.03224049 0.14354536 0.21791585 0.024457399 0.06946292 -0.16136318
0.00994343 -0.19568184 0.04867351 -0.10652626 0.0047099036 0.08093481 -0.40474504 0.09200866
0.016205775 -0.15354371 -0.24580015 -0.30776194 0.25647655 0.0061104354 0.007809738 -0.07718459
-0.245831 -0.19675536 0.36839804 -0.109705836 -0.11412814 -0.2247892 0.032364678 0.19771847
-0.2778694 0.17532113 -0.22869313 -0.58002245 0.19743328 -0.17120281 -0.007560158 0.10247628
00000000: bd77 01bf 39b7 77be ee24 86be 3c8c 8bbd
00000010: 9fe5 3c3e 9a50 21bd c5ae 0c3e d9b2 203e
00000020: dd55 11be 3431 3ebd 4c8c e03e 96b9 8f3e
00000030: 6fb2 a9be 42d0 8b3e 84b3 e1be 0694 9f3e
00000040: d44d 863e b73f c23e 15e4 753b b0c0 df3e
00000050: 5e87 583d 91a4 083f 686c 903e f276 963e
00000060: 77ee b1be 88d2 ddbe 1ed7 123e 7693 3c3d
00000070: 0217 06be 2679 ecbd 5ae7 c3bd cccf 5fbc
00000080: 00d1 22bc 8a73 91bd 225a 3abd 82d7 aebc
00000090: 1408 d73a 891a 383e 52fe 9eba dbe9 2cbd
000000a0: 14b6 82be dda6 443e 7132 75be ce92 fabc
000000b0: 7297 30be e35a 853b a355 50bd 9d86 a93d
000000c0: a0da 083e 549f 84be 78ca b03c ce29 85bd
000000d0: 3201 14be 651c 7cbd 6c2f 553d baad 26bd
000000e0: ae67 d2be 876f e83e 2629 a53e 1a9c ad3d
000000f0: 4d4d a6bb b5fa 0cbd 5dc9 d3bb 9a96 293e
00000100: 5674 f73d 98f2 773e 016c 3abe b24a d13e
00000110: 9d92 2e3e f783 1cbe 48ac 99be 458e c93e
00000120: 0c07 1ebe 61e0 85be bb9d 84be 567c bdbe
00000130: d536 8abe dfdd 99be 6e96 95be 849c 593c
00000140: 47b8 9ebe 13d8 97be 6bae 7d3d 72df 553e
00000150: f0ca ac3e e8f8 ffbd daca 9b3d 1059 893e
00000160: 1397 2dbd b8a2 62be 0b3f 9e3d 71c1 0f3e
00000170: 018b 273d a065 f73c 5dd5 353e b56e aabd
00000180: 77d8 923c 2b52 4c38 63d8 943d 51cd 12be
00000190: 382a d2bc 50e0 babd 8d17 b7bd 0758 5fbd
000001a0: becd f63b cee6 d5bd 9804 f9bd 3875 973d
000001b0: bca5 7cbd febd 6dbd a3c1 853d 3960 49be
000001c0: 51e5 a4bc 6d4b 87be e59f 733e aed9 773e
000001d0: 18ee 0abe dcaf 993e d9b9 21be 699b 303d
000001e0: 123f d2be 54c4 9ebd df51 543e c37b 2d3e
000001f0: 8e19 023e 62cd e2bd 29d2 cfbd 5b03 8dbe
00000200: 16f7 0dbe fa03 5dbe e730 e0be 6c52 9c3d
00000210: 919b 963d 172b 2dbd 4d9d d73d 07e8 0abf
00000220: 00fd 0abd 1534 3cbe d664 d33d d25e 723e
00000230: 6008 383d 0b7e 82bc afb5 ff3c 4c76 da3d
00000240: 00ff 1ebd 2276 59bd db8b 46bd 41dd 42bc
00000250: aeb0 7f3e df82 bb3d ebe6 513d 93f3 afbd
00000260: 1d6f b3bd 21ef 743d 7780 133d 5a2c e4ba
00000270: 1442 793d 4a2b e0bd cebc 0a3c 1cf0 053d
00000280: 9a6e 043d 946d ee3c 2698 09be 23d4 8c3d
00000290: 6c18 683d f20b 823d 99a3 8c3c f3b4 2a3d
000002a0: 86b9 c3bd 8ebb 37bd fc34 823c 4e9f 18bc
000002b0: 66ec 383e 39c4 1a3e 16af 68bd bea0 13be
000002c0: 8746 043f ca15 40be acc9 ddbe cbcb 963e
000002d0: 73ec 8ebd f6a6 393c aad6 bc3e 3586 75bd
000002e0: ae3e 9abe cc14 973c 16ba 713e cb49 a9bc
000002f0: 278a 9c3e 7a4a 9ebd d993 a4bd 7e67 773d
00000300: 8648 d2be 3941 edbd 86c0 003f 8b43 10bf
00000310: d43f f73e 86a3 9dbe 5bf1 f33c 4a98 9f3e
00000320: 6ef5 053d 443f 10be 9e07 ac3c 8ac5 20bd
00000330: e841 58bb 95ad a5bd ef20 233e 1894 003d
00000340: ced7 db3d 1dcb dfbc b197 97bd 9d45 b4bd
00000350: b5d4 983d a0ed 353d a169 2bbc cac6 6dbc
00000360: c4c0 cc3c a124 d6bd 9b0e 043d 8efd 123e
00000370: 5525 5f3e e25a c83c 9342 8e3d 643c 25be
00000380: c5e9 223c d260 48be e05d 473d 712a dabd
00000390: 8955 9a3b 26c1 a53d be3a cfbe 096f bc3d
000003a0: f9c1 843c 903a 1dbe 09b3 7bbe f992 9dbe
000003b0: e550 833e 0c3a c83b d5e8 ff3b f412 9ebd
000003c0: 1fbb 7bbe 3d7a 49be ab9e bc3e 74ad e0bd
000003d0: 04bc e9bd 242f 66be d390 043d b676 4a3e
000003e0: e644 8ebe 6287 333e 882e 6abe 5a7c 14bf
000003f0: f32b 4a3e ca4f 2fbe 34bb f7bb 15df d13d

rnn.weight_hh_l0 f4 [128, 128]
0.09086936 0.037412446 -0.019708948 -0.0075182063 -0.025871085 0.0099961115 0.018149627 -0.06934003
0.068562604 0.054372158 0.030870497 -0.13568527 -0.12970124 -0.06266189 -0.03906388 0.022645801
-0.033099327 0.05595261 -0.023003075 0.06581937 0.013298192 0.02143687 0.02116981 -0.016961552
-0.011774531 -0.0062698135 0.008301407 0.20260625 -0.12123237 0.16564874 0.017422263 0.030732138
-0.030713908 0.017303329 5.1026065e-05 -0.17253529 0.106209695 -0.054201424 -0.027278798 0.01917936
0.09357305 -0.025120512 0.10348555 -0.03129818 -0.0058916775 -0.08423652 -0.096562766 -0.034663558
-0.050440226 0.024597194 -0.05227908 0.028024813 -0.07252873 -0.041403178 0.0019335442 0.0054073334
0.06382597 0.03780565 0.13526931 0.08510836 -0.045679487 -0.037201554 -0.056770176 -0.090807624
0.031016696 0.10772655 -0.14673634 0.079113655 -0.07670981 -0.013214085 0.030212222 -0.13701183
0.11183543 0.08657159 0.10724278 -0.04555336 -0.07322241 0.00042573622 0.099853456 -0.018711982
0.0060421824 -0.036264498 0.00072096667 -0.12105096 -0.046293885 -0.13168003 0.05298336 0.10733488
0.015943296 0.02452039 -0.099767305 -0.014639223 0.10732491 -0.093809955 0.037842985 0.005172411
0.11798854 0.13498884 0.049424715 0.025116613 0.033593833 -0.03491449 -0.040877443 0.07720057
0.09938916 -0.115791924 0.032106787 -0.023594355 0.04729484 0.028925499 0.16576345 0.1304869
-0.046786245 0.01586642 -0.02047856 -0.015408785 0.0039937585 0.05319033 -0.00797151 -0.12725493
0.047515493 -0.11825461 0.05512649 0.0039801463 -0.03658561 -0.16198802 0.03185459 0.043954704
-0.008641591 0.058001325 0.052827343 -0.12703285 0.074006304 0.02634056 -0.013865287 -0.0014067758
-0.113100685 0.09828023 0.009340794 0.007165784 0.087045446 -0.032432083 0.010538168 -0.00954189
-0.051476166 0.07298478 0.011166776 0.010248251 0.001496886 -0.070558645 -0.026911767 0.064441435
0.08587498 0.12404367 0.013076117 -0.08159168 -0.0030145631 0.045429256 0.0005669708 -0.014662953
-0.15966383 0.11667261 -0.12239754 -0.012856166 -0.09749823 -0.10566408 -0.025206534 0.058525138
0.031066574 -0.008626009 -0.0025682212 0.098533094 0.12968181 0.019589026 -0.10287258 0.053721953
-0.017696613 -0.10242895 0.12723832 -0.03987198 -0.009363581 0.08163411 0.026675884 -0.10303316
0.030321825 -0.03963308 0.014884415 -0.04988073 -0.08543756 -0.03728841 0.101415515 -0.003739661
0.049339015 -0.03430447 0.080572456 -0.0233821 -0.0007177955 -0.12474959 0.03875051 -0.1526287
0.120378025 0.030105535 0.07414243 0.042249314 0.15529664 -0.03319735 0.082017906 -0.08305789
-0.18922634 0.0062052105 0.012977135 0.061628792 -0.07502244 -0.08483381 -0.019838575 0.031752598
-0.066228576 0.04813167 0.14990163 0.0694373 -0.03577784 0.09428286 -0.01817232 0.06457466
0.060720544 -0.099981524 -0.036367264 0.11037757 -0.0053717806 0.021920942 0.03848885 -0.076287985
0.13021617 -0.09487887 0.08617043 0.06156937 0.0032571468 0.091607444 -0.15079172 0.18221676
-0.040854964 -0.12368996 -0.07428287 0.04364117 -0.08355065 0.102731906 0.022579681 -0.06123394
-0.08978157 -0.057641402 -0.033054605 0.06364613 0.120151214 -0.12876184 0.009160884 0.08606683
00000000: b719 ba3d cb3d 193d a974 a1bc 495b f6bb
00000010: 99ef d3bc bbc6 233c 87ae 943c 2502 8ebd
00000020: 8d6a 8c3d 57b5 5e3d 20e4 fc3c 14f1 0abe
00000030: 67d0 04be e154 80bd 7201 20bd b083 b93c
00000040: 2993 07bd 902e 653d f270 bcbc 4ecc 863d
00000050: a9e0 593c 609c af3c 4f6c ad3c f4f2 8abc
00000060: f6e9 40bc 0273 cdbb a002 083c 0378 4f3e
00000070: ad48 f8bd d39f 293e 22b9 8e3c f7c1 fb3c
00000080: bc9b fbbc b6bf 8d3c d204 5638 17ad 30be
00000090: 7884 d93d 5002 5ebd c977 dfbc 081e 9d3c
000000a0: 3aa3 bf3d 88c9 cdbc 3bf0 d33d 8532 00bd
000000b0: f90e c1bb 3284 acbd b3c2 c5bd 60fb 0dbd
000000c0: 699a 4ebd 0e80 c93c 9722 56bd 4b94 e53c
000000d0: f189 94bd 6196 29bd fa6e fd3a 0030 b13b
000000e0: 31b7 823d 19da 1a3d 0a84 0a3e 4b4d ae3d
000000f0: 6a1a 3bbd a860 18bd d887 68bd 59f9 b9bd
00000100: ba16 fe3c bd9f dc3d 0d42 16be 5706 a23d
00000110: 081a 9dbd e47f 58bc 9f7f f73c d44c 0cbe
00000120: f909 e53d 724c b13d 1aa2 db3d 2996 3abd
00000130: a2f5 95bd 5935 df39 f87f cc3d df49 99bc
00000140: 80fd c53b 158a 14bd 41ff 3c3a 91e9 f7bd
00000150: a89e 3dbd 21d7 06be 1405 593d 64d2 db3d
00000160: 849b 823c fcde c83c cd52 ccbd 5ad9 6fbc
00000170: 2acd db3d 6f1f c0bd 3f01 1b3d 547d a93b
00000180: faa3 f13d 843a 0a3e 9271 4a3d 5bc1 cd3c
00000190: b099 093d 7f02 0fbd 1b6f 27bd 551b 9e3d
000001a0: 8b8c cb3d 5124 edbd 6882 033d f348 c1bc
000001b0: 3cb8 413d 2bf5 ec3c e5bd 293e 5c9e 053e
000001c0: efa2 3fbd 4bfa 813c a7c2 a7bc 2175 7cbc
000001d0: 13de 823b 1ade 593d f09a 02bc 1e4f 02be
000001e0: 9b9f 423d 792f f2bd 50cc 613d e36b 823b
000001f0: cbda 15bd 30e0 25be f579 023d d909 343d
00000200: 7695 0dbc cc92 6d3d 7c61 583d e614 02be
00000210: 9e90 973d 28c8 d73c 3b2b 63bc 9063 b8ba
00000220: 55a1 e7bd 2547 c93d 210a 193c f4ce ea3b
00000230: e244 b23d 81d7 04bd 48a8 2c3c 9655 1cbc
00000240: acd8 52bd 0b79 953d daf4 363c 48e8 273c
00000250: 2933 c43a 0d81 90bd 1176 dcbc dff9 833d
00000260: 39df af3d 9c0a fe3d 363d 563c 8a19 a7bd
00000270: fa8f 45bb 0714 3a3d c4a0 143a e23c 70bc
00000280: ea7e 23be 0df2 ee3d 90ab fabd aba2 52bc
00000290: 27ad c7bd 6966 d8bd ef7d cebc 0eb8 6f3d
000002a0: 547f fe3c 1b54 0dbc 9a4f 28bb b8cb c93d
000002b0: 4fcb 043e 2a79 a03c dcae d2bd 8d0b 5c3d
000002c0: 7df8 90bc 45c6 d1bd c34a 023e cd50 23bd
000002d0: b569 19bc c92f a73d 6287 da3c 0d03 d3bd
000002e0: 7a65 f83c 4c56 22bd c3dd 733c bd4f 4cbd
000002f0: e3f9 aebd bbbb 18bd f0b2 cf3d 1a15 75bb
00000300: b517 4a3d d882 0cbd 2c03 a53d d18b bfbc
00000310: 712a 3cba b77c ffbd dbb8 1e3d b34a 1cbe
00000320: c188 f63d e29f f63c fdd7 973d 9e0d 2d3d
00000330: 1506 1f3e f2f9 07bd 01f9 a73d 411a aabd
00000340: 8dc4 41be 1455 cb3b 0d9e 543c 796e 7c3d
00000350: 5da5 99bd 59bd adbd 8284 a2bc 030f 023d
00000360: d9a2 87bd b725 453d d07f 193e 2535 8e3d
00000370: c98b 12bd 5f17 c13d 1ede 94bc b83f 843d
00000380: 1bb6 783d 1dc3 ccbd d7f5 14bd a30d e23d
00000390: c305 b0bb 8c93 b33c 7ca6 1d3d e03c 9cbd
000003a0: 6357 053e da4f c2bd 1f7a b03d 2a30 7c3d
000003b0: db75 553b af9c bb3d 2569 1abe 0897 3a3e
000003c0: 8957 27bd 2951 fdbd 9e21 98bd 15c1 323d
000003d0: 9a1c abbd 1b65 d23d 06f9 b83c 71d0 7abd
000003e0: 66df b7bd 6419 6cbd 4464 07bd e758 823d
000003f0: d711 f63d 25da 03be 8817 163c ce43 b03d

rnn.bias_ih_l0 f4 [128]
-0.046894066 -0.029077994 -0.11597855 0.010815902 -0.049536802 0.023938347 -0.018973785 -0.024896445
-0.004502725 -0.014037814 0.11482149 0.060170937 -0.030618535 0.050758366 -6.037972e-05 0.11247316
0.08929695 0.0047321166 -0.079923764 -0.01592486 -0.033802006 0.0024770969 0.0028349697 -0.047087878
-0.07368479 -0.016830597 -0.040284008 0.10790039 -0.013454067 0.056319732 0.0131219085 0.07936657
-0.0880628 -0.0026631274 0.07051381 -0.1090247 -0.071801685 -0.0555394 0.091538504 -0.0009782909
-0.0024344586 -0.021621775 0.071889624 0.081643656 0.008896196 -0.084191374 0.010680679 0.046551786
-0.08201264 0.04170896 -0.06625559 0.0033198323 -0.0045473217 -0.004410647 -0.027541047 0.08253851
0.064647295 -0.069336616 0.050926477 0.07396633 -0.044836674 -0.056746427 -0.0276799 0.055179887
0.08263439 0.051661942 0.07647755 0.020659856 0.0034499494 0.082296476 0.05351971 -0.067719914
-0.028089868 -0.051683646 -0.061698984 -0.025397195 0.011567816 -0.020235384 0.074350454 0.072544605
-0.049323346 0.034398466 -0.023508588 0.03822642 0.008418795 -0.027435398 0.0446217 -0.039586805
0.016202783 -0.064704835 0.0007820357 -0.031344485 -0.0021752866 0.010441749 -0.022158554 0.070337474
-0.0019349739 -0.017583113 0.0063480404 -0.038704276 -0.107775375 -0.06608558 0.011915451 -0.01541938
-0.07080127 0.010046277 0.10143194 0.030060036 0.017926753 0.032658838 -0.0062348736 -0.0006608689
0.05890191 -0.054822516 0.0602667 -0.06303838 0.06498994 0.064538255 -0.08217134 0.03167171
-0.029189833 -0.0065993373 0.045605194 0.034696974 0.058496602 -0.0775282 0.08300971 -0.07546604
00000000: fe13 40bd f934 eebc 2986 edbd 2e35 313c
00000010: 1ae7 4abd 5a1a c43c e96e 9bbc a1f3 cbbc
00000020: 988b 93bb dcfe 65bc 8827 eb3d cd75 763d
00000030: b9d3 fabc 01e8 4f3d 3b40 7db8 5458 e63d
00000040: 52e1 b63d df0f 9b3b 12af a3bd da74 82bc
00000050: f973 0abd ca56 223b e6ca 393b 38df 40bd
00000060: 0de8 96bd 52e0 89bc d800 25bd e1fa dc3d
00000070: 726e 5cbc 85af 663d 46fd 563c f18a a23d
00000080: 455a b4bd dd87 2ebb 8b69 903d 5848 dfbd
00000090: c30c 93bd 487d 63bd 8a78 bb3d ff39 80ba
000000a0: 708b 1fbb 2620 b1bc de3a 933d ca34 a73d
000000b0: 5ac1 113c 876c acbd 04fe 2e3c 16ad 3e3d
000000c0: 3ef6 a7bd 04d7 2a3d 03b1 87bd 8b91 593b
000000d0: b301 95bb 3087 90bb c39d e1bc f309 a93d
000000e0: cd65 843d 5b00 8ebd 4898 503d a97b 973d
000000f0: a9a6 37bd f16e 68bd f5c0 e2bc 4e04 623d
00000100: 383c a93d 799b 533d 43a0 9c3d dc3e a93c
00000110: 8c18 623b 0e8b a83d 7c37 5b3d bdb0 8abd
00000120: b91c e6bc 3bb2 53bd 13b8 7cbd c70d d0bc
00000130: f086 3d3c adc4 a5bc 0d45 983d 4492 943d
00000140: 4707 4abd 68e5 0c3d 1595 c0bc 4e93 1c3d
00000150: fcee 093c 33c0 e0bc 3ec5 363d c625 22bd
00000160: b3bb 843c f883 84bd 8701 4d3a 1363 00bd
00000170: 418f 0ebb df13 2b3c db85 b5bc 180d 903d
00000180: f39e fdba 760a 90bc 3903 d03b 6088 1ebd
00000190: 56b9 dcbd e057 87bd 0639 433c 91a1 7cbc
000001a0: 4200 91bd 2499 243c 8dbb cf3d 7740 f63c
000001b0: 20db 923c 46c5 053d e94d ccbb 293e 2dba
000001c0: 2143 713d 938d 60bd 37da 763d 441a 81bd
000001d0: 7219 853d a22c 843d 7349 a8bd 32ba 013d
000001e0: 841f efbc 413f d8bb 83cc 3a3d 6a1e 0e3d
000001f0: 229a 6f3d 1bc7 9ebd ff00 aa3d f08d 9abd

rnn.bias_hh_l0 f4 [128]
0.07618019 0.060639143 -0.08749991 -0.043207355 0.00046831527 0.04025591 -0.043523915 0.0075495006
-0.0779533 -0.046692178 -0.0345364 -0.043197542 0.084270686 0.043582782 0.07599845 0.004215022
0.061342083 0.04741827 -0.05982707 0.010895001 -0.043966845 0.012194296 0.02311468 0.031585213
0.069466345 -0.027119754 0.0832452 0.08775538 0.031888638 0.030097472 -0.00881591 0.011273001
0.023859821 -0.07784148 -0.04768347 -0.06473553 -0.029601637 0.0012970638 -0.04973804 -0.03079526
0.0634907 0.063896835 0.021423126 -0.047986846 -0.052760154 0.07689847 -0.0120760435 0.05665453
-0.083892085 -0.036496483 -0.07621374 0.05786426 -0.019436998 -0.05773398 -0.010352341 -0.016730122
-0.042612128 -0.027471041 -0.012030656 0.09648959 -0.00912368 0.053838134 0.049100224 -0.039758142
0.080116615 0.04186768 -0.02720906 -0.064094916 -0.0042716004 0.04055896 -0.066603 -0.06626423
0.036893535 0.0172709 0.04413555 -0.08567604 -0.06695558 0.10462797 0.08636355 0.09188219
-0.033982657 0.047718443 0.061798546 0.029518098 -0.0062877513 0.09463681 0.080193706 0.053129442
-0.06918601 0.017523821 -0.054177154 -0.03058578 0.04589207 -0.00038297434 -0.08512228 -0.05886108
0.0805959 0.093736604 0.07113274 -0.07533318 -0.058360156 0.06474554 -0.026409153 -0.042101707
-0.0063397675 0.030417569 0.012044606 -0.025289325 -0.05229195 -0.04373771 0.057169724 -0.07260347
-0.016109038 0.029321054 0.0032454957 -0.01872455 -0.068245776 0.08310043 0.04091407 0.027211765
0.015796453 -0.08054082 -0.014198204 -0.048702985 -0.05221701 -0.06978274 -0.00089893385 0.068636425
00000000: 5c04 9c3d c060 783d 2733 b3bd 32fa 30bd
00000010: 3688 f539 62e3 243d 2246 32bd cd61 f73b
00000020: fba5 9fbd 4c40 3fbd 0a76 0dbd e8ef 30bd
00000030: 1c96 ac3d dc83 323d 13a5 9b3d 2b1e 8a3b
00000040: d641 7b3d a939 423d 3b0d 75bd f280 323c
00000050: 9416 34bd 96ca 473c ff5a bd3c 7f5f 013d
00000060: 5f44 8e3d 3f2a debc 767c aa3d 18b9 b33d
00000070: a99d 023d f98e f63c 9b70 10bc 65b2 383c
00000080: ac75 c33c 5b6b 9fbd be4f 43bd 1094 84bd
00000090: 227f f2bc 3d02 aa3a 1dba 4bbd 5746 fcbc
000000a0: 6a07 823d 58dc 823d 8d7f af3c db8d 44bd
000000b0: 081b 58bd f27c 9d3d 99da 45bc 950e 683d
000000c0: 9dcf abbd 567d 15bd f315 9cbd 1303 6d3d
000000d0: 573a 9fbc 777a 6cbd de9c 29bc 9c0d 89bc
000000e0: 0e8a 2ebd f30a e1bc 3b1c 45bc 569c c53d
000000f0: 7d7b 15bc 6085 5c3d 511d 493d 6fd9 22bd
00000100: 2e14 a43d 727d 2b3d 89e5 debc 3244 83bd
00000110: c8f8 8bbb 2721 263d 2767 88bd 8ab5 87bd
00000120: ad1d 173d b47b 8d3c 7ac7 343d eb76 afbd
00000130: 0220 89bd 3047 d63d 5fdf b03d bb2c bc3d
00000140: 6631 0bbd 6a74 433d 7920 7d3d f0cf f13c
00000150: 7b09 cebb f2d0 c13d 993c a43d 429e 593d
00000160: 65b1 8dbd 1e8e 8f3c dde8 5dbd 088f fabc
00000170: 53f9 3b3d f2c9 c8b9 9754 aebd 5118 71bd
00000180: 770f a53d faf8 bf3d 0bae 913d 4848 9abd
00000190: 0f0b 6fbd 4f99 843d 0258 d8bc d772 2cbd
000001a0: d3bd cfbb 442e f93c bd56 453c 8f2b cfbc
000001b0: 1530 56bd 5026 33bd cd2a 6a3d 21b1 94bd
000001c0: 1af7 83bc b532 f03c 62b2 543b 3a64 99bc
000001d0: 71c4 8bbd 8f30 aa3d 8395 273d 35eb de3c
000001e0: 9067 813c 96f2 a4bd 959f 68bc c87c 47bd
000001f0: 81e1 55bd 41ea 8ebd 6ea6 6bba 4191 8c3d

fc.weight f4 [18, 128]
-0.1765732 0.33051303 -0.01690314 0.22133951 0.29485646 -0.20163225 -0.21990141 -0.10533151
-0.3169055 -0.22794019 -0.112384796 -0.17063111 -0.23043188 -0.09625822 -0.17330596 -0.015261156
-0.34415606 -0.16805258 0.088426426 0.0040298197 -0.17171273 0.27837932 0.36231348 0.08674785
-0.4879754 0.0102082575 -0.07734623 0.012228592 -0.13820139 -0.03669922 -0.017659005 0.076787464
0.43363008 0.37457496 0.21432418 -0.104918234 0.06873555 0.5141907 -0.1237423 -0.13378072
-0.11926095 -0.2741604 -0.44557485 -0.06143113 -0.3547493 0.01001965 -0.20051076 0.036214903
-0.015789526 -0.109282374 0.24645048 0.011489075 -0.3952392 0.06299213 -0.052616615 -0.2945122
-0.16825354 -0.124783635 0.09817556 -0.04194245 -0.138006 0.18641545 0.02673169 0.13769528
-0.5334924 0.03170241 -0.0006682343 -0.009824129 0.07772494 0.30675706 0.124260746 0.16964373
-0.028802667 0.16267955 0.27851263 -0.19768253 0.2366024 0.0698139 -0.05004274 0.03481845
0.024890061 -0.012752739 0.0053838165 0.4034875 -0.11870923 -0.07210023 -0.39910018 0.19501661
-0.47975418 -0.51850325 -0.024728931 -0.13702099 -0.16890498 -0.012228718 0.2811491 -0.10559067
-0.29052567 0.38382128 0.31742832 -0.011492752 -0.62615126 -0.0016144483 -0.19302331 0.4014595
0.2752286 0.18990217 -0.4233937 0.25422552 -0.04242056 0.15340748 0.25421727 -0.17760174
-0.04466742 -0.25584796 0.073052615 -0.0007562184 -0.03996561 -0.16439554 -0.17551361 -0.06432894
0.059167664 -0.07449003 -0.062114645 0.05533624 0.17620537 0.30127025 -0.092532694 -0.11930655
0.17639437 -0.0912329 -0.09384869 -0.29392076 0.057255756 0.20881988 0.24678354 -0.1313498
0.16672692 -0.044145364 -0.13276166 0.18992676 0.21302938 0.03108502 0.0072816443 -0.10027048
0.19247328 -0.05428829 -0.08049808 0.24679434 0.14429261 -0.031585943 -0.30063775 0.11527151
-0.07980493 -0.07690646 0.07778573 0.09345057 0.15027216 0.18811451 0.16698012 -0.14695705
-0.074308634 -0.23485199 -0.083839774 0.23132567 0.25166947 -0.043481193 -0.0066038207 -0.25730422
0.27834406 -0.033202816 0.30570504 0.050495952 0.065696284 -0.07090753 -0.11431542 -0.01474026
-0.068218976 0.08724864 -0.14420381 0.08406318 0.16093822 -0.17944 0.31030086 0.14736791
0.12263162 -0.15059647 -0.027780518 0.077418804 0.0740999 -0.3298527 0.23952113 0.20232543
-0.016446851 0.33231327 -0.18244925 -0.1578495 -0.22406408 -0.31317663 0.08290411 0.06615699
0.027731294 -0.0069081187 -0.23445396 -0.2050787 -0.019826835 0.059101336 -0.082848735 -0.21529274
0.0570769 0.10488526 0.062660076 -0.1675421 0.007832593 -0.24270473 0.3974337 -0.14299488
-0.08757975 0.24548525 -0.009882471 0.3717359 -0.14643097 -0.15353383 -0.06173246 0.05385628
0.29812506 0.072188765 0.0055487114 -0.109374285 0.46609703 0.105345875 0.08383912 -0.12164335
0.24261175 0.07197067 -0.14444736 -0.18336296 0.16897576 -0.14530408 -0.2590795 0.31662327
-0.013115519 -0.06022743 0.096097834 0.14591974 0.08642522 0.04433428 0.039900757 -0.08514785
-0.0941042 0.05287582 0.16051185 -0.028312862 0.13806541 -0.0689175 -0.23660792 -0.010689536
00000000: 9bcf 34be 0139 a93e 7478 8abc d3a6 623e
00000010: 6df7 963e af78 4ebe d62d 61be 0cb8 d7bd
00000020: 7041 a2be 2769 69be 002a e6bd ecb9 2ebe
00000030: 56f6 6bbe 0823 c5bd 1e77 31be ed09 7abc
00000040: 3935 b0be fa15 2cbe ea18 b53d 940c 843b
00000050: 76d5 2fbe bc87 8e3e 2781 b93e dba8 b13d
00000060: e9d7 f9be 8940 273c b367 9ebd 6f5a 483c
00000070: aa84 0dbe ec51 16bd 9ea9 90bc bf42 9d3d
00000080: c304 de3e 4ac8 bf3e cc77 5b3e 5fdf d6bd
00000090: 39c5 8c3d 00a2 033f 9a6c fdbd d0fd 08be
000000a0: 163f f4bd c05e 8cbe 6322 e4be 359f 7bbd
000000b0: b3a1 b5be 7529 243c b152 4dbe 1456 143d
000000c0: 0959 81bc 70cf dfbd 845d 7c3e ac3c 3c3c
000000d0: cb5c cabe 0502 813d 8584 57bd 4eca 96be
000000e0: a84a 2cbe 908e ffbd 4510 c93d d9cb 2bbd
000000f0: 7251 0dbe b1e3 3e3e 6bfc da3c feff 0c3e
00000100: f592 08bf 63da 013d 722c 2fba 62f5 20bc
00000110: 412e 9f3d 430f 9d3e 6b7c fe3d 16b7 2d3e
00000120: 92f3 ebbc 7895 263e 3599 8e3e 4a6d 4abe
00000130: e647 723e 97fa 8e3d 9ef9 4cbd cb9d 0e3d
00000140: 3ee6 cb3c ddf0 50bc ba6a b03b ea95 ce3e
00000150: d31d f3bd 49a9 93bd dc56 ccbe 6fb2 473e
00000160: 57a2 f5be a1bc 04bf 5494 cabc 3b4f 0cbe
00000170: 6df5 2cbe f65a 48bc c6f2 8f3e ec3f d8bd
00000180: c8bf 94be 3984 c43e f785 a23e 184c 3cbc
00000190: 734b 20bf e59b d3ba e7a7 45be 198c cd3e
000001a0: c3ea 8c3e b775 423e 0fc7 d8be d929 823e
000001b0: 2ec1 2dbd da16 1d3e c428 823e 3bdd 35be
000001c0: 2ff5 36bd 81fe 82be 9c9c 953d f53c 46ba
000001d0: fbb2 23bd 4e57 28be d7b9 33be e4be 83bd
000001e0: cb59 723d 3b8e 98bd ed6b 7ebd 41a8 623d
000001f0: 2e6f 343e 1840 9a3e c881 bdbd fe56 f4bd
00000200: baa0 343e 51d8 babd be33 c0bd c87c 96be
00000210: 0385 6a3d e1d4 553e d3b4 7c3e 9080 06be
00000220: 76ba 2a3e c5d1 34bd acf2 07be 297c 423e
00000230: 6024 5a3e 03a6 fe3c dc9a ee3b 9c5a cdbd
00000240: b717 453e 665d 5ebd 2ddc a4bd a8b7 7c3e
00000250: 71c1 133e 4360 01bd 31ed 99be 7813 ec3d
00000260: c470 a3bd 2281 9dbd 204e 9f3d 0363 bf3d
00000270: f2e0 193e 17a1 403e d6fc 2a3e e97b 16be
00000280: 202f 98bd 0a7d 70be 30b4 abbd a3e0 6c3e
00000290: d2da 803e 5619 32bd dd64 d8bb 61bd 83be
000002a0: 1d83 8e3e adff 07bd 5f85 9c3e d8d4 4e3d
000002b0: c68b 863d f837 91bd 341e eabd 2281 71bc
000002c0: 64b6 8bbd 6aaf b23d 2aaa 13be 5129 ac3d
000002d0: fdcc 243e 1fbf 37be c1df 9e3e 9de7 163e
000002e0: 4926 fb3d f635 1abe f893 e3bc c08d 9e3d
000002f0: b0c1 973d 74e2 a8be 0745 753e 662e 4f3e
00000300: 8cbb 86bc f724 aa3e fad3 3abe 4da3 21be
00000310: 0e71 65be b058 a0be a1c9 a93d 517d 873d
00000320: bd2c e33c 805d e2bb b314 70be 2700 52be
00000330: e36b a2bc 3e14 723d 99ac a9bd b375 5cbe
00000340: 78c9 693d 15ce d63d ed53 803d 2890 2bbe
00000350: 4754 003c 9787 78be 6e7c cb3e 406d 12be
00000360: 035d b3bd 7c60 7b3e 16ea 21bc 2b54 be3e
00000370: 00f2 15be f937 1dbe 2ddb 7cbd 6798 5c3d
00000380: d9a3 983e b4d7 933d f7d1 b53b a0ff dfbd
00000390: 45a4 ee3e 94bf d73d d8b3 ab3d 2620 f9bd
000003a0: 376f 783e 5c65 933d 02ea 13be 80c3 3bbe
000003b0: fb07 2d3e 98ca 14be 11a6 84be 721c a23e
000003c0: 79e2 56bc 0ab1 76bd f1ce c43d fc6b 153e
000003d0: b5ff b03d dd97 353d fa6e 233d ff61 aebd
000003e0: b4b9 c0bd 5194 583d 385d 243e 60f0 e7bc
000003f0: 0561 0d3e 9e24 8dbd 5949 72be 2a23 2fbc

fc.bias f4 [18]
-0.04904978 -0.023007559 -0.055396017 -0.06426499 -0.13894068 -0.0060722986 0.035835415 0.012214742
-0.045816097 0.001953946 -0.05414325 -0.051708207 0.06696846 -0.12548481 -0.024279281 0.1395549
0.0071594017 -0.018646289
00000000: 6ce8 48bd 597a bcbc efe6 62bd 5d9d 83bd
00000010: 7746 0ebe 22fa c6bb 28c8 123d 5720 483c
00000020: a9a9 3bbd c60d 003b 50c5 5dbd fccb 53bd
00000030: c326 893d 177f 00be 58e5 c6bc 7be7 0e3e
00000040: 6a99 ea3b 1ac0 98bc
