text_classify/logs/RNN/RNN_epoch_100_acc_0.7823.pth (torch, 107770 bytes, 6 tensors)

rnn.weight_ih_l0 f4 [128, 57]
0	0xbf318a02	-0.6935121
1	0xbe805392	-0.2506376
2	0xbf12f859	-0.574102
3	0x3e3f710f	0.18695472
4	0x3e2deccb	0.1698486
5	0xbe286066	-0.16443023
6	0x3dec6d24	0.115442544
7	0x3ea71353	0.3263193
8	0xbd1ad0a8	-0.037796646
9	0xbc16b295	-0.009197851
10	0x3f2bb9e7	0.6708054
11	0x3e9d95c0	0.30778313
12	0xbee60e9e	-0.44933027
13	0x3ec1a64a	0.3782218
14	0xbf1a406d	-0.60254556
15	0x3ebd85b5	0.37016073
16	0x3f6d4bd3	0.92693824
17	0x3f0903ca	0.53521407
18	0xbdc36144	-0.09540036
19	0x3f46c1be	0.7763938
20	0x3daf8090	0.08569443
21	0x3f8669fb	1.0501093
22	0x3ef9d1be	0.48792833
23	0x3cabe4da	0.020983148
24	0xbf45a393	-0.7720272
25	0xbf1c161e	-0.6097125
26	0x3e78f927	0.24313794
27	0x3dbb9d86	0.091609046
28	0xbe3702bb	-0.17872135
29	0xbe5e111e	-0.21686217
30	0xbe73c056	-0.23803839
31	0x3d8393d5	0.06424681
32	0x3d55a552	0.052159615
33	0xbe180506	-0.14845666
34	0xbe395e2e	-0.18102333
35	0xbcaa7d80	-0.020811796
36	0x3c50d20c	0.012745392
37	0x3e9ab4f0	0.3021617
38	0xbd86eb2f	-0.065878265
39	0x3d75260c	0.059850737
40	0xbe9f5d8c	-0.31126058
41	0x3e6ed4eb	0.2332341
42	0xbeb669fe	-0.3562774
43	0xbdd18ab0	-0.10231531
44	0xbd9d0bfe	-0.07668303
45	0xbe24111e	-0.16022155
46	0x3e519323	0.20466284
47	0xbdef0383	-0.11670592
48	0x3e847bbd	0.25875655
49	0xbe96ae8c	-0.29430044
50	0xbe255022	-0.1614385
51	0xbe262327	-0.16224347
52	0x3cba7181	0.022759201
53	0xbd71386e	-0.058891706
54	0x3e1be8d0	0.1522553
55	0xbd1f7a7d	-0.038935173
56	0xbeebf60c	-0.46086156
57	0x3f135188	0.5754628
58	0x3f185018	0.59497213
59	0x3e33dab8	0.17563903
60	0x3d8df0de	0.069307074
61	0xbde13a48	-0.109974444
62	0xbb4d8aff	-0.0031363366
63	0x3f26f63e	0.65219486
64	0x3e37cd00	0.17949295
65	0x3ea85754	0.32879126
66	0x3e7ffa54	0.24997836
67	0x3f3bea18	0.73404074
68	0x3e8f4606	0.2798311
69	0xbf08cca1	-0.5343724
70	0xbf0e12d5	-0.55497485
71	0x3f1a607f	0.6030349
72	0xbe6c520e	-0.23078176
73	0xbeb2211e	-0.3479089
74	0xbed57c61	-0.41696456
75	0xbf3e7fb2	-0.744136
76	0xbebe0463	-0.37112722
77	0xbef1a689	-0.4719737
78	0xbe808495	-0.25101152
79	0xbd879d41	-0.06621791
80	0xbe916b41	-0.2840214
81	0xbf09f7a5	-0.538935
82	0xbd7fa667	-0.062414553
83	0x3e5b9f40	0.21447468
84	0x3eb63b91	0.3559232
85	0xbdfc1cba	-0.12310167
86	0x3d15223b	0.036409598
87	0x3e6809ef	0.2266004
88	0xbd8537b0	-0.06504762
89	0xbebafdc3	-0.3652173
90	0x3d6c4ea4	0.057692185
91	0x3cbf5771	0.023357125
92	0x3e8aecea	0.27133876
93	0x3dd5ddf2	0.10442723
94	0x3e8748c8	0.26422715
95	0xbe01635a	-0.12635556
96	0xbcca0da3	-0.024664706
97	0x3a8f7160	0.0010943823
98	0x3d291918	0.041283697
99	0xbe1e7c35	-0.15477069
100	0xbe1dcd9f	-0.1541047
101	0xbd63ad92	-0.05558545
102	0xbe237c42	-0.1596537
103	0xbd8e5042	-0.06948902
104	0x3e2497f5	0.16073592
105	0xbe00e7ce	-0.12588426
106	0x3d26a68b	0.04068617
107	0xbe0bc224	-0.13648278
108	0xbd50d6f1	-0.050986234
109	0x3ea80b9d	0.3282136
110	0x3d7ff520	0.06248963
111	0xbed99a74	-0.4250065
112	0xbc9dc56f	-0.019259183
113	0xbdf2a5eb	-0.118480526
114	0x3e6fa674	0.2340334
115	0x3eed3464	0.46329033
116	0xbe2dd4c2	-0.16975692
117	0x3ec094a4	0.37613404
118	0xbe996944	-0.29963124
119	0x3cbd9056	0.023140114
120	0xbf584a9d	-0.8448885
121	0xbc0db90b	-0.008650075
122	0x3e9eb3fa	0.30996686
123	0x3e7286bd	0.23684211
124	0x3e9cd693	0.30632457
125	0xbec98a7b	-0.39363465
126	0xbea70ec7	-0.32628462
127	0xbecd0d6f	-0.40049312
128	0xbe7e3a28	-0.24826872
129	0xbe4bff2c	-0.19921559
130	0xbef41b52	-0.47677094
131	0x3d493e3c	0.049131617
132	0x3d0873f4	0.033313707
133	0xbcdbfd55	-0.026854197
134	0x3e1e005f	0.15429829
135	0xbf730b15	-0.94938785
136	0xbe1252d9	-0.14289416
137	0xbf35bf60	-0.7099514
138	0x3dff4f35	0.124662794
139	0xbd839865	-0.06425551
140	0x3e66557c	0.22493547
141	0xbda12391	-0.07868112
142	0x3c18f792	0.009336369
143	0x3e262676	0.16225609
144	0xbc87e0ef	-0.016586749
145	0xbdecaa35	-0.11555902
146	0xbd8831b6	-0.066501066
147	0x3cf795ab	0.030222734
148	0x3ed3bc44	0.41354573
149	0x3dfe1f6e	0.124083385
150	0x3d83bec9	0.06432874
151	0xbbc85360	-0.0061134547
152	0xbe056639	-0.13027276
153	0x3e14c0ac	0.14526623
154	0x3e0495d2	0.12947777
155	0xbdb84ba3	-0.089988016
156	0x3da44b90	0.08022225
157	0xbe095bb0	-0.13413882
158	0xbd384ee6	-0.04499712
159	0x3e01e1cb	0.1268379
160	0xba1e5c6a	-0.00060409924
161	0x3e22fb05	0.15916069
162	0xbe20dc78	-0.15709102
163	0xbd13aafe	-0.036051743
164	0xbd904239	-0.07043881
165	0xbc2e6b47	-0.010645694
166	0x3e1160d0	0.14197087
167	0x3d235511	0.039876048
168	0xbe487f7c	-0.19579881
169	0xbd2fcbbc	-0.042918906
170	0x3dbb7cb7	0.09154647
171	0x3d73680c	0.0594254
172	0x3e69d9ff	0.22837065
173	0x3dceebe9	0.1010359
174	0x3d3ebe3a	0.046568133
175	0xbe0f0169	-0.13965382
176	0x3eecc759	0.4624584
177	0xbd4125b9	-0.047155116
178	0xbf07b705	-0.5301364
179	0x3ebc9820	0.36834812
180	0x3d92429f	0.07141613
181	0xbdbd9e4c	-0.09258708
182	0x3eea15d3	0.45719776
183	0xbe4dfcc1	-0.20115949
184	0xbecc1425	-0.3985912
185	0x3d669345	0.05629279
186	0x3e2b7bec	0.16746491
187	0xbee2ccec	-0.44296968
188	0x3ede7767	0.43450472
189	0xbe70ba30	-0.23508525
190	0xbe39e404	-0.18153387
191	0x3eaf7ba2	0.34274012
192	0xbf4dcf29	-0.80394226
193	0xbcf15609	-0.02945997
194	0x3f1b8a21	0.60757643
195	0xbf7223ff	-0.94586176
196	0x3ebaebed	0.36508122
197	0xbef4f361	-0.47841933
198	0x3dbdbf80	0.09265041
199	0x3e979036	0.29602212
200	0x3d9cd7d2	0.07658352
201	0xbe81924b	-0.25306925
202	0x3d11c328	0.035586506
203	0x3da0b139	0.078463025
204	0xbb90d3ed	-0.004419795
205	0xbea584f7	-0.32328007
206	0x3e8e940f	0.27847335
207	0x3d41d129	0.04731861
208	0x3e2c36ac	0.1681773
209	0xbd6914c5	-0.056904573
210	0xbe3730b3	-0.17889671
211	0xbda869af	-0.082232825
212	0x3dbf89ea	0.09352477
213	0xbcbac428	-0.022798613
214	0x3bd56e68	0.0065134056
215	0x3cb3ccfb	0.021948328
216	0x3c82072b	0.015872559
217	0xbcbbfbcb	-0.022947213
218	0x3c4972ab	0.012295405
219	0x3e450c6e	0.19243023
220	0x3ee7525e	0.4518003
221	0x3dc97425	0.09836606
222	0x3d05ed5d	0.03269707
223	0xbf1c0355	-0.60942584
224	0x3c1bdffd	0.009513852
225	0xbe8d2c84	-0.27573025
226	0x3d3ec116	0.04657086
227	0xbebf8176	-0.37403458
228	0xbd65ff39	-0.056151602
229	0x3e6ba93f	0.23013781
230	0xbf675030	-0.9035673
231	0xbc9003f9	-0.01758002
232	0x3e1190bd	0.1421537
233	0xbe01fcb7	-0.1269406
234	0xbec56f5e	-0.3856153
235	0xbedefe6a	-0.43553478
236	0x3ede3b0b	0.4340442
237	0x3d9e88b5	0.077409185
238	0xbe4b22b6	-0.1983746
239	0xbe428ee1	-0.18999816
240	0xbec4ed6b	-0.38462386
241	0xbe3e310f	-0.18573402
242	0x3f0d6da3	0.5524542
243	0xbe9d8765	-0.3076736
244	0x3ea24561	0.31693557
245	0xbe74ecf8	-0.23918521
246	0x3d9cd41c	0.07657644
247	0x3ebb9e64	0.3664428
248	0xbec9c7e5	-0.3941032
249	0x3e443741	0.19161703
250	0xbe5b32f0	-0.2140615
251	0xbf0b23a9	-0.5435129
252	0x3d78ffa6	0.06079068
253	0xbdd648d5	-0.1046311
254	0xbd6625a1	-0.05618823
255	0x3cb84819	0.022495316

rnn.weight_hh_l0 f4 [128, 128]
0	0x3deaf08f	0.11471664
1	0x3e008408	0.12550366
2	0xbcfc1d59	-0.030775713
3	0xbe316174	-0.17322332
4	0xbe5572d8	-0.2084459
5	0x3ba7b269	0.0051177037
6	0x3df94b49	0.12172563
7	0xbe349ec0	-0.17638683
8	0x3dac91b2	0.08426227
9	0x3d9b80d5	0.07592932
10	0x3e70f006	0.23529062
11	0xbe25be7d	-0.16185947
12	0xbe164e24	-0.14678246
13	0xbe3fc9eb	-0.1872937
14	0x3aeb6095	0.0017957861
15	0x3c24e0a2	0.010063322
16	0xbdff554c	-0.12467441
17	0x3e13bf08	0.14428341
18	0xbdea443c	-0.11438796
19	0x3e2b7252	0.16742828
20	0x3db4177a	0.0879354
21	0x3dbda11c	0.09259245
22	0x3d23c313	0.03998096
23	0xbdc99458	-0.098427474
24	0x3dbcb0f6	0.0921344
25	0xbdc9f04f	-0.09860288
26	0xbdac5894	-0.084153324
27	0x3ea6aba1	0.32552817
28	0xbea8238b	-0.32839617
29	0x3e5b6256	0.21424231
30	0xbb25a003	-0.0025272376
31	0xbd9bba59	-0.07603902
32	0xbdd10cdf	-0.10207533
33	0x3dc00135	0.0937523
34	0xbd9cb6ad	-0.0765203
35	0xbe853efe	-0.26024622
36	0x3e3b8b76	0.18314919
37	0xbe204958	-0.15652978
38	0xbe4f0098	-0.2021507
39	0x3d304842	0.04303766
40	0x3e073eb8	0.13207519
41	0xbd985697	-0.07438391
42	0x3e50acbf	0.20378397
43	0xbd4c28c9	-0.049843583
44	0xbd1ea289	-0.038729224
45	0xbe2edae2	-0.17075685
46	0xbdf5c062	-0.11999585
47	0xbcb5cc03	-0.022192007
48	0xbdf21507	-0.11820417
49	0x3e15580a	0.14584365
50	0xbe1bfd75	-0.15233405
51	0x3d375d65	0.044766802
52	0xbe417337	-0.18891607
53	0xbd5292d3	-0.051409554
54	0xbd248aac	-0.04017131
55	0x3d6b4fbb	0.057449084
56	0x3e2cfcc3	0.16893296
57	0x3cadb04a	0.021202225
58	0x3e600ee5	0.21880682
59	0x3d9189d2	0.07106365
60	0xbe2b4e3d	-0.16729064
61	0xbdf856da	-0.121259406
62	0xbd85e772	-0.06538285
63	0xbe0328f2	-0.12808588
64	0xb8e80175	-0.000110628935
65	0x3a050fc2	0.00050758955
66	0xbe88ed9a	-0.26743776
67	0xbcc8414a	-0.024445195
68	0xbe409209	-0.18805708
69	0x3dae504a	0.08511408
70	0x3d102395	0.035190184
71	0xbe2ca297	-0.16858898
72	0x3e21b32e	0.15791008
73	0x3ddd76a3	0.10813644
74	0x3e58eeaa	0.21184793
75	0x3ca48b02	0.020085815
76	0x3caae918	0.0208631
77	0x3d6dcb38	0.058055133
78	0x3e17341b	0.1476597
79	0xbd5b2e71	-0.053511087
80	0x3d0c152c	0.03419988
81	0x3d8f27e9	0.06990034
82	0xbdc8b899	-0.09800834
83	0xbe41b864	-0.18917996
84	0x3c89c438	0.016817197
85	0xbde7e9f9	-0.113239236
86	0x3d6862a4	0.056734696
87	0x3deba68f	0.11506378
88	0x3ce24678	0.027621493
89	0x3dbd99de	0.092578635
90	0xbd7f7238	-0.062364787
91	0x3d4c022b	0.049806755
92	0x3cf752d1	0.030190857
93	0xbe5af0a8	-0.21380866
94	0x3dcac314	0.099004894
95	0xbc609cd0	-0.013709262
96	0x3e37e618	0.17958868
97	0x3e66a86f	0.2252519
98	0x3da69180	0.08133221
99	0x3d4cb17d	0.049973954
100	0xbc829d41	-0.015944125
101	0xbe02a142	-0.12756827
102	0x3cc81cb1	0.024427744
103	0x3e046c48	0.12931931
104	0x3dc74962	0.097307935
105	0xbe5e7fb2	-0.217284
106	0x3c9ddf0c	0.019271396
107	0x3e08cdfa	0.13359824
108	0x3d11bf6a	0.035582937
109	0x3dd055a8	0.10172588
110	0x3e11853b	0.1421098
111	0x3e001214	0.12506896
112	0xbe34c07a	-0.17651549
113	0x3e3258af	0.17416643
114	0x3d6f683d	0.05844902
115	0xbdefe6f3	-0.11713972
116	0xbd7e585f	-0.062095996
117	0x3dd7c63f	0.10535859
118	0x3cd7a72c	0.026324831
119	0xbe652d19	-0.22380485
120	0x3e1b2f0f	0.1515467
121	0xbdf5a08e	-0.11993514
122	0x3cef0cd8	0.029180929
123	0xbdba29da	-0.09090014
124	0xbe2f0dd9	-0.17095126
125	0xbe34da66	-0.17661437
126	0x3d86493b	0.06556936
127	0x3d418e01	0.047254566
128	0xbd05bda4	-0.03265156
129	0xbd91e7f0	-0.07124317
130	0x3d31ea8e	0.04343658
131	0xbe3303ad	-0.17481871
132	0x3da9a27a	0.08282943
133	0x3de0d7eb	0.10978683
134	0xbcaa75ff	-0.020808218
135	0x3d469e3b	0.048490744
136	0xbe4718dc	-0.19443077
137	0x3e2a3fb8	0.1662587
138	0xbc0d9423	-0.008641276
139	0xbd7fc580	-0.06244421
140	0x3e263177	0.16229807
141	0x3c5b64d5	0.013390739
142	0x3dbb34b1	0.091409095
143	0xbcd7bc0c	-0.026334785
144	0xbb4cb26f	-0.0031234284
145	0x3d9b812d	0.07592998
146	0x3e317983	0.1733151
147	0xbcefd1fe	-0.029274937
148	0x3d1a08a4	0.037605897
149	0xbcf6109f	-0.030037222
150	0x3da78f6b	0.08181652
151	0x3e30e25e	0.17273852
152	0xbb9d3cd1	-0.0047985096
153	0x3e3b79d4	0.18308192
154	0x3cc36444	0.023851521
155	0xbdda621d	-0.10663245
156	0xbbb352df	-0.0054725255
157	0x3d876695	0.06611363
158	0xbd870ae0	-0.06593871
159	0x3e1f9425	0.15583856
160	0xbe258942	-0.16165641
161	0x3e4fd011	0.20294215
162	0xbe85f859	-0.26166037
163	0x3d5e420e	0.054262213
164	0xbd8f5d50	-0.0700022
165	0xbcd76568	-0.026293471
166	0xbd0fdc60	-0.035122275
167	0x3dc816ab	0.097699486
168	0x3d7dcb1e	0.061961286
169	0xba13a2d1	-0.00056318665
170	0x3b78b0e8	0.0037947241
171	0x3e034077	0.1281756
172	0x3d6605dc	0.05615793
173	0x3c99c21f	0.018769322
174	0xbe10361e	-0.14083144
175	0x3c4e72a4	0.012600575
176	0x3b736719	0.0037140308
177	0xbe5e8d83	-0.2173367
178	0x3e00b35a	0.12568417
179	0xbe3ddd4f	-0.18541454
180	0xbcca25be	-0.0246762
181	0x3e3d0371	0.18458344
182	0x3d1785df	0.036992904
183	0xbe117521	-0.14204837
184	0x3e82a7c4	0.2551862
185	0xbd61ada6	-0.055097245
186	0x3d85bbf5	0.065299906
187	0xbcc4d2af	-0.024026243
188	0xbe59f127	-0.21283399
189	0xbdc14c32	-0.09438361
190	0x3e04ac37	0.1295632
191	0x3cf39279	0.02973293
192	0x3ce0bc9d	0.027433688
193	0x3ca18012	0.019714389
194	0x3dbcfc08	0.09227759
195	0xbae5ddea	-0.0017537449
196	0x3c18d5ff	0.009328364
197	0xbe161136	-0.14655003
198	0x3c14c6d8	0.009080611
199	0xbe87fa64	-0.2655822
200	0x3eaaeb87	0.33382818
201	0x3bcb825a	0.0062106075
202	0x3d53400e	0.05157476
203	0x3daa015e	0.08301042
204	0x3e0cd809	0.13754286
205	0x3e09e2db	0.13465445
206	0x3c48bdf1	0.012252317
207	0xbd9c4073	-0.0762948
208	0xbec5f327	-0.38662073
209	0xbd46157b	-0.04836033
210	0x3ca971e1	0.020684185
211	0xbb9ccae6	-0.0047849296
212	0xbe4d5544	-0.20052058
213	0xbd891577	-0.06693547
214	0xbe5f8b12	-0.21830395
215	0x3e07b673	0.13253193
216	0xbd21762e	-0.039419346
217	0x3bb20e5e	0.0054338416
218	0x3e011daa	0.12608972
219	0x3e27e213	0.16394834
220	0xbd80c95a	-0.06288405
221	0x3e7e58d8	0.24838579
222	0xbd900b6f	-0.07033431
223	0x3e00821d	0.12549634
224	0xbd3bdfcd	-0.04586773
225	0xbe14bd58	-0.14525354
226	0xbdd7bafd	-0.10533712
227	0x3e4629ea	0.19351926
228	0xbbb6eb57	-0.005582254
229	0x3d19b360	0.03752458
230	0x3e0ac02e	0.13549873
231	0xbe2fc2b0	-0.17164111
232	0x3e29d54a	0.1658527
233	0xbe3ccf49	-0.18438448
234	0x3e392778	0.18081462
235	0xbcd17670	-0.02556917
236	0x3c70ea05	0.014704232
237	0x3e320790	0.17385697
238	0xbe817001	-0.25280765
239	0x3e8e6584	0.27811825
240	0xbe07ae95	-0.13250192
241	0xbe6b6aa2	-0.22989896
242	0xbe31dcab	-0.17369334
243	0x3d243f3e	0.040099375
244	0xbdde03ae	-0.108405456
245	0x3e4841a9	0.19556297
246	0xbc8c6284	-0.01713682
247	0xbd8d50bb	-0.06900164
248	0xbd4e3785	-0.050345916
249	0xbd973179	-0.07382483
250	0xbdef9cd1	-0.11699832
251	0x3d7cdb0e	0.061732344
252	0x3ed546e4	0.41655648
253	0xbe2e9c7f	-0.17051886
254	0x3d409e25	0.04702582
255	0x3c945dcd	0.018111134

rnn.bias_ih_l0 f4 [128]
0	0xbd93de82	-0.07220174
1	0xbd349428	-0.044086605
2	0xbe18afad	-0.14910765
3	0x3ccc519f	0.024941264
4	0xbd807415	-0.06272141
5	0xbc683ea3	-0.01417509
6	0xbc6ac238	-0.014328532
7	0xbcf0bd18	-0.029387042
8	0xbc1566bb	-0.009118731
9	0xbd0cd51a	-0.034382917
10	0x3dc19a46	0.094532534
11	0x3d6485e1	0.05579174
12	0xbcc14d53	-0.023596441
13	0x3d6d7f71	0.057982866
14	0x3cbbce16	0.022925418
15	0x3dfa18fc	0.12211797
16	0x3dc08a1b	0.094013415
17	0x3a960e77	0.0011448403
18	0xbd6c08b1	-0.057625476
19	0xbc48131d	-0.012211588
20	0xbcc1f0d1	-0.0236744
21	0x3c0daf0e	0.008647693
22	0xbb18fc3a	-0.0023343698
23	0xbd8555de	-0.065105185
24	0xbd9786ac	-0.073987335
25	0xbcabd129	-0.020973759
26	0xbd280a62	-0.041025527
27	0x3da2686f	0.079300754
28	0x3c17a2ac	0.009255093
29	0x3d5cdae1	0.053919677
30	0x3bde28ae	0.0067797517
31	0x3d3ff079	0.046860192
32	0xbda2946c	-0.079384655
33	0xbbfb955a	-0.007677716
34	0x3d95a72c	0.07307276
35	0xbde150a8	-0.11001712
36	0xbd95d2ad	-0.07315574
37	0xbccace14	-0.024756469
38	0x3dc5a837	0.09651225
39	0x3c2d20c3	0.010566893
40	0xbc7e068a	-0.015504489
41	0xbd2cc435	-0.042179305
42	0x3d72d330	0.059283435
43	0x3da9860e	0.08277522
44	0x3a9f5c04	0.001215816
45	0xbd9f0972	-0.077654734
46	0x3bf8d2a5	0.00759347
47	0x3d1939e7	0.037408736
48	0xbd7b023d	-0.06128143
49	0x3d483a23	0.04888357
50	0xbd931509	-0.071817465
51	0x3bc83948	0.006110344
52	0x3bfeb927	0.0077735367
53	0x3cd1087a	0.025516737
54	0xbd0e530d	-0.034747172
55	0x3dad088f	0.08448898
56	0x3d997688	0.07493311
57	0xbd85c644	-0.06531957
58	0x3d97fb38	0.07420963
59	0x3d813b55	0.06310145
60	0xbd255a39	-0.040369246
61	0xbd6602ac	-0.05615489
62	0xbd0f7a09	-0.03502849
63	0x3d9d37b8	0.07676643
64	0x3d89460f	0.06702816
65	0x3d725df0	0.059171617
66	0x3dbc6a3b	0.09199949
67	0x3c976600	0.018481255
68	0x3ca42ee4	0.02004189
69	0x3d08aed3	0.03336985
70	0x3d613e0b	0.05499081
71	0xbd83594f	-0.06413519
72	0xbc600b91	-0.013674633
73	0xbcff5ed2	-0.031173144
74	0xbdac87e5	-0.08424357
75	0xbd23bf6e	-0.039977483
76	0x3c5bfaf8	0.013426535
77	0xbbcfda82	-0.006343187
78	0x3dabc79b	0.08387681
79	0x3d604ad0	0.054758847
80	0xbd68f1a4	-0.05687107
81	0x3cb74db8	0.022375926
82	0xbc90e4fc	-0.017687313
83	0x3cca8429	0.024721222
84	0xbd1d9b3c	-0.03847812
85	0xbceb857a	-0.02875017
86	0x3d638834	0.055549815
87	0xbd21bf98	-0.03948936
88	0x3c4f664e	0.012658669
89	0xbd867e8b	-0.06567105
90	0x3930739b	0.00016827734
91	0x3b921dee	0.0044591343
92	0xbbb7a85b	-0.0056047863
93	0x3c0ca1ca	0.008583495
94	0xbd58ceca	-0.052931584
95	0x3d757f8f	0.059936102
96	0xbc85826b	-0.01629754
97	0xbb0874b1	-0.0020821507
98	0xbc91eba3	-0.017812556
99	0xbcaec159	-0.02133243
100	0xbda5ed61	-0.08101917
101	0xbda583ac	-0.08081755
102	0x3baa37a9	0.0051946235
103	0xbcd8edcb	-0.026480576
104	0xbd879189	-0.066195555
105	0xbcbf7244	-0.023369916
106	0x3d8fbd57	0.070185356
107	0x3cfb859d	0.03070336
108	0x3ccdecea	0.025137383
109	0x3c9de056	0.01927201
110	0x3ba1097e	0.0049144616
111	0x3c3f9d3a	0.011695201
112	0x3ceddd0b	0.029036066
113	0xbd5d15d8	-0.05397591
114	0x3d67ef08	0.056624442
115	0xbd645ad6	-0.05575069
116	0x3dac6e05	0.08419422
117	0x3d90735a	0.070532516
118	0xbdab722d	-0.08371387
119	0x3cc1283a	0.023578752
120	0xbcad9530	-0.021189302
121	0xbcb4a724	-0.022052355
122	0x3d4240a5	0.04742493
123	0x3cc7f315	0.024407903
124	0x3d19dd68	0.037564665
125	0xbd80f8e2	-0.06297471
126	0x3d8d3931	0.06895674
127	0xbd8e773b	-0.06956335

rnn.bias_hh_l0 f4 [128]
0	0x3d3a9895	0.04555567
1	0x3d2b0770	0.04175514
2	0xbdf99174	-0.12185946
3	0xbcdb1ecd	-0.026748085
4	0xbc73bbf8	-0.014876358
5	0x3abc6cec	0.0014375723
6	0xbd1ae723	-0.037818085
7	0x3ad937e6	0.0016572445
8	0xbda29a60	-0.07939601
9	0xbd86674e	-0.065626726
10	0xbd4622d6	-0.048373066
11	0xbd30957d	-0.043111313
12	0x3db0cd98	0.08632964
13	0x3d51604f	0.051117238
14	0x3dc3fd96	0.09569852
15	0x3c97d981	0.018536331
16	0x3d89c299	0.0672657
17	0x3d2bfabb	0.041987162
18	0xbd1d4632	-0.03839702
19	0x3c5c5bb1	0.013449595
20	0xbd08ce89	-0.033400092
21	0x3c9301d6	0.017945211
22	0x3c8bd4b4	0.017069198
23	0x3c269dd4	0.010169465
24	0x3d80fbb0	0.062980056
25	0xbcfc7738	-0.030818567
26	0x3d9e09c0	0.077167034
27	0x3d75dd9f	0.060025807
28	0x3d579c26	0.05263915
29	0x3cec2d4a	0.02883019
30	0xbc68d273	-0.014210331
31	0xbc95d89f	-0.01829177
32	0x3ce2f231	0.027703376
33	0xbda30997	-0.079608135
34	0xbd23eae2	-0.040018924
35	0xbd8a8754	-0.06764093
36	0xbd064327	-0.032778885
37	0x3cf2af8b	0.029624721
38	0xbd1e5b43	-0.038661253
39	0xbc9324dd	-0.017961914
40	0x3d42dbc9	0.047572885
41	0x3d2262ab	0.03964488
42	0x3c342bcd	0.010996771
43	0xbd28fac9	-0.041254792
44	0xbd6ca77f	-0.057776924
45	0x3d9c9f85	0.076476134
46	0xbc685402	-0.014180185
47	0x3d40d1ad	0.047074962
48	0xbd81300f	-0.063079946
49	0xbcd48751	-0.02594343
50	0xbda6985e	-0.081345305
51	0x3d6eca88	0.058298618
52	0xbbd41b1f	-0.0064729596
53	0xbcd0ebc7	-0.025503052
54	0xbc95ebca	-0.01830091
55	0xbc2be29c	-0.01049104
56	0xbce2dd7d	-0.027693504
57	0xbccef3b3	-0.02526269
58	0x3c64eaa1	0.0139719555
59	0x3dad5df3	0.08465185
60	0xbbcb21a5	-0.006199079
61	0x3d4b6079	0.04965255
62	0x3d1d6dce	0.038434796
63	0xbc668807	-0.014070517
64	0x3d8456d7	0.06461876
65	0x3d4bfb91	0.04980046
66	0xbbec3115	-0.0072079995
67	0xbd803adc	-0.062612265
68	0x3c4f5255	0.012653907
69	0xbbd71d39	-0.006564763
70	0xbd758671	-0.059942666
71	0xbd807f0e	-0.06274234
72	0x3d46a9b5	0.04850169
73	0x3d0e8d2c	0.0348026
74	0x3c8b6baa	0.017019112
75	0xbdc7fdd7	-0.09765213
76	0xbd7cbdeb	-0.061704557
77	0x3de7aebc	0.11312625
78	0x3dc351e2	0.09537102
79	0x3d96098a	0.07326038
80	0xbd2cd292	-0.042193003
81	0x3d0fda7d	0.035120476
82	0x3d82f035	0.06393472
83	0x3c864244	0.01638902
84	0xbd573df3	-0.052549314
85	0x3db452fa	0.08804889
86	0x3db7787c	0.089585274
87	0x3d499c7d	0.049221504
88	0xbd8d658c	-0.06904134
89	0x3c55137a	0.013005132
90	0xbd56b2e9	-0.052416716
91	0x3ba9e747	0.005185041
92	0x3d256be8	0.04038611
93	0xbae8784c	-0.0017736047
94	0xbde7c897	-0.11317556
95	0xbd826b4a	-0.0636812
96	0x3d80582c	0.062668175
97	0x3dd5dec1	0.104428776
98	0x3d34ef39	0.044173453
99	0xbd66ed92	-0.05637891
100	0xbd0a314f	-0.03373843
101	0x3d35b4e6	0.04436197
102	0xbd00eb6c	-0.031474516
103	0xbd5508bb	-0.05201028
104	0xbb94130e	-0.004518873
105	0xbb7e319b	-0.0038786891
106	0xbc7b57bd	-0.015340743
107	0xbcb64feb	-0.022254905
108	0xbd2c3a8d	-0.042048026
109	0xbd5c76ff	-0.05382442
110	0x3d864ed5	0.06558005
111	0xbd6a0b5b	-0.057139736
112	0xbd2f0a67	-0.04273453
113	0x3cd95ae0	0.02653259
114	0x3b076efc	0.0020665517
115	0xbc5abe54	-0.013351042
116	0xbd314c64	-0.043285742
117	0x3db4d2ff	0.08829307
118	0x3d0b7c2a	0.03405396
119	0x3c9e3330	0.019311517
120	0x3cb30620	0.021853507
121	0xbdbe0dbd	-0.09279964
122	0xbc207b77	-0.009795061
123	0xbd62e002	-0.05538941
124	0xbd8c0364	-0.06836584
125	0xbd6396e3	-0.05556382
126	0xbc399590	-0.011327162
127	0x3d8be854	0.068314224

fc.weight f4 [18, 128]
0	0xbe938c38	-0.28817916
1	0x3f237d87	0.63863415
2	0xbd242fb3	-0.040084552
3	0x3ea00339	0.3125246
4	0x3f1d208a	0.61377776
5	0xbe8614a1	-0.26187614
6	0xbe9ec7b8	-0.31011748
7	0xbe83783f	-0.25677678
8	0xbf0bf46d	-0.5466984
9	0xbe91bee5	-0.28465953
10	0xbe151fae	-0.14562866
11	0xbe608d75	-0.21928962
12	0xbee79c29	-0.45236328
13	0xbd403b61	-0.04693163
14	0xbe89bd20	-0.26902103
15	0xbd7d9e13	-0.06191833
16	0xbf31bff1	-0.69433504
17	0xbea1259f	-0.31474015
18	0x3ea5e94e	0.3240456
19	0x3e63a020	0.22229052
20	0xbec345c4	-0.38139164
21	0x3f20e513	0.6284954
22	0x3f069f8c	0.525872
23	0x3e119fca	0.14221111
24	0xbf413ee5	-0.75486594
25	0x3db768d8	0.08955544
26	0xbe32cd86	-0.17461213
27	0x3e63511b	0.22198908
28	0xbe3d77e0	-0.1850276
29	0x3e0c5112	0.13702801
30	0xbe579cc1	-0.2105589
31	0x3d42d917	0.047570314
32	0x3f781e09	0.9692083
33	0x3f1cc39c	0.61235976
34	0x3e0cef84	0.13763243
35	0xbe430dcf	-0.19048236
36	0x3e8c460b	0.2739719
37	0x3f26a0dd	0.6508921
38	0xbef4b4ba	-0.47794133
39	0xbe884ac7	-0.2661955
40	0xbe8ed94a	-0.27900153
41	0xbf04d5b7	-0.518886
42	0xbf14180a	-0.5784918
43	0xbdae6810	-0.08515942
44	0xbefa2ff3	-0.48864707
45	0x3d29c206	0.0414448
46	0xbe598b71	-0.21244599
47	0x3ea7e944	0.32795155
48	0xbe163fa9	-0.14672722
49	0xbe5476ec	-0.2074849
50	0x3f22f953	0.6366169
51	0xbd63acd2	-0.055584736
52	0xbf19efc3	-0.6013147
53	0x3d71c3a9	0.059024487
54	0xbc81edc7	-0.015860451
55	0xbef71035	-0.48254552
56	0xbedb41cb	-0.42823634
57	0xbccfdb59	-0.025373148
58	0x3e42c921	0.19022037
59	0xbd77f436	-0.060535632
60	0xbf046183	-0.5171129
61	0x3ef8989e	0.48553938
62	0xbde7d559	-0.1131999
63	0x3e82d7d5	0.25555292
64	0xbf4dfe67	-0.8046631
65	0xbe178ee5	-0.14800604
66	0x3de34f17	0.110990696
67	0xbe11fe2d	-0.14257117
68	0x3e87365a	0.26408654
69	0x3ec60114	0.38672698
70	0x3e9fdc4b	0.31222758
71	0x3eadc508	0.33939385
72	0xbdd32413	-0.10309615
73	0x3e5ddaf5	0.21665557
74	0x3f0b7755	0.5447896
75	0xbebc530c	-0.3678211
76	0x3f0696be	0.52573764
77	0x3db0d37a	0.08634086
78	0xbda57594	-0.08079067
79	0x3c1f18ac	0.009710472
80	0xbd6ae0a5	-0.057343144
81	0x3e098bb3	0.13432197
82	0xbdb5ba59	-0.088734336
83	0x3f0b7adf	0.5448436
84	0xbe681c35	-0.2266701
85	0xbea38319	-0.31935957
86	0xbec856a3	-0.391286
87	0x3ea2c8c1	0.31793788
88	0xbf4fd277	-0.8118052
89	0xbf32465d	-0.69638616
90	0xbde4fb78	-0.11180776
91	0x3d4319e7	0.047632124
92	0xbe1531fb	-0.14569847
93	0x3c0df590	0.008664504
94	0x3ed3c058	0.41357684
95	0xbe8176c2	-0.25285918
96	0xbeafbcef	-0.34323832
97	0x3f059893	0.52185935
98	0x3ed5b919	0.4174278
99	0x3bdd1fc9	0.006748174
100	0xbf81461a	-1.0099518
101	0x3ddb77e8	0.1071623
102	0xbe41ad06	-0.1891366
103	0x3f1a7e92	0.6034938
104	0x3f500e14	0.8127148
105	0x3e71781e	0.23580977
106	0xbf1a473c	-0.60264945
107	0x3ed25c9f	0.4108629
108	0x3cc440cd	0.02395668
109	0x3d895c74	0.06707087
110	0x3e6959dd	0.22788186
111	0xbdfeebbb	-0.12447306
112	0xbdbd5069	-0.09243853
113	0xbecec109	-0.4038165
114	0xbc9e4bf7	-0.019323332
115	0x3c6a286d	0.014291865
116	0xbe44ffc9	-0.192382
117	0xbcf0644d	-0.029344702
118	0xbeb4fba8	-0.35348248
119	0xbe4e0fe0	-0.20123243
120	0x3dd7987f	0.10527133
121	0xbde6833e	-0.11255501
122	0xbce1221e	-0.027482089
123	0xbd40d217	-0.047075357
124	0x3e8779e3	0.2646018
125	0x3ed1d81e	0.40985197
126	0x3b4c8c63	0.0031211607
127	0xbe9b6752	-0.30352265
128	0x3e7ca603	0.24672703
129	0x3d99717a	0.07492347
130	0x3cbb3ae8	0.022855237
131	0xbf051d26	-0.519976
132	0x3e7e3a3c	0.24826902
133	0x3ebdd9ba	0.37080175
134	0x3eab6157	0.33472702
135	0xbe242ce6	-0.16032752
136	0x3e58f2a7	0.21186315
137	0xbddd83b1	-0.10816134
138	0xbec10c93	-0.37704906
139	0x3dd27fdc	0.102782935
140	0x3e8a9a4b	0.2707084
141	0x3dbe17f9	0.09281916
142	0xbd5b2dd4	-0.053510502
143	0xbdc333fd	-0.095314
144	0x3e1a96df	0.15096615
145	0x3cff2cab	0.031149229
146	0xbe556aec	-0.20841569
147	0x3eab2d85	0.33433166
148	0x3e935031	0.2877212
149	0x3baaf071	0.005216651
150	0xbf063cb6	-0.5243639
151	0x3e650309	0.22364439
152	0xbdab5142	-0.08365108
153	0xbc8e20d1	-0.017349632
154	0x3aca58a7	0.0015437797
155	0x3df0de04	0.11761096
156	0x3d827e2a	0.0637172
157	0x3e9cea49	0.30647495
158	0x3e948c21	0.2901316
159	0xbea5d913	-0.32392177
160	0xbcf3dfc6	-0.02976979
161	0xbedeb263	-0.43495473
162	0xbe658cf7	-0.22417055
163	0x3f0dd8b5	0.55408794
164	0x3ee02da0	0.4378481
165	0xbe7cc200	-0.2468338
166	0x3d20918b	0.0392013
167	0xbf0a5ab4	-0.5404465
168	0x3efb8582	0.49125296
169	0xbd97483b	-0.07386824
170	0x3e57951c	0.21052974
171	0x3e56cb68	0.20976031
172	0x3c225f1f	0.009910374
173	0xbd409cc4	-0.047024503
174	0xbe43d084	-0.19122511
175	0xbcc02a21	-0.023457589
176	0xbe94814c	-0.29004896
177	0x3db521ab	0.08844312
178	0xbedeedaf	-0.43540713
179	0x3cedd6ba	0.029033054
180	0x3e55872b	0.20852344
181	0xbd7891e9	-0.060686026
182	0x3f39729a	0.72440493
183	0x3e64e566	0.22353134
184	0x3ea1e068	0.3161652
185	0xbe84487d	-0.25836554
186	0xbd85d317	-0.06534403
187	0x3da5c01a	0.08093281
188	0x3da2ef54	0.079558045
189	0xbf05a7ce	-0.52209175
190	0x3edbc7a7	0.4292576
191	0x3eae690b	0.34064516
192	0x3dd8fa56	0.10594623
193	0x3f2ac456	0.66705835
194	0xbe9d3e64	-0.30711663
195	0xbe6017a7	-0.21884023
196	0xbf0634c3	-0.5242426
197	0xbf1c7371	-0.6111365
198	0x3e1f627d	0.15564914
199	0x3dd64f2b	0.10464319
200	0x3df3baf7	0.11900895
201	0xbdea7a6a	-0.1144913
202	0xbec8e289	-0.39235333
203	0xbea567b3	-0.3230568
204	0x3dcb97cc	0.09941062
205	0x3dfafe2f	0.12255513
206	0xbe815eed	-0.25267735
207	0xbee11182	-0.4395867
208	0x3e414203	0.18872838
209	0x3ea61ce8	0.3244393
210	0x3d39731b	0.04527579
211	0xbdca049c	-0.098641604
212	0xbd8ffd12	-0.07030691
213	0xbedbd156	-0.42933148
214	0x3f2fed94	0.6872189
215	0xbe8fa7db	-0.2805775
216	0xbed07706	-0.40715808
217	0x3ee50f7b	0.44738373
218	0xbdd19ba8	-0.10234767
219	0x3f1e7d1c	0.6190965
220	0xbe927fe5	-0.286132
221	0xbe721e68	-0.23644412
222	0xbe44b144	-0.19208246
223	0x3e4fc817	0.20291172
224	0x3f166bba	0.5875813
225	0x3d56e6f4	0.052466348
226	0x3cc84e3c	0.024451368
227	0xbe4b83aa	-0.19874445
228	0x3f32efd3	0.6989719
229	0x3ca1d912	0.019756828
230	0x3c2231a4	0.009899531
231	0xbed52509	-0.41629818
232	0x3f2c7dd6	0.6737951
233	0x3e9afde0	0.30271816
234	0xbeb127f6	-0.346008
235	0xbed2839d	-0.41116038
236	0x3eccac9f	0.3997545
237	0xbec16e83	-0.37779626
238	0xbed81317	-0.42202064
239	0x3f16ae21	0.5885945
240	0xbcd5e5ed	-0.026110614
241	0xbd3ce10b	-0.046113055
242	0x3d5e80e8	0.054322153
243	0x3e829268	0.25502324
244	0x3e08f902	0.13376239
245	0x3e530fe0	0.20611525
246	0x3e332435	0.1749428
247	0xbdb66ad8	-0.089070976
248	0xbc19c816	-0.009386083
249	0x3c340077	0.010986439
250	0x3ef917aa	0.48650867
251	0xbdbffe56	-0.093746826
252	0x3e49bac7	0.19700156
253	0xbdbc0c53	-0.09182038
254	0xbea7a854	-0.32745612
255	0x3ba5bbdd	0.0050577954

fc.bias f4 [18]
0	0xbdf0412a	-0.11731179
1	0xbcd722dd	-0.026261741
2	0xbea37f56	-0.31933087
3	0xbd278c9e	-0.040905587
4	0xbdbc2e8d	-0.09188566
5	0xbd35d1e9	-0.04438964
6	0x3c9d5d62	0.019209567
7	0x3dea6e9e	0.1144688
8	0xbe1eb3cb	-0.15498273
9	0x3cde8543	0.027163154
10	0xbdd3ae13	-0.103359364
11	0x3db1071f	0.08643936
12	0x3e1b02e5	0.15137823
13	0xbd15ab1a	-0.03654013
14	0x3cfb504b	0.030677935
15	0x3de92f61	0.1138599
16	0x3c56cef1	0.013110862
17	0x3d4cc97f	0.04999685
