text_classify/logs/LSTM/LSTM_epoch_100_acc_0.8115.pth (torch, 395011 bytes, 6 tensors)

lstm.weight_ih_l0 f4 [512, 57]
000000 57 bd 65 bc 2b 68 54 3e 6f 39 cb 3d 1e 05 5b 3e
       -0.014022193 0.20742862 0.09923064 0.21388671
000010 0b 31 a1 3e 41 dd d4 3e c7 15 46 3e 0a 4b 09 bf
       0.3148273 0.41575053 0.19344245 -0.53630126
000020 b3 27 26 3f fa 74 22 3e c0 b1 33 3f 0c 7b 3c be
       0.64904326 0.15864936 0.701931 -0.18406314
000030 9d a8 72 3e ee 94 e3 3e 08 51 66 3e ea 0d 22 3f
       0.23697133 0.44449562 0.22491848 0.6330248
000040 c9 07 ce 3e b4 cd b4 be 9f 8e 13 3d 54 9e 1a bf
       0.40240315 -0.3531319 0.036024686 -0.6039784
000050 d7 5d 65 3e 3b d9 17 3e 3e 5b f6 be 1e 00 a9 3e
       0.22399078 0.1482896 -0.48116487 0.33007902
000060 f6 75 99 be ba b9 70 be 4b 34 87 bd 91 b1 87 3e
       -0.2997281 -0.23508349 -0.06601771 0.2650266
000070 52 9e cf 3d 12 22 9d bd eb cf 1a be 8f 2f d7 3d
       0.10137619 -0.07672514 -0.15118377 0.10507118
000080 1e e8 8a 3e 38 80 d4 bc 59 09 81 3e 65 c9 8e 3d
       0.27130216 -0.025940046 0.25202444 0.06972007
000090 43 ee 10 be 90 70 57 3f a0 5b 14 3c 84 cb 96 3e
       -0.1415339 0.8415613 0.009055048 0.29452145
0000a0 0a ab 24 3e d0 25 ad 3e 1a 75 e4 3d b8 8e a5 bd
       0.16080871 0.3381791 0.11155148 -0.08083862
0000b0 09 48 80 bd 04 f6 5d 3e 0a 87 1f bd 29 f3 7d 3e
       -0.062637396 0.21675879 -0.038947143 0.2479979
0000c0 b9 37 b6 3d 77 4f 30 3f d1 73 96 3e 18 35 43 3e
       0.08897347 0.68871254 0.29385236 0.19063222
0000d0 00 b4 3c bf 71 ee 76 3d a2 08 0e 3e 50 a8 91 bd
       -0.7371216 0.06028599 0.1387048 -0.07112181
0000e0 1e 63 4c be 76 e5 81 3e 8a c0 a7 3e 13 9b 7f 3e
       -0.19959685 0.25370377 0.32764083 0.249615
0000f0 eb 85 2e 3f e5 73 0d 3d 39 29 08 3f 11 c5 fa be
       0.6817309 0.034534354 0.531879 -0.48978475
000100 e2 61 42 3f 3d 88 f4 be 36 1f be bf 78 94 73 3f
       0.7593061 -0.47760192 -1.4853275 0.9514842
000110 62 0c 33 3e 4e 1f 21 3f 96 96 c4 be 30 99 95 be
       0.17485192 0.6293839 -0.38396138 -0.29218435
000120 46 17 e7 3e d2 ca 95 bd bf 4b 93 3d 25 1c 7e 3f
       0.45134944 -0.073140755 0.07192182 0.99261695
000130 84 f4 1b bc a0 89 f8 3d c5 b7 7d be c6 a6 71 3e
       -0.009518746 0.12135625 -0.24777134 0.23598775
000140 c4 0c 92 be 75 d8 41 3f 7e 7f bd be ed d4 f7 bd
       -0.28525364 0.7572091 -0.3701133 -0.12101159
000150 0a 04 ad 3e 4d a7 15 be 80 d6 58 3d 71 41 84 3c
       0.33792144 -0.14614601 0.05293894 0.016144486
000160 04 62 35 3d 0f c7 0d 3e 89 60 aa bd 6a 62 9a 3e
       0.044282928 0.13845466 -0.08319194 0.3015321
000170 9d f1 54 3e d3 84 02 3e 10 41 dd 3e 23 8b 92 bd
       0.20795293 0.12745981 0.432137 -0.071554445
000180 b5 0f 67 3e 72 41 3a bd c5 2c f8 bd 7b c1 3f 3e
       0.22564586 -0.04547257 -0.12117914 0.1872615
000190 46 25 1d be bb d7 0a be 1b 40 58 3d 38 f3 0c 3f
       -0.1534625 -0.13558857 0.05279551 0.5505862
0001a0 4f 59 34 3e d8 94 85 3e de 51 9e bd 11 aa 82 bd
       0.17612194 0.2609012 -0.07730459 -0.06380094
0001b0 a3 96 87 3c 43 1b bf 3d 78 c7 9a 3d c3 71 59 be
       0.016551321 0.09331372 0.07557577 -0.21234803
0001c0 4c e8 a0 38 7e e1 5a 3e a4 21 0a 3f bf 0b b2 3e
       7.672663e-05 0.21375081 0.5395758 0.34774587
0001d0 91 a1 e0 3e 9d 5b 92 be 2f 0b bc 3e 76 62 5b 3e
       0.43873265 -0.2858552 0.36727282 0.21424279
0001e0 98 19 5f bf 07 7a a7 be 19 53 e9 be b3 49 a5 be
       -0.8714843 -0.32710287 -0.4557121 -0.3228279
0001f0 f7 22 8a bb 30 98 9f 3e 66 45 dd 3e 9d 9a d8 bd
       -0.004215594 0.31170797 0.4321701 -0.10576365
000200 d1 67 06 3f 66 4b 52 bc 90 f5 82 be 21 f0 ba be
       0.5250216 -0.012835359 -0.25577974 -0.3651133
000210 91 59 4d 3e db f2 61 be dd ae 87 be c4 a2 cb 3d
       0.20053698 -0.22065298 -0.26500598 0.099431545
000220 ce 7c 46 bf 66 00 2f be b8 49 39 bf 2d 51 4a 3f
       -0.77534187 -0.17089996 -0.7237811 0.79030114
000230 ee 1d e4 3d fe 35 dd 3e f1 26 75 3d fb 32 99 bd
       0.11138521 0.43205255 0.05985159 -0.07480427
000240 15 f0 fc bd 01 3f f8 3d 2e 8c 5e 3e c5 3e 48 3e
       -0.123504795 0.12121392 0.21733162 0.19555195
000250 e3 b8 52 3e e5 cd 25 3e f0 9c e5 bd 50 b8 c3 3e
       0.20578341 0.16191824 -0.11211574 0.38226557
000260 d8 4a 05 3d 45 d3 cd 3a 1d 83 d5 3e 37 2e 23 bd
       0.03254208 0.0015703222 0.41701594 -0.039838996
000270 10 02 f2 3e f3 bf 8a 3d 5e 12 f8 3c da f3 8a bc
       0.472672 0.06774893 0.030282196 -0.01696198
000280 e7 5a bf 3e 60 92 00 3d 9f 9e 58 3d 4c 0e f4 3e
       0.3737404 0.031389594 0.052885648 0.47667158
000290 56 a4 d7 3e fb 15 3a 3e f4 de ce be 47 ca a3 bd
       0.42117566 0.18172447 -0.40404475 -0.07997566
0002a0 cf e8 d7 3b 49 7a 33 3d 30 b8 d7 3e f8 6e 1b bd
       0.0065890322 0.043817792 0.4213271 -0.037947625
0002b0 7b 43 03 bf ee 4c 77 be 4f 8f 99 be ec dd 02 bf
       -0.5127484 -0.2415044 -0.29992148 -0.51119876
0002c0 3b 52 10 bf 71 ba f8 3e f9 d0 e1 3e db 1c 0f 3c
       -0.56375474 0.48579744 0.44104746 0.008734907
0002d0 ed 92 b6 be b6 a2 81 3e 32 04 ac bd e8 c0 07 bf
       -0.3565897 0.2531945 -0.08399238 -0.53028727
0002e0 20 f5 96 3e 42 47 3b 3e 46 d8 a6 be 15 e1 48 3e
       0.2948389 0.18288901 -0.3258688 0.19617112
0002f0 a3 a1 4d 3f de 7a 2e 3e b0 96 0e 3e b4 db 1a 3f
       0.80324763 0.17039058 0.1392467 0.6049149
000300 a8 0a 1c 3d 9f f7 6e 3e 85 6f 9d 3e 5f ee 06 bf
       0.0380961 0.23336647 0.30749145 -0.52707475
000310 5e 47 6b 3d 69 09 9e bd 46 56 bf 3e 7b 48 8b be
       0.057441108 -0.077166386 0.3737051 -0.27203736
000320 e1 6a 3f be 1c dc e8 3c 31 06 55 3d 4c d3 e7 bd
       -0.18693115 0.028425269 0.052007858 -0.113195986
000330 45 7e f8 bc 86 10 70 be 1c 00 ad bc b0 24 06 3f
       -0.030333648 -0.23443803 -0.021118216 0.5239973
000340 a2 eb 80 3e f4 db 66 3e 81 45 2c 3e 93 9a a1 bd
       0.25179774 0.22544843 0.16823389 -0.07890811
000350 60 a1 3e 3e e7 03 9b 3d 3e 66 ad 3e 44 ac 04 3e
       0.18616247 0.07569104 0.33867067 0.12956339
000360 6d 43 84 bc 42 6d 8e 3e f6 c8 91 3d 36 d9 12 3e
       -0.016145432 0.27817732 0.071184084 0.14340672
000370 8c 57 3c 3e 58 6b 72 3d 73 bc 84 3e b8 63 a7 3e
       0.18392771 0.059184402 0.25925025 0.32693267
000380 23 09 03 bc 0f b0 35 3d a1 0d b1 3c d9 5e 9d 3e
       -0.007997784 0.044357356 0.021612944 0.30736426
000390 bc 5b b6 be 6c 3d cc 3e a6 28 3a 3f 3d a2 84 3e
       -0.35616863 0.3989061 0.72718275 0.25905028
0003a0 c0 80 15 be 70 89 b3 bc 2c 60 21 3e 79 47 25 bf
       -0.14599895 -0.021916121 0.15759343 -0.64562184
0003b0 9b 5d f6 be d3 5a 87 3e b5 ab 4f be 37 5f 87 be
       -0.4811829 0.2643648 -0.20280345 -0.2643983
0003c0 c4 29 da 3e de 85 fa 3e be 61 14 bf 04 08 56 bc
       0.4260999 0.48930258 -0.5796164 -0.0130634345
0003d0 d8 0c d7 3e fd 42 13 be 73 7c ad 3e 68 4e 60 3e
       0.42001987 -0.14381023 0.3388401 0.2190491
0003e0 a5 fe 88 bd bf e3 d4 3e 09 f0 7f 3e b0 0e 69 3f
       -0.066891946 0.41580006 0.2499391 0.91038036
0003f0 65 47 45 3f 44 a6 1b 3f ae 76 cc bd ee 40 c5 3d
       0.77062064 0.60800576 -0.09983574 0.09631525

lstm.weight_hh_l0 f4 [512, 128]
000000 13 3c 86 be 51 f9 6d 3e 85 76 e9 bb 5a 37 ef be
       -0.26217708 0.23239638 -0.0071247243 -0.46721917
000010 f5 5b ac be 19 2a db bc a4 a6 6e bd b4 b8 bc bd
       -0.33663908 -0.026753472 -0.05826439 -0.09214917
000020 78 e9 97 be 21 dc 8d bc f4 3a 11 bd 25 ca 35 3d
       -0.2967031 -0.01731688 -0.035456613 0.044382233
000030 d2 41 07 3e 49 0f 04 3e 9f a1 a9 bd f0 4d 59 be
       0.13208702 0.12896456 -0.0828278 -0.21221137
000040 2a 3a 8c 3d 12 25 ab bc 6d 51 40 3e 45 84 65 be
       0.068470314 -0.0208917 0.18781061 -0.22413738
000050 69 76 8a 3e 1c c7 6a 3e 32 03 7b 3e 5b f2 b8 3c
       0.27043465 0.22927517 0.24512938 0.022576502
000060 72 aa ac 3d 60 0d 2b bd cc 7a 5a 3d 3f ee e6 3e
       0.08430947 -0.041760802 0.053339764 0.45103642
000070 1d db b0 bc 45 27 0b be 77 b4 a2 bd 1e c2 5a be
       -0.021588856 -0.13589199 -0.07944577 -0.21363112
000080 f3 59 ff 3c 04 f4 c0 bd 81 68 6e bd 8c 4d 81 3e
       0.03117082 -0.09421542 -0.05820513 0.25254476
000090 b8 8e e5 3d 8d f8 80 3e 3e ff fd bb 0d e7 4c be
       0.11208862 0.2518963 -0.0077513745 -0.20010014
0000a0 86 9d d2 3d 7d 27 98 3d a8 7a 00 3f 3c 8a f2 bc
       0.102839515 0.07429407 0.5018716 -0.02960693
0000b0 60 ee 22 3e d7 78 a9 3d b8 88 72 3e 7c f1 91 3e
       0.15911245 0.082750015 0.23684967 0.2850455
0000c0 fa d0 ea bd cc ef 22 be 68 68 24 bd 64 4a ce bd
       -0.1146564 -0.15911788 -0.040138632 -0.10072783
0000d0 86 10 5c bd a7 8e 4c 3e a6 d8 2f 3e 55 af cc bd
       -0.053726695 0.19976293 0.17172489 -0.099943794
0000e0 ee db ba 3e 5c 88 75 3e cc 7d 8d 3e 9a 64 1b 3e
       0.36495918 0.23977798 0.27635038 0.15175095
0000f0 6b 07 98 be 22 3b 8b 3d b1 db df bd 03 da 39 3e
       -0.2969316 0.06798388 -0.10930575 0.18149571
000100 f7 a9 aa bc e2 0d 15 be c5 35 72 3d 95 18 2d 3e
       -0.020832999 -0.14556077 0.05913331 0.16903909
000110 f2 15 cb 3e 83 07 0f be 52 04 a4 bc 14 1d 9a bd
       0.3966518 -0.13967709 -0.020021591 -0.075250775
000120 22 6b 1b 3d 47 29 c6 3d 9a af 40 3e 00 75 15 3d
       0.037943967 0.09675842 0.18816987 0.036488533
000130 a5 83 14 3e c3 d6 af 3d 82 97 e7 be 4a a1 26 3e
       0.14503343 0.085858844 -0.4523278 0.16272464
000140 42 98 04 be 9a 25 34 3e 03 e2 08 3f c2 fe db bc
       -0.12948707 0.17592469 0.53469867 -0.026854876
000150 76 72 22 3d df a5 6f bd 29 1d 7a be ff 74 5a 3e
       0.03965994 -0.058507796 -0.24425186 0.21333693
000160 9a 07 7c bd 45 8f c7 3d d0 81 cd bb df dd 5e bd
       -0.061530687 0.09744123 -0.0062715784 -0.05441081
000170 48 70 da bc cb bc e5 bd 3d f1 8a bd bd d7 7e 3e
       -0.026664868 -0.1121765 -0.06784294 0.24886985
000180 e3 20 6c 3d ac 8c 58 3e 63 d8 82 3d 29 cc ad be
       0.05764855 0.21147412 0.06388929 -0.33944824
000190 60 b1 60 be 3a 64 0f bd 4f b2 13 be 02 a6 16 3e
       -0.21942663 -0.035007693 -0.14423488 0.14711764
0001a0 39 3d a3 3d 10 e9 b1 3d f6 d4 d5 bc 53 ea 38 be
       0.07970662 0.08687031 -0.026102524 -0.18058138
0001b0 da 0a 15 3e 07 03 b7 bd c5 d3 03 3d a6 2f 57 3d
       0.14554921 -0.08936124 0.03218438 0.052535675
0001c0 a5 db ca bc 65 0c 8b be 05 50 3f 3e 09 8a 2b 3d
       -0.024762938 -0.27157894 0.18682869 0.041879687
0001d0 b2 3a e0 3d df 3f 8e bd a5 62 84 3d 1f b0 b0 3d
       0.10948695 -0.06945776 0.064641275 0.086273424
0001e0 71 27 ba be 4d 55 ce 3d 75 cd 7e be b9 10 72 3e
       -0.36358216 0.100748636 -0.24883063 0.23639192
0001f0 47 b9 fb bc b5 24 53 3b 1c 88 db be 89 0f 86 bb
       -0.030727996 0.0032217924 -0.4287728 -0.0040912074
000200 87 08 a7 be 27 48 1e 3f 7f 88 24 be bf 07 33 be
       -0.32623693 0.61828846 -0.16067694 -0.17483424
000210 8f fd a3 bd 05 66 9b be 82 72 0e be eb 96 3e be
       -0.08007347 -0.30351272 -0.13910869 -0.18612258
000220 e8 bf 5e 3e c5 87 21 be 14 be ca 3d 6e c2 79 bd
       0.21752894 -0.15774448 0.09899536 -0.06097644
000230 7e 3f cb 3e 6e 0f 72 be f5 55 b2 3d a1 fc c2 3e
       0.39696878 -0.23638698 0.08707801 0.38083366
000240 f9 91 02 3d bd 0e 0c 3d f1 3c cf 3e e2 ca ad be
       0.03187749 0.034193743 0.40476182 -0.3394385
000250 f3 0f ac 3e 32 c2 47 3e f6 18 57 3e 3a 72 a6 bb
       0.33605918 0.19507673 0.21005616 -0.005079535
000260 bc 0c 08 3e dd 6a 61 be ec dd 72 3c ab 8f 3b 3e
       0.13286108 -0.22013421 0.014823418 0.18316524
000270 95 82 b4 be 1e 19 90 be 67 92 55 be 5c 95 02 bf
       -0.35255876 -0.28144163 -0.2085663 -0.51009154
000280 27 ee 0d 3d 29 e9 40 3e 54 15 f4 be f0 7e 18 be
       0.034650948 0.18838944 -0.47672522 -0.14892173
000290 3a 3c 9d 3d 7b f9 c2 3e 54 13 3e be 03 30 fe bd
       0.07677503 0.38080963 -0.1856206 -0.12411501
0002a0 d5 66 10 3e d6 56 24 bf a5 94 1b 3e 8b eb a1 3d
       0.14101727 -0.64195 0.15193422 0.079062544
0002b0 8a 53 ea 3c 73 63 e1 3d 7a 0f d1 3e 8b 89 67 3c
       0.028604288 0.110052966 0.4083212 0.014131914
0002c0 12 de da 3d 48 eb be 3d fe 3f b5 be 01 29 85 be
       0.10686888 0.0932222 -0.35400385 -0.26007846
0002d0 cd 1a 1e bf 44 92 b2 3e 53 0d af 3e 10 03 51 3f
       -0.61759645 0.34877217 0.34189853 0.816453
0002e0 6f 4c e2 3d a5 c3 92 3e 17 12 9e 3e 11 f8 d1 3d
       0.11049735 0.2866489 0.30873176 0.10252393
0002f0 3b a8 7e be 18 3e cb 3e 8a 7c 9a 3c d1 a2 ca 3e
       -0.24868862 0.3969581 0.018858213 0.39577344
000300 fe 6a 16 bd 26 d0 b6 bc e2 cc 28 bf 11 41 9c 3e
       -0.03672313 -0.02231605 -0.65937626 0.30518392
000310 8b 51 47 3e 12 99 c6 be 36 2b 73 3e 21 74 1c 3f
       0.194647 -0.38788658 0.23746952 0.611147
000320 97 4f 74 3e 78 66 55 3d ce 63 90 be 60 9a be 3d
       0.23858486 0.052099675 -0.28201145 0.093067884
000330 4b 44 a3 be 82 35 db 3d fe d7 03 bf 51 37 9f be
       -0.3188804 0.10703565 -0.5150145 -0.3109689
000340 91 1e 19 3e af a2 c0 3d 22 3a 30 3f 99 0f c3 3e
       0.14953066 0.094060294 0.68838704 0.38097838
000350 d1 99 90 be 13 8b 8e be a0 7f 00 be 36 cf 5c 3b
       -0.28242353 -0.2784048 -0.12548685 0.0033692843
000360 a3 82 d8 be 0d 52 f4 3d 36 ca d0 3e cb 18 01 3e
       -0.42287168 0.119297124 0.40779275 0.12607114
000370 dd c2 94 3e 78 cb 9e 3e 95 89 37 3f 30 a8 ef 3d
       0.2905492 0.3101461 0.7169431 0.11702001
000380 a1 6b cd be 6a 06 7e 3e 57 31 62 3e 0c bd f6 3e
       -0.40121177 0.24807134 0.22089134 0.48191106
000390 62 15 85 3d a2 74 a7 bd 71 a2 c2 be 77 21 d2 3e
       0.06498219 -0.08176543 -0.38014558 0.41041157
0003a0 0c 28 ea 3d e1 bb c2 3e 85 73 44 be 8e 91 a9 be
       0.114334196 0.38033965 -0.19184692 -0.33118862
0003b0 d6 f9 02 3f a6 3a c0 be ca ce 45 3f 42 cc 41 3e
       0.5116247 -0.37544745 0.7726866 0.18925574
0003c0 3d 26 27 3e 4e 78 10 be cb bf b5 3e 6d f8 bd 3d
       0.1632318 -0.14108393 0.3549789 0.09275899
0003d0 e4 02 99 3e ad 51 22 be 22 32 25 be 39 02 a5 3e
       0.29885018 -0.1585147 -0.16132405 0.32228258
0003e0 98 37 f3 bd 00 de 51 3d ea 09 51 3e 68 95 4c 3e
       -0.11875838 0.051237106 0.20413938 0.19978869
0003f0 90 db 46 3d f1 c8 79 be 4d 04 1e bf 3b 51 18 be
       0.048549235 -0.2439306 -0.6172531 -0.14874737

lstm.bias_ih_l0 f4 [512]
000000 68 52 65 3e 15 55 ed 3e ea 35 a6 3e 92 b0 30 3e
       0.22394717 0.46353975 0.32463008 0.17254856
000010 86 88 71 3e 79 89 b9 3e 8a 36 37 3e 63 ce d7 3d
       0.23587236 0.36237696 0.17891899 0.10537412
000020 d8 83 23 3f f1 cc 4d 3e 48 60 6c 3d 7c 7e 85 3e
       0.6387305 0.2009771 0.05770901 0.26073062
000030 9b 8b 6f 3e bf 9c a4 3e 64 f3 8d 3e 26 c2 a4 3e
       0.23393099 0.32150838 0.27724755 0.32179374
000040 86 2a e9 3d c8 f1 e7 3e 59 e9 5e 3e 5b 58 36 3e
       0.11385064 0.45301652 0.21768703 0.17807142
000050 5d f6 7c 3e 60 71 ab 3d 95 8f da 3e fa 5b f5 3d
       0.24703355 0.08371234 0.4268767 0.11980434
000060 f5 e9 85 3e 05 f0 51 3e 24 2f 6b 3e 0e eb 02 3f
       0.26155058 0.20501716 0.22967201 0.51139915
000070 e9 55 ca 3d a9 52 7a 3e ea 76 70 3e 41 f8 99 3e
       0.09879667 0.24445595 0.23482862 0.30072215
000080 79 76 38 3e 83 92 f0 3e ac d6 e7 3e 99 a6 7a 3e
       0.18013944 0.4698678 0.4528097 0.24477614
000090 ec 17 03 3e 4f 74 c4 3e f2 f0 60 3e 3b 12 b6 3e
       0.12802094 0.38369986 0.21966913 0.35560784
0000a0 49 a1 d7 3e 55 30 9b 3e 8f c0 00 3f db 47 ba 3e
       0.42115238 0.30310312 0.5029382 0.36382946
0000b0 6f ed ac 3e 96 43 26 3e fd 09 7d 3e d7 f7 d8 3e
       0.33774897 0.1623672 0.24710841 0.42376587
0000c0 99 cd 59 3e a4 7c ab 3e 7e 5b a0 3e c7 ab 45 3e
       0.21269836 0.3349353 0.31319803 0.19303809
0000d0 85 a8 58 3e 79 f6 d4 3d d3 b7 46 3e 6b 27 88 3e
       0.21158035 0.103985734 0.19406061 0.26592574
0000e0 0e a7 53 3e 77 fe c6 3d 9e cd d9 3e ee d4 5c 3e
       0.20669195 0.09716504 0.42539686 0.21565601
0000f0 7c 77 8f 3e 6a 0e 42 3e 67 68 f9 3e 62 18 09 3f
       0.28020847 0.18950811 0.48712465 0.5355283
000100 81 2d 30 3e a3 d5 97 3d 43 47 a8 3e b0 71 8b 3e
       0.17204858 0.07413795 0.32866868 0.27235174
000110 bc 38 46 3e 90 ba c9 3e a6 fc c0 3e f3 82 22 3f
       0.1935758 0.39400148 0.37692755 0.6348106
000120 ab 14 87 3e 34 29 8f 3e 2b 10 aa 3e 55 ee 3c 3e
       0.26382956 0.27961123 0.3321546 0.18450291
000130 8c 4d 73 3e b5 9d 42 3e 16 06 46 3e 75 1c 0c 3f
       0.2376005 0.19005473 0.19338259 0.5473092
000140 39 a3 d9 3e 12 6b 55 3e 3d 7a 15 3e da 89 6b 3e
       0.42507342 0.20841625 0.14597411 0.23001805
000150 b1 92 4f 3e 63 94 b4 3d 1b 2a aa 3e e0 3e 36 3e
       0.20270802 0.08817365 0.3323525 0.17797422
000160 61 bc 00 3e 8a 4a b9 3d 51 46 ad 3e 70 c1 99 3e
       0.12571861 0.0904742 0.3384271 0.30030394
000170 1f 23 a9 3e 27 0f 14 3e 90 05 b7 3e cb 43 f1 3d
       0.33034608 0.14458905 0.3574643 0.117805086
000180 cb 1d 3f 3e 6d 4b d8 3e 2c a4 89 3e 80 80 47 3e
       0.18663709 0.42245045 0.26883066 0.19482613
000190 f5 35 a0 3e 38 9b 06 3f 3e 97 e7 3d de eb 26 3e
       0.31291166 0.52580595 0.11308144 0.16300914
0001a0 10 55 92 3e f2 0d ec 3d 45 c6 6d 3e 2a 6d 8a 3e
       0.28580523 0.11526097 0.23220165 0.2703641
0001b0 f3 bf e6 3e 68 55 44 3e 01 2f 82 3e 98 34 c9 3e
       0.4506832 0.19173205 0.25426486 0.39297938
0001c0 81 f5 44 3e c0 e4 b0 3e 63 85 c4 3e 60 03 49 3e
       0.19234277 0.34549522 0.38383016 0.19630194
0001d0 a6 8d 60 3e de 71 18 3e 59 e2 c4 3e b1 56 9e 3e
       0.21929035 0.14887187 0.3845394 0.30925515
0001e0 5a 08 a0 3e bb ab c3 3e b2 db 85 3e f2 fb b4 3d
       0.31256372 0.38216957 0.26144177 0.08837117
0001f0 61 cf c6 3d 43 fb ff 3d 96 cf 2e 3e 8c 71 14 3e
       0.09707523 0.12499096 0.17071375 0.1449644
000200 89 71 61 3e 91 80 e7 bd 2a ac 99 3d 7a 1f b6 3d
       0.22015966 -0.11303819 0.07503541 0.088927224
000210 76 51 16 3e 69 04 c3 3b 4c 88 ad 3d 86 18 11 3d
       0.14679512 0.0059514535 0.08473262 0.035423778
000220 46 17 87 be 21 6d a5 3d f4 d2 b9 3d bf 99 81 3d
       -0.26384944 0.08077455 0.09073439 0.06328153
000230 61 eb 89 3d da c8 8a 3e 01 af 55 bc e9 88 4a 3b
       0.06734348 0.27106363 -0.013042212 0.0030904359
000240 39 50 13 3e e0 54 0c bd 4e 64 86 3d 9e ac 98 3e
       0.14386071 -0.03426063 0.065621 0.29819196
000250 65 bb 4c 3e c9 ad 0a 3e 97 a5 38 3e 81 1f ef 3d
       0.1999336 0.13542856 0.18031918 0.11675931
000260 a3 7e ca 3c cc e1 25 3e 22 6c 0d bc 38 db 54 3e
       0.024718588 0.16199416 -0.008631738 0.2078675
000270 15 83 13 3e 5c 22 37 3d 43 4f 05 3c bb 90 d6 3d
       0.14405473 0.044710502 0.008136573 0.10476824
000280 26 c1 22 bd 5b f4 b0 3d 23 d1 70 3d e4 f5 c2 3b
       -0.039734982 0.08640357 0.0587932 0.0059497226
000290 4b 5a b7 3c 19 78 37 3e 8c 94 c4 bb 2a ca 07 3e
       0.022381922 0.17916907 -0.0059991535 0.13260713
0002a0 c1 7d a0 3d 53 56 f1 3d f2 5a c3 3c 1e e1 04 3e
       0.07836486 0.11784043 0.023847077 0.129765
0002b0 3b b8 00 3e 23 ae 35 3e 11 ab 13 3e c5 0c 97 bc
       0.12570278 0.17742209 0.14420725 -0.018438706
0002c0 f8 66 30 3d 54 be 2d 3e ab ad 98 3d fa fb 38 bd
       0.04306695 0.16967136 0.074549995 -0.04516218
0002d0 78 b5 a8 3c 06 42 4a 3e 90 ec 7a 3e b3 da bd 3d
       0.020594344 0.19751748 0.24504304 0.09270229
0002e0 1d 7b 46 3d 28 b6 c7 3d 09 7f 1b 3e 8c 31 69 3e
       0.048457254 0.097515404 0.15185179 0.22772807
0002f0 c9 2f bc 3d 01 5e 34 3d ff d3 ad 3d 3e 26 40 3e
       0.09188802 0.04403496 0.08487701 0.18764588
000300 e3 95 1c 3e 3c 93 2b 3e e1 90 77 bc 7c bb 0f 3e
       0.15291552 0.16755384 -0.015110225 0.14036363
000310 a4 2e 8d 3d 7b 0b a8 3d ea 0c fa bc d7 82 f1 3d
       0.068936616 0.08205315 -0.030523736 0.11792534
000320 9c d3 30 bc e6 2e 14 3d e9 30 73 3d ee 39 0a 3e
       -0.010792639 0.03617754 0.059372816 0.13498661
000330 cc 58 96 bd 25 a7 e3 3c b1 87 07 3e c9 f3 3f 3b
       -0.073411554 0.027789662 0.13235356 0.0029289594
000340 c1 75 5c 3d a3 56 ea 3d 5e f3 29 3e b5 48 21 3e
       0.053823236 0.11442306 0.16596743 0.15750392
000350 7f 92 40 3e 2a 21 0c 3e 5f b2 88 3e 80 03 aa 3d
       0.18805884 0.13684526 0.26698586 0.08301449
000360 61 e2 15 3e cd 5a 7a 3c 21 13 4d 3e c4 76 08 3e
       0.14637138 0.015280438 0.20026828 0.13326555
000370 d3 87 d0 3d 36 ea bc 3d e5 55 22 bd fb ac 1b 3d
       0.101821564 0.0922436 -0.039632697 0.038006764
000380 a8 b9 f8 3d 28 bc 0b 3e 04 6b f1 3d a3 43 5d 3d
       0.12144786 0.13645995 0.1178799 0.05401958
000390 50 ab 93 3e 40 87 28 3e 0a 1c 50 3d cb e2 1b 3e
       0.2884164 0.16457844 0.05080799 0.15223233
0003a0 05 dd 9c 3d 26 38 84 3d 8e 0e a7 bc 74 48 1a 3e
       0.07659344 0.06456022 -0.020392682 0.15066701
0003b0 03 f1 62 3e 51 cc 34 3e d6 d2 8a 3d fc 83 1b 3e
       0.22162251 0.17656066 0.06778495 0.15187067
0003c0 bf 60 15 3e 9a d0 ab 3d 7f f8 23 3e 6d 4a 03 bd
       0.14587687 0.08389397 0.16012762 -0.0320534
0003d0 a8 3d 2b bd d2 bd 11 3e d1 45 39 bb 72 c3 6c 3e
       -0.041806847 0.14232567 -0.0028270374 0.23121431
0003e0 48 44 d1 3d 48 15 03 3e 28 9c 07 3d ae ca 5a 3d
       0.10218102 0.12801087 0.033107907 0.053415947
0003f0 82 66 b2 3c c1 00 1a bb 9b 58 1e 3e 65 27 47 3d
       0.021777395 -0.0023498985 0.15463488 0.048621554

lstm.bias_hh_l0 f4 [512]
000000 73 5e 92 3e 7c 73 b9 3e 09 6b 92 3e e9 aa 30 3e
       0.28587684 0.3622092 0.28597286 0.17252697
000010 01 bb bd 3d 72 2b 94 3e 7c b6 85 3e af 42 50 3d
       0.09264184 0.28939396 0.26115787 0.050844844
000020 6e 20 32 3f 26 52 97 3e 04 f0 d2 3d e2 2e aa 3e
       0.69580734 0.29554862 0.102996856 0.33238894
000030 79 a4 ad 3d 52 dc dc 3e 45 7a c8 3e ae 76 ac 3e
       0.08478636 0.4313684 0.39155784 0.33684295
000040 18 04 88 3d e6 cd e3 3e bb 8b 36 3e f9 0a 67 3e
       0.06641406 0.44493026 0.1782674 0.2256278
000050 e9 2c a0 3e 3c 56 f8 3d b9 b8 b1 3e 5d 75 4a 3e
       0.31284264 0.12125823 0.34711245 0.19771333
000060 76 a4 e7 3d eb e1 54 3e d9 45 8f 3e 5b a4 09 3f
       0.11310665 0.20789306 0.27982977 0.5376641
000070 ab 90 1e 3e 18 ef 83 3e de 01 8c 3e 9b 30 63 3e
       0.15484874 0.25768352 0.27345175 0.2218651
000080 0b 17 18 3e fe e4 9f 3e c4 db f7 3e ae dd 40 3e
       0.1485254 0.31229395 0.48409855 0.18834564
000090 c6 d7 22 3e f7 64 84 3e 30 6a 3b 3e fa 02 dd 3e
       0.15902624 0.2585828 0.18302226 0.43166333
0000a0 83 9d cb 3e d3 07 87 3e 72 93 d4 3e 6c 20 a5 3e
       0.3976861 0.26373157 0.41518742 0.32251298
0000b0 14 a3 d1 3e 7a 5b 7e 3e 9a 10 0c 3e 30 49 0f 3f
       0.4094473 0.24839583 0.13678208 0.5597105
0000c0 25 b9 eb 3d 7a 83 bb 3e e1 6f a2 3e f1 98 4a 3e
       0.11509923 0.36623746 0.31725982 0.19784905
0000d0 a4 98 20 3e 07 7c 11 3e 8a e7 8e 3e ea 2d 35 3e
       0.15683228 0.14207469 0.27911025 0.17693296
0000e0 07 2e 6a 3e f5 1c 43 3e bc 26 eb 3e 5a af 38 3e
       0.2286912 0.19054015 0.4592799 0.18035641
0000f0 0b 29 78 3e f7 3c 3f 3e 9d b2 04 3f 30 c2 0d 3f
       0.24234407 0.186756 0.5183504 0.5537443
000100 04 87 80 3e c6 ee 04 3e 94 8a 48 3e 95 85 35 3e
       0.2510301 0.1298171 0.19584113 0.17726739
000110 97 b8 02 3e 1d ea 00 3f e3 53 db 3e a2 34 0e 3f
       0.12765728 0.5035723 0.42837438 0.5554906
000120 e3 89 37 3e d2 89 a1 3e 63 99 bb 3e 86 3b 96 3e
       0.17923693 0.3155046 0.36640462 0.29342288
000130 8f da 64 3e 03 36 97 3e d9 8a 5f 3e 79 7d e9 3e
       0.22348998 0.29533395 0.2183031 0.4560354
000140 d5 33 db 3e 1b 39 34 3e 5e 8f 25 3e 84 35 6b 3e
       0.42812982 0.17599909 0.16167971 0.22969633
000150 04 ee 3f 3e 4b f3 58 3e 7c e7 6a 3e 40 3a 41 3e
       0.1874314 0.21186559 0.22939867 0.18869877
000160 cf bd f5 ba e4 da cb 3d 69 3e b9 3e 13 d4 80 3e
       -0.0018748584 0.099538594 0.36180428 0.251618
000170 43 21 97 3e 3a e2 3f 3e 4d 05 a5 3e 80 ce f5 3d
       0.29517564 0.18738642 0.32230607 0.120022774
000180 fd 87 6d 3e a2 75 d5 3e 9f 3e 94 3e d9 14 a1 3e
       0.23196407 0.4169131 0.28954026 0.31461218
000190 95 49 b7 3e cc 1c 06 3f 3b 72 3e 3e 2a 97 7e 3e
       0.35798326 0.5238769 0.18598263 0.24862352
0001a0 e8 18 5e 3e 22 2f 2c 3e bf 0d 53 3e a5 9b 8b 3e
       0.21689188 0.16814855 0.20610712 0.27267185
0001b0 e7 f2 b8 3e 33 94 2c 3e 24 66 7f 3e d1 95 be 3e
       0.3612282 0.16853409 0.24941307 0.37223676
0001c0 00 62 99 3e 96 49 9d 3e d3 25 a3 3e 55 e1 6c 3e
       0.2995758 0.30720204 0.31864795 0.23132832
0001d0 1e 56 5d 3e b0 84 88 3e d0 83 90 3e cb b5 47 3e
       0.21614882 0.26663733 0.28225565 0.19502942
0001e0 37 1e c6 3e 47 c0 e4 3e 02 57 23 3e da 78 29 3e
       0.38694927 0.44677946 0.1595116 0.16550007
0001f0 c1 e8 de 3d 6b a2 0a 3e 70 e0 46 3e 92 70 3a 3e
       0.10884238 0.1353852 0.19421554 0.18207005
000200 90 e0 36 3e e1 6b 11 be c1 5c fe 3d 53 2b 35 3e
       0.17859101 -0.14201309 0.12420035 0.17692308
000210 b4 c9 6b 3e f2 07 1b bc 81 82 1d 3e ba de e3 3d
       0.23026162 -0.0094623435 0.15381815 0.11126466
000220 6d 9f 17 be fc 77 e0 3d 65 50 50 3d ad 6d 05 3e
       -0.1480691 0.10960385 0.05085792 0.13030119
000230 ae aa 6f 3d 93 d4 93 3e 65 f1 13 3e 24 7e e8 3d
       0.058512382 0.2887312 0.14447553 0.113521844
000240 89 41 8b 3d fc fe ad bd 1c c7 32 3e c0 49 98 3e
       0.06799609 -0.084959 0.17458767 0.29743767
000250 ec 1c 56 3e 68 bc f6 3d 42 7f 71 3e 2b 6e 34 3e
       0.2090947 0.120476544 0.23583701 0.1762015
000260 2e c4 f7 3d 38 18 df 3d 66 3d 15 3e 72 be 58 3e
       0.12097965 0.10893291 0.14574203 0.21166399
000270 29 ef 75 bb da 6f 88 3d 92 ab 58 3d 0f 5c 30 3d
       -0.0037526584 0.06661959 0.052897997 0.043056544
000280 e4 30 d6 3c 28 06 5e 3e 30 7b c3 3b c3 ba 1a bd
       0.02614636 0.21682036 0.005965613 -0.037775766
000290 75 24 f0 3d c1 f6 45 3e 9a a5 6b 3d ed 08 14 3d
       0.117257036 0.1933241 0.057530977 0.036141325
0002a0 9c 8a 2e 3e a9 37 81 3d 6f 7c 5c 3d 8b 69 a3 3d
       0.17045063 0.063094445 0.053829607 0.07979115
0002b0 fb 98 91 3d ab 82 7a 3e 7a 4d 64 3e 50 7a 9b 3c
       0.07109257 0.24463908 0.2229518 0.018979222
0002c0 a9 d7 82 3d 8f 57 20 3e 61 2c e6 3d 97 19 92 bc
       0.0638879 0.15658401 0.11238933 -0.017834468
0002d0 ef 6a ed 3d 4f 23 29 3e 2d 79 0a 3e 06 94 0e 3d
       0.115926616 0.16517375 0.13522787 0.034809135
0002e0 6d 0a 48 3d c6 d8 09 3e 41 3f ad 3d bf 88 74 3e
       0.048838068 0.13461599 0.0845933 0.2388029
0002f0 15 47 98 3d 0e d6 f1 3d da 03 a2 3d 0f bd c8 3d
       0.07435433 0.11808406 0.07910891 0.09801685
000300 ec dd 11 3e 91 d9 1c 3d 0e 45 dc 3c 78 ff 96 3d
       0.14244813 0.038293425 0.026888397 0.073729455
000310 17 fa 2a 3e 48 68 47 3e a7 90 b1 3d 57 aa 30 3d
       0.16696964 0.19473374 0.08670168 0.0431312
000320 fc 29 1e bb 38 26 96 3d 1f 2f 2d bd 70 c4 09 3d
       -0.0024133911 0.073315084 -0.042281266 0.033634603
000330 6f 5a a6 bd 3c 38 da 3d cb d3 a0 3d c2 45 ae 3d
       -0.081227176 0.10655257 0.07852896 0.08509399
000340 4d d5 5a 3e be 85 fa 3d 1d 7a 96 3d 3a f0 cf 3d
       0.2137043 0.122325405 0.0734751 0.101532415
000350 5f 68 c4 3d 4f 63 fe 3d 88 bd 85 3e 58 95 9f 3c
       0.0959022 0.12421285 0.26121163 0.019480392
000360 75 a1 87 3d 75 25 ef bc 74 9e 50 3e d3 f2 2c 3e
       0.06622592 -0.029192666 0.20372945 0.16889505
000370 1c 54 d5 3d 3d cb 8c bd d2 ac c3 bc 91 ae cd 3d
       0.10416433 -0.06874702 -0.023886118 0.100430615
000380 20 5f ff 3d 97 7f 1a 3e 7d 3d 00 3e 75 a1 5c 3d
       0.124693155 0.15087734 0.12523456 0.053864915
000390 f4 e8 04 3e 1b a8 53 3e 21 23 28 3d e7 bd e1 3d
       0.1297949 0.20669596 0.041049127 0.11022549
0003a0 b5 f3 90 3d 8d 04 56 3d fa 37 62 3d cc 7f 0e 3e
       0.070777334 0.052250434 0.055229165 0.13915938
0003b0 d3 de 43 3e 9a 14 58 3d 33 b4 42 3e e9 8b 3f 3e
       0.1912797 0.052754022 0.19014053 0.18705715
0003c0 90 08 46 3e 8d b3 f4 3d e3 b9 36 3e 41 3c 03 3e
       0.19339204 0.11948309 0.17844348 0.12815954
0003d0 7b 53 9e 3d 20 bc 4e 3e c3 fd d2 bd ac d4 59 3e
       0.077307664 0.20188951 -0.103023075 0.21272534
0003e0 99 ca 20 3e e4 a2 3f 3c 8d f5 b2 3d 1d 97 94 3d
       0.15702285 0.011696551 0.08738241 0.07255385
0003f0 53 7e 75 3d 50 3a 03 3e 55 19 98 3c 70 e0 8c 3d
       0.059934925 0.12815213 0.018566767 0.068787456

fc.weight f4 [18, 128]
000000 64 0d 09 3f f8 a4 86 bf 99 67 e9 3e 74 bb 1a 3f
       0.5353606 -1.0519094 0.4558685 0.6044228
000010 c9 0d 18 3e b4 16 55 3e 97 fa 99 bd 6d 6e 13 be
       0.14849009 0.20809442 -0.07518499 -0.14397593
000020 f3 e6 8b 3f 66 b5 c6 bd 57 88 87 3f db d0 55 bf
       1.0929855 -0.09702568 1.0588483 -0.83521813
000030 e2 b1 19 3e 2e ae 7a 3e 92 b7 9d be 7c 3a 13 bf
       0.15009263 0.24480507 -0.30804116 -0.57511115
000040 f4 e9 8d 3e 0b 92 87 bd 29 4d 08 bf 87 79 fb 3d
       0.27717555 -0.06619652 -0.5324274 0.12279039
000050 4f 0c 5d bf a2 e3 46 bd c0 8f 9b be 7b 82 be be
       -0.86346906 -0.04855693 -0.3038311 -0.37208924
000060 d0 45 04 be da 1c 03 3c 14 e0 60 be d1 f5 40 bf
       -0.12917256 0.008002484 -0.21960479 -0.75375086
000070 df 19 02 3f 6f b3 93 bd 53 5f ce be 87 02 15 3f
       0.50820726 -0.072119586 -0.40307102 0.5820698
000080 6c 78 ab 3e 4b af 1f bf 6a 4e 14 bf d8 b7 b2 3e
       0.33490312 -0.6237685 -0.5793215 0.34905887
000090 61 6d eb be a9 1e 0c bf 45 12 15 3f c0 e4 d5 be
       -0.45981887 -0.54734284 0.58231 -0.41776085
0000a0 a4 11 c8 be c5 20 7e bf 7f f8 c1 be a2 42 91 be
       -0.3907596 -0.9926875 -0.378849 -0.2837115
0000b0 60 a6 43 be 74 67 df bd 8c 89 5f 3e 5b 80 5f 3f
       -0.19106436 -0.10908404 0.21829814 0.8730523
0000c0 77 f6 af 3d 18 c2 ce be 87 14 df be 02 98 af 3e
       0.08591931 -0.40382457 -0.4357035 0.3429566
0000d0 ff 26 74 3e a8 99 9e 3e fc 9d 51 be 99 4a 24 bd
       0.23843001 0.30976605 -0.20470423 -0.040110204
0000e0 16 86 72 be cd c0 f5 be 81 00 b8 3d a0 8c 1e bf
       -0.23683962 -0.47998658 0.08984471 -0.61933327
0000f0 6d c5 83 3d 42 55 fe bd 15 61 79 be 13 10 27 bf
       0.0643414 -0.124186054 -0.2435344 -0.652589
000100 dd c3 4d 3e eb 3f c2 bc ef 1d cd be 90 56 8a be
       0.20094247 -0.02371212 -0.400619 -0.27019167
000110 8c af ac bd cc 5d d1 3e 57 17 a9 3e 63 de 7d be
       -0.084319204 0.40891874 0.3302562 -0.24791865
000120 eb f6 bf 3c 30 19 15 3e 9d a4 6f bf 63 4d fd bc
       0.02343317 0.1456039 -0.93610555 -0.03092069
000130 d4 3e 12 bf 89 9f e4 be 9b 5f df 3d 8f 76 3f bf
       -0.5712712 -0.44652966 0.10906907 -0.7479028
000140 e4 87 1f bf 20 b0 34 bf 42 24 05 bf df 38 9a be
       -0.6231673 -0.70581245 -0.5200845 -0.30121514
000150 56 15 83 be e9 15 8c be 87 1a ba be b4 8c 84 bd
       -0.25602216 -0.27360466 -0.36348364 -0.064721495
000160 ab c9 8d be 44 6e d0 3e 40 a3 0c 3f e1 67 95 3e
       -0.27692923 0.40709126 0.549366 0.29180816
000170 ed b3 ec 3d 19 3e 9f be 17 8b 82 3f b6 11 ed bd
       0.115577556 -0.31102064 1.0198697 -0.11575644
000180 5a dd 8e bc f2 37 81 be c3 e3 fd bd 8f be 96 3b
       -0.017439533 -0.25237995 -0.12396958 0.004600353
000190 11 03 06 3f 87 1e 47 3f 45 6f 99 bd f1 f2 89 3e
       0.5234843 0.77780956 -0.07491926 0.26943162
0001a0 9b 59 4e bf 5e 15 ce 3e da 9c 37 3b 7d 7a 8b be
       -0.8060548 0.40250677 0.0028017075 -0.2724189
0001b0 a2 85 57 be ef d7 26 be 03 74 c0 3f 2c e4 df 3e
       -0.2104707 -0.1629331 1.5035404 0.4372877
0001c0 fe 4f 39 be 64 0f 16 be 96 ad 0e 3e b1 2c 86 be
       -0.18096921 -0.14654309 0.13933405 -0.26205972
0001d0 54 c4 8b bd 10 ba 8a bd a0 33 b7 be e3 66 0e be
       -0.06824556 -0.0677377 -0.35781574 -0.13906436
0001e0 b3 e3 b9 3e 47 d8 c0 be 41 98 67 3d 51 2b 77 be
       0.36306533 -0.37665007 0.056541685 -0.24137618
0001f0 bf fa 4c be c4 95 39 3e cf b3 86 3e 34 60 2f 3e
       -0.20017527 0.18123537 0.26309058 0.17126542
000200 eb 1c 62 be b8 8f 98 3e 36 21 7d be ed 58 4a bd
       -0.22081344 0.2979715 -0.247197 -0.049401212
000210 af 41 cc be a5 7e b3 3e ee fc b8 be 05 7f 09 bf
       -0.39893863 0.3505756 -0.3613047 -0.5370944
000220 e2 e7 c3 bd d4 a4 bb be f6 5c b5 be 37 ea 17 bd
       -0.095657125 -0.3664919 -0.35422486 -0.0370886
000230 f4 2c 8c be 0e 48 2c be 39 21 c7 be 18 5d 05 3d
       -0.27378047 -0.16824362 -0.38892534 0.032559484
000240 5b 4d 62 3d ea 52 85 3f ab f7 0a 3e c0 16 f1 bd
       0.055249553 1.0415928 0.1357104 -0.11771917
000250 a2 37 c4 be ab 8c 11 be 1d 8b fe 3e 2a 6f 42 3e
       -0.38323694 -0.14213817 0.4971551 0.18987718
000260 47 af 44 3e cb 8c 87 3d 26 37 c9 3e 51 66 ab 3e
       0.19207488 0.06618651 0.39299887 0.334765
000270 da 9f ba be eb ca 9f be 3b c5 81 3e 36 aa 0e 3e
       -0.36450082 -0.31209502 0.25345787 0.13932118
000280 a4 b2 de be d2 11 d3 bc 71 50 10 3e e4 60 7e 3f
       -0.43495667 -0.025765333 0.14093186 0.99366593
000290 a8 84 b7 be 47 f7 4a 3d 78 62 d5 be 06 bd 04 3f
       -0.35843396 0.04955223 -0.41676688 0.51850927
0002a0 47 06 5a bf c4 ea 57 3f 8e 25 8e 3e cd e1 e1 3e
       -0.8516583 0.843426 0.27763027 0.44117585
0002b0 c6 bb 6a 3e 57 a2 39 3d 17 fe 66 3d 0c 21 3d 3f
       0.22923192 0.045320835 0.056394663 0.7387855
0002c0 85 5a 30 3e 81 a7 16 3e d2 74 ec 3e 38 79 5f be
       0.1722203 0.14712335 0.46182877 -0.21823585
0002d0 40 38 f3 3d 67 29 cd 3d 91 0f 75 bd 93 58 13 bf
       0.11875963 0.100176625 -0.0598293 -0.5755703
0002e0 2a c0 c6 be 3c ba 0b be 64 70 6b 3e cc 31 e4 3d
       -0.38818485 -0.13645262 0.22992092 0.111423105
0002f0 66 6b ef be 8c 23 b7 be 10 de 10 3e fc a8 9e 3e
       -0.46761626 -0.35769308 0.1414721 0.309883
000300 bf 7b 21 be db c6 99 be 9a 0f 9a 3e da cc 62 3e
       -0.15769862 -0.30034527 0.30090028 0.22148457
000310 a8 f3 05 3e 32 ea 6c be ff 07 9b be 53 2d 69 3d
       0.13081229 -0.23136213 -0.30279538 0.05692799
000320 c4 ba 22 be 38 78 04 bf 29 ac b1 3f d6 63 f9 be
       -0.15891558 -0.5174594 1.3880664 -0.4870898
000330 0d fc c2 3e f0 ea 8b bd 39 cf 49 be 51 97 51 3e
       0.38082924 -0.0683192 -0.19707955 0.20467879
000340 37 6a 02 3f ba 4c 8c 3e d4 10 b2 be 7d 05 26 be
       0.5094332 0.27402288 -0.34778464 -0.16213031
000350 9e 66 28 be 38 c4 d7 be 63 c2 40 be 63 89 25 bf
       -0.16445395 -0.4214189 -0.18824153 -0.6466276
000360 9b c9 da bd a0 08 7d be 1c ee c8 3e 1a 1b 96 be
       -0.106829844 -0.24710321 0.39244163 -0.29317552
000370 2f ef c5 be 2b 8f f4 3e b8 5c 8b bf 36 6b fb 3d
       -0.38659045 0.47765478 -1.088767 0.12276308
000380 d7 9e 28 3e 74 70 c1 3d 2d 29 04 bd 73 e9 70 3e
       0.16466843 0.09445277 -0.03226583 0.23526554
000390 1a c0 55 be 7c cf 6a 3f 45 32 50 3e bd 75 54 be
       -0.20874062 0.91722846 0.20331676 -0.20748039
0003a0 31 fb 1d 3d e3 1a 90 3d 15 c4 d2 be f3 58 ea 3d
       0.038569633 0.07036378 -0.41165224 0.11442747
0003b0 93 9f 85 bd 42 f1 8a be 97 1c 57 bf d8 a4 55 bd
       -0.06524577 -0.2713719 -0.84028 -0.05215916
0003c0 05 76 7e 3e 6a a0 bc be aa 2d 83 3e 53 23 5d be
       0.24849708 -0.36841136 0.25620776 -0.21595506
0003d0 3e 06 73 3c 68 5e 7e be 34 b0 a8 3e 49 76 e7 3d
       0.014833031 -0.248407 0.32946932 0.11301858
0003e0 68 8e 47 3f b1 a6 95 3e e0 76 4c 3d 33 38 a5 3e
       0.7795167 0.29228738 0.049918056 0.3226944
0003f0 83 c4 d1 3d 29 bd 0e be 30 29 cb 3e 85 10 da 3e
       0.1024256 -0.13939346 0.3967986 0.42590728

fc.bias f4 [18]
000000 0c 29 ed bd a1 cc ef bd 33 08 26 be 76 47 67 bd
       -0.11580095 -0.11708952 -0.16214065 -0.056464635
000010 08 c2 6d bc 07 ad 08 be fb 2c 1d 3d 2b 0c 9c 3e
       -0.014511593 -0.13347255 0.038372975 0.30478033
000020 d4 6b aa bd 1e cd 0d bd 04 38 55 be 94 5f 25 3e
       -0.08321348 -0.034619443 -0.2082215 0.16149741
000030 7d 9e dd 3e 12 1c 8a 3d dc 32 be bc ad f4 68 bd
       0.4328498 0.06743635 -0.023217611 -0.056873966
000040 7f 77 1c be 95 b4 b5 3d
       -0.15279959 0.08872334
