text_classify/logs/LSTM/LSTM_epoch_40_acc_0.8202.pth (torch, 395002 bytes, 6 tensors)

lstm.weight_ih_l0 f4 [512, 57]
0	0xbd3b5e49	-0.045744214
1	0x3e3b5389	0.18293585
2	0xbe16935e	-0.14704654
3	0x3d85b076	0.06527798
4	0x3e4c0aeb	0.1992604
5	0x3e1184f1	0.1421087
6	0xbcc13617	-0.023585362
7	0xbe63fcb9	-0.22264375
8	0x3efcd936	0.4938447
9	0x3c9f5dd4	0.01945392
10	0x3ecb7323	0.3973628
11	0x3d13750b	0.036000293
12	0x3d5a2e05	0.053266544
13	0x3c73dc2b	0.014884035
14	0x3dee1eed	0.116269924
15	0x3eb3bf5e	0.3510694
16	0x3ec06d09	0.37583187
17	0xbe4f92e3	-0.20270877
18	0xbce8a3d3	-0.02839843
19	0xbede7c11	-0.4345403
20	0x3eaad7c2	0.33367735
21	0x3eb3d132	0.3512054
22	0xbe8ecf36	-0.27892464
23	0x3ec21bff	0.37911984
24	0x3e04669e	0.1292977
25	0xbe09396f	-0.13400815
26	0xbd1f54b7	-0.03889915
27	0x3db3bdc5	0.0877643
28	0x3e008ca4	0.1255365
29	0x3b153642	0.0022767936
30	0xbde62be2	-0.11238839
31	0x3dbcdc2d	0.09221683
32	0x3e94e948	0.2908423
33	0x3c7d2a37	0.015451959
34	0x3d2bcc37	0.0419428
35	0x3e10694c	0.14102668
36	0xbd9bbf77	-0.076048784
37	0x3f29f4b0	0.6638899
38	0xbd2ab961	-0.041680697
39	0x3e131bef	0.14366125
40	0x3d027644	0.03185107
41	0x3e8c0acf	0.27351996
42	0x3cbb8448	0.022890225
43	0xbd2bba6e	-0.04192584
44	0xbcf80b01	-0.030278685
45	0xbc829d12	-0.015944038
46	0x3d6e79d6	0.05822166
47	0x3eb530ef	0.35388896
48	0x3d682edd	0.056685317
49	0x3f09ae4a	0.5378157
50	0x3ec5407e	0.38525766
51	0x3e6aa22d	0.22913428
52	0xbee59201	-0.44837955
53	0x3d803a7a	0.062611535
54	0x3e115b11	0.14194895
55	0xbd9746f8	-0.07386583
56	0xbdea8c4f	-0.11452543
57	0x3dba4d3e	0.09096764
58	0x3e947037	0.28991863
59	0x3ddccc88	0.10781199
60	0x3f249f74	0.64305806
61	0x3e5e662b	0.21718661
62	0x3ee88cf2	0.45420033
63	0xbedad524	-0.42740738
64	0x3f034e8e	0.5129174
65	0xbe9b4700	-0.30327606
66	0xbf1c0c50	-0.6095629
67	0x3f0c8cf3	0.5490257
68	0x3e250a34	0.16117173
69	0x3ee04053	0.43799075
70	0xbd92845b	-0.07154151
71	0xbec76eba	-0.38951665
72	0xbd286990	-0.041116297
73	0xbe1a6282	-0.1507664
74	0x3e0326d3	0.12807779
75	0x3edeec3f	0.43539616
76	0x3e6f2c19	0.23356666
77	0x3e62ec01	0.22160341
78	0xbeb82fa0	-0.35973835
79	0x3e7b22fd	0.24525066
80	0xbb6a5e4f	-0.0035761779
81	0x3eeee2a2	0.46657282
82	0xbc517632	-0.012784528
83	0xbd6e2231	-0.058138076
84	0x3e8489e6	0.25886458
85	0xbe2ec8d1	-0.17068793
86	0xbd5e2026	-0.054229878
87	0x3db274f7	0.087137155
88	0x3bc4d260	0.006006524
89	0x3bd884b5	0.006607617
90	0xbd6157a2	-0.055015214
91	0x3edc127f	0.4298286
92	0x3cfb4678	0.03067325
93	0x3e108617	0.14113651
94	0x3e0681df	0.1313548
95	0xbbfda94a	-0.007741128
96	0x3e25c697	0.16189037
97	0x3d25aaa4	0.04044594
98	0xbdad4c1c	-0.08461782
99	0x3e788717	0.24270283
100	0xbde2c763	-0.11073186
101	0xbdb57494	-0.08860126
102	0x3d80c91a	0.06288357
103	0x3eac532c	0.33657205
104	0x3e2c7577	0.16841684
105	0x3e5fd845	0.21859844
106	0x3c669a8d	0.014074934
107	0xbcb24793	-0.021762645
108	0x3bfae1d6	0.0076563163
109	0x3dff0e5a	0.12453909
110	0x3da0bfea	0.07849105
111	0xbe5b2c79	-0.21403684
112	0x38a71d77	7.968669e-05
113	0x3e903a9c	0.28169715
114	0x3ee4a011	0.4465337
115	0x3e964496	0.29349202
116	0x3e3a2d62	0.18181375
117	0xbe9baa6e	-0.30403465
118	0x3e929eda	0.2863682
119	0x3e2f17ce	0.17098925
120	0xbf17535d	-0.5911158
121	0xbe6e6c0e	-0.23283407
122	0xbed1c1a5	-0.40968052
123	0x3d5a50d9	0.05329976
124	0xbd867057	-0.06564396
125	0x3e85ab73	0.26107368
126	0x3e754c58	0.23954904
127	0xbb88bcb7	-0.004172887
128	0x3f0c69d7	0.54849
129	0x3e5d18bb	0.21591465
130	0xbdf60c61	-0.1201408
131	0xbec14f36	-0.37755746
132	0xbd94d9e5	-0.072681226
133	0xbc410a2d	-0.011782211
134	0xbd1e458d	-0.038640548
135	0x3da2940a	0.079383925
136	0xbea30375	-0.31838575
137	0xbe3e117d	-0.18561359
138	0xbe722c97	-0.23649822
139	0x3eee6999	0.4656494
140	0x3da376c7	0.07981639
141	0x3ecb2431	0.3967605
142	0x3d4adfb2	0.04952974
143	0xbcbcf34b	-0.02306523
144	0xbe19b3fb	-0.15010063
145	0x3e0da0fe	0.13830945
146	0x3e35007a	0.17675963
147	0x3e3742d4	0.17896587
148	0x3e38a5be	0.18031976
149	0x3dc4cca2	0.09609343
150	0xbd9b0e45	-0.07571081
151	0x3e9cd401	0.30630496
152	0xbd05fec1	-0.032713655
153	0x3d68fb75	0.056880433
154	0x3ed3e049	0.41382053
155	0xbdbd4e65	-0.09243468
156	0x3eee997d	0.46601477
157	0x3db45b2f	0.088064544
158	0x3da1810e	0.07885943
159	0xbd0e7957	-0.034783687
160	0x3eb9ff57	0.3632762
161	0x3d63b843	0.055595648
162	0x3df9bd50	0.121943116
163	0x3ee67585	0.45011535
164	0x3ece69a0	0.4031496
165	0x3e4f3906	0.20236596
166	0xbeb687c3	-0.35650453
167	0xbdaa1c04	-0.08306125
168	0x3bcc4ea1	0.0062349592
169	0x3d3a66a6	0.04550805
170	0x3f0bd246	0.54617727
171	0x3c65f85b	0.014036263
172	0xbeaad4a9	-0.33365372
173	0xbeaf9a93	-0.34297618
174	0xbea588d8	-0.32330966
175	0xbec27945	-0.37983146
176	0xbe818b4a	-0.25301582
177	0x3e9b8d57	0.3038127
178	0x3df8cd3a	0.12148519
179	0xbca7f904	-0.020504482
180	0xbe8db102	-0.2767411
181	0x3e86200c	0.26196325
182	0x3ca959d7	0.020672722
183	0xbe9b6c04	-0.30355847
184	0x3ea8c673	0.32963905
185	0x3dac9875	0.08427516
186	0xbc65c4c6	-0.014023965
187	0x3c7032fe	0.014660595
188	0x3ebc19bd	0.36738387
189	0x3e0c5ab4	0.13706475
190	0xbd488c00	-0.04896164
191	0x3eeea94f	0.46613547
192	0x3e131db3	0.14366798
193	0x3e2fb395	0.17158349
194	0x3e4e032c	0.20118397
195	0xbe1a2458	-0.15052927
196	0x3d5c183f	0.05373406
197	0xbe2b41a6	-0.16724262
198	0x3eacfc7c	0.3378638
199	0xbe03bc6d	-0.12864847
200	0xbddcda36	-0.10783808
201	0x3cb72740	0.022357583
202	0x3d3da5d7	0.046300735
203	0xbdc1bfdd	-0.09460423
204	0xbcb8d28f	-0.02256134
205	0xbe4b4827	-0.19851743
206	0x3dcc72bd	0.09982822
207	0x3ed88feb	0.422973
208	0x3e5efe66	0.21776733
209	0x3e8a7282	0.27040488
210	0x3d46304d	0.048385907
211	0xbc7dfae1	-0.015501709
212	0x3d090c51	0.03345901
213	0xbdb44cd9	-0.0880372
214	0x3d5a8aae	0.05335491
215	0x3db069c2	0.08613922
216	0xbe023398	-0.12714994
217	0x3e9eef0d	0.31041756
218	0x3db2cb25	0.08730153
219	0x3dc2db1b	0.09514447
220	0x3e366421	0.17811634
221	0x3e324099	0.17407455
222	0x3e6149d8	0.22000825
223	0x3d32d173	0.043656778
224	0xbc0816f9	-0.008306258
225	0x3d3b509c	0.045731172
226	0x3cb7e207	0.022446645
227	0x3e1eaeac	0.1549632
228	0xbe92db89	-0.28683117
229	0x3ef3c83b	0.476137
230	0x3ece8e17	0.4034278
231	0x3e1596aa	0.14608255
232	0xbd7c587f	-0.061607834
233	0xbeaaea3d	-0.33381835
234	0xbd5b7e8c	-0.05358748
235	0xbed2f43a	-0.41201955
236	0xbeb33d00	-0.35007477
237	0x3e8f9553	0.28043613
238	0x3c546a44	0.012964789
239	0xbd6bc376	-0.057559453
240	0x3f31d359	0.69463116
241	0x3ee640dd	0.44971362
242	0xbec36e02	-0.38169867
243	0x3dc6de24	0.09710339
244	0x3d8fa53d	0.070139386
245	0x3baf5a1d	0.0053513185
246	0xbb5fc574	-0.003414479
247	0x3d811dd7	0.063045196
248	0xbe44f54a	-0.19234195
249	0x3e0d007c	0.13769716
250	0x3e4cf1d2	0.20014122
251	0x3f1675c6	0.5877346
252	0x3e828de2	0.25498873
253	0x3ee4c9ae	0.4468512
254	0xbdc03d0d	-0.093866445
255	0x3dbb8c9c	0.091576785

lstm.weight_hh_l0 f4 [512, 128]
0	0xbdc492c7	-0.09598308
1	0x3e0c485f	0.13699482
2	0x3dcfb3f7	0.101417474
3	0xbde50dee	-0.111842975
4	0xbe465a61	-0.19370414
5	0xbd8900ef	-0.06689631
6	0xbd97ad78	-0.074061334
7	0xbdf023a3	-0.11725547
8	0xbe871a45	-0.2638723
9	0xbcab3637	-0.020899875
10	0xbd2611cd	-0.04054432
11	0x3a52cb44	0.0008041153
12	0x3d9d2bf1	0.07674397
13	0x3c6a6bcc	0.014307927
14	0x3a2cb4f0	0.0006588241
15	0xbd612b4b	-0.054972928
16	0xbbc488fe	-0.005997776
17	0xbd8853f9	-0.066566415
18	0x3d92ad64	0.07161978
19	0xbe1931c0	-0.14960384
20	0x3e195db3	0.1497715
21	0x3e0009b4	0.12503701
22	0x3dafc7d6	0.085830376
23	0xbcd90b88	-0.026494756
24	0x3d406a4c	0.046976373
25	0x3dd3d8a4	0.10344055
26	0x3d9da8b6	0.07698195
27	0x3e5d3807	0.21603404
28	0xbdbf1c53	-0.09331574
29	0xbda9efee	-0.08297716
30	0xbd8864e6	-0.0665987
31	0xbdbd6c87	-0.092492156
32	0xbd3c06ce	-0.045904927
33	0xbdaa58c9	-0.08317716
34	0xbda18d0e	-0.07888232
35	0x3d9f19c2	0.07768585
36	0x3dd8d9ce	0.10588418
37	0x3e180874	0.14846975
38	0x3d0ad0ce	0.033890538
39	0xbdae5410	-0.085121274
40	0x3e182a32	0.14859846
41	0x3e2f2e05	0.17107399
42	0x3e837e89	0.25682476
43	0xbd6b233d	-0.057406653
44	0x3b41a618	0.0029548462
45	0x3cae14ac	0.021250091
46	0x3d9b2aef	0.07576548
47	0x3e1cd25b	0.15314619
48	0xbcd4ded0	-0.025985152
49	0xbdefdb32	-0.1171173
50	0xbd76874b	-0.06018762
51	0x3c4274b3	0.011868644
52	0xbce6f4c8	-0.028192893
53	0x3e054e7a	0.13018218
54	0x3d69f03f	0.057113882
55	0x3da567b6	0.08076422
56	0x3e0a3c15	0.13499482
57	0x3ddff9cd	0.109363176
58	0x3d98a5b6	0.07453482
59	0x3dfb10f8	0.12259096
60	0xbe311e4e	-0.17296717
61	0xbd33c2f3	-0.04388709
62	0xbd03f3c7	-0.032214906
63	0x3dcd5c41	0.10027362
64	0xbc09cbee	-0.008410437
65	0xbdca77c1	-0.098861225
66	0xbd7582dc	-0.05993925
67	0x3e00e333	0.1258667
68	0x3e205876	0.15658745
69	0xbcb8c500	-0.022554874
70	0xbd9afe06	-0.075679824
71	0xbd0c381e	-0.034233205
72	0x3db43e11	0.08800901
73	0x3bf76c0f	0.0075507234
74	0x3dfe2129	0.124086685
75	0x3cdc4e8b	0.026892921
76	0x3c6cba8a	0.014448771
77	0xbcdb8cc3	-0.026800519
78	0xbe37a3c4	-0.17933565
79	0x3d272742	0.040808924
80	0xbddc561a	-0.1075861
81	0x3e1c5c04	0.15269476
82	0x3e826ce3	0.254737
83	0x3ccc8f01	0.024970533
84	0x3da58946	0.080828235
85	0xbd871b8b	-0.0659705
86	0xbc9e8285	-0.019349346
87	0xba22bd1c	-0.0006207989
88	0xbd3e6283	-0.046480667
89	0xbda3e527	-0.08002692
90	0x3d570f31	0.052504722
91	0xbce5ef15	-0.028068105
92	0x3c56a43a	0.013100678
93	0xbca5d58f	-0.020243434
94	0xbe2d98e5	-0.16952856
95	0x3e377308	0.17914975
96	0x3d43f583	0.04784156
97	0x3dec0bab	0.11525663
98	0x3cca7d55	0.024717966
99	0xbd45279a	-0.04813347
100	0xbd5f815b	-0.054566722
101	0x3e46ef60	0.19427252
102	0xbd8e0b9c	-0.06935808
103	0x3d9eb6aa	0.07749684
104	0x3c34f007	0.011043555
105	0xbcc7a61b	-0.024371197
106	0xbde1b785	-0.11021332
107	0xbd256828	-0.040382534
108	0xbd07709b	-0.033066373
109	0xbd2ca316	-0.04214772
110	0x3c1ecd46	0.009692496
111	0x3dc63e57	0.09679859
112	0x3d34d9eb	0.044153135
113	0xbdbf805b	-0.09350654
114	0x3df20365	0.11817054
115	0x3cbca123	0.023026055
116	0x3dbe9ab4	0.09306851
117	0xbd8c3ca8	-0.06847507
118	0x3da5d4f8	0.08097261
119	0x3e06cd54	0.13164264
120	0xbe2a79ca	-0.16648021
121	0x3de12bd1	0.109946854
122	0xbacd79c0	-0.0015676543
123	0x3df8ce80	0.12148762
124	0x3d5f2972	0.054482885
125	0xbd781e80	-0.060575962
126	0xbe26176e	-0.16219875
127	0x3e0de7d9	0.13857974
128	0xbde0f0e7	-0.109834485
129	0x3e4f9975	0.20273383
130	0xbe1f3406	-0.15547189
131	0xbdbf6735	-0.09345857
132	0xbe03b039	-0.12860192
133	0xbe2df95f	-0.16989659
134	0xbde3510b	-0.11099442
135	0xbe58d856	-0.21176276
136	0x3e4557e4	0.19271809
137	0xbe583f9a	-0.21118012
138	0xbc10819a	-0.008819962
139	0x3d445718	0.04793462
140	0x3e791ba6	0.24326953
141	0x3d95005f	0.072754614
142	0x3c2964ab	0.0103389425
143	0x3e1c92af	0.1529033
144	0x3ce08666	0.027407836
145	0x3d9ac121	0.07556368
146	0x3dfe9cba	0.12432237
147	0xbe81c039	-0.25341967
148	0x3e0bdc14	0.13658172
149	0x3e07e572	0.1327112
150	0x3dcca4d1	0.09992374
151	0x3e030b01	0.12797166
152	0x3e13e721	0.14443637
153	0x3d3be656	0.045873962
154	0x3da9682d	0.08271823
155	0x3d8b1625	0.06791333
156	0xbe095303	-0.13410573
157	0xbd727a87	-0.059198882
158	0xbe40a751	-0.18813826
159	0xbea355cc	-0.31901395
160	0xbcb623d2	-0.022233877
161	0xbcf57b8c	-0.029966138
162	0xbe9c7cfa	-0.305641
163	0x3d2aae09	0.04166988
164	0xbe19d0bb	-0.1502103
165	0x3e4aae2b	0.19793002
166	0xbe2535cd	-0.16133805
167	0xbe3544c9	-0.1770202
168	0xbd38a64d	-0.04508047
169	0xbeda2174	-0.42603648
170	0xbdfff28f	-0.12497436
171	0xbdba8f1f	-0.091093294
172	0x3d2e057d	0.042485703
173	0x3da567be	0.08076428
174	0x3e49c612	0.19704464
175	0x3da4e5ec	0.080516666
176	0x3e23c373	0.15992527
177	0x3c03c5ab	0.008042733
178	0xbe2b5571	-0.16731812
179	0xbd0c89b4	-0.03431101
180	0xbe346d66	-0.17619857
181	0x3e21708b	0.15765588
182	0x3e6af872	0.22946337
183	0x3ea127e3	0.31475744
184	0x3e32a455	0.174455
185	0x3dba6076	0.0910043
186	0x3dfff009	0.12496955
187	0x3dff2ec5	0.124600925
188	0xbe3cecd7	-0.18449722
189	0x3e875cb9	0.2643793
190	0xbc5d1637	-0.013494066
191	0x3defa979	0.11702246
192	0xbd8d15f8	-0.06888956
193	0xbdabcd97	-0.083888225
194	0xbec37713	-0.38176784
195	0x3e0a0fc6	0.1348258
196	0x3df16c41	0.11788226
197	0xbdd79af5	-0.105276026
198	0x3d5cbec4	0.053892866
199	0x3edacdc5	0.42735115
200	0x3dbe788a	0.09300335
201	0x3ce80dc4	0.028326876
202	0xbea90a92	-0.33015877
203	0xbd7525b0	-0.059850395
204	0xbccbdfdd	-0.02488702
205	0x3e2032f7	0.15644442
206	0xbe5be851	-0.2147534
207	0xbe5a9fcd	-0.21350022
208	0x3db04608	0.086071074
209	0x3d9d1798	0.07670516
210	0x3e89cc03	0.2691346
211	0x3e23c159	0.15991725
212	0xbe8a321f	-0.26991364
213	0xbe528f1c	-0.20562404
214	0xbe116c77	-0.14201532
215	0xbe25bbf0	-0.16184974
216	0xbe93c9c1	-0.28864864
217	0xbcffef80	-0.031242132
218	0x3e596bd0	0.21232533
219	0x3de010ec	0.109407276
220	0x3d8bbd72	0.06823243
221	0x3e11ab29	0.14225449
222	0x3ed126d2	0.4084993
223	0x3d643d6f	0.05572265
224	0xbe45a94d	-0.19302864
225	0x3e23efdb	0.16009466
226	0x3dcd0f5d	0.10012696
227	0x3e16b8b5	0.14718898
228	0xbddd5a65	-0.10808257
229	0x3d540401	0.05176163
230	0xbe56a985	-0.20963104
231	0x3e6fd110	0.23419595
232	0xbd92c770	-0.07166946
233	0x3e6576ef	0.22408651
234	0xbe071061	-0.13189842
235	0xbe2bb307	-0.16767512
236	0x3e81a2ac	0.2531942
237	0xbe601e33	-0.2188652
238	0x3f0bbb7d	0.5458296
239	0x3e383772	0.179899
240	0x3e3178d2	0.17331246
241	0xbde94e97	-0.11391943
242	0x3e425baf	0.18980287
243	0x3dc728ec	0.09724602
244	0x3dc2b13d	0.09506462
245	0xbe26d3bf	-0.16291712
246	0xbd9ff011	-0.07809461
247	0x3e71a195	0.23596795
248	0xbc867f1e	-0.016418036
249	0x3dc29660	0.09501338
250	0x3d5bfcb3	0.05370779
251	0x3e066123	0.13122992
252	0x3da15b18	0.07878703
253	0xbe05dd28	-0.13072646
254	0xbead0ff3	-0.3380123
255	0x3d911066	0.07083206

lstm.bias_ih_l0 f4 [512]
0	0x3e072939	0.13199319
1	0x3eb2efc6	0.34948558
2	0x3e9b54b0	0.3033805
3	0x3d9f01ae	0.07763992
4	0x3e3cdafe	0.18442914
5	0x3e5522a8	0.20814002
6	0x3e01a20f	0.12659477
7	0x3d88f253	0.06686845
8	0x3f03ec38	0.51532316
9	0x3dccc61f	0.09998726
10	0x3d8b1f5c	0.06793091
11	0x3e2161a4	0.15759903
12	0x3e42c7b9	0.190215
13	0x3e350e45	0.17681225
14	0x3e6f6c60	0.23381186
15	0x3e04f4c3	0.12983994
16	0x3e0874c9	0.133258
17	0x3e9d306d	0.30701008
18	0x3e2dd84b	0.1697704
19	0x3df7ed8a	0.12105854
20	0x3e08f2f1	0.13373925
21	0x3cade042	0.021225099
22	0x3ebfb017	0.37439033
23	0xbbf249b0	-0.007394038
24	0x3e278fd3	0.16363458
25	0x3dc7c7bc	0.09754893
26	0x3da3b4b1	0.079934485
27	0x3e905ec1	0.28197291
28	0x3b3de919	0.0028978048
29	0x3ddca333	0.10773315
30	0x3dde49b7	0.10853904
31	0x3e3f76fc	0.18697733
32	0x3da93d69	0.08263666
33	0x3ebb80cb	0.366217
34	0x3e90ec94	0.28305495
35	0x3e2a3333	0.16621093
36	0x3df198ee	0.11796747
37	0x3ea424b5	0.32059255
38	0x3e17637f	0.14784048
39	0x3e6be56b	0.23036735
40	0x3e818c0d	0.25302163
41	0x3e7eacb0	0.24870563
42	0x3eb242a4	0.34816468
43	0x3e36518e	0.17804548
44	0x3e377a01	0.17917635
45	0x3d999898	0.07499808
46	0x3e2da59b	0.16957705
47	0x3eabcfec	0.3355707
48	0x3e26c304	0.1628533
49	0x3e1314a8	0.14363348
50	0x3e1f312d	0.15546103
51	0x3d20308a	0.03910879
52	0x3de762a8	0.11298114
53	0x3d3bf3ce	0.045886807
54	0x3e363240	0.17792606
55	0x3e2ce291	0.16883303
56	0x3d83d043	0.06436207
57	0x3d866449	0.065620966
58	0x3e80dc0a	0.25167876
59	0x3e062cf8	0.13103092
60	0x3e652261	0.22376396
61	0x3e372c61	0.17888023
62	0x3ed59313	0.4171377
63	0x3edc20df	0.4299383
64	0x3d713761	0.058890704
65	0x3cb4477b	0.02200674
66	0x3e8e026e	0.2773623
67	0x3e58dea9	0.21178688
68	0x3de4d7b5	0.11173955
69	0x3e9a9180	0.30189133
70	0x3e5416be	0.207118
71	0x3ed0206f	0.40649745
72	0x3e5e1b5c	0.21690124
73	0x3e15a72c	0.14614552
74	0x3ea0b3a4	0.31387055
75	0x3db31a76	0.087452814
76	0x3e30e76b	0.17275779
77	0x3d4a12d1	0.04933435
78	0x3e4d23dd	0.20033212
79	0x3ead7ca5	0.3388416
80	0x3eb17901	0.3466263
81	0x3dfe8f4e	0.12429677
82	0x3df01a16	0.117237255
83	0x3e23d966	0.160009
84	0x3e79911e	0.24371764
85	0x3c48f181	0.01226461
86	0x3e2a0093	0.16601782
87	0x3e14533f	0.14484881
88	0x3e03d6a2	0.12874845
89	0x3c43c35d	0.011948434
90	0x3e0e6dc4	0.1390906
91	0x3e745ced	0.23863573
92	0x3e7b57ea	0.24545255
93	0x3d87e829	0.06636078
94	0x3e647c55	0.22313054
95	0x3d760857	0.060066547
96	0x3df323c6	0.118720576
97	0x3ea83535	0.32853094
98	0x3e6ce155	0.23132832
99	0x3de0b6e2	0.10972382
100	0x3e31ffb1	0.17382695
101	0x3ee7d297	0.45277855
102	0xbc6c406f	-0.014419659
103	0x3d8b59cb	0.06804236
104	0x3ddc118a	0.10745533
105	0x3d92a68a	0.07160671
106	0x3e260a67	0.16214906
107	0x3e07c940	0.13260365
108	0x3eab0497	0.3340194
109	0x3e0707cd	0.1318657
110	0x3e324d6a	0.17412344
111	0x3e727d5a	0.2368063
112	0x3dac48fb	0.084123574
113	0x3ea203aa	0.3164342
114	0x3e2cd25d	0.16877122
115	0x3defcb3c	0.11708686
116	0x3e221471	0.1582811
117	0x3dae982b	0.085251175
118	0x3e547409	0.20747389
119	0x3e48238a	0.19544807
120	0x3e1a67b0	0.15078616
121	0x3e5a6762	0.213285
122	0x3df773db	0.120826446
123	0x3c9e5d30	0.019331545
124	0x3d1468d3	0.03623278
125	0x3c4214ad	0.01184575
126	0x3d457f9d	0.048217405
127	0x3d1e6cb9	0.038677905
128	0x3e4831ee	0.19550297
129	0xbc04f624	-0.008115325
130	0x3db90938	0.090349615
131	0x3cb36b32	0.0219017
132	0x3dcf84d8	0.1013276
133	0x3ca368d6	0.01994745
134	0x3d8fe1b7	0.070254736
135	0x3cda0a14	0.026616134
136	0xbe847293	-0.25868663
137	0x3dbf729b	0.09348031
138	0x3dd308b8	0.10304397
139	0x3d9e9545	0.07743315
140	0xba0fc4a9	-0.0005484322
141	0x3e55dcc5	0.20884998
142	0x3c524b1d	0.012835291
143	0xbcfa1f1e	-0.030532416
144	0x3e15d104	0.14630514
145	0x3ca76a99	0.020436572
146	0x3d39af44	0.045333162
147	0x3e2f7b14	0.17136794
148	0x3df4a7c9	0.11946065
149	0x3dcecc82	0.100976005
150	0x3e3e4179	0.18579663
151	0x3db2a631	0.08723105
152	0xbce55f92	-0.027999673
153	0x3e15df37	0.14635931
154	0xbca340b6	-0.019928318
155	0x3e1582cd	0.14600678
156	0x3e16a3b4	0.14710885
157	0xbb37d1d2	-0.0028048647
158	0x3c22f7e5	0.009946798
159	0x3ddcc91c	0.10780546
160	0x3c9f074f	0.019412665
161	0x3d7a645a	0.06113086
162	0x3d8475a9	0.064677544
163	0x3c480bf9	0.012209886
164	0x3ce8c883	0.028415924
165	0x3dc72a0d	0.097248174
166	0xbb0831e3	-0.0020781688
167	0x3e4189e7	0.18900262
168	0x3daf610f	0.08563434
169	0x3e0975b2	0.13423803
170	0x3c8306d6	0.01599447
171	0x3dbd0cf7	0.092309885
172	0x3dd15025	0.102203645
173	0x3de45ff9	0.11151118
174	0x3d6a6073	0.057220887
175	0x3c9ff6e6	0.01952691
176	0x3be0ae34	0.006856704
177	0x3e115365	0.14191969
178	0x3c9f7dc6	0.019469153
179	0xbb851b88	-0.00406212
180	0x3ca02052	0.019546662
181	0x3dfde18e	0.12396537
182	0x3e6d0ee7	0.23150216
183	0x3df162a1	0.1178639
184	0x3d1edfcb	0.038787644
185	0x3dca3826	0.09873991
186	0x3e03a3c5	0.12855442
187	0x3de02945	0.109453715
188	0x3db84e26	0.08999281
189	0x3d885764	0.066572934
190	0x3ddd443d	0.10804031
191	0x3e536e9a	0.2064766
192	0x3e0d3e2a	0.13793245
193	0x3e133c11	0.14378382
194	0x3b63e2ff	0.0034772751
195	0x3e1742c0	0.14771557
196	0x3d2f6099	0.042816732
197	0x3db7526f	0.0895127
198	0xbbea5d47	-0.007152233
199	0x3e088cc0	0.13334942
200	0x3cecf0c6	0.028923403
201	0xbd59957c	-0.053121075
202	0x3dad83fc	0.0847244
203	0x3de4ee8e	0.11178313
204	0xbce9a421	-0.028520646
205	0xbb45bf34	-0.003017378
206	0x3e1dc2c4	0.15406328
207	0xbb06d5aa	-0.002057413
208	0x3cc627c0	0.024188876
209	0x3d356aa3	0.04429115
210	0x3e46aa34	0.19400865
211	0x3dec2426	0.11530332
212	0x3e4d9183	0.2007504
213	0x3e0075e1	0.12544967
214	0x3e3ca899	0.1842369
215	0x3dd2318f	0.10263359
216	0x3e01525d	0.12629075
217	0x3cc51bbe	0.02406108
218	0x3e09c2df	0.13453244
219	0x3e33a924	0.17544991
220	0x3db30feb	0.087432705
221	0x3e0d2192	0.13782337
222	0xbc23ab2c	-0.009989541
223	0x3d4008f3	0.046883535
224	0x3de869e5	0.11348323
225	0x3e30e6a1	0.17275478
226	0x3e1351a0	0.14386606
227	0x3d6bf658	0.05760798
228	0x3e8de980	0.2771721
229	0x3e3fd9e1	0.18735458
230	0x3ca2676d	0.019824708
231	0x3dccdcde	0.100030646
232	0x3d8112ae	0.06302391
233	0x3d745036	0.059646808
234	0xbb27b2d5	-0.002558877
235	0x3df3d2f3	0.1190547
236	0x3e41f474	0.18940908
237	0x3e1a5486	0.15071306
238	0x3cfdae7d	0.030966992
239	0x3d599509	0.053120647
240	0x3de88f88	0.113555014
241	0x3dfa9d47	0.122370295
242	0x3e0abe85	0.1354924
243	0x3c84ade7	0.016196204
244	0xbc07a9c2	-0.0082802195
245	0x3dab4dfe	0.08364485
246	0x3d5a1ec4	0.053251997
247	0x3e585b23	0.21128516
248	0x3cddd7d1	0.027080448
249	0x3e0c92f2	0.1372793
250	0xbc898fc0	-0.016792178
251	0x3d611d56	0.054959618
252	0x3dbbe09c	0.091737
253	0xbc60412c	-0.013687413
254	0x3dcd911d	0.10037444
255	0x3d018bc7	0.031627443

lstm.bias_hh_l0 f4 [512]
0	0x3e490620	0.19631243
1	0x3e7a1b84	0.24424559
2	0x3e86c6ab	0.26323447
3	0x3d9ef5e9	0.077617474
4	0x3d121e86	0.03567364
5	0x3e078471	0.13234116
6	0x3e591850	0.2120068
7	0x3c27b3d8	0.010235749
8	0x3f1318c4	0.57459664
9	0x3e4af6e5	0.19820745
10	0x3deb732a	0.11496575
11	0x3e6d9733	0.23202209
12	0x3d10a81d	0.035316575
13	0x3e94f246	0.2909109
14	0x3eb47f2d	0.35253277
15	0x3e14f5fa	0.14546958
16	0x3dac03d6	0.08399169
17	0x3e98e3fa	0.29861432
18	0x3e03ec05	0.12883003
19	0x3e2e8a19	0.17044868
20	0x3e4eefe4	0.20208699
21	0x3d76a868	0.0602192
22	0x3e954606	0.29154986
23	0x3d9691c4	0.07352021
24	0x3c1b10e3	0.009464475
25	0x3dcde5db	0.10053607
26	0x3e07320e	0.13202688
27	0x3e9e56f6	0.3092572
28	0x3d7a50a7	0.061112072
29	0x3df8c604	0.121471435
30	0x3e183852	0.14865234
31	0x3dd732d6	0.10507743
32	0x3d4bfea7	0.049803402
33	0x3e4f6d5e	0.20256564
34	0x3ea18fbb	0.3155497
35	0x3ddc5f04	0.1076031
36	0x3e19c58d	0.15016766
37	0x3e43394b	0.19064824
38	0x3de0d3db	0.10977908
39	0x3e9e6475	0.30936018
40	0x3e6a232d	0.22864981
41	0x3e54cd8e	0.20781538
42	0x3e83997e	0.25703043
43	0x3e0a60d7	0.13513504
44	0x3e81dd14	0.25363982
45	0x3e284a4e	0.16434595
46	0x3d614130	0.05499381
47	0x3ef41941	0.47675517
48	0x3d7bdd73	0.061490487
49	0x3e345eb7	0.17614256
50	0x3e238387	0.15968142
51	0x3d34a7a1	0.044105176
52	0x3d65de35	0.056120116
53	0x3daefde1	0.08544517
54	0x3e8852a7	0.2662556
55	0x3d9c7bc4	0.07640794
56	0x3db29ae0	0.08720946
57	0x3e26804b	0.16259877
58	0x3e92e07d	0.28686896
59	0x3dc14498	0.09436911
60	0x3e3cdd7b	0.18443863
61	0x3e343f3b	0.17602246
62	0x3ee62e19	0.44957045
63	0x3ee5d027	0.4488537
64	0x3e104cd8	0.14091814
65	0x3da37fe5	0.07983378
66	0x3e0ec293	0.13941412
67	0x3de77fcd	0.11303673
68	0x3d3143da	0.0432776
69	0x3ed4d442	0.4156819
70	0x3e8566d4	0.26055014
71	0x3ea5f13b	0.32410607
72	0x3e042465	0.12904508
73	0x3e3bd334	0.18342286
74	0x3eb2ea3d	0.34944335
75	0x3e4d63a9	0.20057549
76	0x3e21e5a7	0.15810262
77	0x3e227bb1	0.15867497
78	0x3e67a4b1	0.22621419
79	0x3e79e716	0.24404559
80	0x3eb31927	0.34980127
81	0x3db99b9b	0.090628825
82	0x3e08c141	0.1335497
83	0x3e2381b1	0.15967442
84	0x3e6951c8	0.22785103
85	0x3e101ae9	0.14072765
86	0x3d720a57	0.059091892
87	0x3e1fbb70	0.15598845
88	0xbb76f8a6	-0.0037684827
89	0x3caf006d	0.021362508
90	0x3e274a92	0.1633704
91	0x3e4096a3	0.18807463
92	0x3e55f058	0.20892465
93	0x3de2f03d	0.11080978
94	0x3e3f1809	0.18661512
95	0x3d7f7774	0.06236978
96	0x3e29c650	0.16579556
97	0x3ea54355	0.32277933
98	0x3e8173df	0.25283715
99	0x3e6fbf8c	0.23412913
100	0x3e61eead	0.22063704
101	0x3ee6cc52	0.4507776
102	0x3d7b0f05	0.06129362
103	0x3e20ba26	0.1569601
104	0x3d12fad9	0.03588376
105	0x3e019269	0.12653507
106	0x3e0a49d6	0.13504729
107	0x3e0a3d57	0.13499962
108	0x3e76e6ac	0.24111432
109	0x3ddcb7db	0.10777255
110	0x3e2d2464	0.16908413
111	0x3e5c6db1	0.21526219
112	0x3e482f8b	0.19549386
113	0x3e8da6ed	0.27666417
114	0x3dceff91	0.10107339
115	0x3e1d25d9	0.15346469
116	0x3e1ebd0a	0.155018
117	0x3e548aa5	0.20756014
118	0x3dcf5916	0.10124414
119	0x3d9d5258	0.076817214
120	0x3e69837e	0.22804067
121	0x3e8f8ecb	0.2803863
122	0x3c752fe9	0.014965036
123	0x3dcba4dc	0.09943554
124	0x3d467771	0.048453752
125	0x3cb9799a	0.022640992
126	0x3d94bc73	0.07262506
127	0x3d9e2291	0.07721437
128	0x3e1bfc95	0.15233071
129	0xbd1c8013	-0.03820808
130	0x3e10ce06	0.14141092
131	0x3de805f3	0.1132926
132	0x3e4086b2	0.18801382
133	0x3b81133d	0.003939061
134	0x3e116a0a	0.14200607
135	0x3dd7d296	0.10538213
136	0xbe0dc304	-0.13843924
137	0x3dfcc49d	0.123421885
138	0x3d7c6ef0	0.061629236
139	0x3e169130	0.14703822
140	0xbc1f412c	-0.009720128
141	0x3e68a704	0.22719961
142	0x3e34aa3e	0.17643067
143	0x3dac5b86	0.08415894
144	0x3d8a44f2	0.067514315
145	0xbd03f6a2	-0.03221763
146	0x3e224ebf	0.15850352
147	0x3e2ead85	0.1705838
148	0x3e0411f9	0.12897481
149	0x3daeff0f	0.08544742
150	0x3e794cab	0.24345653
151	0x3e188aa7	0.14896642
152	0x3d9367ab	0.071975075
153	0x3dbae253	0.09125199
154	0x3e0fc504	0.14039999
155	0x3e198c99	0.1499504
156	0xbbd1b9cf	-0.006400324
157	0x3ca36ce5	0.019949386
158	0x3d672829	0.056434784
159	0x3d330cc5	0.04371335
160	0x3db3e333	0.08783569
161	0x3e494bc2	0.19657806
162	0x3c20c1e6	0.009811854
163	0xbd07ff17	-0.033202257
164	0x3e01ff76	0.12695107
165	0x3de54518	0.11194819
166	0x3d82df78	0.063902795
167	0x3db5e544	0.088816196
168	0x3e399f7f	0.18127249
169	0x3d9e7965	0.07737998
170	0x3d410f05	0.047133464
171	0x3d258333	0.040408324
172	0x3d3a5096	0.04548701
173	0x3e39ac3a	0.18132105
174	0x3e0e56a9	0.13900246
175	0x3d6f2890	0.058388293
176	0x3ce95093	0.028480804
177	0x3e03684c	0.12832755
178	0x3d70b6d0	0.058768094
179	0x3cc73aa6	0.024319958
180	0x3df2cd8d	0.11855612
181	0x3db9157b	0.090373
182	0x3df08a0a	0.11745079
183	0x3d6c7e52	0.057737656
184	0x3d207e71	0.039183084
185	0x3e0c914a	0.13727298
186	0x3d7070ff	0.05870151
187	0x3df7b72e	0.12095486
188	0x3d9302d4	0.07178274
189	0x3e12ec10	0.14347863
190	0x3dd0ff72	0.10204972
191	0x3de83950	0.113390565
192	0x3e021c68	0.12706149
193	0x3c1c40a8	0.0095369
194	0x3d40e809	0.047096286
195	0x3da0ca25	0.07851056
196	0x3e141a62	0.14463189
197	0x3e537f3e	0.20654008
198	0x3deab10b	0.114595495
199	0x3d64067d	0.05567025
200	0x3d1a1dac	0.037625954
201	0xbc6e66b0	-0.01455085
202	0xbcaad013	-0.02085117
203	0x3bd5b15b	0.0065213866
204	0xbd1611a6	-0.036637925
205	0x3da1595c	0.07878372
206	0x3dc90933	0.09816208
207	0x3daa8d36	0.08327715
208	0x3e42cde9	0.19023861
209	0x3d570838	0.052498072
210	0x3dc898e9	0.0979479
211	0x3d6a2d96	0.05717238
212	0x3dd71eeb	0.10503944
213	0x3de60cfd	0.11232946
214	0x3e3684a0	0.1782403
215	0x3d161ca2	0.0366484
216	0x3d3058e2	0.043053515
217	0xbcb5450f	-0.022127656
218	0x3e0d70ef	0.13812612
219	0x3e598da5	0.2124544
220	0x3db80b86	0.08986573
221	0xbcf0a91b	-0.02937751
222	0x3bd08dd0	0.0063645616
223	0x3de4cae5	0.111715116
224	0x3def5149	0.11685426
225	0x3e403bdd	0.18772836
226	0x3e1b23ea	0.15150419
227	0x3d6b4e38	0.057447642
228	0x3de641ae	0.11242996
229	0x3e6ca48d	0.23109646
230	0x3c1ebfe0	0.009689301
231	0x3d67072b	0.05640332
232	0x3d696774	0.056983426
233	0x3d3ff2ac	0.04686229
234	0x3d9b9ba7	0.07598048
235	0x3ddb58b4	0.10710278
236	0x3e21af77	0.15789591
237	0x3cb54876	0.022129279
238	0x3e21d5bd	0.15804191
239	0x3db7a224	0.08966473
240	0x3e26d07e	0.16290471
241	0x3e23280a	0.15933242
242	0x3e1e38e5	0.15451391
243	0x3e3af8a6	0.18258914
244	0x3dec6626	0.11542921
245	0x3e14ff93	0.14550619
246	0xbd501d88	-0.050809413
247	0x3e44b138	0.19208229
248	0x3dac1b8d	0.084036924
249	0x3c86fc4c	0.016477726
250	0x3d221a45	0.039575834
251	0x3d994373	0.07483568
252	0x3e0684e3	0.1313663
253	0x3df98c10	0.12184918
254	0xbd27b411	-0.04094321
255	0x3d575506	0.05257132

fc.weight f4 [18, 128]
0	0x3e1bfa0a	0.15232101
1	0xbf1ef0d2	-0.6208621
2	0x3e9ba69e	0.30400556
3	0x3ea8806c	0.32910478
4	0x3e3198dc	0.17343467
5	0x3df929e5	0.12166194
6	0xbc59f795	-0.013303657
7	0xbdd1e6af	-0.102490775
8	0x3f4ea8b5	0.80726177
9	0xbcf4e562	-0.029894534
10	0x3f27ece7	0.6559586
11	0xbe82c288	-0.2553904
12	0x3d8e6625	0.06953076
13	0x3e447d30	0.1918838
14	0xbe5a95b0	-0.21346164
15	0xbe6d5b31	-0.23179318
16	0x3e1e9d13	0.15489607
17	0x3d033cce	0.03204041
18	0xbe91e26f	-0.28493068
19	0x3e1e1ad4	0.15439922
20	0xbee2e65c	-0.44316375
21	0xbb45e904	-0.0030198703
22	0xbe824c88	-0.25449014
23	0xbe64cf47	-0.22344695
24	0xbd0c379d	-0.034232724
25	0xbd067efe	-0.032835953
26	0xbe21a0ce	-0.15783998
27	0xbea5618e	-0.3230099
28	0x3e998421	0.2998362
29	0xbda3aa3a	-0.079914525
30	0xbe8a3f6a	-0.27001506
31	0x3ecbad28	0.39780545
32	0x3e216675	0.1576174
33	0xbee1a9e3	-0.44074926
34	0xbe45fc6a	-0.1933457
35	0x3ddc7996	0.10765378
36	0xbeaa5949	-0.33271244
37	0xbea9b791	-0.33147863
38	0x3eca9383	0.39565668
39	0xbe83ecc9	-0.2576659
40	0xbe6cc79b	-0.23123018
41	0xbf2a36f6	-0.66490114
42	0xbea2c0e2	-0.31787783
43	0xbe133a0d	-0.14377613
44	0xbdda0f40	-0.1064744
45	0xbd70fc02	-0.058834083
46	0x3dd9c3c8	0.106330454
47	0x3f21b67d	0.6316908
48	0x3e036fd2	0.12835625
49	0xbe2fb2ff	-0.17158125
50	0xbe83b2cd	-0.25722352
51	0x3de73a68	0.11290437
52	0x3e2d54f3	0.16926937
53	0x3e66a343	0.22523217
54	0xbe22eeb9	-0.15911378
55	0x3c8bb7c1	0.017055394
56	0xbdb4cced	-0.08828149
57	0xbe9c7b9e	-0.30563062
58	0xbc3aa5a5	-0.011392032
59	0xbeadd18a	-0.33948928
60	0x3db11330	0.08646238
61	0xbdd9d072	-0.10635461
62	0xbe55ff62	-0.20898202
63	0xbedef1c1	-0.4354382
64	0x3d3c1d76	0.045926534
65	0xbd4fd11d	-0.050736535
66	0xbed2fd1d	-0.41208735
67	0xbe54cd83	-0.20781521
68	0x3c4da389	0.012551197
69	0x3e8bb6b2	0.27287823
70	0x3e0dd776	0.13851723
71	0xbde40be7	-0.11135083
72	0x3dbae1fa	0.09125133
73	0x3dffab0b	0.12483796
74	0xbf2bb7ab	-0.6707713
75	0xbd5caa68	-0.05387345
76	0xbebe9731	-0.37224725
77	0xbea3b66d	-0.31975117
78	0x3dcae928	0.09907752
79	0xbeee8cdc	-0.46591842
80	0xbedc4abc	-0.43025768
81	0xbed63287	-0.41835424
82	0xbe8f1975	-0.2794911
83	0xbe7394e8	-0.23787272
84	0xbe161097	-0.14654766
85	0xbe6009fc	-0.21878809
86	0xbe509107	-0.20367824
87	0x3cd42af3	0.025899386
88	0xbd901a5a	-0.07036276
89	0x3e340f3d	0.17583938
90	0x3ea51b64	0.3224746
91	0x3ddc97ca	0.10771139
92	0x3da38733	0.079847716
93	0xbd954ec9	-0.07290418
94	0x3f4dca77	0.8038706
95	0xbce637ba	-0.028102744
96	0x3db336b9	0.08750672
97	0xbe559302	-0.2085686
98	0xbe0e5bb8	-0.13902175
99	0xbdad2c95	-0.08455769
100	0x3e8a9941	0.27070048
101	0x3ef56730	0.47930288
102	0xbd7c8d67	-0.06165829
103	0x3e2258b2	0.15854147
104	0xbeb6a90f	-0.35675856
105	0x3e5030ea	0.20331159
106	0xbcca6da3	-0.024710482
107	0xbe2043a9	-0.1565081
108	0xbe8cd4f9	-0.27506235
109	0xbd9df289	-0.077122755
110	0x3f6fc908	0.93666124
111	0x3e65303e	0.22381684
112	0xbe33566f	-0.1751344
113	0xbd526b90	-0.05137211
114	0x3d810507	0.06299787
115	0xbdc5da55	-0.09660784
116	0xbe2aac57	-0.16667305
117	0xbd03c5ed	-0.03217118
118	0xbe4cf638	-0.200158
119	0xbe0c3b39	-0.13694467
120	0x3e278bb3	0.16361885
121	0xbe8390f0	-0.25696516
122	0x3d90911e	0.07058929
123	0xbe67a5dc	-0.22621864
124	0xbdb67fb0	-0.08911073
125	0x3e04aca0	0.12956476
126	0x3e742cd2	0.23845223
127	0x3dd6686d	0.104691364
128	0x3d0f2e5d	0.034956325
129	0x3e42bd73	0.19017582
130	0xbdb07097	-0.08615225
131	0x3db21ac4	0.086965114
132	0xbe893fd5	-0.26806512
133	0x3dbb257a	0.091380075
134	0xbe5b2445	-0.21400554
135	0xbede28db	-0.43390545
136	0xbe0090b8	-0.12555206
137	0xbd248f11	-0.0401755
138	0xbe54c2b3	-0.20777397
139	0xbcbed30c	-0.023293994
140	0xbdf608d8	-0.120134056
141	0xbd68203d	-0.05667137
142	0xbe44c099	-0.19214095
143	0xbae83efe	-0.0017718968
144	0x3dc40534	0.09571305
145	0x3f10a98b	0.565087
146	0x3dd165f6	0.10224526
147	0xbe06460b	-0.13112657
148	0xbe1c9c8b	-0.15294091
149	0xbdfbfbb6	-0.123038694
150	0x3ea619a6	0.32441443
151	0x3e4e0164	0.20117718
152	0x3dff2c8d	0.12459669
153	0x3d979875	0.07402126
154	0x3e871c3d	0.26388732
155	0x3dc6b1d6	0.09701888
156	0xbe739a5e	-0.23789355
157	0xbe13fad2	-0.14451149
158	0x3dec1ae6	0.11528568
159	0x3d5ac5fe	0.053411476
160	0xbe8b23dd	-0.271758
161	0xbdca00ba	-0.0986342
162	0x3e363d79	0.17796887
163	0x3efd1a22	0.49434
164	0xbe9def69	-0.30846718
165	0xbcc55333	-0.024087524
166	0xbe89fb38	-0.26949477
167	0x3ebc18f7	0.36737797
168	0xbeba7be7	-0.36422655
169	0x3f2a86f2	0.6661216
170	0x3e190880	0.14944649
171	0x3e74d042	0.23907569
172	0x3e31339c	0.17304844
173	0x3d28cb61	0.041209582
174	0x3c842754	0.016132034
175	0x3f0148e3	0.5050184
176	0x3e129cfd	0.14317699
177	0x3def914b	0.11697634
178	0x3e86a721	0.26299384
179	0xbdde4bfe	-0.10854338
180	0xbad6d15d	-0.0016389299
181	0x3cb86f0f	0.022513894
182	0xbda26c6d	-0.07930837
183	0xbe8a4cf7	-0.27011845
184	0xbe0d489b	-0.13797228
185	0xbd4015c0	-0.046895742
186	0x3dfc85ec	0.12330231
187	0x3e13094e	0.14359018
188	0xbe52ee8a	-0.20598808
189	0xbe5391d6	-0.20661101
190	0x3d6cf23f	0.05784821
191	0x3e6ae1eb	0.22937743
192	0xbd99cb4e	-0.075094804
193	0xbdd33bc2	-0.10314132
194	0x3e4682fd	0.19385906
195	0x3e52a0d8	0.2056917
196	0x3dbbdd73	0.091730975
197	0xbdc649ab	-0.0968202
198	0xbe56b625	-0.2096792
199	0xbdca0567	-0.09864312
200	0xbdea9fd1	-0.11456264
201	0xbe6f5ae8	-0.23374522
202	0x3f55317c	0.8327863
203	0xbe993290	-0.2992139
204	0x3e65a14b	0.2242481
205	0x3cd7b6b3	0.026332235
206	0xbe25fedf	-0.16210507
207	0x3e34c4a1	0.17653133
208	0x3e958f37	0.29210827
209	0x3e5e262a	0.21694246
210	0xbe54bf81	-0.20776178
211	0xbe1253a5	-0.1428972
212	0xbdc8f023	-0.098114274
213	0xbe8daca9	-0.27670792
214	0xbdb30895	-0.08741871
215	0xbeb4f476	-0.3534276
216	0xbd9e93b3	-0.07743015
217	0xbe1c9a11	-0.15293147
218	0x3e2eb4e2	0.17061189
219	0xbe3f1670	-0.18660903
220	0xbe9c21cf	-0.30494544
221	0x3e95561d	0.29167262
222	0xbf47ba93	-0.78019065
223	0x3dc0af44	0.09408429
224	0x3e1b1da2	0.15148023
225	0x3df8322e	0.12118946
226	0xbde4dd5d	-0.11175034
227	0x3dde4b52	0.1085421
228	0xbe46bebf	-0.19408701
229	0x3ebe76d7	0.37200043
230	0x3debe337	0.11517947
231	0xbe088fdd	-0.1333613
232	0x3ddffff3	0.1093749
233	0xbd9f20fd	-0.07769964
234	0xbe4e6d27	-0.20158826
235	0xbb86241c	-0.00409366
236	0xbe147227	-0.1449667
237	0xbe1705bd	-0.14748283
238	0xbf22af60	-0.6354885
239	0x3da0804a	0.07836969
240	0x3e0fe944	0.14053828
241	0xbe2a7975	-0.16647895
242	0x3e1568c4	0.14590746
243	0xbd0cd738	-0.034384936
244	0xbd018caa	-0.03162829
245	0xbe48b419	-0.19599952
246	0x3e14ff0c	0.14550418
247	0x3de11a80	0.109913826
248	0x3e9f8d50	0.311625
249	0x3e769cef	0.24083303
250	0x3d7f2d95	0.06229933
251	0x3e20b5a5	0.15694292
252	0xbd481fc6	-0.048858427
253	0xbcdbb300	-0.026818752
254	0x3e87b89f	0.26508042
255	0x3e4f1541	0.20222951

fc.bias f4 [18]
0	0xbdbfdeb7	-0.09368651
1	0xbd80b814	-0.0628511
2	0xbd1c9173	-0.03822465
3	0xbd9825fa	-0.074291185
4	0xbd88dfe1	-0.066833265
5	0xbe0479b5	-0.12937053
6	0x3e4274ab	0.18989818
7	0x3df81318	0.12113017
8	0xbc56d6d2	-0.013112741
9	0xbdb21575	-0.08695499
10	0xbe05b30d	-0.13056584
11	0x3d111f86	0.035430454
12	0x3e669f3b	0.22521679
13	0xb9f1b410	-0.0004610126
14	0xbcefb805	-0.029262552
15	0xbcba2760	-0.022723854
16	0xbdfe8c00	-0.12429047
17	0x3c4abb12	0.012373703
