text_classify/logs/LSTM/LSTM_epoch_20_acc_0.7933.pth (torch, 395002 bytes, 6 tensors)

lstm.weight_ih_l0 f4 [512, 57]
0.0035007847 0.001955013 -0.24082427 -0.07450747 0.08379062 0.13644983 -0.011914359 -0.11444803
0.2670161 -0.0603656 0.1833217 0.12979576 0.024511205 -0.001094408 0.021616668 0.1717007
0.20232238 -0.15599807 -0.28776184 -0.17480515 0.3292383 0.46059495 -0.20408656 0.14691795
0.06571427 0.011255727 -0.05603326 0.0844157 0.12619752 -0.061103053 -0.05220582 0.03466512
0.20004824 0.07267586 -0.0062595857 0.17169118 -0.024942495 0.52702385 -0.08373045 0.0052786465
-0.054627288 0.29998013 -0.07528864 0.03710145 -0.08478663 -0.07871518 0.047044504 0.25025722
0.052080378 0.37266463 0.323241 0.14980902 -0.15839803 0.06340639 0.13437286 -0.07480319
0.036125854 -0.007393275 0.4231226 -0.09885314 0.52855486 0.2767631 0.35452706 -0.20663479
0.38204616 -0.33219874 -0.16712233 0.4270706 0.06655931 0.3516026 0.05746471 -0.46796864
-0.14796785 -0.35009065 0.1603014 0.30513644 0.11944638 0.1106519 -0.3981767 0.2297174
-0.025718046 0.4815268 -0.030491648 -0.046074037 0.19762298 -0.084532075 -0.018862639 0.10517158
-0.015940739 0.04531929 -0.123369314 0.44067314 0.064607956 0.11882974 0.009823271 0.004662949
0.008980438 0.059943017 -0.026531793 0.29521668 -0.14330602 -0.12147658 0.07076755 0.18182504
0.14418007 0.15689267 -0.03146539 0.031672258 -0.0036386463 0.053058144 0.07948841 -0.17426027
8.069882e-05 0.12906383 0.44882274 0.19426244 0.16371448 -0.22425319 0.1756986 0.090934955
-0.5172103 -0.15805633 -0.17929468 0.08421457 -0.047467656 0.19029243 0.12905614 -0.019649109
0.40059978 0.18197468 0.009534027 -0.35509673 -0.18212846 -0.04409985 0.09772371 0.13754414
-0.20550983 -0.12587196 -0.008171616 0.30445564 0.083478436 0.35092488 0.036050677 -0.00025814914
-0.14552067 0.09536405 0.19280064 0.16454193 0.13487697 0.10821136 -0.058186077 0.20936024
-0.027900808 0.05551634 0.4211468 -0.10177195 0.51195866 0.037973482 0.085114785 -0.01647443
0.31565115 0.045242716 0.16541755 0.35725576 0.30828503 0.27494666 -0.25923562 -0.08411632
0.0060600108 0.046086006 0.5159382 0.028034838 -0.04336793 -0.22255236 -0.28650078 -0.19921032
-0.09631086 0.104260735 0.010384071 0.019551925 -0.1145617 0.26166385 0.192766 -0.10635355
0.10386399 0.010130972 0.08475071 0.02306623 0.096973546 0.038838193 -0.031672474 0.32298896
0.18777573 0.1724578 -0.068432525 -0.15577345 0.026261577 -0.1416435 0.27167654 -0.1266175
-0.10584918 0.030399151 0.0153737245 -0.030345937 0.10878884 -0.028225897 0.121267326 0.3326752
0.20476331 0.130742 -0.11966638 0.015333184 0.028344909 -0.1025896 -0.14565997 0.061137218
-0.078802384 0.21016774 0.1303754 0.046139173 0.13336767 0.25231755 0.14574572 -0.051114544
-0.008411671 0.043069094 0.0227317 0.040080428 -0.25097862 0.43312827 0.14326699 0.059711885
0.13558763 -0.21605638 -0.11716356 -0.24698065 -0.16248871 0.07051534 0.11277285 0.16004534
0.31950024 0.26180774 -0.17969961 0.111287884 -0.051538486 0.015678706 -0.12815553 0.13864386
-0.29768398 0.14208478 0.19448616 0.2523238 0.094504565 0.20030722 -0.123540275 0.02245535
00000000: 6c6d 653b ad1f 003b a39a 76be 5f97 98bd
00000010: 6b9a ab3d 81b9 0b3e 7234 43bc bb63 eabd
00000020: 56b6 883e eb41 77bd afb8 3b3e 2ee9 043e
00000030: b9cb c83c 3d72 8fba 7015 b13c 4fd2 2f3e
00000040: 992d 4f3e f5bd 1fbe 8555 93be 1f00 33be
00000050: ec91 a83e 1ad3 eb3e 11fc 50be a971 163e
00000060: 3495 863d f169 383c 2283 65bd 23e2 ac3d
00000070: ec39 013e 3247 7abd c5d5 55bd 03fd 0d3d
00000080: 72d9 4c3e 15d7 943d 361d cdbb d0cf 2f3e
00000090: 3454 ccbc 09eb 063f df7a abbd 7ff8 ac3b
000000a0: ddc0 5fbd ff96 993e ee30 9abd b1f7 173d
000000b0: 9da4 adbd 6d35 a1bd bdb1 403d b721 803e
000000c0: 3c52 553d e6cd be3e d87f a53e 8967 193e
000000d0: 1833 22be 36db 813d 0a99 093e 6a32 99bd
000000e0: b4f8 133d 4943 f2bb 87a3 d83e 8473 cabd
000000f0: 5f4f 073f e5b3 8d3e 9284 b53e 1298 53be
00000100: 8e9b c33e f415 aabe 1e22 2bbe ffa8 da3e
00000110: 3f50 883d 4205 b43e 1e60 6b3d 9699 efbe
00000120: e284 17be 153f b3be 0d26 243e d83a 9c3e
00000130: 4ea0 f43d 779d e23d d1dd cbbe 0a3b 6b3e
00000140: a7ae d2bc ae8a f63e 9fc9 f9bc 21b8 3cbd
00000150: ae5d 4a3e 271f adbd d285 9abc 3364 d73d
00000160: 2796 82bc b8a0 393d 0da9 fcbd e99f e13e
00000170: 2d51 843d 025d f33d c9f1 203c a7cb 983b
00000180: b022 133c cf86 753d 3459 d9bc a426 973e
00000190: d0be 12be b7c8 f8bd 94ee 903d 5830 3a3e
000001a0: f1a3 133e 79a8 203e dae1 00bd c5ba 013d
000001b0: 5b76 6ebb 7f53 593d d2ca a23d 4971 32be
000001c0: d93c a938 4f29 043e 18cc e53e bcec 463e
000001d0: c5a4 273e a1a2 65be 55ea 333e 1b3c ba3d
000001e0: e567 04bf 85d9 21be 0699 37be b078 ac3d
000001f0: 726d 42bd 05dc 423e 4b27 043e 2bf7 a0bc
00000200: 6a1b cd3e 9257 3a3e 9c34 1c3c 3dcf b5be
00000210: e27f 3abe 0ba2 34bd 5e23 c83d 5fd8 0c3e
00000220: 2b71 52be 94e4 00be 3ee2 05bc 9ce1 9b3e
00000230: bef6 aa3d 6dac b33e e0a9 133d 3158 87b9
00000240: 5f03 15be 3a4e c33d 886d 453e ae7d 283e
00000250: 301d 0a3e eb9d dd3d 8654 6ebd 8862 563e
00000260: 3c90 e4bc 1a65 633d 8ea0 d73e d06d d0bd
00000270: b90f 033f 158a 1b3d a950 ae3d 62f5 86bc
00000280: 079d a13e 6d50 393d 3863 293e 3aea b63e
00000290: 89d7 9d3e cfc5 8c3e 88ba 84be 2d45 acbd
000002a0: 0e93 c63b aec4 3c3d 8714 043f 51a9 e53c
000002b0: 92a2 31bd c4e4 63be 3bb0 92be cafd 4bbe
000002c0: a13e c5bd a786 d53d f321 2a3c 5c2b a03c
000002d0: 539f eabd cef8 853e 7364 453e e4cf d9bd
000002e0: a5b6 d43d 60fc 253c c891 ad3d 64f5 bc3c
000002f0: 119a c63d cc14 1f3d ffba 01bd cf5e a53e
00000300: 4848 403e c798 303e 5a26 8cbd 1383 1fbe
00000310: 8522 d73c fe0a 11be 3019 8b3e 05a8 01be
00000320: 74c7 d8bd a407 f93c 13e2 7b3c 0b98 f8bc
00000330: afcc de3d ff39 e7bc 015b f83d 6754 aa3e
00000340: 79ad 513e 3be1 053e a613 f5bd 0938 7b3c
00000350: 9533 e83c 7f1a d2bd e327 15be 056b 7a3d
00000360: 2563 a1bd 3636 573e 2181 053e 6efc 3c3d
00000370: 8991 083e c42f 813e 5e3e 153e 7c5d 51bd
00000380: 1bd1 09bc 3869 303d d537 ba3c 602b 243d
00000390: 4580 80be fdc2 dd3e 95b4 123e 7394 743d
000003a0: 7cd7 0a3e e23d 5dbe 73f3 efbd 7fe8 7cbe
000003b0: 7163 26be 596a 903d 74f5 e63d ede2 233e
000003c0: 8995 a33e aa0b 863e 2d03 38be e7ea e33d
000003d0: 051a 53bd a170 803c 343b 03be a8f8 0d3e
000003e0: 096a 98be ac7e 113e 6127 473e 9630 813e
000003f0: 9c8b c13d 561d 4d3e af02 fdbd 48f4 b73c

lstm.weight_hh_l0 f4 [512, 128]
-0.08031912 0.06196412 0.11046263 0.0058939415 -0.08983574 0.012839629 -0.0050800117 -0.0844405
-0.09200543 -0.0031790426 -0.04294816 -0.010548102 0.040676035 -0.037117768 0.075638056 -0.044656847
-0.026930282 -0.06674887 -0.024968611 -0.090475895 0.094122164 0.11071062 -0.016859386 -0.049983263
-0.011763897 0.09708342 0.069788806 0.11025691 -0.072587505 -0.053338617 -0.05683475 -0.059748113
-0.037206262 -0.07641354 -0.10855997 0.008304968 0.100985594 0.08330063 0.07672126 0.007789656
0.11978557 0.053955678 0.13843358 -0.06387925 0.006047298 -0.039825812 -0.0017000637 0.09283342
0.00037870495 -0.100828774 -0.048487406 0.020642912 -0.047461916 0.0736369 0.05329719 0.09167663
0.061695565 0.05830797 -0.017477233 0.08218975 -0.11316197 -0.079674855 0.026381578 0.037324708
0.02724118 -0.032861635 -0.10841624 0.10107178 0.09590425 -0.055310514 -0.026109735 0.022318488
0.09397237 -0.031692978 0.08849818 0.027135193 -0.027697366 -0.039887447 -0.084971644 -0.0045611663
-0.022940515 0.09041641 0.0457286 0.041393183 0.059271004 -0.0037258398 0.021947833 0.0146639515
0.008258489 -0.02317708 0.08272114 -0.024198031 0.004427951 -0.055852998 -0.08030269 0.12284545
-0.0064463983 0.11339002 0.08989066 0.04217565 0.011691298 0.09553809 -0.0041790116 0.03417561
-0.026561396 -0.041972253 -0.07253446 -0.009327914 -0.042917475 -0.023842081 -0.058424417 0.09334852
0.01626692 -0.068644926 0.1037286 -0.03813834 0.011533788 -0.02588651 0.04368946 0.09344735
-0.06862194 0.07568862 0.0048887176 0.03903668 0.04307142 0.0019073039 -0.024745885 0.10230131
-0.0154853305 0.14879978 -0.03751638 -0.028763274 -0.071067065 -0.08269844 -0.04519329 -0.19803566
0.11679856 -0.11038198 -0.06996351 0.043286532 0.11354691 0.09291093 -0.04835018 0.10500596
0.051448315 0.11525405 0.04349456 -0.14081568 0.050529335 0.027225062 0.062917784 0.09616205
0.101362415 0.019649005 0.07102272 0.03424239 -0.12495575 0.0016736947 -0.08192451 -0.19625059
-0.021272318 -0.036841065 -0.092377126 0.08176885 -0.18338256 0.17278408 -0.11846772 -0.06241794
0.047209237 -0.1800191 -0.08951112 -0.060848817 0.05140872 0.038438518 0.072225876 -0.052901726
0.0984216 -0.0028451167 -0.12973839 0.0047528837 -0.13294627 0.050343096 0.16138546 0.1730369
0.09516971 0.022423683 0.114661306 0.07619717 -0.06884214 0.15600964 0.0049352157 0.010081119
0.016722294 -0.031651873 -0.19482794 0.15055774 0.04630864 -0.08712801 0.008481713 0.2442054
0.035973694 0.02287915 -0.16000971 -0.038494237 0.01692127 0.13311267 -0.112531096 -0.07291614
0.11347937 0.025974264 0.113242246 0.06852748 -0.20576434 -0.17449561 -0.10459292 -0.1353882
-0.17692202 -0.011097944 0.11601596 0.11557554 0.09629393 0.15112978 0.09433796 9.110275e-05
-0.016366376 0.15365215 0.047192764 0.04167893 -0.10995416 0.09246149 -0.0844962 0.092215955
-0.03513759 0.16841613 -0.098579355 -0.052807607 0.1094461 -0.15587391 0.24914227 0.087951094
0.08412746 -0.13822122 0.10681603 0.062207002 -0.017834438 -0.097014904 -0.07883592 0.12840144
0.06634507 0.085338905 0.0054238415 0.04921173 0.0027867684 -0.040889878 -0.13198234 0.044833474
00000000: 5a7e a4bd 17ce 7d3d 3b3a e23d f721 c13b
00000010: cdfb b7bd 4f5d 523c 3a76 a6bb 24ef acbd
00000020: 586d bcbd 7c57 50bb 69ea 2fbd f2d1 2cbc
00000030: ea9b 263d cd08 18bd 20e8 9a3d 19ea 36bd
00000040: e59c dcbc a2b3 88bd f98a ccbc 6d4b b9bd
00000050: 1fc3 c03d 40bc e23d b21c 8abc 40bb 4cbd
00000060: 5cbd 40bc acd3 c63d 6fed 8e3d 60ce e13d
00000070: c2a8 94bd 9879 5abd 8ecb 68bd 70ba 74bd
00000080: 9865 18bd b47e 9cbd b154 debd 8f11 083c
00000090: 89d1 ce3d 8599 aa3d 0920 9d3d 5f40 ff3b
000000a0: 2352 f53d a100 5d3d 88c1 0d3e 20d3 82bd
000000b0: 6a28 c63b 6420 23bd acd4 deba 731f be3d
000000c0: eb8c c639 517f cebd bb9a 46bd 531b a93c
000000d0: 6d67 42bd f1ce 963d 284e 5a3d f5c0 bb3d
000000e0: 7db4 7c3d 57d4 6e3d 6a2c 8fbc 1a53 a83d
000000f0: 77c1 e7bd 922c a3bd 2e1e d83c cbe1 183d
00000100: e528 df3c ec99 06bd 5509 debd b9fe ce3d
00000110: 7369 c43d 478d 62bd 15e4 d5bc 43d5 b63c
00000120: 9674 c03d 7fd0 01bd 893e b53d a04a de3c
00000130: 96e5 e2bc 0561 23bd 9d05 aebd d675 95bb
00000140: bfed bbbc 3d2c b93d ea4d 3b3d e68b 293d
00000150: 27c6 723d 382d 74bb f1cb b33c 1241 703c
00000160: 9d4e 073c dcdd bdbc b369 a93d f33a c6bc
00000170: 5818 913b 1dc6 64bd bd75 a4bd 6596 fb3d
00000180: 4f3c d3bb 0739 e83d 9818 b83d 60c0 2c3d
00000190: dc8c 3f3c 79a9 c33d 17f0 88bb b9fb 0b3d
000001a0: 4997 d9bc 19eb 2bbd f28c 94bd 1bd4 18bc
000001b0: 3cca 2fbd 7850 c3bc 714e 6fbd 822d bf3d
000001c0: 3442 853c b695 8cbd a96f d43d f336 1cbd
000001d0: 37f8 3c3c f20f d4bc b8f3 323d 5361 bf3d
000001e0: a989 8cbd a302 9b3d 8931 a03b ede4 1f3d
000001f0: a86b 303d 80fe f93a e2b7 cabc 5983 d13d
00000200: 2fb6 7dbc f85e 183e c7aa 19bd f5a0 ebbc
00000210: 9c8b 91bd cd5d a9bd 991c 39bd dcc9 4abe
00000220: 1534 ef3d f30f e2bd 0749 8fbd 384d 313d
00000230: 488b e83d 1648 be3d d70a 46bd 5d0d d73d
00000240: 78bb 523d 510a ec3d 5a27 323d fc31 10be
00000250: d9f7 4e3d 1807 df3c 0adb 803d 9cf0 c43d
00000260: 1997 cf3d f3f6 a03c 5c74 913d c041 0c3d
00000270: cde8 ffbd e05f db3a 0ac8 a7bd eaf5 48be
00000280: 4943 aebc a8e6 16bd 3830 bdbd 6d76 a73d
00000290: a3c8 3bbe 4fee 303e 349f f2bd f4a9 7fbd
000002a0: 795e 413d ed56 38be 9b51 b7bd 9c3c 79bd
000002b0: f391 523d b571 1d3d 29eb 933d 7baf 58bd
000002c0: 4491 c93d 2375 3abb 24da 04be 14be 9b3b
000002d0: 1123 08be 9034 4e3d 3b42 253e 9630 313e
000002e0: 56e8 c23d dfb1 b73c 8cd3 ea3d 430d 9c3d
000002f0: 1cfd 8cbd fec0 1f3e 97b7 a13b 472b 253c
00000300: 31fd 883c 65a5 01bd fa80 47be cf2b 1a3e
00000310: 21ae 3d3d 2c70 b2bd e2f6 0a3c fb10 7a3e
00000320: 2759 133d 0e6d bb3c 96d9 23be 22ac 1dbd
00000330: 7a9e 8a3c b04e 083e b476 e6bd 0f55 95bd
00000340: df67 e83d fbc7 d43c 8deb e73d 2358 8c3d
00000350: e3b3 52be faae 32be d034 d6bd 34a3 0abe
00000360: 0c2b 35be 27d4 35bc c799 ed3d deb2 ec3d
00000370: c135 c53d c4c1 1a3e 4334 c13d 6b0e bf38
00000380: c712 86bc fd56 1d3e 334d 413d 87b7 2a3d
00000390: a62f e1bd 735c bd3d 580c adbd b8db bc3d
000003a0: 6fec 0fbd 4775 2c3e f9e3 c9bd ca4c 58bd
000003b0: 4725 e03d 699d 1fbe 271f 7f3e b41f b43d
000003c0: 054b ac3d dd89 0dbe 5dc2 da3d c5cc 7e3d
000003d0: 8719 92bc c0af c6bd ba74 a1bd ab7b 033e
000003e0: eddf 873d 2ac6 ae3d 7bba b13b 3d92 493d
000003f0: 37a2 363b 257c 27bd 6126 07be 4ea3 373d

lstm.bias_ih_l0 f4 [512]
0.06480478 0.19431588 0.28263584 0.04619798 0.14848533 0.093957365 0.06125685 0.074464686
0.35772297 -0.0045186826 0.017121676 0.07198196 0.17998655 0.053392682 0.11029725 0.07745348
0.11010888 0.15291692 0.1335241 0.08318058 0.07630115 -0.0040610866 0.29310787 -0.021445857
0.14690438 0.010363926 0.06839506 0.063489206 -0.018584896 0.06582207 0.044312466 0.116888605
0.038981777 0.31125465 0.16625103 0.1022229 0.12935002 0.23857976 0.13330105 0.112701565
0.16837788 0.22348759 0.245439 0.110285506 0.082486086 0.040361445 0.13090715 0.2754532
0.13834363 0.032203313 0.05524837 0.001059417 0.059228458 -0.002356127 0.16337997 0.12708662
0.02050799 0.042039346 0.13934547 0.08944394 0.16714899 0.19271603 0.17046149 0.2689385
0.0367675 -0.012633417 0.23656839 0.18148582 0.09819334 0.2053874 0.06567036 0.25155947
0.15696454 0.06287779 0.25210717 0.04549829 0.12882039 0.0032128138 0.15669405 0.1657631
0.33930266 0.068519466 0.08945064 0.112766065 0.22520818 0.016807955 0.107345685 0.088473156
0.107647166 -0.0056079174 0.0817821 0.16610591 0.191431 0.020050263 0.12886001 0.03365916
0.11053239 0.14736068 0.19066839 0.048898183 0.071657114 0.22387154 -0.023270601 0.024753809
0.070585564 0.02966552 0.0892338 0.101803884 0.23889263 0.11009747 0.15547265 0.17817105
0.047531165 0.24393758 0.10264628 0.043458357 0.10333822 0.047813803 0.10484948 0.12940887
0.06754674 0.08788739 0.08227265 -0.02308279 -0.012333583 -0.019182248 0.003519979 0.0014650349
0.14578496 -0.003473537 0.12385429 0.006692103 0.045202136 -0.020157106 0.041662365 0.026939081
-0.18769966 0.0777024 0.06162 0.010130473 -0.007873438 0.14860742 0.01762243 -0.019743657
0.11626343 0.022121184 0.016678987 0.12222339 0.07733533 0.08473653 0.14676112 0.078576855
-0.0352476 0.121957675 -0.025059702 0.095839016 0.13421416 -0.005737613 -0.011027639 0.093405016
0.010236282 0.068066984 0.050598696 0.0053914166 0.061750486 0.06325477 -0.00853657 0.12814948
0.0733122 0.11227769 0.015325466 0.06931901 0.08060808 0.05705811 0.013539152 0.059830073
-0.0051767193 0.086975925 -0.0027218845 -0.026056692 0.0002193689 0.086688414 0.220816 0.10913299
0.016858878 0.080033064 0.08739387 0.06403335 0.048538893 0.09107086 0.09930796 0.15347104
0.10759591 0.12402809 0.018569423 0.15558477 0.029082099 0.0984923 -0.014566905 0.12759736
0.03420733 -0.06247929 0.09491707 0.10845919 -0.010761427 -0.0076860706 0.109180465 -0.051132765
0.018984381 0.021056756 0.17339537 0.08938701 0.19690697 0.13110937 0.14374624 0.1357302
0.11120186 0.025796043 0.09249843 0.16331612 0.11166919 0.11799867 -0.014225076 0.035696313
0.10157191 0.049838558 0.1543386 0.016637499 0.22764294 0.10644037 0.013796233 0.06654388
0.047157336 0.062146503 -0.015698992 0.12468661 0.15515445 0.14074191 0.023170663 0.024628377
0.09626251 0.15708546 0.1283401 -0.053923696 -0.0215459 0.06741615 0.066132665 0.14933433
-0.002119647 0.110218726 -0.030137932 0.04154986 0.052267667 -0.031780526 0.08882678 0.009845117
00000000: 5eb8 843d befa 463e a5b5 903e 183a 3d3d
00000010: 8a0c 183e b86c c03d 76e8 7a3d f180 983d
00000020: 7727 b73e 7511 94bb c242 8c3c 476b 933d
00000030: 654e 383e 49b2 5a3d 86e3 e13d ee9f 9e3d
00000040: c480 e13d 4196 1c3e 8bba 083e 945a aa3d
00000050: c743 9c3d dd12 85bb 3c12 963e 39af afbc
00000060: 1a6e 163e 75cd 293c b612 8c3d a106 823d
00000070: 5a3f 98bc b9cd 863d fd80 353d 4b63 ef3d
00000080: 5bab 1f3d c55c 9f3e b63d 2a3e 3d5a d13d
00000090: 5574 043e 414e 743e 1280 083e 14d0 e63d
000000a0: 406b 2c3e eed9 643e 5c54 7b3e 5edd e13d
000000b0: 77ee a83d 0b52 253d 860c 063e 3408 8d3e
000000c0: f4a9 0d3e 9fe7 033d 1d4c 623d 23dc 8a3a
000000d0: 8a99 723d 4069 1abb 144d 273e ff22 023e
000000e0: 5f00 a83c 7331 2c3d 94b0 0e3e 622e b73d
000000f0: 1b29 2b3e 5a57 453e 758d 2e3e 4fb2 893e
00000100: 8599 163d 64fc 4ebc fc3e 723e 6bd7 393e
00000110: 9719 c93d 1351 523e 2f7e 863d 67cc 803e
00000120: 50bb 203e 12c6 803d 3114 813e 6a5c 3a3d
00000130: 7ee9 033e 128e 523b 6874 203e cdbd 293e
00000140: 14b9 ad3e ef53 8c3d e631 b73d e5f1 e63d
00000150: f99c 663e d6b0 893c 0ed8 db3d 6a31 b53d
00000160: 1e76 dc3d 9fc2 b7bb 607d a73d ab17 2a3e
00000170: 7d06 443e 7340 a43c e1f3 033e 30de 093d
00000180: ce5e e23d b8e5 163e 933e 433e 7649 483d
00000190: f7c0 923d 953e 653e fda1 bebc 80c8 ca3c
000001a0: 2a8f 903d 1b05 f33c 36c0 b63d 8e7e d03d
000001b0: 45a0 743e c87a e13d 3934 1f3e 7972 363e
000001c0: 0ab0 423d c6ca 793e 3638 d23d 6401 323d
000001d0: fda2 d33d 68d8 433d 53bb d63d c283 043e
000001e0: f255 8a3d 4efe b33d 907e a83d 1f18 bdbc
000001f0: cc12 4abc 1724 9dbc 73af 663b 6a06 c03a
00000200: a748 153e 48a4 63bb 51a7 fd3d 6e49 db3b
00000210: e025 393d 8420 a5bc 28a6 2a3d 59af dc3c
00000220: 5734 40be 7022 9f3d 4165 7c3d 49fa 253c
00000230: 98ff 00bc 8b2c 183e ea5c 903c 73bd a1bc
00000240: 851b ee3d 7c37 b53c 5fa2 883c 4250 fa3d
00000250: fc61 9e3d 598a ad3d 8c48 163e e7ec a03d
00000260: ca5f 10bd f2c4 f93d 014a cdbc 3f47 c43d
00000270: 706f 093e 9602 bcbb 45ad 34bc 214b bf3d
00000280: 14b6 273c b466 8b3d 9440 4f3d 7baa b03b
00000290: 14ee 7c3d b88b 813d f8dc 0bbc 9e39 033e
000002a0: b524 963d d8f1 e53d aa17 7b3c 20f7 8d3d
000002b0: d915 a53d c4b5 693d 52d3 5d3c 6110 753d
000002c0: 78a1 a9bb 6f20 b23d a561 32bb d874 d5bc
000002d0: 6406 6639 b289 b13d 971d 623e 1e81 df3d
000002e0: a11b 8a3c 60e8 a33d 8ffb b23d eb23 833d
000002f0: b8d0 463d 5c83 ba3d f961 cb3d 8327 1d3e
00000300: 3f5b dc3d 7002 fe3d e71e 983c 9d51 1f3e
00000310: 953d ee3c 55b6 c93d 07aa 6ebc e2a8 023e
00000320: fc1c 0c3d 49ea 7fbd e163 c23d da1f de3d
00000330: b250 30bc 6fdb fbbb 029a df3d 9770 51bd
00000340: 2285 9b3c 387f ac3c 8e8e 313e 8910 b73d
00000350: fba1 493e 8941 063e 3732 133e dcfc 0a3e
00000360: cdbd e33d 3952 d33c d16f bd3d 573c 273e
00000370: d1b2 e43d 49a9 f13d 4b10 69bc 4c36 123d
00000380: ef04 d03d 8423 4c3d f00a 1e3e 5d4b 883c
00000390: 3b1b 693e 69fd d93d 9809 623c 2848 883d
000003a0: 0d28 413d 558d 7e3d 2c9b 80bc b25b ff3d
000003b0: cfe0 1e3e a61e 103e 67d0 bd3c 73c1 c93c
000003c0: 4725 c53d 03db 203e 966b 033e 18df 5cbd
000003d0: 0781 b0bc 7a11 8a3d 9070 873d 19eb 183e
000003e0: c7e9 0abb 5bba e13d d3e3 f6bc 3030 2a3d
000003f0: 9f16 563d 4c2c 02bd d1ea b53d 6a4d 213c

lstm.bias_hh_l0 f4 [512]
0.12994087 0.08773964 0.24197857 0.046175297 -0.0021589138 0.017196355 0.14775348 0.017112799
0.41774964 0.09494859 0.0647537 0.14734998 0.023121824 0.16893972 0.2305258 0.09328169
0.060217023 0.14441456 0.09206342 0.13319798 0.1455165 0.035428148 0.20921494 0.060495775
-0.009222984 0.013388973 0.12114855 0.09111922 0.04036857 0.07973487 0.08493458 0.03394924
0.005731497 0.145527 0.19915824 0.042870488 0.16195902 0.106986254 0.09475618 0.1926967
0.14369678 0.18207835 0.15314548 0.06682997 0.1578947 0.13084349 0.014868662 0.41843027
0.035693843 0.065125145 0.05952242 0.0061192294 0.0016453409 0.03770451 0.25283068 0.033488177
0.04364544 0.14024937 0.17498153 0.052317042 0.12732387 0.18982193 0.2033059 0.28809452
0.119836316 0.045927804 0.09686821 0.08148164 0.02886223 0.3206218 0.11978146 0.16812354
0.06799337 0.10062816 0.28813156 0.16005705 0.113979004 0.11394167 0.18290523 0.06976298
0.34251806 0.034424134 0.10597027 0.11242692 0.20913956 0.14690207 -0.0009381521 0.09975375
-0.026552325 0.0039256997 0.106370784 0.11490267 0.15443948 0.06506374 0.09188088 0.03599173
0.15820512 0.14153616 0.21245027 0.17488302 0.11906214 0.22184493 0.053403944 0.114800684
-0.0018949023 0.08529163 0.06178781 0.10423041 0.14480746 0.08569893 0.15036938 0.15635417
0.16031587 0.2036616 0.034089237 0.08029811 0.10003423 0.17167543 -0.002729051 0.009271399
0.14578184 0.15584096 -0.024932712 0.058038205 4.25338e-05 -0.008249955 0.028237434 0.040490948
0.10206442 -0.033948366 0.17556357 0.099243306 0.13298896 -0.036368817 0.114324495 0.106705315
-0.06592537 0.10802404 0.019679395 0.08061944 -0.01716157 0.16719006 0.18329495 0.09640408
0.036471795 -0.031201506 0.13128641 0.12142921 0.0869704 0.06901072 0.20515327 0.1410962
0.06599648 0.066151164 0.13730475 0.09983284 -0.021244192 0.017305536 0.036050532 0.028499193
0.07952809 0.20523371 -0.0049635544 -0.040597316 0.16153656 0.07814146 0.05828213 0.026691118
0.17016496 0.054697655 0.046859857 0.01675835 0.02317128 0.12775365 0.096358806 0.09918474
0.016721997 0.07321141 0.037076022 0.0026857127 0.10048576 0.052669484 0.10531674 0.04824323
0.017259367 0.1190551 0.016653838 0.075680554 0.030097574 0.16895257 0.09324137 0.059202895
0.09658708 -0.011922965 0.062742375 0.08550082 0.13218953 0.21700561 0.108727 0.048931703
0.043020446 -0.023419186 -0.011998988 0.0018609564 -0.018981788 0.075153895 0.052569732 0.03528543
0.18714212 0.029367918 0.07611478 0.030518087 0.09998105 0.11782313 0.13767342 0.068907134
0.026908034 -0.020979162 0.09613772 0.2007904 0.114133365 -0.051325433 0.002336712 0.10135126
0.104985766 0.06500212 0.16207372 0.016475176 0.060808383 0.15073757 0.0035321582 0.022362664
0.041040096 0.049199775 0.06383754 0.11258306 0.12324056 0.010525716 0.15185863 0.0616364
0.1462387 0.1945169 0.14760311 0.114582166 0.10373444 0.13006268 -0.03925006 0.1298879
0.055559877 -0.012116598 0.026945818 0.0616782 0.09240002 0.10547687 -0.054285135 0.031054843
00000000: 380f 053e d7b0 b33d 3bc9 773e 4f22 3d3d
00000010: 907c 0dbb 5fdf 8c3c b04c 173e 2430 8c3c
00000020: 48e3 d53e 6874 c23d 969d 843d eae2 163e
00000030: fb69 bd3c 89fe 2c3e f50e 6c3e 780a bf3d
00000040: 20a6 763d 69e1 133e bf8b bc3d 0d65 083e
00000050: 4702 153e 1b1d 113d 713c 563e 6bca 773d
00000060: 001c 17bc 6c5d 5b3c bb1c f83d b79c ba3d
00000070: 8359 253d 094c a33d 2ef2 ad3d 5c0e 0b3d
00000080: 48cf bb3b 0805 153e 23f0 4b3e f798 2f3d
00000090: 96d8 253e 9c1b db3d 870f c23d 4952 453e
000000a0: 4025 133e bf72 3a3e 2bd2 1c3e 27de 883d
000000b0: 26af 213e d6fb 053e b09b 733c 7e3c d63e
000000c0: b533 123d 5560 853d c8cd 733d d183 c83b
000000d0: 7ba8 d73a 0b70 1a3d 0673 813e e62a 093d
000000e0: 90c5 323d 889d 0f3e 5c2e 333e 654a 563d
000000f0: 3061 023e ae60 423e 6c2f 503e 2081 933e
00000100: be6c f53d cb1e 3c3d d762 c63d d9df a63d
00000110: 7c70 ec3c 8a28 a43e fb4f f53d 9428 2c3e
00000120: 1c40 8b3d 2316 ce3d fb85 933e ffe5 233e
00000130: d36d e93d 405a e93d 824b 3b3e e5df 8e3d
00000140: 875e af3e 5200 0d3d f106 d93d 1640 e63d
00000150: ae28 563e 7f6d 163e 52ee 75ba b24b cc3d
00000160: 4384 d9bc 28a3 803b edd8 d93d 1752 eb3d
00000170: 6225 1e3e 2340 853d 0b2c bc3d 106c 133d
00000180: 8600 223e dbee 103e 908c 593e 8914 333e
00000190: dad6 f33d 512b 633e 18be 5a3d 9f1c eb3d
000001a0: 5f5e f8ba 61ad ae3d 3715 7d3d c176 d53d
000001b0: 6848 143e ec82 af3d 6efa 193e 4f1b 203e
000001c0: d829 243e ab8c 503e 28a1 0b3d 5673 a43d
000001d0: bfde cc3d afcb 2f3e e1d9 32bb 11e7 173c
000001e0: d647 153e c694 1f3e b03f ccbc 78b9 6d3d
000001f0: 5266 3238 d22a 07bc 3152 e73c d6d9 253d
00000200: 2707 d13d 710d 0bbd f0c6 333e 1340 cb3d
00000210: 422e 083e 78f7 14bd f622 ea3d 5188 da3d
00000220: e103 87bd b53b dd3d af36 a13c ce1b a53d
00000230: 6c96 8cbc df33 2b3e acb1 3b3e 816f c53d
00000240: 7363 153d 4d9a ffbc f26f 063e e1af f83d
00000250: 891d b23d 7e55 8d3d b313 523e 867b 103e
00000260: 2a29 873d 437a 873d 9e99 0c3e 2975 cc3d
00000270: 4d08 aebc 57c4 8d3c b9a9 133d 2477 e93c
00000280: a0df a23d c928 523e 50a5 a2bb 5f49 26bd
00000290: d769 253e a108 a03d 3eb9 6e3d 55a7 da3c
000002a0: b93f 2e3e a60a 603d 1ff0 3f3d cf48 893c
000002b0: b2d1 bd3c dad1 023e c457 c53d 5e21 cb3d
000002c0: 92fc 883c ddef 953d 07dd 173d c802 303b
000002d0: 7acb cd3d f5bb 573d 4eb0 d73d b19a 453d
000002e0: 8463 8d3c 29d3 f33d a16d 883c 68fe 9a3d
000002f0: 308f f63c e701 2d3e 55f5 be3d bc7e 723d
00000300: 72cf c53d 8a58 43bc 137f 803d 0e1b af3d
00000310: b15c 073e b836 5e3e 43ac de3d 9c6c 483d
00000320: 3536 303d 98d9 bfbc 6797 44bc 56eb f33a
00000330: b27f 9bbc 49ea 993d 5c53 573d 7487 103d
00000340: 2fa2 3f3e fd94 f03c 11e2 9b3d 1101 fa3c
00000350: ddc2 cc3d 414d f13d 43fa 0c3e 2f1f 8d3d
00000360: 3d6e dc3c 7edc abbc dae3 c43d 009c 4d3e
00000370: c1be e93d 9e3a 52bd 8623 193b 4091 cf3d
00000380: c702 d73d d51f 853d a7f6 253e f3f6 863c
00000390: 3612 793d f35a 1a3e c87b 673b e831 b73c
000003a0: a919 283d b485 493d 42bd 823d f391 e63d
000003b0: 8c65 fc3d 0d74 2c3c d480 1b3e 7376 7c3d
000003c0: 99bf 153e 702f 473e 4525 173e 0eaa ea3d
000003d0: b972 d43d 272f 053e acc4 20bd 5501 053e
000003e0: c192 633d b284 46bc 7abd dc3c 48a2 7c3d
000003f0: 393c bd3d 4204 d83d 175a 5ebd ba66 fe3c

fc.weight f4 [18, 128]
0.041229855 -0.38928568 0.2024139 0.17267993 0.120596215 0.10703177 -0.005193588 -0.06252276
0.6889796 0.0012522349 0.6035534 -0.12187264 0.06593393 0.17937753 -0.17190276 -0.13736321
0.15414774 0.15687124 -0.25864282 0.119579755 -0.2465992 0.041570455 -0.15189888 -0.16648863
-0.023662226 -0.04660443 -0.1461038 -0.15642896 0.22822797 -0.06766078 -0.2286609 0.3188665
0.11040639 -0.37127832 0.0016934898 0.04540207 -0.2734964 -0.23298725 0.34716395 -0.19187698
-0.10419175 -0.5784702 -0.24143915 -0.08031079 -0.10485743 -0.043920223 0.10852624 0.58476305
0.19036613 -0.12508123 -0.19520152 0.10518397 0.12506576 0.20572713 -0.16670397 0.023523372
-0.03332397 -0.2507909 -0.026832694 -0.29366317 0.015594159 -0.12101197 -0.19327615 -0.36223274
0.028861748 -0.042177964 -0.32397476 -0.17162137 0.021470733 0.22610246 0.10921517 0.021346018
0.1046963 0.13391514 -0.553025 -0.015309869 -0.2939914 -0.28314528 0.099478535 -0.32676983
-0.36875975 -0.36208057 -0.20164783 -0.22246906 -0.12077546 -0.17269498 -0.13707869 0.07197381
-0.046020135 0.11331274 0.25649297 0.065870516 0.06300551 -0.05465514 0.69607586 -0.025132636
0.07225269 -0.1751197 -0.13472754 -0.09424844 0.20937228 0.3792494 -0.051835187 0.13093305
-0.33867842 0.17390765 -0.03648742 -0.12330259 -0.19741067 -0.0914033 0.7415737 0.17366366
-0.17594075 0.017035665 0.022028206 -0.07940742 -0.15378651 -0.010993041 -0.14630364 -0.15831211
0.10311002 -0.22917669 0.05602289 -0.13863291 -0.02985367 0.11641025 0.15202476 0.10267505
0.08059099 0.18583275 -0.05269015 0.08636369 -0.21436837 0.0710716 -0.16164629 -0.3798282
-0.09966775 -0.008691567 -0.18298589 -0.046980754 -0.1027882 -0.013739283 -0.14150134 0.012405267
0.082642704 0.3220132 0.10034388 -0.108859494 -0.084367625 -0.115499154 0.23050772 0.16254734
0.12022297 0.08627441 0.2262611 0.054795578 -0.22222318 -0.12165155 0.06678526 0.0094526345
-0.24032298 -0.087917075 0.1276043 0.34400347 -0.26724973 -0.018844783 -0.2504088 0.24655859
-0.21499197 0.6076593 0.06624525 0.18927833 0.12342307 0.03876043 0.002676961 0.41179165
0.13272573 0.12780583 0.22090134 -0.098345146 -0.0076746163 0.017603705 -0.08683578 -0.23397428
-0.11282169 -0.049097154 0.12084322 0.120355 -0.11597306 -0.13026749 0.047391057 0.17605852
-0.05667615 -0.05078029 0.10808017 0.1417512 0.07190306 -0.04491929 -0.17678116 -0.13888597
-0.094288625 -0.15840097 0.6856339 -0.24483879 0.16073039 0.03252788 -0.13081008 0.15471391
0.25148085 0.19032276 -0.18064749 -0.13110021 -0.05643012 -0.21509935 -0.068901464 -0.25296816
-0.06492055 -0.13684924 0.1297359 -0.1609168 -0.24295561 0.20063823 -0.6308447 0.06537558
0.1285315 0.15515056 -0.13145906 0.066411756 -0.19566076 0.19243838 0.10468103 -0.121935494
0.11417927 -0.07838722 -0.18047708 0.00055703474 -0.1070692 -0.12277099 -0.60834736 0.08633256
0.12169399 -0.12272196 0.075672604 0.009578056 -0.033656243 -0.18795986 0.08107839 0.089142144
0.17885731 0.22023493 0.049801994 0.08484126 -0.064747825 -0.009698059 0.22756143 0.15077595
00000000: a3e0 283d 7450 c7be 9745 4f3e 02d3 303e
00000010: 26fb f63d 7933 db3d f92e aabb ef0b 80bd
00000020: f860 303f 0822 a43a 7a82 1a3f 5d98 f9bd
00000030: 5e08 873d beae 373e 4707 30be f1a8 0cbe
00000040: e8d8 1d3e dba2 203e d56c 84be 3be6 f43d
00000050: 8084 7cbe c845 2a3d 618b 1bbe ff7b 2abe
00000060: 49d7 c1bc 49e4 3ebd 3c9c 15be ea2e 20be
00000070: 98b4 693e bc91 8abd 1526 6abe 7842 a33e
00000080: bf1c e23d 3118 bebe 17f8 dd3a 85f7 393d
00000090: b807 8cbe 3694 6ebe 79bf b13e 667b 44be
000000a0: 7c62 d5bd 9f16 14bf d33b 77be fc79 a4bd
000000b0: 7ebf d6bd b1e5 33bd 0143 de3d 08b3 153f
000000c0: 57ef 423e 4b15 00be e8e2 47be b16a d73d
000000d0: 3d11 003e 22aa 523e 72b4 2abe 16b4 c03c
000000e0: b77e 08bd aa67 80be 3dd0 dbbc 055b 96be
000000f0: a57e 7f3c 20d5 f7bd 2fea 45be 9276 b9be
00000100: 796f ec3c cdc2 2cbd 05e0 a5be 83bd 2fbe
00000110: 64e3 af3c 6787 673e 34ac df3d d8dd ae3c
00000120: 046b d63d 0d21 093e 0c93 0dbf 3fd6 7abc
00000130: 0a86 96be 6bf8 90be 67bb cb3d 604e a7be
00000140: 14ce bcbe a062 b9be c57c 4ebe eece 63be
00000150: 2059 f7bd f4d6 30be 5b5e 0cbe 0167 933d
00000160: 9c7f 3cbd 8310 e83d 0c53 833e 1fe7 863d
00000170: 0809 813d 11de 5fbd 0732 323f f5e2 cdbc
00000180: 38f9 933d 9452 33be 04f6 09be 5305 c1bd
00000190: b065 563e fa2c c23e 2251 54bd 5013 063e
000001a0: 4267 adbe d914 323e d573 15bd 1186 fcbd
000001b0: 0626 4abe a731 bbbd c6d7 3d3f e3d4 313e
000001c0: d029 34be 618e 8b3c 7f74 b43c 5ba0 a2bd
000001d0: 367a 1dbe 281c 34bc 9fd0 15be 921c 22be
000001e0: 592b d33d 4bad 6abe 4278 653d c9f5 0dbe
000001f0: af8f f4bc 7f68 ee3d 61ac 1b3e 4c47 d23d
00000200: e40c a53d f14a 3e3e a0d1 57bd 72df b03d
00000210: 6283 5bbe fd8d 913d 9b86 25be d878 c2be
00000220: 9b1e ccbd 1367 0ebc a760 3bbe e46e 40bd
00000230: 9f82 d2bd bb1a 61bc bae5 10be 763f 4b3c
00000240: 9440 a93d eade a43e 1881 cd3d baf1 debd
00000250: efc8 acbd d28a ecbd 370a 6c3e cf72 263e
00000260: 7637 f63d a3b0 b03d fdb0 673e 5471 603d
00000270: 798e 63be 7324 f9bd b6c6 883d 39df 1a3c
00000280: 3a17 76be de0d b4bd b4aa 023e 3921 b03e
00000290: f5d4 88be 6060 9abc 9535 80be db79 7c3e
000002a0: db26 5cbe 8f8f 1b3f 97ab 873d 2ed2 413e
000002b0: 3cc5 fc3d 42c3 1e3d f46f 2f3b 5bd6 d23e
000002c0: 41e9 073e 88df 023e f633 623e 2e69 c9bd
000002d0: 597b fbbb a535 903c f5d6 b1bd f496 6fbe
000002e0: 0f0f e7bd 191a 49bd a67c f73d af7c f63d
000002f0: 4983 edbd d764 05be 201d 423d af48 343e
00000300: 4025 68bd fefe 4fbd 2359 dd3d 3a27 113e
00000310: e941 933d 4afd 37bd 1f06 35be 2038 0ebe
00000320: 651a c1bd dd33 22be b485 2f3f 05b7 7abe
00000330: 8296 243e f43b 053d 14f3 05be 536d 1e3e
00000340: 19c2 803e f8e3 423e a8fb 38be 223f 06be
00000350: 4523 67bd 0143 5cbe 361c 8dbd 0b85 81be
00000360: 11f5 84bd 3522 0cbe 7dd9 043e 60c7 24be
00000370: 5bc9 78be 1c74 4d3e 0a7f 21bf a2e3 853d
00000380: c39d 033e cadf 1e3e 349d 06be e302 883d
00000390: 4b5b 48be 910e 453e 0263 d63d 51b9 f9bd
000003a0: d2d6 e93d 7b89 a0bd fcce 38be f805 123a
000003b0: 1947 dbbd 5b6f fbbd a7bc 1bbf 20cf b03d
000003c0: b33a f93d a755 fbbd 3dfa 9a3d 47ed 1c3c
000003d0: 21db 09bd 8d78 40be 6d0c a63d 2890 b63d
000003e0: 5f26 373e 4485 613e 2dfd 4b3d 41c1 ad3d
000003f0: 829a 84bd 9ce4 1ebc dd05 693e 0365 1a3e

fc.bias f4 [18]
-0.08878619 -0.06373088 0.013367148 -0.09493168 -0.033790633 -0.09870804 0.2359733 0.037581395
-0.000760756 -0.07773633 -0.12257912 -0.0050907694 0.16938637 -0.0008085727 -0.011403404 -0.0355931
-0.11383085 -0.0057574105
00000000: 89d5 b5bd 5685 82bd e201 5b3c 8a6b c2bd
00000010: 0c68 0abd 7127 cabd fca2 713e f3ee 193d
00000020: 796d 47ba 3a34 9fbd c30a fbbd 78d0 a6bb
00000030: 9f73 2d3e 65f6 53ba 58d5 3abc 12ca 11bd
00000040: 2620 e9bd a9a8 bcbb
