text_classify/logs/LSTM/LSTM_epoch_50_acc_0.8284.pth (torch, 395002 bytes, 6 tensors)

lstm.weight_ih_l0 f4 [512, 57]
-0.06924404 0.2432258 -0.07332091 0.121481135 0.21841942 0.2080888 0.021014463 -0.2801781
0.57031983 0.066134594 0.48622853 -0.054147832 0.08050757 0.054340757 0.12900646 0.4397732
0.41832173 -0.26408884 0.025484158 -0.5188496 0.30936322 0.3313323 -0.35260877 0.45722932
0.15173776 -0.11916325 -0.04328878 0.16208908 0.11053815 0.011267307 -0.11565187 0.090314515
0.32031524 0.0021488296 0.10375204 0.1278312 -0.09831897 0.6899315 -0.023086518 0.2265925
0.09871183 0.2733942 0.029709745 -0.045979284 -0.04043239 0.040763285 0.036686957 0.32308742
0.054528542 0.6152717 0.3733455 0.2322921 -0.5196587 0.062217824 0.14177497 -0.07340114
-0.19112493 0.124568045 0.20840164 0.13990912 0.64662904 0.16015948 0.51065445 -0.46964645
0.56970114 -0.3433411 -0.8284734 0.62932265 0.18390438 0.48974374 -0.13547441 -0.38410458
0.07531023 -0.12065779 0.085954905 0.5256343 0.21525979 0.2196767 -0.3282474 0.23870625
-0.0096955905 0.51074886 -0.051066414 -0.077761 0.28487492 -0.1821909 -0.03480473 0.070122875
0.016875615 0.04515695 -0.06815668 0.3733425 0.023650061 0.13924707 0.22107631 -0.026261114
0.18184538 0.039157122 -0.098037384 0.24726306 -0.1095466 -0.093428224 0.09536183 0.38412604
0.17687532 0.23844425 -0.012629574 -0.027883394 0.00329032 0.13506585 0.07799819 -0.21906482
7.918593e-05 0.3098583 0.46201497 0.30403373 0.23601842 -0.32033712 0.30888492 0.20276889
-0.65355176 -0.25876716 -0.4332351 0.02060766 -0.0073703765 0.2763804 0.27422303 -0.030123176
0.573774 0.2117177 -0.14156893 -0.38979307 0.00039721612 -0.04329226 -0.118095465 0.089075685
-0.38985625 -0.18316644 -0.3172546 0.51096576 0.08948074 0.40528816 0.07476537 -0.028001742
-0.16127127 0.14339283 0.18237725 0.19498457 0.18620507 0.10984191 -0.09236569 0.31306085
-0.019381357 0.04251257 0.42916065 -0.09143517 0.45386577 0.098316096 0.06623619 -0.009316796
0.38699618 0.061492197 0.10392268 0.46402046 0.42136067 0.1982866 -0.359651 -0.082539335
0.0062750187 0.045221724 0.54532784 0.0070841564 -0.47519994 -0.3602511 -0.2828191 -0.46351224
-0.30481482 0.37668264 0.22084175 -0.011510421 -0.35277736 0.25911868 -0.05160802 -0.4025941
0.3530016 0.111787766 -0.069880515 0.053556062 0.49780476 0.15871792 -0.004335125 0.48396933
0.12804829 0.1852834 0.24830844 -0.19556908 0.06514272 -0.14942512 0.37372768 -0.16439316
-0.094185404 -0.0010625579 0.02407879 -0.09546501 -0.040321108 -0.24002649 0.0631176 0.4516015
0.21907428 0.25000426 0.07757582 -0.016125385 0.07425597 -0.056368418 0.13477977 0.11580175
-0.13125247 0.3028753 0.070429735 0.11680956 0.16156632 0.13094252 0.2134343 0.0755706
-0.008254039 0.045509685 0.022305563 0.23529112 -0.30582154 0.4340057 0.47993177 0.19624177
-0.09279503 -0.2952048 -0.019327382 -0.49892518 -0.39745146 0.3268737 -0.062606156 -0.15545781
0.68968815 0.48511323 -0.42733148 0.08367798 0.12358456 -0.018217435 0.049758103 0.11423093
-0.14092176 0.18842621 0.24735126 0.68886715 0.3996905 0.5277055 -0.077157415 0.09431563
00000000: d2cf 8dbd 2f10 793e 4629 96bd 1acb f83d
00000010: 57a9 5f3e 3b15 553e 8626 ac3c 8173 8fbe
00000020: 7b00 123f 9371 873d f2f2 f83e 1eca 5dbd
00000030: 27e1 a43d 6a94 5e3d 451a 043e f429 e13e
00000040: 442e d63e a736 87be 27c4 d03c 54d3 04bf
00000050: db64 9e3e 63a4 a93e 2389 b4be f619 ea3e
00000060: 2561 1b3e dd0b f4bd 934f 31bd aefa 253e
00000070: d361 e23d 839a 383c e3da ecbd d1f6 b83d
00000080: 5c00 a43e 61d3 0c3b f37b d43d 2fe6 023e
00000090: 755b c9bd 5a9f 303f f01f bdbc dd07 683e
000000a0: 6e29 ca3d 53fa 8b3e da61 f33c c654 3cbd
000000b0: 6f9c 25bd 67f7 263d 1045 163d b76b a53e
000000c0: 5259 5f3d 7282 1d3f 2427 bf3e fbdd 6d3e
000000d0: 5a08 05bf 1ed8 7e3d 752d 113e 5653 96bd
000000e0: 41b6 43be 881d ff3d 3d67 553e 5644 0f3e
000000f0: 7b89 253f d900 243e 40ba 023f 8075 f0be
00000100: efd7 113f 68ca afbe d516 54bf 4a1b 213f
00000110: 6e51 3c3e b1bf fa3e ceb9 0abe 5ba9 c4be
00000120: 403c 9a3d 6e1b f7bd 2009 b03d f88f 063f
00000130: 106d 5c3e eef2 603e 0b10 a8be 696f 743e
00000140: 41da 1ebc 70c0 023f 042b 51bd 2941 9fbd
00000150: 20db 913e 4090 3abe 688f 0ebd 959c 8f3d
00000160: bb3e 8a3c 7ef6 383d bb95 8bbd c026 bf3e
00000170: c6bd c13c c996 0e3e d461 623e 8c21 d7bc
00000180: ad35 3a3e 3863 203d d3c7 c8bd 8732 7d3e
00000190: f859 e0bd 4c57 bfbd 104d c33d 2bac c43e
000001a0: ce1e 353e bb2a 743e 46ec 4ebc b76b e4bc
000001b0: 69a2 573b b44e 0a3e 84bd 9f3d 8752 60be
000001c0: 9f10 a638 bfa5 9e3e 3a8d ec3e 4faa 9b3e
000001d0: d0ae 713e 3a03 a4be 2a26 9e3e a6a2 4f3e
000001e0: 2b4f 27bf 217d 84be fed0 ddbe 65d1 a83c
000001f0: 3383 f1bb bb81 8d3e f666 8c3e e1c4 f6bc
00000200: dae2 123f 86cc 583e 72f7 10be f592 c7be
00000210: 7241 d039 3a53 31bd 09dc f1bd 506d b63d
00000220: 3d9b c7be fc8f 3bbe 326f a2be a7ce 023f
00000230: ae41 b73d ee81 cf3e 961e 993d e963 e5bc
00000240: 4c24 25be 92d5 123e 1ac1 3a3e 09aa 473e
00000250: 8bac 3e3e ccf4 e03d 392a bdbd 8349 a03e
00000260: a7c5 9ebc a921 2e3d f2ba db3e 5d42 bbbd
00000270: 1861 e83e f359 c93d d7a6 873d 7aa5 18bc
00000280: 5d24 c63e 3edf 7b3d 6ad5 d43d 1794 ed3e
00000290: 96bc d73e a40b 4b3e 2d24 b8be 620a a9bd
000002a0: ac9e cd3b 6a3a 393d 9b9a 0b3f 3622 e83b
000002b0: 684d f3be d572 b8be aacd 90be 7a51 edbe
000002c0: b010 9cbe 8cdc c03e 5724 623e 3496 3cbc
000002d0: 3c9f b4be 34ab 843e ee62 53bd d020 cebe
000002e0: a0bc b43e fcf0 e43d 841d 8fbd 9a5d 5b3d
000002f0: 44e0 fe3e f386 223e aa0d 8ebb d4ca f73e
00000300: 171f 033e eeba 3d3e 9144 7e3e 4343 48be
00000310: 8c69 853d e602 19be 3c59 bf3e ae56 28be
00000320: 47e4 c0bd 8745 8bba e240 c53c 2983 c3bd
00000330: bf27 25bd 81c9 75be cd43 813d 5038 e73e
00000340: 0255 603e 8f00 803e 12e0 9e3d 6219 84bc
00000350: 8413 983d 92e2 66bd b503 0a3e 7829 ed3d
00000360: 0c67 06be 7912 9b3e 773d 903d da39 ef3d
00000370: a471 253e cc15 063e 858e 5a3e c2c4 9a3d
00000380: f33b 07bc 5d68 3a3d 28ba b63c 28f0 703e
00000390: a494 9cbe ff35 de3e 9eb9 f53e 9af3 483e
000003a0: 520b bebd 1525 97be 7554 9ebc 1f73 ffbe
000003b0: c27e cbbe fd5b a73e a837 80bd 5530 1fbe
000003c0: 678f 303f c360 f83e 31cb dabe 5c5f ab3d
000003d0: e719 fd3d bb3c 95bc 27cf 4b3d e8f1 e93d
000003e0: cb4d 10be cdf2 403e a649 7d3e 9959 303f
000003f0: 3ca4 cc3e b517 073f b504 9ebd 8e28 c13d

lstm.weight_hh_l0 f4 [512, 128]
-0.10683396 0.16188233 0.088432275 -0.1753942 -0.27523503 -0.1015229 -0.08803533 -0.13597642
-0.32568198 -0.030708669 -0.022132268 -0.0068575996 0.07467425 0.03318485 -0.035630245 -0.09341074
-0.0008950375 -0.06771715 0.11086507 -0.15996312 0.17378305 0.15377322 0.14398488 -0.014717087
0.058089606 0.079171896 0.061863508 0.27869317 -0.089215346 -0.10977759 -0.04621008 -0.09552531
-0.03979995 -0.09075013 -0.040106945 0.11043929 0.10763372 0.17744468 0.04678749 -0.10271908
0.13424292 0.18568698 0.37494096 -0.050420515 0.007565923 0.030788012 0.10021389 0.20383295
-0.058625977 -0.12390019 -0.056957968 -0.0002883924 0.009931633 0.1541904 0.0688745 0.046923615
0.17188367 0.12369273 0.113989666 0.12140271 -0.20664835 -0.026275452 -0.04885462 0.1407137
-0.011058121 -0.12251628 -0.03518805 0.12708348 0.20022896 -0.04902184 -0.097762875 -0.055769857
0.08947278 0.002417104 0.12185658 0.053225752 0.033115916 -0.03903493 -0.23303168 0.069443986
-0.14607006 0.16990034 0.31299025 0.007964138 0.08596425 -0.07563338 -0.025286991 0.023726994
-0.060458135 -0.08492524 -0.0081748925 -0.024878915 0.014753707 -0.03948067 -0.18384421 0.2044668
0.07932195 0.13677947 0.004643039 -0.12235444 -0.117549665 0.18965308 -0.08451239 0.080415614
0.004213812 -0.0132208485 -0.124100044 -0.07740631 -0.0004772993 -0.038104758 0.04138275 0.077370726
0.0390291 -0.11560954 0.07704917 0.052189842 0.12693387 -0.06083451 0.092761844 0.15142475
-0.23076172 0.099454194 -0.052545834 0.15390618 0.061403822 -0.06401963 -0.23040834 0.14207223
-0.1534313 0.26805347 -0.18954408 -0.14045785 -0.12464352 -0.18455859 -0.11625605 -0.22639768
0.16671328 -0.23165788 0.014273371 0.011539586 0.279733 0.024884863 0.04808747 0.16615242
-0.007203423 0.017817102 0.16537273 -0.30801395 0.20645116 0.18672156 0.14699502 0.14796548
0.15822122 0.013739597 0.07010621 0.115737855 -0.1548787 -0.103624836 -0.20816213 -0.3633302
-0.022271503 -0.015385159 -0.33076388 -0.010405921 -0.11880156 0.23006836 -0.1376161 -0.14961311
-0.011648585 -0.5019887 -0.06687107 -0.06754364 0.06338197 0.05828293 0.25864834 0.08564972
0.16945536 0.010871968 -0.17210208 -0.06650857 -0.23573568 0.20296079 0.266265 0.37312445
0.18209538 0.14025639 0.13080738 0.1350293 -0.23578781 0.310816 -0.026242217 0.20376413
-0.094587564 -0.07351193 -0.4308876 0.1915851 0.14509535 -0.1557255 0.09344396 0.45827797
0.12528723 0.01095843 -0.3309139 -0.028712114 -0.070040986 0.1646945 -0.2809722 -0.2803613
0.069366336 0.093382165 0.3384112 0.20108058 -0.30544403 -0.21626069 -0.1311522 -0.14312908
-0.34067622 -0.019521402 0.22200504 0.110536635 0.1132299 0.16947037 0.5115512 0.082925454
-0.2719 0.13846652 0.13398917 0.18950856 -0.09906627 0.029158026 -0.24901822 0.28558728
-0.07496065 0.20444803 -0.15269734 -0.24079339 0.2935001 -0.23617764 0.65877205 0.21368045
0.21225591 -0.124150224 0.23839866 0.10122715 0.12810479 -0.1664006 -0.06491973 0.2746561
-0.054698247 0.10899529 0.06301489 0.1689385 0.06727679 -0.14591551 -0.42824244 0.06979093
00000000: c3cb dabd 7bc4 253e fb1b b53d 8a9a 33be
00000010: 9beb 8cbe 3deb cfbd de4b b4bd 673d 0bbe
00000020: cabf a6be bf90 fbbc bb4e b5bc b7b5 e0bb
00000030: d0ee 983d d6ec 073d 05f1 11bd 214e bfbd
00000040: f3a0 6aba 4aaf 8abd 3a0d e33d 5fcd 23be
00000050: 2ff4 313e ba76 1d3e c670 133e f01f 71bc
00000060: 5eef 6d3d e024 a23d 9764 7d3d dfb0 8e3e
00000070: 89b6 b6bd 13d3 e0bd c846 3dbd c6a2 c3bd
00000080: 4605 23bd 34db b9bd 2e47 24bd ff2d e23d
00000090: 116f dc3d 0fb4 353e 3da4 3f3d 625e d2bd
000000a0: fa76 093e ba24 3e3e 43f8 bf3e be85 4ebd
000000b0: 90eb f73b 2437 fc3c f13c cd3d 96b9 503e
000000c0: cb21 70bd 62bf fdbd c24c 69bd 5f33 97b9
000000d0: 4ab8 223c 17e4 1d3e 130e 8d3d fa32 403d
000000e0: 4602 303e 9d52 fd3d 6a73 e93d fca1 f83d
000000f0: a09b 53be 9e3f d7bc c81b 48bd 4117 103e
00000100: 1f2d 35bc d1e9 fabd 5821 10bd 2c22 023e
00000110: d208 4d3e 20cb 48bd e737 c8bd ef6e 64bd
00000120: 813d b73d 4768 1e3b f18f f93d 3f03 5a3d
00000130: 8ea4 073d 17e3 1fbd db9f 6ebe a638 8e3d
00000140: 6493 15be 5bfa 2d3e 4240 a03e 047c 023c
00000150: 060e b03d ace5 9abd aa26 cfbc 1d5f c23c
00000160: f3a2 77bd 49ed adbd fcef 05bc dece cbbc
00000170: 88b9 713c 7cb6 21bd a841 3cbe bf5f 513e
00000180: 8c73 a23d eb0f 0c3e a224 983b f794 fabd
00000190: e1bd f0bd 6b34 423e d514 adbd f1b0 a43d
000001a0: 0414 8a3b 429c 58bc 2a28 febd 3387 9ebd
000001b0: 073e fab9 bc13 1cbd f580 293d 8b74 9e3d
000001c0: fadc 1f3d b2c4 ecbd f5cb 9d3d 04c5 553d
000001d0: f4fa 013e 9b2d 79bd ecf9 bd3d 170f 1b3e
000001e0: cd4c 6cbe a4ae cb3d 4d3a 57bd 9599 1d3e
000001f0: 9382 7b3d b91c 83bd 2af0 6bbe 627b 113e
00000200: 181d 1dbe 4e3e 893e d817 42be 2fd4 0fbe
00000210: 1a45 ffbd edfc 3cbe a717 eebd cbd4 67be
00000220: e3b6 2a3e b937 6dbe dbda 693c 8810 3d3c
00000230: 2a39 8f3e 57db cb3c 5ef7 443d dc23 2a3e
00000240: b10a ecbb 2cf5 913c 7857 293e 01b4 9dbe
00000250: ef67 533e f033 3f3e dd85 163e 4384 173e
00000260: be04 223e 0c1c 613c d893 8f3d f807 ed3d
00000270: 8698 1ebe 4239 d4bd 7428 55be 6a06 babe
00000280: ba72 b6bc 0912 7cbc e259 a9be 997d 2abc
00000290: 3b4e f3bd 0a97 6b3e 3ceb 0cbe 2e34 19be
000002a0: b5d9 3ebc 5582 00bf b3f3 88bd 5254 8abd
000002b0: 68ce 813d 15ba 6e3d 8e6d 843e 1f69 af3d
000002c0: b585 2d3e 5720 323c 873b 30be a535 88bd
000002d0: b264 71be f4d4 4f3e e353 883e 2b0a bf3e
000002e0: 3677 3a3e 5f9f 0f3e 5ff2 053e 1f45 0a3e
000002f0: 5c72 71be 4623 9f3e ebf9 d6bc 8ba7 503e
00000300: 20b7 c1bd 6c8d 96bd 4d9d dcbe e22e 443e
00000310: e093 143e 8176 1fbe 8c5f bf3d 69a3 ea3e
00000320: 4c4b 003e fd8a 333c 8c6d a9be ab35 ebbc
00000330: a671 8fbd ada5 283e 97db 8fbe 848b 8fbe
00000340: f00f 8e3d 263f bf3d 3c44 ad3e 11e8 4d3e
00000350: 2963 9cbe 7173 5dbe c34c 06be 6e90 12be
00000360: 1d6d aebe 59eb 9fbc 4a55 633e 0861 e23d
00000370: 14e5 e73d a489 2d3e 05f5 023f d2d4 a93d
00000380: 7a36 8bbe 2bca 0d3e 7534 093e 880e 423e
00000390: 42e3 cabd d0dc ee3c a2fe 7ebe 7f38 923e
000003a0: f884 99bd d35a 513e b15c 1cbe 8b92 76be
000003b0: a545 963e 8dd8 71be 49a5 283f 0ccf 5a3e
000003c0: 9d59 593e 7942 febd c71e 743e 2e50 cf3d
000003d0: e72d 033e eb64 2abe a3f4 84bd b99f 8c3e
000003e0: 450b 60bd ec38 df3d f30d 813d 37fe 2c3e
000003f0: 6ac8 893d e06a 15be 9842 dbbe 8cee 8e3d

lstm.bias_ih_l0 f4 [512]
0.14943032 0.37275055 0.31410354 0.090059385 0.20008698 0.2570635 0.13599037 0.06968868
0.5420311 0.16523391 0.08406345 0.18533266 0.1975239 0.23126854 0.25412723 0.15993963
0.12621897 0.35561326 0.18803422 0.14230616 0.1627676 0.030776553 0.37847304 0.0075634867
0.17783521 0.11937031 0.09374364 0.36560383 0.009879598 0.13194679 0.13279162 0.2184854
0.10134595 0.38488638 0.32162586 0.19130339 0.11276732 0.3572544 0.16182962 0.26346412
0.2747818 0.2581959 0.3916398 0.23015831 0.22459477 0.10060971 0.19059321 0.35435364
0.17725098 0.20159921 0.20281158 0.06929472 0.16384743 0.070171796 0.1852373 0.19854079
0.0910058 0.07484699 0.30891395 0.14801286 0.22649977 0.17246093 0.44650823 0.44852108
0.07780938 0.033413753 0.28184685 0.22474012 0.12065797 0.34164917 0.28405648 0.46020004
0.2272867 0.183066 0.31661922 0.104915775 0.18317327 0.0739528 0.20610026 0.38625756
0.36353832 0.14929605 0.12212583 0.17618325 0.24925758 0.01454204 0.20788747 0.15982331
0.13685487 0.02173869 0.18708515 0.25094795 0.2680301 0.087642334 0.25660896 0.072179966
0.12969103 0.3538132 0.23665874 0.119941294 0.20966524 0.48963058 -0.008466158 0.09804152
0.14035127 0.08309915 0.19455609 0.16124253 0.364547 0.15001789 0.18709771 0.2667363
0.10398832 0.3305037 0.21789993 0.14855213 0.1825175 0.09896554 0.2574959 0.21531518
0.18769972 0.2552526 0.14535806 0.027315695 0.04670854 0.027787877 0.062730044 0.08275555
0.20647366 -0.03825129 0.085916825 0.037462544 0.11004172 0.030155873 0.062837504 0.023842454
-0.266475 0.109280534 0.106198795 0.0837851 0.013177855 0.2225519 0.0058790613 -0.022463398
0.1429647 0.023286287 0.059812028 0.2088044 0.13428545 0.10514719 0.19297114 0.10037587
-0.023667872 0.15940511 -0.012788468 0.16963983 0.14381471 -0.011012687 0.018780952 0.12059133
0.007786418 0.06571732 0.068452254 0.01522234 0.024437822 0.12549293 0.0065296977 0.19500369
0.080237605 0.14271767 0.012372305 0.11260295 0.11047057 0.13036245 0.07198655 0.008340225
0.013327601 0.16077137 0.03145666 0.0014931764 0.032349102 0.14317448 0.23343873 0.12616089
0.043797612 0.110948965 0.14694624 0.13220601 0.088909015 0.05787609 0.10169839 0.2044127
0.14713195 0.14836884 -0.0037401526 0.14109766 0.05093425 0.099840865 0.0077451398 0.12379854
0.012509155 -0.034904584 0.087278165 0.11579429 -0.049074076 0.009997549 0.14812712 0.004357618
0.029244946 0.0575754 0.19590132 0.12941605 0.20353016 0.12111356 0.21711077 0.098176606
0.12867032 0.021699974 0.16707428 0.16218232 0.08909044 0.13314246 -0.012358542 0.050300706
0.12204441 0.172632 0.14256345 0.05526171 0.28310573 0.19251303 0.023560328 0.11968273
0.072289504 0.07174742 -0.00046714846 0.123215064 0.19725628 0.17164218 0.034811214 0.07263298
0.12169491 0.10886313 0.14495763 0.02510957 -0.005384907 0.092902906 0.054199167 0.23273465
0.042920433 0.13763084 -0.0076363455 0.05657517 0.09654553 -0.010043726 0.103534974 0.05266274
00000000: 4304 193e 29d9 be3e 2ed2 a03e 0e71 b83d
00000010: 9ae3 4c3e d49d 833e 0f41 0b3e f0b8 8e3d
00000020: 8dc2 0a3f 1433 293e 7529 ac3d d8c7 3d3e
00000030: b543 4a3e a9d1 6c3e f71c 823e 37c7 233e
00000040: 8c3f 013e f112 b63e 0b8c 403e b5b8 113e
00000050: 8dac 263e 1c1f fc3c 38c7 c13e 20d7 f73b
00000060: 6f1a 363e 6c78 f43d aafc bf3d 6d30 bb3e
00000070: 0ade 213c 0f1d 073e 87fa 073e a3ba 5f3e
00000080: 778e cf3d d40f c53e 25ac a43e 09e5 433e
00000090: 8df2 e63d 0cea b63e aab6 253e c5e4 863e
000000a0: 33b0 8c3e 4132 843e 0385 c83e 9fae 6b3e
000000b0: 2cfc 653e 770c ce3d de2a 433e d76d b53e
000000c0: 4881 353e 0670 4e3e d7ad 4f3e 64ea 8d3d
000000d0: 9fc7 273e 3bb6 8f3d d9ae 3d3e 474e 4b3e
000000e0: 4061 ba3d 6149 993d f829 9e3e af90 173e
000000f0: 8eef 673e 9999 303e ba9c e43e 8ea4 e53e
00000100: 865a 9f3d dcdc 083d 3b4e 903e 4622 663e
00000110: 871b f73d a4ec ae3e da6f 913e 579f eb3e
00000120: d8bd 683e a775 3b3e ea1b a23e 15de d63d
00000130: c691 3b3e 9174 973d f20b 533e 8dc3 c53e
00000140: b221 ba3e 10e1 183e 1b1d fa3d 6269 343e
00000150: 613d 7f3e bd41 6e3c 74e0 543e b9a8 233e
00000160: af23 0c3e 5615 b23c 4093 3f3e 407c 803e
00000170: 3e3b 893e d37d b33d 4062 833e 17d3 933d
00000180: bacd 043e 0127 b53e ab56 723e c8a3 f53d
00000190: 7cb2 563e dcb0 fa3e a4b5 0abc fec9 c83d
000001a0: 3eb8 0f3e e32f aa3d b639 473e c31c 253e
000001b0: e8a5 ba3e 4a9e 193e 8b96 3f3e a991 883e
000001c0: d4f7 d43d c837 a93e 2921 5f3e 0d1e 183e
000001d0: dee5 3a3e 72ae ca3d 81d6 833e 957b 5c3e
000001e0: 5b34 403e 78b0 823e bed8 143e 2ac5 df3c
000001f0: 7451 3f3d 67a3 e33c 9c78 803d be7b a93d
00000200: d56d 533e 62ad 1cbd 29f5 af3d 5372 193d
00000210: 8e5d e13d 7309 f73c f3b0 803d 4051 c33c
00000220: 696f 88be 79ce df3d c17e d93d 8697 ab3d
00000230: eee7 573c a5e4 633e 24a5 c03b 2905 b8bc
00000240: 5765 123e e2c2 be3c 75fd 743d d2d0 553e
00000250: 2082 093e 6957 d73d 3a9a 453e dd91 cd3d
00000260: 20e3 c1bc 183b 233e b986 51bc 10b6 2d3e
00000270: 2a44 133e 8f6e 34bc 83da 993c 96f8 f63d
00000280: 3525 ff3b cd96 863d b230 8c3d 1f67 793c
00000290: d431 c83c 3881 003e 13f7 d53b 0caf 473e
000002a0: 9d53 a43d 9524 123e 35b5 4a3c 609c e63d
000002b0: 653e e23d bc7d 053e af6d 933d 70a5 083c
000002c0: 035c 5a3c 40a1 243e b3d8 003d b0b6 c33a
000002d0: 7e80 043d 559c 123e 900a 6f3e 5230 013e
000002e0: 2065 333d 3639 e33d 1379 163e 0361 073e
000002f0: ee15 b63d 7b0f 6d3d 3f47 d03d 9051 513e
00000300: c2a9 163e 00ee 173e 591d 75bb e87b 103e
00000310: 6fa0 503d 5e79 cc3d f1ca fd3b 178a fd3d
00000320: 33f3 4c3c 1cf8 0ebd e5be b23d 8f25 ed3d
00000330: e601 49bd c2cc 233c a3ae 173e 59ca 8e3b
00000340: 1993 ef3c 2fd4 6b3d 5b9a 483e a485 043e
00000350: 366a 503e 630a f83d 4952 5e3e d110 c93d
00000360: 27c2 033e 25c4 b13c 8515 2b3e 1f13 263e
00000370: 0c75 b63d 7f56 083e 7b7b 4abc 1d08 4e3d
00000380: 6bf2 f93d 71c6 303e 27fc 113e 1a5a 623d
00000390: 3cf3 903e 2322 453e 9701 c13c 381c f53d
000003a0: 850c 943d 50f0 923d 9beb f4b9 2e58 fc3d
000003b0: 8dfd 493e f8c2 2f3e 3496 0e3d 9ac0 943d
000003c0: 2e3b f93d a2f3 de3d c66f 143e 96b2 cd3c
000003d0: e073 b0bb e143 be3d f2ff 5d3d fe51 6e3e
000003e0: 56cd 2f3d 19ef 0c3e 4f3a fabb 5ebb 673d
000003f0: aab9 c53d 718e 24bc 250a d43d e3b4 573d

lstm.bias_hh_l0 f4 [512]
0.21334518 0.26817262 0.2742094 0.09003711 0.052266706 0.18174125 0.22086562 0.013412043
0.6009326 0.26283684 0.1308025 0.25928774 0.043599617 0.34464955 0.37210053 0.17547116
0.07726245 0.3472692 0.14735149 0.19138591 0.23068535 0.069525436 0.29615423 0.087968834
0.024634551 0.12233868 0.14550844 0.39271668 0.06772768 0.14559856 0.17265242 0.13710093
0.068719335 0.22226377 0.35391596 0.13306388 0.14476563 0.22812732 0.12400759 0.34196022
0.25056347 0.21756281 0.30107775 0.18751796 0.2985897 0.1893956 0.076730914 0.49465102
0.076525554 0.23390375 0.20700541 0.07425957 0.10734398 0.10948148 0.27301043 0.106697075
0.113709465 0.17121518 0.34388417 0.11158166 0.18742172 0.1696212 0.4787371 0.46731737
0.1593207 0.09087719 0.14476632 0.12661092 0.052626494 0.4547247 0.33715287 0.37832865
0.13998324 0.22010893 0.35196802 0.21732673 0.16861044 0.18260561 0.23181973 0.29205894
0.36669347 0.11583985 0.13833547 0.17585112 0.23349066 0.14219762 0.10163355 0.17089255
0.0051711835 0.031093543 0.21121226 0.20070462 0.23173209 0.13181162 0.22032325 0.07446872
0.17647009 0.348098 0.25803187 0.24356456 0.25618124 0.4876421 0.06677104 0.18640016
0.06922994 0.13768195 0.16762471 0.16362363 0.27222663 0.12607636 0.18209077 0.24532829
0.21465777 0.29098412 0.15062787 0.1847008 0.17927527 0.22050537 0.15193386 0.09743028
0.26446852 0.32193238 0.0401621 0.106915995 0.058852665 0.03851526 0.08698409 0.121049464
0.163573 -0.068154775 0.13665666 0.12827846 0.19618276 0.01424818 0.13413753 0.10211316
-0.14698428 0.13903354 0.06504449 0.15295269 0.0040638405 0.24078618 0.1684454 0.091506556
0.06466921 -0.02903687 0.17227077 0.20802455 0.14373988 0.089716256 0.2502684 0.16172329
0.07567808 0.10464425 0.14653142 0.17355825 -0.008729274 0.011598456 0.06497673 0.056902234
0.075779155 0.20031293 0.013931614 -0.029904183 0.12235342 0.14010066 0.07209584 0.09544723
0.17527409 0.08621697 0.043315515 0.06102785 0.054110494 0.19973335 0.15325356 0.046957202
0.034815744 0.14726476 0.0705084 0.029696755 0.1307361 0.10979327 0.1201045 0.0664127
0.04419057 0.14923954 0.0775329 0.14363511 0.07081354 0.13429809 0.095745474 0.11191215
0.13632916 0.014966387 0.0396045 0.07232783 0.15210886 0.2161322 0.12872711 0.046607807
0.021156965 0.0034230992 -0.017633347 0.0111944135 -0.057140354 0.09128413 0.09257763 0.089155555
0.19425043 0.06573073 0.10044477 0.07165056 0.1084209 0.10807601 0.21115184 0.03260644
0.045956437 -0.02419831 0.17064565 0.1989541 0.09150817 -0.033007152 0.0038927044 0.11472467
0.12539421 0.1875114 0.15015379 0.055102378 0.119399644 0.23597969 0.013488679 0.07632962
0.06628705 0.059043314 0.0775782 0.111338355 0.16594128 0.04386722 0.16108717 0.10894717
0.17073412 0.1455927 0.16385949 0.19045629 0.11754645 0.15437531 -0.049207848 0.21365236
0.09951876 0.017588833 0.04837722 0.07632627 0.13592568 0.124640465 -0.03689402 0.07347491
00000000: 2977 5a3e ec4d 893e 2d65 8c3e 6065 b83d
00000010: 9d15 563d 611a 3a3e 992a 623e 30be 5b3c
00000020: b8d6 193f 8d92 863e 17f1 053e 5dc1 843e
00000030: 8395 323d e875 b03e f683 be3e b6ae 333e
00000040: c63b 9e3d 45cd b13e 4fe3 163e abfa 433e
00000050: c838 6c3e 5a63 8e3d 87a1 973e 0129 b43d
00000060: 66ce c93c b48c fa3d 2a00 153e 2912 c93e
00000070: cfb4 8a3d ca17 153e cccb 303e 3064 0c3e
00000080: b9bc 8c3d 1d99 633e 7934 b53e e641 083e
00000090: 713d 143e 359a 693e b1f7 fd3d 6915 af3e
000000a0: db49 803e c9c8 5e3e dd26 9a3e b504 403e
000000b0: c0e0 983e ecf0 413e 1925 9d3d e642 fd3e
000000c0: 6eb9 9c3d 7784 6f3e 3af9 533e 6715 983d
000000d0: 29d7 db3d d437 e03d 06c8 8b3e ff83 da3d
000000e0: 82e0 e83d 0853 2f3e 9611 b03e ed84 e43d
000000f0: 7beb 3f3e 2eb1 2d3e 071d f53e 3944 ef3e
00000100: f724 233e d21d ba3d 9f3d 143e 4ba6 013e
00000110: e18e 573d add1 e83e 4d9f ac3e 4bb4 c13e
00000120: c457 0f3e 3c64 613e 2735 b43e e68a 5e3e
00000130: 37a8 2c3e f7fc 3a3e 2762 6d3e c088 953e
00000140: 3fbf bb3e 713d ed3d d0a7 0d3e 5112 343e
00000150: 2d18 6f3e 419c 113e 4025 d03d 75fe 2e3e
00000160: 0873 a93b e3b7 fe3c 0748 583e 8385 4d3e
00000170: 2d4b 6d3e a0f9 063e 6b9c 613e 0e83 983d
00000180: 93b4 343e e739 b23e c11c 843e fd68 793e
00000190: 302a 833e 3aac f93e 41bf 883d afdf 3e3e
000001a0: 6dc8 8d3d 7ffc 0c3e d0a5 2b3e f48c 273e
000001b0: 4a61 8b3e 291a 013e 0176 3a3e 5737 7b3e
000001c0: 3fcf 5b3e dffb 943e 313e 1a3e 3522 3d3e
000001d0: f093 373e 29cc 613e 8d94 1b3e 8789 c73d
000001e0: 6b68 873e 52d4 a43e 0481 243d c6f6 da3d
000001f0: 7e0f 713d 2dc2 1d3d b724 b23d c8e8 f73d
00000200: ae7f 273e bb94 8bbd b9ef 0b3e 6e5b 033e
00000210: 22e4 483e 3371 693c 595b 093e b420 d13d
00000220: 0c83 16be cf5e 0e3e 0c36 853d a19f 1c3e
00000230: f729 853b a790 763e f37c 2c3e ca67 bb3d
00000240: 4a71 843d bbde edbc c067 303e 6304 553e
00000250: 8c30 133e 28bd b73d 2e23 803e ca9a 253e
00000260: 1cfd 9a3d b94f d63d 550c 163e 41b9 313e
00000270: 3b05 0fbc 7307 3e3c 8512 853d 5112 693d
00000280: 1a32 9b3d d51e 4d3e 6d41 643c 9ef9 f4bc
00000290: 6e94 fa3d 8c76 0f3e fca6 933d d679 c33d
000002a0: 0d7b 333e 8692 b03d 9c6b 313d 57f8 793d
000002b0: f7a2 5d3d e686 4c3e 80ee 1c3e 3256 403d
000002c0: f49a 0e3d 93cc 163e b566 903d 9c46 f33c
000002d0: afdf 053e 4bdb e03d 59f9 f53d 6203 883d
000002e0: 2c01 353d 40d2 183e 92c9 9e3d 1515 133e
000002f0: b006 913d 7085 093e 3416 c43d 3332 e53d
00000300: df99 0b3e 9435 753c 5438 223d 9d20 943d
00000310: 6dc2 1b3e c251 5d3e 0ad1 033e d4e7 3e3d
00000320: 5f51 ad3c 1356 603b cf73 90bc c668 373c
00000330: 010c 6abd 2df3 ba3d 5799 bd3d 3097 b63d
00000340: 96e9 463e d59d 863d fdb5 cd3d 87bd 923d
00000350: c70b de3d f556 dd3d 3038 583e 558e 053d
00000360: d13c 3c3d 893b c6bc bcbd 2e3e a0ba 4b3e
00000370: a368 bb3d 8232 07bd be1c 7f3b c5f4 ea3d
00000380: 5767 003e fd02 403e eac1 193e 08b3 613d
00000390: cd87 f43d a9a4 713e 9fff 5c3c b452 9c3d
000003a0: 81c1 873d 67d7 713d 52e1 9e3d 5d05 e43d
000003b0: 83ec 293e 1dae 333d 09f4 243e b21f df3d
000003c0: edd4 2e3e 4116 153e c8ca 273e f906 433e
000003d0: 31bc f03d 9014 1e3e 2b8e 49bd afc7 5a3e
000003e0: 7ed0 cb3d 7516 903c 3127 463d f350 9c3d
000003f0: 1a30 0b3e 8043 ff3d 2f1e 17bd 037a 963d

fc.weight f4 [18, 128]
0.22140844 -0.7149468 0.34197426 0.35805532 0.1694086 0.15172768 -0.008281207 -0.11043901
0.8653267 -0.040967245 0.71245515 -0.3486459 0.08942104 0.19677827 -0.22575355 -0.2952447
0.16752109 -0.0058575673 -0.3089664 0.14810097 -0.5261527 0.0024054167 -0.2802882 -0.2555482
-0.052842647 -0.022165002 -0.16524005 -0.42085373 0.35146555 -0.08978762 -0.29575506 0.44784948
0.1978126 -0.4636064 -0.27852345 0.14843296 -0.352826 -0.36747363 0.42297247 -0.30469286
-0.26008517 -0.72431386 -0.34336543 -0.17385529 -0.10380242 -0.06680138 0.1272177 0.6800626
0.084726065 -0.20315982 -0.29002365 0.12890218 0.1860549 0.2422856 -0.1559433 0.00063289056
-0.12269981 -0.33958417 0.0054103904 -0.36576664 0.08740937 -0.10527427 -0.22214147 -0.49055287
0.06350787 -0.057997864 -0.39193836 -0.2182086 0.019653404 0.27450106 0.1474498 -0.15623774
0.06765117 0.11738549 -0.73390806 -0.05311267 -0.40482098 -0.337814 0.088196725 -0.51186377
-0.45244664 -0.4462789 -0.30214646 -0.24126099 -0.16236633 -0.24676433 -0.24178486 0.0032436042
-0.114946656 0.22503917 0.36572677 0.14282025 0.084350534 -0.11728425 0.82496774 -0.031460915
0.074568905 -0.23113215 -0.13379386 -0.06066822 0.3211227 0.5267506 -0.07377273 0.19795667
-0.39971685 0.20992425 -0.017211484 -0.17733668 -0.28315812 -0.081758395 1.0343918 0.27573633
-0.15977627 -0.06783197 0.09524223 -0.13597733 -0.14007908 -0.04218605 -0.22677371 -0.12924632
0.19399798 -0.2680623 0.07488623 -0.23410052 -0.11285218 0.12931027 0.26197478 0.11465855
-0.012642838 0.20655365 -0.10796047 0.09714588 -0.28953928 0.13001409 -0.24488255 -0.45084685
-0.13239017 -0.091414414 -0.22664379 -0.026402546 -0.124964684 -0.073151745 -0.22897558 -0.0010728074
0.09654103 0.6569954 0.10214411 -0.13876423 -0.21198995 -0.1276595 0.34524226 0.20291089
0.13154711 0.065494046 0.28150338 0.11735866 -0.25163049 -0.16622834 0.1508638 0.07319638
-0.29417524 -0.09503838 0.1802461 0.57749045 -0.32169724 -0.017268231 -0.2857915 0.39426827
-0.44382074 0.69877803 0.17399241 0.2678255 0.19489929 0.04645269 0.01427953 0.5307203
0.15343405 0.12023387 0.30206287 -0.12889913 0.00949036 0.02925842 -0.08068057 -0.29256117
-0.15906706 -0.05012096 0.13385653 0.1489774 -0.24818264 -0.24543908 0.06920435 0.23897946
-0.093459725 -0.14213395 0.22857198 0.20885943 0.095947914 -0.12413255 -0.23138617 -0.066285685
-0.12119498 -0.27959418 0.91943586 -0.32372296 0.24987054 0.0066335946 -0.17434946 0.193272
0.3302709 0.22753264 -0.23026071 -0.14557217 -0.10570198 -0.3031649 -0.09779672 -0.40487158
-0.08564226 -0.160791 0.19855852 -0.21066937 -0.3156051 0.31712684 -0.8292347 0.1100333
0.15553087 0.11968831 -0.10458799 0.128056 -0.19155745 0.47015435 0.12065295 -0.14389433
0.10043423 -0.058645457 -0.22229303 -0.0016035698 -0.1417763 -0.16679013 -0.66984004 0.05797935
0.15480302 -0.1982276 0.16416585 -0.061811853 -0.019007478 -0.20193799 0.17162453 0.11508292
0.39000303 0.24824426 0.06212341 0.1921243 -0.03277225 -0.031936254 0.29013634 0.23628785
00000000: e5b8 623e c106 37bf 4017 af3e 0753 b73e
00000010: 7379 2d3e 805e 1b3e e6ad 07bc d92d e2bd
00000020: 0d86 5d3f 45cd 27bd 7663 363f b781 b2be
00000030: 6122 b73d 3e80 493e f02b 67be 502a 97be
00000040: a68a 2b3e d6f0 bfbb d830 9ebe c8a7 173e
00000050: f1b1 06bf 32a4 1d3b ef81 8fbe 37d7 82be
00000060: 8871 58bd 6193 b5bc b034 29be 247a d7be
00000070: 4bf3 b33e 92e2 b7bd 356d 97be 874c e53e
00000080: 638f 4a3e d15d edbe a09a 8ebe cffe 173e
00000090: 9ca5 b4be 8125 bcbe d98f d83e b400 9cbe
000000a0: e229 85be a26c 39bf 98cd afbe 1f07 32be
000000b0: 5d96 d4bd 29cf 88bd 5b45 023e 9518 2e3f
000000c0: dc84 ad3d 2109 50be fb7d 94be effe 033e
000000d0: 2d85 3e3e b719 783e 9aaf 1fbe 91e8 253a
000000e0: 0a4a fbbd fadd adbe a549 b13b c445 bbbe
000000f0: af03 b33d 099a d7bd 0e79 63be bf29 fbbe
00000100: 6a10 823d 2b8f 6dbd 25ac c8be 1372 5fbe
00000110: 2d00 a13c 678b 8c3e 15fd 163e c9fc 1fbe
00000120: b28c 8a3d ce67 f03d 66e1 3bbf ac8c 59bd
00000130: b244 cfbe f5f5 acbe 7ca0 b43d 8109 03bf
00000140: 16a7 e7be ab7e e4be f1b2 9abe 1f0d 77be
00000150: 5c43 26be caaf 7cbe 7396 77be a692 543b
00000160: 2769 ebbd ab70 663e 8a40 bb3e 793f 123e
00000170: f9bf ac3d ba32 f0bd 1631 533f 29dd 00bd
00000180: 95b7 983d e8ad 6cbe 4201 09be 3d7f 78bd
00000190: 326a a43e 21d9 063f 2816 97bd 27b5 4a3e
000001a0: b0a7 ccbe 62f6 563e 19ff 8cbc bf97 35be
000001b0: 1afa 90be f270 a7bd f366 843f 502d 8d3e
000001c0: 649c 23be 7deb 8abd 5c0e c33d a43d 0bbe
000001d0: e470 0fbe 48cb 2cbd 5e37 68be 2659 04be
000001e0: 68a7 463e 763f 89be f45d 993d 0cb8 6fbe
000001f0: 0b1f e7bd e969 043e 8f21 863e 1ad2 ea3d
00000200: e823 4fbc cd82 533e 611a ddbd 6bf4 c63d
00000210: 7e3e 94be 6a22 053e 7ec2 7abe 66d5 e6be
00000220: 4a91 07be 7b37 bbbd 4f15 68be 274a d8bc
00000230: 7ced ffbd 95d0 95bd 9378 6abe 719d 8cba
00000240: 4eb7 c53d da30 283f ee30 d13d 3618 0ebe
00000250: e513 59be 2cb9 02be 98c3 b03e dfc7 4f3e
00000260: 49b4 063e be21 863d 3621 903e bd59 f03d
00000270: b6d5 80be c337 2abe 0a7c 1a3e fce7 953d
00000280: 239e 96be 7ba3 c2bd 6f92 383e 6ad6 133f
00000290: 80b5 a4be 1b76 8dbc 4353 92be 88dd c93e
000002a0: 793c e3be 1ee3 323f 112b 323e 6d20 893e
000002b0: ae93 473e 2d45 3e3d b1f4 693c 49dd 073f
000002c0: d11d 1d3e 2d3d f63d fca7 9a3e 22fe 03be
000002d0: 747d 1b3c 5baf ef3c db3b a5bd 94ca 95be
000002e0: 7ae2 22be a34b 4dbd b011 093e 888d 183e
000002f0: 9723 7ebe 6254 7bbe 03bb 8d3d 08b7 743e
00000300: d067 bfbd 908b 11be c60e 6a3e 3fdf 553e
00000310: 5780 c43d 3539 febd 7ff0 6cbe cac0 87bd
00000320: 1335 f8bd f826 8fbe 2660 6b3f 04bf a5be
00000330: 10de 7f3e a05e d93b aa88 32be 18e9 453e
00000340: 4419 a93e 51fe 683e 77c9 6bbe df10 15be
00000350: 487a d8bd 6e38 9bbe a649 c8bd 544b cfbe
00000360: 3665 afbd 65a6 24be ed52 4b3e b6b9 57be
00000370: fe96 a1be 735e a23e ba48 54bf 2459 e13d
00000380: 7c43 1f3e 251f f53d 3a32 d6bd 1d21 033e
00000390: a327 44be 12b8 f03e e518 f73d 0959 13be
000003a0: 76b0 cd3d 3836 70bd c9a0 63be e02e d2ba
000003b0: ce2d 11be 08cb 2abe a37a 2bbf c17b 6d3d
000003c0: af84 1e3e 2dfc 4abe 181b 283e 6d2e 7dbd
000003d0: 92b5 9bbc d5c8 4ebe 57be 2f3e 98b0 eb3d
000003e0: 7aae c73e be33 7e3e 1e75 7e3d 3cbc 443e
000003f0: 323c 06bd 97cf 02bd c08c 943e 71f5 713e

fc.bias f4 [18]
-0.09605426 -0.063939385 -0.063841425 -0.07140763 -0.07013451 -0.14079937 0.15844345 0.1536727
-0.024708543 -0.08393939 -0.14232938 0.063602805 0.261566 0.0015031117 -0.036171537 -0.020240767
-0.12440714 0.023790222
00000000: 19b8 c4bd a7f2 82bd 4bbf 82bd 2a3e 92bd
00000010: afa2 8fbd b62d 10be 003f 223e 605c 1d3e
00000020: 9269 cabc 6ae8 abbd cbbe 11be 3042 823d
00000030: fbeb 853e 0f04 c53a 9b28 14bd f7cf a5bc
00000040: 2cc9 febd b6e3 c23c
