01_rnn/logs/LSTM/LSTM_epoch_10_acc_0.7457.pth (torch, 395002 bytes, 6 tensors)

lstm.weight_ih_l0 f4 [512, 57]
0.008368232 -0.017190145 -0.16262603 -0.044881206 -0.00078842894 0.10282056 -0.051653747 -0.043219093
0.17251708 -0.0030347963 0.16663626 0.010218648 -0.009446065 0.0020665461 -0.043588977 0.12860404
0.052662943 -0.1811137 -0.30621582 -0.079662286 0.2338947 0.43530768 -0.2043335 0.058080148
0.032320578 0.053504825 -0.048165604 0.06527899 0.10327812 -0.03691216 0.030774327 -0.053258054
0.11537805 0.09867242 0.08701545 0.17659181 -0.030565795 0.39692846 -0.1227362 0.055436503
-0.06349311 0.21510461 -0.10145812 0.07901166 -0.11315817 -0.05942668 0.027333638 0.24593781
0.04518998 0.12756692 0.2304466 0.15100795 -0.116540655 0.0638076 0.09557057 -0.07527727
0.018637082 -0.07308152 0.41870818 -0.17694452 0.40028638 0.23971705 0.29931846 -0.12224586
0.2880552 -0.32552966 -0.00930354 0.16079445 0.015318844 0.2620189 0.0474842 -0.3873937
-0.08661912 -0.29520223 0.16173187 0.20951247 0.13735974 0.005718157 -0.35315976 0.1516454
-0.0031549656 0.42871276 0.054908585 -0.04990836 0.11976863 -0.15177813 0.001145515 0.09363069
-0.050403934 0.056656163 -0.097712524 0.25117788 0.07247106 0.10317611 0.013514381 0.014849744
-0.0808431 -0.013426803 -0.06366554 0.2389547 -0.12617894 -0.11583678 0.07309556 0.17165227
0.17559657 0.21810701 -0.024280256 0.08826384 0.02186594 -0.07791328 0.07999071 -0.118061624
8.120935e-05 0.05588985 0.43738383 0.06439259 0.13873181 -0.12545405 -0.018450122 0.028611504
-0.44453815 -0.038272537 0.14053951 0.13213216 0.12025276 0.028978124 0.022773113 -0.067850195
0.20298018 0.15645768 0.069214605 -0.27020684 -0.20605187 0.040816113 -0.094705604 0.16360132
-0.308439 -0.033502366 0.11277724 0.22118804 0.05613575 0.29734057 0.037415538 0.03139435
-0.104047395 0.07770269 0.14809409 0.14671877 0.13919722 0.1274323 -0.053556364 0.0454114
-0.0018557315 0.10031681 0.37508675 -0.1958638 0.3935645 0.02150613 0.08164596 -0.00094605825
0.29522675 -0.12372786 0.30851567 0.30711493 0.06523386 0.045841888 -0.24469519 -0.084648475
0.0056094876 0.046377514 0.44614223 0.031010143 0.031465065 -0.10081359 -0.15093634 -0.11360656
0.012934116 0.05057369 0.031531483 0.060982347 -0.027738528 0.18581879 0.09256394 -0.036125425
-0.063204676 -0.015225989 0.062315345 -0.08471239 -0.042919997 -0.028283538 -0.007267006 0.1042362
0.18888943 -0.023763437 -0.21770173 -0.0823613 0.022578673 -0.1028989 0.15082525 -0.14278236
-0.06460008 0.11405025 -0.02620068 -0.044422604 -0.011243027 0.07988792 0.15308133 0.06738275
0.19578542 0.041601323 -0.09104596 -0.0009554083 0.0650021 -0.0918341 -0.0949555 0.035815656
-0.013176624 0.043099497 0.1423902 -0.035744816 -0.030837629 0.23716915 0.113890514 -0.117206536
-0.008465004 0.022270663 0.02287559 0.073203504 -0.16522606 0.08622053 0.059115037 0.13674343
0.06918693 -0.074378334 -0.26869726 -0.110907465 -0.13838774 0.07203695 0.11603801 0.22745992
0.120139465 0.16048403 -0.060675766 0.09976039 -0.05576989 -0.15054333 0.020179104 0.0867131
-0.18890083 0.13688688 0.09595438 0.11247195 0.14889748 0.06691878 -0.1022406 0.05677883
00000000: e91a 093c 59d2 8cbc 7087 26be 5bd5 37bd
00000010: 92ae 4eba 9693 d23d e192 53bd 8106 31bd
00000020: 51a8 303e 6fe3 46bb b2a2 2a3e 1e6c 273c
00000030: abc3 1abc e46e 073b 5b8a 32bd c7b0 033e
00000040: 19b5 573d df75 39be 52c8 9cbe fb25 a3bd
00000050: 1882 6f3e a6e0 de3e cd3c 51be 73e5 6d3d
00000060: 9562 043d e027 5b3d 4c49 45bd feb0 853d
00000070: 7b83 d33d 3531 17bd 711a fc3c 1e25 5abd
00000080: 544b ec3d c414 ca3d 2835 b23d 7cd4 343e
00000090: 1e65 fabc 353a cb3e 1e5d fbbd 6311 633d
000000a0: ad08 82bd 6244 5c3e 46c9 cfbd ddd0 a13d
000000b0: 78bf e7bd 6469 73bd cbea df3c 1fd7 7b3e
000000c0: 2119 393d e7a0 023e 32fa 6b3e d4a1 1a3e
000000d0: deac eebd 8fad 823d 81ba c33d f82a 9abd
000000e0: cbac 983c c4ab 95bd eb60 d63e f230 35be
000000f0: 56f2 cc3e 6378 753e 4540 993e 0a5c fabd
00000100: f97b 933e d3ab a6be e06d 18bc 4da7 243e
00000110: e3fb 7a3c 5727 863e cb7e 423d 7858 c6be
00000120: 5d65 b1bd bf24 97be 0a9d 253e 708a 563e
00000130: 08a8 0c3e 615f bb3b 5bd1 b4be ef48 1b3e
00000140: 8ac3 4ebb 3d80 db3e d3e7 603d b56c 4cbd
00000150: 4149 f53d ba6b 1bbe 1b25 963a 72c1 bf3d
00000160: 5b74 4ebd 4b10 683d 811d c8bd 639a 803e
00000170: b56b 943d ff4d d33d 6c6b 5d3c 574c 733c
00000180: 1191 a5bd 18fc 5bbc 1463 82bd 8ab0 743e
00000190: 0d35 01be d53b edbd 20b3 953d 9dc5 2f3e
000001a0: 96cf 333e 7257 5f3e 63e7 c6bc acc3 b43d
000001b0: 3320 b33c ff90 9fbd 2bd2 a33d 4bca f1bd
000001c0: f04e aa38 c1ec 643d c6f0 df3e 43e0 833d
000001d0: b60f 0e3e 0777 00be b624 97bc ac62 ea3c
000001e0: 819a e3be aac3 1cbd 97e9 0f3e a74d 073e
000001f0: 1447 f63d 8863 ed3c ae8e ba3c 0bf5 8abd
00000200: 09da 4f3e 7136 203e 63c0 8d3d 8d58 8abe
00000210: 43ff 52be cc2e 273d 03f5 c1bd 1b87 273e
00000220: b7eb 9dbe c739 09bd c1f7 e63d 1e7f 623e
00000230: 9aee 653d 063d 983e 0941 193d 5d97 003d
00000240: cd16 d5bd 9722 9f3d faa5 173e 723d 163e
00000250: b789 0e3e 9d7d 023e eb5d 5bbd 4e01 3a3d
00000260: 043c f3ba e672 cd3d 5f0b c03e 8590 48be
00000270: 4981 c93e a02d b03c ff35 a73d e500 78ba
00000280: f627 973e 0865 fdbd c4f5 9d3e 2b3e 9d3e
00000290: 5499 853d b4c4 3b3d 6091 7abe 2e5c adbd
000002a0: cbcf b73b 59f6 3d3d c16c e43e fc08 fe3c
000002b0: 83e1 003d 5b77 cebd 0e8f 1abe 8eaa e8bd
000002c0: 9de9 533c 5c26 4f3d 2827 013d a0c8 793d
000002d0: e93b e3bc 4847 3e3e 2a92 bd3d 41f8 13bd
000002e0: 7471 81bd 6d76 79bc 603e 7f3d b17d adbd
000002f0: e1cc 2fbd e1b2 e7bc 1120 eebb ca79 d53d
00000300: 3b6c 413e 8aab c2bc 34ed 5ebe 0bad a8bd
00000310: e9f6 b83c a9bc d2bd ef71 1a3e 8a35 12be
00000320: 0c4d 84bd 2d93 e93d cfa2 d6bc 7af4 35bd
00000330: ac34 38bc 479c a33d 5ac1 1c3e f8ff 893d
00000340: f97b 483e 2666 2a3d 4e76 babd 5e74 7aba
00000350: d21f 853d 8413 bcbd 0778 c2bd 70b3 123d
00000360: c4e2 57bc 1989 303d bdce 113e 2869 12bd
00000370: 329f fcbc 78dc 723e 6e3f e93d fb09 f0bd
00000380: cdb0 0abc f770 b63c 9765 bb3c b8eb 953d
00000390: 0531 29be 6494 b03d 9c22 723d 7806 0c3e
000003a0: e1b1 8d3d ab53 98bd b092 89be 7423 e3bd
000003b0: 84b5 0dbe 1c88 933d 56a5 ed3d 41eb 683e
000003c0: ae0b f63d ed55 243e 2787 78bd 2d4f cc3d
000003d0: f86e 64bd 0828 1abe a64e a53c a396 b13d
000003e0: 386f 41be 132c 0c3e bb83 c43d b257 e63d
000003f0: 9578 183e b70c 893d 8563 d1bd eb90 683d

lstm.weight_hh_l0 f4 [512, 128]
-0.054306746 0.023714073 0.059051134 0.052891668 -0.019772688 0.030386245 0.031110976 -0.056243062
-0.0972054 0.018850178 -0.0045842924 -0.031689562 0.0074862107 -0.064467825 0.10801217 -0.080141276
-0.067143545 -0.07562085 -0.0628758 -0.06872265 0.06412315 0.09283243 -0.040813684 -0.084132224
-0.046319157 0.06230414 0.04926309 0.06982646 -0.04256091 -0.027689297 -0.032281365 -0.021439765
-0.0087040765 -0.06920024 -0.077530876 -0.02336938 0.12636459 0.04280965 0.10031256 -0.0065319366
0.060636993 0.068965755 0.0789705 -0.042020597 -0.014371864 -0.06610014 -0.029169407 0.0017539941
-0.01586442 -0.07328627 -0.015126939 0.049206045 -0.029027754 0.048915733 0.06831511 0.072971396
0.033086248 0.030734712 -0.048184443 0.05670297 -0.08840094 -0.070478305 0.008582759 0.038024276
0.049446918 0.0032385837 -0.039736956 0.11804464 0.070790395 -0.078620315 -0.043254565 0.07331065
0.066892505 -0.053887647 0.09134914 0.039795447 -0.05367023 -0.06764536 -0.055599645 -0.054297283
0.012061949 0.06946576 -0.0436051 0.058676966 0.07637774 0.034267798 0.060003877 0.0266141
0.03625313 0.009016538 0.050797462 -0.036583625 0.03195791 -0.084100306 -0.065677136 0.09252261
-0.042807017 0.07994135 0.11691667 0.032613117 0.051826116 0.017431332 0.028984087 0.0049004806
-0.054284338 -0.06259611 -0.03215216 0.013342111 -0.06088591 -0.0038254508 -0.11684355 0.06871364
0.0005740636 -0.04345035 0.07223902 -0.062068027 -0.021603603 0.00536446 0.056779444 0.0674894
-0.025297258 0.05387552 -0.018904144 0.006117458 0.019737162 0.033857044 0.0078114187 0.0721372
0.05532079 0.12046029 0.0023436914 0.03215046 -0.058547016 -0.03190793 0.007534348 -0.17898576
0.018601866 -0.052680228 -0.039913885 -0.013257789 0.026793335 0.045950964 -0.06755158 0.05719421
0.014579074 0.06630978 -0.02288797 -0.051678557 0.010209554 -0.019878846 0.035546497 0.055663694
0.05284551 -0.029658206 0.022128155 -0.025649793 -0.08003881 0.038876034 -0.026662946 -0.10118287
0.016502084 -0.023538658 -0.012284849 0.052013583 -0.14569044 0.17052287 -0.047849916 0.033828903
0.022584828 -0.089406185 -0.061521605 -0.0033548777 0.007137888 -0.029625565 -0.014117406 -0.032475747
0.05441686 0.026912358 -0.06769972 0.056669258 -0.09043223 -0.028534181 0.14192984 0.09295544
0.030051956 -0.03169033 0.06398733 0.010034221 0.012602642 0.11780184 -0.013961359 0.081326604
0.078615695 0.03492696 -0.072781764 0.16513331 -0.017442321 -0.14713809 -0.02917288 0.15570483
-0.015107179 -0.035850793 -0.014864806 0.013258806 0.044109385 0.08441671 -0.040483225 -0.04984769
0.10209448 -0.037710026 0.033496138 0.06069875 -0.17974782 -0.11161989 -0.042961776 -0.088668466
-0.09888358 0.024755795 0.039123192 0.10042461 0.098425984 0.12736303 0.0007636083 -0.061150853
0.025319796 0.10870842 0.055477783 -0.009208595 -0.07907614 0.08804541 -0.014607489 -0.0011331586
-0.07599322 0.105160505 -0.04904363 -0.0011194976 0.059286997 -0.08334264 0.14167474 0.009042441
0.010406469 -0.124993786 0.014273135 0.024112666 -0.077461846 -0.012496273 -0.045515373 0.056349687
0.10834532 0.046319332 -0.05206892 0.0033098846 -0.054083746 0.032195095 -0.06310929 0.0019246031
00000000: c070 5ebd 0444 c23c 9adf 713d efa4 583d
00000010: 55fa a1bc 93ec f83c 72dc fe3c 205f 66bd
00000020: a013 c7bd b06b 9a3c d537 96bb eacc 01bd
00000030: e34e f53b b507 84bd 7c35 dd3d 1c21 a4bd
00000040: 8e82 89bd 1bdf 9abd 07c5 80bd 76be 8cbd
00000050: 0053 833d ee1e be3d 402c 27bd 844d acbd
00000060: 28b9 3dbd a032 7f3d 18c8 493d 2d01 8f3d
00000070: 5954 2ebd aad4 e2bc 7739 04bd 72a2 afbc
00000080: 8b9b 0ebc dbb8 8dbd 82c8 9ebd 2471 bfbc
00000090: b865 013e 2c59 2f3d ac70 cd3d db09 d6bb
000000a0: 7f5e 783d eb3d 8d3d 49bb a13d ca1d 2cbd
000000b0: f777 6bbc 835f 87bd aef4 eebc 47e6 e53a
000000c0: 1af6 81bc 1d17 96bd fbd6 77bc 478c 493d
000000d0: 9dcb edbc dd5b 483d cbe8 8b3d 0772 953d
000000e0: 7285 073d 5dc7 fb3c 0d5d 45bd 6041 683d
000000f0: 8d0b b5bd ee56 90bd b39e 0c3c 58bf 1b3d
00000100: da88 4a3d 6b3e 543b 38c3 22bd 63c1 f13d
00000110: 8efa 903d b003 a1bd b32b 31bd e523 963d
00000120: f0fe 883d 4bb9 5cbd 4215 bb3d 8d00 233d
00000130: 51d5 5bbd a789 8abd 74bc 63bd d466 5ebd
00000140: 7b9f 453c 1044 8e3d 439b 32bd 4257 703d
00000150: ef6b 9c3d 645c 0c3d a0c6 753d d005 da3c
00000160: 297e 143d 1aba 133c 0011 503d b6d8 15bd
00000170: 4ce6 023d c83c acbd bc81 86bd 7f7c bd3d
00000180: 6956 2fbd 4ab8 a33d 0272 ef3d 5595 053d
00000190: 9f47 543d 27cc 8e3c 0970 ed3c 3694 a03b
000001a0: 4159 5ebd 6432 80bd fcb1 03bd df98 5a3c
000001b0: 8163 79bd 6ab4 7abb ac4b efbd bdb9 8c3d
000001c0: c27c 163a fff8 31bd 0df2 933d 0b3b 7ebd
000001d0: 0afa b0bc 5ac8 af3b 9091 683d e237 8a3d
000001e0: 323c cfbc 94ac 5c3d dddc 9abc f574 c83b
000001f0: d4af a13c afad 0a3d eef6 ff3b abbc 933d
00000200: 0d98 623d e2b3 f63d 9e98 193b 33b0 033d
00000210: ffce 6fbd e4b1 02bd b1e2 f63b 0b48 37be
00000220: f162 983c 39c7 57bd be7c 23bd 3337 59bc
00000230: b27d db3c 1437 3c3d 7c58 8abd 7a44 6a3d
00000240: 12dd 6e3c 6ccd 873d 8d7f bbbc e5ac 53bd
00000250: f945 273c f6d8 a2bc 3499 113d 9dff 633d
00000260: 8974 583d c4f5 f2bc 1b46 b53c 841f d2bc
00000270: 63eb a3bd 7a3c 1f3d 406c dabc f738 cfbd
00000280: 612f 873c 25d4 c0bc 6446 49bc 320c 553d
00000290: e02f 15be 8c9d 2e3e 46fe 43bd 2d90 0a3d
000002a0: d103 b93c 971a b7bd 14fe 7bbd 82dd 5bbb
000002b0: f2e4 e93b 50b1 f2bc b14c 67bc 4a05 05bd
000002c0: 37e4 5e3d 4e77 dc3c 27a6 8abd 061e 683d
000002d0: 8834 b9bd 84c0 e9bc 0e56 113e 6c5f be3d
000002e0: 852f f63c b8cd 01bd ca0b 833d 9366 243c
000002f0: 507b 4e3c 1742 f13d 2fbe 64bc 908e a63d
00000300: 4401 a13d 920f 0f3d 9b0e 95bd b518 293e
00000310: 33e3 8ebc 5eab 16be f7fb eebc 1671 1f3e
00000320: 1a84 77bc 48d8 12bd 848b 73bc 773b 593c
00000330: 0bac 343d abe2 ac3d bdd1 25bd 172d 4cbd
00000340: e916 d13d d475 1abd 3f33 093d 419f 783d
00000350: d00f 38be f898 e4bd b0f8 2fbd d097 b5bd
00000360: 7983 cabd aacc ca3c a43f 203d 6bab cd3d
00000370: 9093 c93d 746b 023e e32c 483a 5179 7abd
00000380: 766b cf3c 85a2 de3d ac3c 633d a6df 16bc
00000390: acf2 a1bd 2751 b43d 4054 6fbc 7e86 94ba
000003a0: 55a2 9bbd 645e d73d f9e1 48bd 1bbc 92ba
000003b0: ecd6 723d 8caf aabd 2f13 113e bf26 143c
000003c0: e57f 2a3c befc ffbd ded9 693c ed87 c53c
000003d0: 51a4 9ebd 2bbd 4cbc 546e 3abd eece 663d
000003e0: 27e4 dd3d 57b9 3d3d 3846 55bd a6ea 583b
000003f0: eb86 5dbd 01df 033d 723f 81bd f742 fc3a

lstm.bias_ih_l0 f4 [512]
0.021206778 0.10693965 0.25488266 0.0037080243 0.1173541 0.048907593 0.03977906 0.08676783
0.2202954 -0.02071937 0.008303932 0.04561455 0.15550905 0.017839568 0.0015231823 0.05390478
0.10018637 0.030498846 0.117569044 0.04601284 0.053575255 -0.021083735 0.10170024 -0.03023236
0.13186774 -0.018853275 0.07165716 -0.013025725 -0.027518518 0.062740244 -0.0045954995 0.07297813
0.02135581 0.23971634 0.090111464 0.079963565 0.111737125 0.17583138 0.11377751 0.014624574
0.07548618 0.15508373 0.15045318 0.09742551 0.014950127 0.0175221 0.09567395 0.16334778
0.116138905 -0.0018466517 0.039090026 -0.0014067068 0.050594393 -0.019311396 0.1512211 0.11047927
0.005374764 0.028055625 0.106785476 0.06742611 0.14799945 0.12778762 0.017796395 0.07980606
0.026587553 -0.026097847 0.16715848 0.15705152 0.089308366 0.114298016 0.021165797 0.1231108
0.117364414 0.044824 0.15765686 -0.00033417583 0.07935565 -0.011794711 0.13067341 0.104573585
0.19141063 0.043161657 0.07082893 0.07699926 0.21369503 0.035513137 0.09126653 0.016938426
0.10043391 -0.012750908 0.07047877 0.07998742 0.0900051 0.0010513783 0.123645484 0.01826229
0.11976503 0.099699244 0.16466753 0.0114357285 0.024530644 0.11094811 -0.025020486 -0.013620747
0.065372124 0.008386856 0.07634577 0.09048258 0.13383985 0.09633371 0.13869329 0.14767879
0.03311788 0.123831086 0.05386179 0.04240448 0.08737564 0.009055837 0.06949046 0.109993145
0.030334666 0.014851125 0.08510991 -0.041658062 -0.023472909 -0.033611868 -0.0107635455 -0.009660919
0.11870685 -0.022648433 0.1261401 -0.01030842 0.032051656 -0.026831273 0.030638857 0.031896956
-0.1346438 0.06414009 0.03872981 0.00066527905 -0.016776947 0.11725932 -0.025396256 -0.025197003
0.112334736 0.028646467 0.005102644 0.08884153 0.07471918 0.06628434 0.050638303 0.0632617
-0.03974757 0.09918651 -0.028172296 0.060829412 0.13029628 -0.009538955 -0.038895056 0.074215494
0.00039316976 0.053744853 0.03423402 2.9582605e-05 0.07579207 0.07186505 -0.014662806 0.079736285
0.0112995 0.09840193 0.0121005 0.06983178 0.024682153 0.029217958 -0.020976504 0.07332474
-0.012403055 0.07099395 -0.0062074745 -0.02631294 0.0001997825 0.06793476 0.21142654 0.10518182
0.004429731 0.066763386 0.05913068 0.045274008 0.03409034 0.099611536 0.046458047 0.044233516
0.09509369 0.11566992 -0.019397283 0.1246066 0.021013068 0.07430358 -0.009970143 0.0877195
0.010700863 -0.06517186 0.038411643 0.079161406 -0.02455435 -0.0060724504 0.07144444 -0.0540156
-0.02736044 0.00813195 0.15024267 0.091632776 0.1932138 0.13032256 0.13028488 0.11596013
0.10122117 0.02708461 0.07550541 0.09749672 0.087479234 0.12701654 -0.009503059 0.017021764
0.10117098 0.017449029 0.20544596 0.009145555 0.18076481 0.030763008 0.012338329 0.039655246
0.044709064 0.062342133 -0.018254405 0.11643305 0.09298547 0.13367054 0.015898583 0.006794835
0.087735884 0.10470638 0.09435127 -0.05500559 -0.022802884 0.03732166 0.04945773 0.1310768
-0.0123434635 0.08668326 -0.027227381 0.022106325 0.04256794 -0.039373636 0.09427099 -0.010734988
00000000: d6b9 ad3c 2d03 db3d fb7f 823e 5302 733b
00000010: 5957 f03d 5453 483d 5eef 223d 55b3 b13d
00000020: 1e95 613e abbb a9bc 370d 083c 53d6 3a3d
00000030: c43d 1f3e 4924 923c 84a5 c73a 42cb 5c3d
00000040: 832e cd3d b7d8 f93c 0ac8 f03d f677 3c3d
00000050: ba71 5b3d ccb7 acbc 3748 d03d dba9 f7bc
00000060: 5608 073e 2f72 9abc fdc0 923d da69 55bc
00000070: 846e e1bc f57d 803d d895 96bb 8f75 953d
00000080: 61f2 ae3c 3378 753e 5c8c b83d f0c3 a33d
00000090: 6fd6 e43d 240d 343e 2f04 e93d e99b 6f3c
000000a0: 8098 9a3d 45ce 1e3e 6610 1a3e 0787 c73d
000000b0: 61f1 743c 828a 8f3c b4f0 c33d a444 273e
000000c0: 3cda ed3d 590b f2ba dd1c 203d 3f61 b8ba
000000d0: 113c 4f3d ef32 9ebc b4d9 1a3e f542 e23d
000000e0: ca1e b03b e9d4 e53c 58b2 da3d b316 8a3d
000000f0: 2b8d 173e c2da 023e bfc9 913c 5c71 a33d
00000100: 24ce d93c 27cb d5bc 982b 2b3e 1dd2 203e
00000110: 4ee7 b63d 1415 ea3d e563 ad3c 8421 fc3d
00000120: c15c f03d 5f99 373d cd70 213e 5234 afb9
00000130: 3785 a23d 9b3e 41bc 40cf 053e ad2a d63d
00000140: 2601 443e 47ca 303d c20e 913d cab1 9d3d
00000150: dfd2 5a3e 3976 113d f2e9 ba3d 74c2 8a3c
00000160: 4bb0 cd3d 2fe9 50bc 2c57 903d 72d0 a33d
00000170: 9854 b83d 67ce 893a d839 fd3d cc9a 953c
00000180: 5e47 f53d 1e2f cc3d 9b9e 283e ec5c 3b3c
00000190: 7df4 c83c c338 e33d c3f7 ccbc 8e29 5fbc
000001a0: d2e1 853d 0669 093c 2c5b 9c3d ee4e b93d
000001b0: 500d 093e 9c4a c53d 9d05 0e3e 1c39 173e
000001c0: 9da6 073d 279b fd3d 2e9e 5c3d 52b0 2d3d
000001d0: 00f2 b23d ef5e 143c 0451 8e3d 1644 e13d
000001e0: 6880 f83c 2252 733c 1b4e ae3d a5a1 2abd
000001f0: 424a c0bc 99ac 09bd 9559 30bc d548 1ebc
00000200: 941c f33d 3589 b9bc df2a 013e a6e4 28bc
00000210: 9948 033d 42cd dbbc 57fe fa3c 62a6 023d
00000220: 10e0 09be e15b 833d 26a3 1e3d 1f66 2e3a
00000230: cf6f 89bc a825 f03d cf0b d0bc f269 cebc
00000240: c10f e63d ffab ea3c 1534 a73b 8cf2 b53d
00000250: 5f06 993d 16c0 873d 1c6a 4f3d 5a8f 813d
00000260: 59ce 22bd 4c22 cb3d 96c9 e6bc 4328 793d
00000270: 636c 053e 4749 1cbc 6c50 1fbd 4bfe 973d
00000280: 5a22 ce39 9023 5c3d f938 0c3d 2928 f837
00000290: df38 9b3d fc2d 933d 443c 70bc c74c a33d
000002a0: 8a21 393c f386 c93d 2d41 463c f703 8f3d
000002b0: 3a32 ca3c 805a ef3c ebd6 abbc 482b 963d
000002c0: 2f36 4bbc 4765 913d 1268 cbbb 3c8e d7bc
000002d0: b57c 5139 6121 8b3d 3380 583e 9169 d73d
000002e0: 4727 913b 3ebb 883d 0333 723d 3d71 393d
000002f0: 50a2 0b3d 2201 cc3d cb4a 3e3d 342e 353d
00000300: 7bc0 c23d 5ae4 ec3d 0de7 9ebc bf31 ff3d
00000310: 9923 ac3c 7a2c 983d d059 23bc 48a6 b33d
00000320: ac52 2f3c d378 85bd 8755 1d3d 601f a23d
00000330: 3426 c9bc 68fb c6bb 7651 923d 763f 5dbd
00000340: 0023 e0bc df3b 053c 37d9 193e f7a9 bb3d
00000350: d7d9 453e 4773 053e 6669 053e 817c ed3d
00000360: 0b4d cf3d 8be0 dd3c 95a2 9a3d 5cac c73d
00000370: 5028 b33d a010 023e b8b2 1bbc 3a71 8b3c
00000380: bb32 cf3d 44f1 8e3c 6d60 523e 3dd7 153c
00000390: 691a 393e b402 fc3c b426 4a3c 8a6d 223d
000003a0: da20 373d 775a 7f3d 438a 95bc 7374 ee3d
000003b0: 2b6f be3d eee0 083e bf3d 823c 35a7 de3b
000003c0: dfae b33d 4c70 d63d 3d3b c13d 8b4d 61bd
000003d0: 1dcd babc 99de 183d 3094 4a3d ff38 063e
000003e0: 3d3c 4abc fe86 b13d f50b dfbc 5318 b53c
000003f0: b85b 2e3d 4046 21bd 2611 c13d cee1 2fbc

lstm.bias_hh_l0 f4 [512]
0.08675521 -0.0003112162 0.2139681 0.003685198 -0.034243766 -0.028339226 0.12682363 0.029053105
0.2807016 0.079377376 0.056237392 0.12145969 -0.0023485695 0.13411772 0.12251261 0.069833
0.049978733 0.02194272 0.07584598 0.09634652 0.123228826 0.018655367 0.017276535 0.052227844
-0.025247907 -0.015809087 0.1247445 0.014779197 0.03180798 0.076741055 0.03628384 -0.010486142
-0.012104908 0.07293908 0.1232268 0.020235518 0.14455274 0.043405037 0.074988805 0.095125906
0.0506489 0.11341243 0.057575308 0.053695045 0.090835884 0.10857671 -0.021098804 0.30722937
0.012839542 0.03128342 0.043391135 0.003685126 -0.0073531624 0.02100272 0.24123758 0.016288664
0.028658694 0.12688716 0.14264691 0.030064093 0.10792231 0.12487498 0.050848685 0.099083215
0.11018213 0.03283402 0.026574316 0.05641458 0.019538585 0.2302626 0.07561933 0.039147165
0.027830303 0.08281324 0.19390897 0.114949554 0.064420275 0.099634975 0.15705056 0.0079661645
0.19464669 0.0088505065 0.08745309 0.076657884 0.19752486 0.16643082 -0.017702458 0.028290454
-0.034615066 -0.0031569565 0.09522305 0.028460344 0.052779287 0.046349548 0.086432375 0.020609602
0.1677391 0.093837835 0.18658733 0.13821769 0.07223583 0.10890861 0.05213933 0.07699615
-0.0075669885 0.06436502 0.048726205 0.09292428 0.03915947 0.07178072 0.1335577 0.12572376
0.14661613 0.083300486 -0.015129271 0.07947739 0.0840506 0.13370128 -0.038768798 -0.010904461
0.10906495 0.08323485 -0.02277393 0.039976288 -0.011018463 -0.022610422 0.014110341 0.029611943
0.07470916 -0.053316094 0.17817675 0.082828574 0.120394334 -0.04314563 0.103760846 0.112168185
-0.012098931 0.09465358 -0.0034761527 0.07160037 -0.02612386 0.13595971 0.1413246 0.09168576
0.032038055 -0.025013635 0.12043496 0.08804228 0.08441526 0.050459024 0.10940005 0.12617622
0.062137198 0.04302688 0.13521999 0.064848594 -0.026146602 0.01365004 0.008481047 0.008899004
0.070123464 0.19177958 -0.021679878 -0.0462502 0.1762095 0.086845994 0.052578747 -0.022364125
0.10876524 0.040457368 0.043834507 0.016938472 -0.033118084 0.10036109 0.062367234 0.11292834
0.009634241 0.057142198 0.03384227 0.0026113288 0.10110082 0.03370059 0.09519658 0.04390658
0.004832737 0.10603239 -0.0120570725 0.05699493 0.015532286 0.1779862 0.040352996 -0.050631143
0.0840152 -0.021141479 0.025055232 0.054079138 0.124772966 0.19356708 0.11410402 0.008556111
0.019569756 -0.025864432 -0.06918111 -0.028111434 -0.032826737 0.0772917 0.014475419 0.03294951
0.14186159 0.016495716 0.052346397 0.032391407 0.09567465 0.116952285 0.12417353 0.048714302
0.01639393 -0.019986635 0.079167716 0.13520853 0.08995892 -0.043379202 0.0071635316 0.08309214
0.104606405 0.03270849 0.21322982 0.008982225 0.012874679 0.075340495 0.0020092877 -0.0048056967
0.03855306 0.049313527 0.061785385 0.1042529 0.0608697 0.0026303616 0.14540103 0.044036992
0.13802825 0.14237492 0.113735765 0.11456672 0.10327026 0.10036444 -0.056591768 0.11150696
0.045701154 -0.03642625 0.030217629 0.042362064 0.0829544 0.09875253 -0.04974642 0.010608986
00000000: b7ac b13d bb2a a3b9 741a 5b3e 5d83 713b
00000010: 3143 0cbd aa27 e8bc 0ede 013e c700 ee3c
00000020: 1fb8 8f3e 9b90 a23d 2e59 663d dcbf f83d
00000030: 75ea 19bb 2856 093e e4e7 fa3d 9b04 8f3d
00000040: 80b6 4c3d 38c1 b33c 2355 9b3d 5351 c53d
00000050: 655f fc3d 24d3 983c 8587 8d3c ddec 553d
00000060: b3d4 cebc 0f82 81bc 0b7a ff3d 7224 723c
00000070: 1649 023d 6a2a 9d3d 5d9e 143d 11ce 2bbc
00000080: aa53 46bc 1661 953d 555e fc3d f5c4 a53c
00000090: a205 143e 7bc9 313d bb93 993d 5fd1 c23d
000000a0: 3975 4f3d c744 e83d 16d4 6b3d 56ef 5b3d
000000b0: 2a08 ba3d 775d de3d 66d7 acbc 2b4d 9d3e
000000c0: f15c 523c 0b23 003d e7ba 313d 2882 713b
000000d0: ccf2 f0bb e50d ac3c fc06 773e ce6f 853c
000000e0: a3c5 ea3c b5ee 013e 0812 123e f948 f63c
000000f0: 5f06 dd3d 74be ff3d b646 503d 24ec ca3d
00000100: 2ba7 e13d f77c 063d 61b2 d93c fa12 673d
00000110: 620f a03c f6c9 6b3e 4fde 9a3d c758 203d
00000120: 60fc e33c fd99 a93d 1390 463e ac6a eb3d
00000130: c7ee 833d 6c0d cc3d ddd1 203e 8484 023c
00000140: 7651 473e b701 113c 9b1a b33d cffe 9c3d
00000150: f543 4a3e d76c 2a3e bf04 91bc 62c1 e73c
00000160: 87c8 0dbd f1e4 4ebb 4d04 c33d ab25 e93c
00000170: 182f 583d 06d9 3d3d 7503 b13d 78d5 a83c
00000180: ccc3 2b3e 0d2e c03d c010 3f3e f088 0d3e
00000190: 61f0 933d 7a0b df3d 0d90 553d 28b0 9d3d
000001a0: 80f4 f7bb cfd1 833d 2195 473d 164f be3d
000001b0: ae65 203d c501 933d 5ac3 083e bbbd 003e
000001c0: 8a22 163e 7299 aa3d c3e0 77bc 0bc5 a23d
000001d0: b922 ac3d fde8 083e 08cc 1ebd a0a8 32bc
000001e0: 725d df3d 0877 aa3d 6590 babc 2dbe 233d
000001f0: c986 34bc 7e39 b9bc 0f2f 673c bf94 f23c
00000200: 1e01 993d fa61 5abd f773 363e 07a2 a93d
00000210: 4e91 f63d 79b9 30bd 9180 d43d 6fb8 e53d
00000220: 983a 46bc bcd9 c13d 2ad0 63bb 37a3 923d
00000230: b501 d6bc 0639 0b3e 65b7 103e bec5 bb3d
00000240: 563a 033d 65e9 ccbc 9ba6 f63d 834f b43d
00000250: e8e1 ac3d 1fae 4e3d 220d e03d 5734 013e
00000260: 9383 7e3d f43c 303d 1c77 0a3e 57cf 843d
00000270: 6631 d6bc 6ba4 5f3c 17f4 0a3c 21cd 113c
00000280: e49c 8f3d de61 443e 009a b1bc da70 3dbd
00000290: 4370 343e 50dc b13d d05c 573d f834 b7bc
000002a0: 4fc0 de3d a0b6 253d d08b 333d 8dc2 8a3c
000002b0: d4a6 07bd 1d8a cd3d c974 7f3d f946 e73d
000002c0: f0d8 1d3c f00d 6a3d 319e 0a3d d422 2b3b
000002d0: f20d cf3d a109 0a3d 6df6 c23d 63d7 333d
000002e0: f05b 9e3b 8227 d93d 078b 45bc 8473 693d
000002f0: 217b 7e3c 0442 363e 2f49 253d 9a62 4fbd
00000300: 2910 ac3d e530 adbc a140 cd3c 1682 5d3d
00000310: f888 ff3d 7336 463e 5eaf e93d ee2e 0c3c
00000320: c150 a03c a5e1 d3bc d3ae 8dbd f349 e6bc
00000330: 5475 06bd 1c4b 9e3d 4f2a 6d3c 11f6 063d
00000340: 2a44 113e 0622 873c 2d69 563d daac 043d
00000350: 12f1 c33d ae84 ef3d b14e fe3d a688 473d
00000360: 904c 863c 03bb a3bc af22 a23d 1b74 0a3e
00000370: 623c b83d 64ae 31bd 0fbc ea3b 362c aa3d
00000380: e23b d63d 56f9 053d eb58 5a3e 2f2a 133c
00000390: 51f0 523c 1e4c 9a3d 41ae 033b 1b79 9dbb
000003a0: d0e9 1d3d fbfc 493d ac12 7d3d 8b82 d53d
000003b0: 8252 793d 2562 2c3b 02e4 143e 2260 343d
000003c0: 4757 0d3e bbca 113e 4cee e83d f5a1 ea3d
000003d0: 5c7f d33d df8b cd3d c5cc 67bd c35d e43d
000003e0: 2231 3b3d b133 15bd f68a f73c d883 2d3d
000003f0: ffe3 a93d c43e ca3d e7c2 4bbd 50d1 2d3c

fc.weight f4 [18, 128]
0.0130862715 -0.26244774 0.16154346 0.07641913 0.04204765 0.061732497 -0.017330531 -0.06624166
0.56298727 -0.008731898 0.4587562 -0.10291443 0.053276893 0.15417679 -0.13850136 -0.108108975
0.14390847 0.13805774 -0.21955845 0.08883302 -0.14811094 0.0714236 -0.075715005 -0.11029085
-0.00090023334 -0.034625 -0.119141676 -0.107959054 0.20406826 -0.062190562 -0.18494086 0.2282653
0.07977682 -0.29443118 0.010516899 0.048818853 -0.21056545 -0.1642564 0.29068774 -0.09381534
-0.023494218 -0.48773536 -0.084787406 -0.054743394 -0.0685287 -0.028293831 0.098526336 0.51388323
0.17129272 -0.104957245 -0.15484707 0.08328315 0.0835213 0.18257126 -0.15625148 0.021866392
-0.017535169 -0.20363529 -0.01557697 -0.24496932 -0.0015660118 -0.12710194 -0.13542703 -0.20343648
0.019055206 -0.04791601 -0.250203 -0.14063333 0.02222954 0.1562129 0.09492527 -0.011180172
0.085167356 0.12945093 -0.4299676 -0.0063346466 -0.23233826 -0.21650234 0.09051721 -0.15956274
-0.26890513 -0.28151235 -0.12825184 -0.19398028 -0.12778279 -0.09038358 -0.105677254 0.052375175
-0.052144248 0.07947804 0.20774369 0.041176014 -8.198627e-05 -0.07583065 0.53487545 -0.012350088
0.06177054 -0.13645485 -0.100519486 -0.050163776 0.16679044 0.28745562 -0.04893461 0.11839844
-0.27652046 0.14501487 -0.03658679 -0.10745252 -0.1541638 -0.08877072 0.5543571 0.1511011
-0.14087737 0.036754306 0.0408932 -0.064219676 -0.11629928 -0.004151574 -0.1181634 -0.1258455
0.049754236 -0.20289998 0.04697848 -0.10058288 -0.0151549885 0.09409594 0.07789307 0.09953766
0.065287605 0.15372443 -0.042427335 0.08268097 -0.15959723 0.06683796 -0.14058188 -0.32020488
-0.064710185 -0.009071192 -0.15558296 -0.045890585 -0.0767343 0.0008684962 -0.1209735 0.009486167
0.07462607 0.20086035 0.08882074 -0.10928283 -0.08242802 -0.112069 0.1812129 0.12695155
0.10564244 0.088318095 0.20447767 0.037145894 -0.19362523 -0.11384464 0.029569786 -0.0011181467
-0.21582751 -0.086089775 0.08095986 0.26672503 -0.23209581 -0.020124054 -0.23081672 0.14845937
-0.161688 0.5118018 -0.011915696 0.1637113 0.099430226 0.046350263 0.016307823 0.3647075
0.13891563 0.109231524 0.1914418 -0.09036348 -0.0062542493 0.025950927 -0.08398519 -0.20069449
-0.0956825 -0.04335382 0.1056297 0.1131424 -0.09981729 -0.08088371 0.016605636 0.102954715
-0.053950466 -0.045110796 0.09779268 0.09355441 0.07023078 -0.0021324942 -0.16239561 -0.089713335
-0.08304402 -0.12934855 0.4722238 -0.21121226 0.104536496 0.026508031 -0.12931561 0.10826601
0.22447675 0.16546874 -0.17312858 -0.1158041 -0.035968687 -0.19549502 -0.06873908 -0.2017394
-0.07082646 -0.11845365 0.12513545 -0.13404174 -0.13969342 0.1418784 -0.47297844 0.059823684
0.11419586 0.1393183 -0.14178534 0.032110494 -0.17177857 0.079889104 0.08744991 -0.09218325
0.09912265 -0.05571082 -0.1598368 -0.0009537637 -0.0881612 -0.11970302 -0.52146465 0.09254253
0.11802937 -0.115913056 0.0469553 0.011974526 -0.03396288 -0.1737564 0.051934674 0.08252315
0.15145038 0.19467425 0.050671846 0.07774198 -0.056208767 -0.011412197 0.22457439 0.13134798
00000000: cd67 563c 8d5f 86be a66b 253e a281 9c3d
00000010: 283a 2c3d 37db 7c3d c2f8 8dbc b5a9 87bd
00000020: ef1f 103f 3c10 0fbc 18e2 ea3e cdc4 d2bd
00000030: df38 5a3d 85e0 1d3e 4dd3 0dbe 3d68 ddbd
00000040: be5c 133e 025f 0d3e eed3 60be 16ee b53d
00000050: 65aa 17be 8946 923d 7810 9bbd 2be0 e1bd
00000060: a3fd 6bba f2d2 0dbd 8d00 f4bd a319 ddbd
00000070: 45f7 503e 88bb 7ebd 2361 3dbe 61be 693e
00000080: 0862 a33d afbf 96be 124f 2c3c 47f6 473d
00000090: 789e 57be d432 28be 06d5 943e 4222 c0bd
000000a0: f276 c0bc 73b8 f9be 05a5 adbd 9c3a 60bd
000000b0: c658 8cbd 77c8 e7bc 2dc8 c93d da8d 033f
000000c0: 5c67 2f3e d3f3 d6bd 3b90 1ebe 5b90 aa3d
000000d0: 370d ab3d f6f3 3a3e 6300 20be 2621 b33c
000000e0: eaa5 8fbc c585 50be 8c36 7fbc 3dd9 7abe
000000f0: a342 cdba 0327 02be 62ad 0abe a751 50be
00000100: aa19 9c3c 9443 44bd 9c1a 80be 2f02 10be
00000110: b91a b63c 46f6 1f3e 2e68 c23d 0a2d 37bc
00000120: 396c ae3d c98e 043e b724 dcbe de92 cfbb
00000130: 15ea 6dbe cab2 5dbe 1661 b93d 6a64 23be
00000140: efad 89be 6322 90be 7354 03be c4a2 46be
00000150: 7ed9 02be 071b b9bd 516d d8bd 5a87 563d
00000160: 3595 55bd 62c5 a23d c3ba 543e 2ea8 283d
00000170: 0bf0 abb8 1a4d 9bbd 99ed 083f 0658 4abc
00000180: 1b03 7d3d d2ba 0bbe 29dd cdbd 8878 4dbd
00000190: 1dcb 2a3e 622d 933e a86f 48bd e27a f23d
000001a0: 1794 8dbe c77e 143e 08dc 15bd 1110 dcbd
000001b0: 1ddd 1dbe 6ccd b5bd 59ea 0d3f 3fba 1a3e
000001c0: 2842 10be af8b 163d a17f 273d 9b85 83bd
000001d0: 512e eebd ed09 88bb a7ff f1bd a5dd 00be
000001e0: 19cb 4b3d 03c5 4fbe 826c 403d 66fe cdbd
000001f0: a14c 78bc 5fb5 c03d 6786 9f3d 67da cb3d
00000200: 82b5 853d f069 1d3e 49c8 2dbd a454 a93d
00000210: 756d 23be 57e2 883d b2f4 0fbe e5f1 a3be
00000220: c686 84bd 569f 14bc 2451 1fbe c4f7 3bbd
00000230: df26 9dbd cbab 633a f4c0 f7bd de6b 1b3c
00000240: 8ed5 983d 56ae 4d3e a6e7 b53d adcf dfbd
00000250: 06d0 a8bd 6f84 e5bd e08f 393e 96ff 013e
00000260: 105b d83d 1ee0 b43d 9862 513e 4b26 183d
00000270: b145 46be 6127 e9bd 563c f23c c78e 92ba
00000280: e301 5dbe d64f b0bd 48ce a53d 2f90 883e
00000290: 86aa 6dbe 33db a4bc 385b 6cbe bc05 183e
000002a0: 8a91 25be 7105 033f 0d3a 43bc efa3 273e
000002b0: 13a2 cb3d c6d9 3d3d fc97 853c f1ba ba3e
000002c0: e63f 0e3e c7b4 df3d 5209 443e 7d10 b9bd
000002d0: 72f0 ccbb 0a97 d43c 6d00 acbd db82 4dbe
000002e0: 30f5 c3bd c693 31bd 6254 d83d 34b7 e73d
000002f0: 026d ccbd 5ca6 a5bd 8b08 883c ecd9 d23d
00000300: 2afb 5cbd 19c6 38bd 8747 c83d 7499 bf3d
00000310: 28d5 8f3d 51c1 0bbb 094b 26be a0bb b7bd
00000320: fc12 aabd f273 04be 51c7 f13e 0748 58be
00000330: 3b17 d63d 5f27 d93c 506b 04be 92ba dd3d
00000340: 3cdd 653e a370 293e 9e48 31be b32a edbd
00000350: e753 13bd d92f 48be 13c7 8cbd c694 4ebe
00000360: 770d 91bd d497 f2bd 8223 003e 3d42 09be
00000370: cb0b 0fbe 9248 113e 3b2a f2be ae09 753d
00000380: 85df e93d 75a9 0e3e 2d30 11be 4b86 033d
00000390: b9e6 2fbe e69c a33d f018 b33d 92ca bcbd
000003a0: d100 cb3d 0731 64bd 42ac 23be 0006 7aba
000003b0: dc8d b4bd db26 f5bd b57e 05bf f086 bd3d
000003c0: 62b9 f13d d363 edbd 3354 403d cd30 443c
000003d0: a91c 0bbd 33ed 31be 74b9 543d e601 a93d
000003e0: cf15 1b3e b058 473e 488d 4f3d 3037 9f3d
000003f0: 2a3b 66bd 39fa 3abc d4f6 653e 1680 063e

fc.bias f4 [18]
-0.08591321 -0.04807525 0.042954486 -0.10817079 -0.0048280116 -0.07935646 0.18625212 -0.014954272
-0.003807518 -0.053830307 -0.10513379 -0.02258806 0.10622931 0.0051142564 0.0019699328 -0.04555244
-0.08700753 -0.010297158
00000000: 44f3 afbd 8eea 44bd 0bf1 2f3d a688 ddbd
00000010: 4c34 9ebb a485 a2bd e0b8 3e3e c302 75bc
00000020: 8d87 79bb 2b7d 5cbd 6250 d7bd 980a b9bc
00000030: c18e d93d 7e95 a73b fd19 013b 3295 3abd
00000040: 0131 b2bd 69b5 28bc
