01_rnn/logs/LSTM/LSTM_epoch_30_acc_0.8067.pth (torch, 395002 bytes, 6 tensors)

lstm.weight_ih_l0 f4 [512, 57]
0	0xbc5325d3	-0.012887436
1	0x3d957523	0.07297733
2	0xbe5031ca	-0.20331493
3	0xbc52a834	-0.012857486
4	0x3e262b50	0.1622746
5	0x3e096777	0.13418375
6	0xbce2b4b7	-0.027674062
7	0xbe25d7fe	-0.16195676
8	0x3ec14f08	0.3775561
9	0xbce4ce53	-0.027930414
10	0x3e9218fe	0.28534693
11	0x3dc8842f	0.09790837
12	0x3d3dc4b3	0.046330165
13	0xbbcc6628	-0.006237764
14	0x3db27568	0.087138
15	0x3e6f969d	0.23397298
16	0x3ea07d09	0.31345394
17	0xbe1f5c2e	-0.15562508
18	0xbe1aebf0	-0.15129066
19	0xbea42bdf	-0.3206472
20	0x3eaa0c1b	0.3321236
21	0x3ed9b50d	0.42520943
22	0xbe6d5b8b	-0.23179452
23	0x3e80e4e2	0.25174624
24	0x3dba2612	0.090892926
25	0xbd9d53c4	-0.07681993
26	0xbd2f5911	-0.04280955
27	0x3d7a65b3	0.061132144
28	0x3de3bd45	0.11120085
29	0xbce4042a	-0.027834017
30	0xbdc4a20e	-0.09601222
31	0x3dda601b	0.10662862
32	0x3e7ec8e0	0.24881315
33	0x3d319a72	0.04336018
34	0xbcfbeaa9	-0.030751543
35	0x3e2797ca	0.16366497
36	0xbd484f63	-0.048903834
37	0x3f1b034d	0.6055191
38	0xbd581f88	-0.052764446
39	0x3cc7971c	0.024364047
40	0xbd067fee	-0.032836847
41	0x3e9c20da	0.30493814
42	0xbc0ba407	-0.008522994
43	0xbc0f4377	-0.008744112
44	0xbd3abd12	-0.045590468
45	0xbd80a9f7	-0.06282418
46	0x3d1981e9	0.037477408
47	0x3e9ac506	0.30228442
48	0x3d66e133	0.05636711
49	0x3ee94a96	0.45564717
50	0x3ebd3f5f	0.3696241
51	0x3e46a83e	0.19400117
52	0xbea0ca90	-0.31404543
53	0x3d810a08	0.063007414
54	0x3e0f19e1	0.13974716
55	0xbd983c2e	-0.07433353
56	0xbbcf471d	-0.006325616
57	0x3d4075f3	0.046987485
58	0x3eb7b584	0.35880673
59	0x3d39ad9c	0.045331582
60	0x3f192b50	0.59831715
61	0x3e89efef	0.26940867
62	0x3ed20ab6	0.41023797
63	0xbea9aeaf	-0.33141086
64	0x3ed9f615	0.42570558
65	0xbe9198dc	-0.28436935
66	0xbec844fd	-0.39115134
67	0x3efcd4c5	0.4938108
68	0x3e09a4f1	0.13441826
69	0x3ec4a420	0.38406467
70	0xbbf866d9	-0.00758062
71	0xbece4308	-0.40285516
72	0xbe03f74d	-0.12887307
73	0xbe62a3b6	-0.22132763
74	0x3e16230d	0.14661808
75	0x3eb8ed42	0.36118513
76	0x3e3e36b1	0.1857555
77	0x3e501816	0.20321688
78	0xbec2f5b3	-0.3807808
79	0x3e82df75	0.2556111
80	0xbd31ee9d	-0.04344045
81	0x3eeb82bc	0.4599818
82	0xbc36095c	-0.01111063
83	0xbd0afad8	-0.03393063
84	0x3e766311	0.24061228
85	0xbe165394	-0.1468032
86	0xbd4d53c9	-0.050128732
87	0x3db75f09	0.089536734
88	0xbbba3b74	-0.005683357
89	0x3c6911a3	0.014225396
90	0xbd81cdd1	-0.063380845
91	0x3eee8f49	0.46593693
92	0x3d4be1f3	0.04977603
93	0x3e0c0d72	0.13677004
94	0x3d1454aa	0.036213554
95	0x3aefc370	0.0018292498
96	0x3dd4cba2	0.103904024
97	0x3d8437bd	0.06455944
98	0xbd6e5587	-0.058187034
99	0x3e84a637	0.25908062
100	0xbde23026	-0.1104434
101	0xbdd093f6	-0.10184471
102	0x3d2c2b38	0.042033404
103	0x3e7d1fcc	0.24719161
104	0x3e19a30a	0.150036
105	0x3e46d1b7	0.19415937
106	0xbcb7bb93	-0.02242831
107	0x3bd0a15f	0.006366893
108	0x3bb5d3fe	0.005548953
109	0x3d9b1534	0.075724036
110	0x3da1c4bf	0.078988545
111	0xbe4e30c2	-0.20135787
112	0x38a82c2b	8.019091e-05
113	0x3e6d6b4b	0.2318546
114	0x3ee7d818	0.45282054
115	0x3e863c2f	0.2621779
116	0x3e0e544e	0.13899347
117	0xbe8dfb7e	-0.27730936
118	0x3e808eb1	0.25108865
119	0x3e0c70a1	0.1371484
120	0xbf0a5ed5	-0.5405095
121	0xbe519c49	-0.20469774
122	0xbeb4fdc9	-0.35349873
123	0x3d8d0ecd	0.06887589
124	0xbdb5d013	-0.08877578
125	0x3e6ac41f	0.22926377
126	0x3e546882	0.20742992
127	0x3c5811ed	0.013187868
128	0x3f008022	0.50195515
129	0x3e53fcb2	0.20701864
130	0xbd9ac858	-0.07557744
131	0xbebb3e5a	-0.36571008
132	0xbe19ddc3	-0.15026002
133	0xbcb0c397	-0.02157764
134	0x3d440edb	0.04786573
135	0x3dcbc56c	0.099497646
136	0xbe7a52ed	-0.24445696
137	0xbe255f18	-0.16149557
138	0xbe0c8dbc	-0.13725942
139	0x3ec412a0	0.3829546
140	0x3d96ff95	0.07372967
141	0x3ec2e85c	0.380679
142	0x3cdb9b24	0.026807375
143	0xbc6ce8d9	-0.014459812
144	0xbe2da667	-0.16958009
145	0x3e000ea4	0.12505585
146	0x3e366bfd	0.17814632
147	0x3e2f8ac3	0.17142777
148	0x3e1d8fa3	0.15386824
149	0x3dbfe887	0.09370523
150	0xbd87d5c5	-0.0663257
151	0x3e8ced9b	0.2752503
152	0xbd123960	-0.03569925
153	0x3d61b400	0.055103302
154	0x3ed2f484	0.41202176
155	0xbdae85fd	-0.0852165
156	0x3ef8308e	0.48474544
157	0x3d7fc993	0.062448096
158	0x3db175e5	0.08665065
159	0xbcf30f7f	-0.029670475
160	0x3ea9b446	0.3314535
161	0x3d807a09	0.06273276
162	0x3e0d5e01	0.13805391
163	0x3ecc7c26	0.39938468
164	0x3ebe6852	0.37188965
165	0x3e629f39	0.22131051
166	0xbea0e408	-0.31423974
167	0xbdab2fa4	-0.08358696
168	0x3bca1d57	0.0061680484
169	0x3d3b94ca	0.045796193
170	0x3f0636dc	0.5242746
171	0x3ca6d52a	0.020365316
172	0xbe2cb074	-0.16864187
173	0xbe9770ad	-0.29578152
174	0xbea9f053	-0.33191165
175	0xbe8f37e8	-0.2797234
176	0xbe4b1689	-0.19832815
177	0x3e5b0551	0.21388747
178	0x3d3b94a5	0.045796055
179	0xba76ab09	-0.00094096415
180	0xbe4be687	-0.19912158
181	0x3e88118c	0.26575887
182	0x3e0679c1	0.13132383
183	0xbe4ea022	-0.20178273
184	0x3e80e7f8	0.25176978
185	0x3d4df860	0.050285697
186	0x3d03bdb2	0.03216333
187	0x3caf6dc3	0.021414643
188	0x3e7c4988	0.24637425
189	0x3da99328	0.08280021
190	0xbd62e70e	-0.055396132
191	0x3ed5d02b	0.41760382
192	0x3e275c50	0.16343808
193	0x3e2e0498	0.1699394
194	0x3ddf1ae0	0.10893798
195	0xbe106ae8	-0.14103281
196	0x3d2a36f4	0.041556314
197	0xbe2712a5	-0.16315706
198	0x3ea05c56	0.31320447
199	0xbe0b45e0	-0.13600874
200	0xbde6e7dc	-0.112746924
201	0x3c55a5b8	0.013039999
202	0x3d4c6e45	0.04990985
203	0xbd8ab41d	-0.06772635
204	0x3d463189	0.048387084
205	0xbe0b5369	-0.13606037
206	0x3daf2c30	0.0855335
207	0x3ecacd72	0.39609867
208	0x3e6a963a	0.2290887
209	0x3e75d79e	0.24008033
210	0x3a420915	0.0007401866
211	0x3aa9291c	0.0012905928
212	0x3c7baa3a	0.015360409
213	0xbdd767ff	-0.105178826
214	0xbd8631b2	-0.065524474
215	0x3d8a5ae5	0.06755618
216	0xbdc83548	-0.097757876
217	0x3e98585c	0.29754913
218	0x3dd57714	0.10423103
219	0x3d8845b9	0.066539235
220	0x3e2f9153	0.1714528
221	0x3e56fbde	0.20994517
222	0x3e4ecf38	0.20196235
223	0xbaf80b4a	-0.0018924263
224	0xbc08f39f	-0.008358865
225	0x3d3b86b0	0.045782745
226	0x3cb90bcd	0.022588635
227	0x3dbbd924	0.09172276
228	0xbe8a97b3	-0.27068862
229	0x3f03ef94	0.5153744
230	0x3e9ee55e	0.31034368
231	0x3d8a5e2b	0.06756242
232	0x3d34afe5	0.04411306
233	0xbe9d97f4	-0.30779994
234	0xbda42898	-0.08015555
235	0xbea32c22	-0.31869608
236	0xbe920487	-0.2851908
237	0x3e3584eb	0.17726485
238	0x3dd1c570	0.10242736
239	0x3d58348c	0.052784488
240	0x3f11d2a8	0.5696206
241	0x3ec08834	0.37603915
242	0xbeb4bcb2	-0.35300213
243	0x3df7d2de	0.121007666
244	0x3cbaea7c	0.022816889
245	0x3d207175	0.0391707
246	0xbda79e50	-0.081844926
247	0x3d1236bf	0.03569674
248	0xbe90efd6	-0.2830798
249	0x3df837e1	0.12120033
250	0x3e4526fb	0.19253151
251	0x3edb4dd5	0.4283282
252	0x3e02e9d3	0.1278451
253	0x3eb8698e	0.36018032
254	0xbdf20ce2	-0.118188635
255	0x3d5d9220	0.054094434

lstm.weight_hh_l0 f4 [512, 128]
0	0xbdb896f4	-0.09013167
1	0x3de221f5	0.11041633
2	0x3deb639a	0.11493607
3	0xbd4c8b3f	-0.049937483
4	0xbe139123	-0.14410834
5	0xbc2c65ea	-0.010522345
6	0xbd770a53	-0.06031258
7	0xbddf1414	-0.108925015
8	0xbe3619e0	-0.17783308
9	0xbc86ee97	-0.01647119
10	0xbd2f1da1	-0.042752866
11	0xbbceb2c4	-0.0063079316
12	0x3d8d04b2	0.06885661
13	0xbbff2db5	-0.007787431
14	0x3d3c19c1	0.045923
15	0xbcd42d23	-0.02590043
16	0xbb80404e	-0.0039139157
17	0xbd8c3469	-0.06845934
18	0x3cd7871d	0.026309544
19	0xbe02aeb4	-0.12761956
20	0x3deb5e1d	0.1149256
21	0x3def78bd	0.11692951
22	0x3ceddd73	0.02903626
23	0xbcdefd0a	-0.027220268
24	0x3cd684ba	0.026186336
25	0x3df77be3	0.120841764
26	0x3da8c345	0.0824037
27	0x3e214e69	0.15752567
28	0xbdcb85a6	-0.09937601
29	0xbd92b279	-0.07162947
30	0xbdb7b92b	-0.08970865
31	0xbdb11b77	-0.08647817
32	0xbd6404bc	-0.055668578
33	0xbdba1952	-0.09086861
34	0xbdce7355	-0.100805916
35	0x3d43321c	0.04765521
36	0x3db1e8aa	0.08686955
37	0x3dd6b0d8	0.10482949
38	0x3d3811ac	0.04493873
39	0xbcc14a5d	-0.02359503
40	0x3e06ccde	0.13164088
41	0x3de676e0	0.11253142
42	0x3e4b05bd	0.19826408
43	0xbd951c4d	-0.072807886
44	0x3cb041b4	0.021515705
45	0x3b2b3a0f	0.0026127135
46	0x3d37c15e	0.044862144
47	0x3e0a0996	0.13480219
48	0x3bfe2870	0.0077562854
49	0xbdf6ee9a	-0.120572284
50	0xbd870c3c	-0.065941304
51	0x3ba841c1	0.0051347916
52	0xbd56739c	-0.052356347
53	0x3dd9cade	0.10634397
54	0x3d1d50ba	0.038407065
55	0x3dc3da99	0.095631786
56	0x3dd187c9	0.10230977
57	0x3db95281	0.090489395
58	0x3d0821e4	0.033235446
59	0x3de525ef	0.11188876
60	0xbe15eef3	-0.14641933
61	0xbdaac84f	-0.08338987
62	0x3bfd51e6	0.0077307103
63	0x3d891ecc	0.06695327
64	0x3b863dd9	0.0040967283
65	0xbd993a37	-0.07481807
66	0xbdd79263	-0.10525968
67	0x3deb30b9	0.114839025
68	0x3e00e333	0.1258667
69	0xbc8f273e	-0.017474767
70	0xbd238f7c	-0.03993176
71	0xbcdd8801	-0.02704239
72	0x3dd1d6fd	0.10246084
73	0x3a379320	0.00070028193
74	0x3dcd43f6	0.10022728
75	0x3c8c97ff	0.017162321
76	0x3c8d1f9d	0.017226988
77	0xbcbcc600	-0.023043633
78	0xbe05d449	-0.13069262
79	0x3d39aaab	0.045328777
80	0xbd868730	-0.06568754
81	0x3e03e66c	0.12880868
82	0x3e26ad01	0.16276933
83	0x3ce2e6eb	0.027698
84	0x3d901908	0.07036024
85	0xbd05b800	-0.03264618
86	0xbc535d9e	-0.012900738
87	0x388da9d7	6.755039e-05
88	0xbcc3193a	-0.02381574
89	0xbd7a2f35	-0.061080176
90	0x3dc4fc34	0.096184164
91	0xbc8f41ed	-0.01748749
92	0x3c9bd4b1	0.019022318
93	0xbcf70e5e	-0.030158218
94	0xbdd8b5ea	-0.10581572
95	0x3e250d27	0.16118298
96	0x3cb888d5	0.022526184
97	0x3dfbae9d	0.12289164
98	0x3d2708bd	0.040779818
99	0x3c034bd2	0.008013682
100	0xbcaccf85	-0.021095047
101	0x3e37bdae	0.17943451
102	0xbd2f2d76	-0.042767964
103	0x3d85514b	0.06509646
104	0x3b8c90c4	0.0042897183
105	0xbcf973ce	-0.030450728
106	0xbdd82955	-0.105547585
107	0xbcdc1631	-0.02686605
108	0xbd3b26df	-0.045691367
109	0xbd2b7630	-0.04186076
110	0xbc94ade8	-0.018149331
111	0x3ddf5f4f	0.109068505
112	0x3d0f5cb4	0.035000518
113	0xbdb2048f	-0.08692276
114	0x3e11e204	0.14246374
115	0xbc378f68	-0.011203624
116	0x3d4c7041	0.04991174
117	0xbd7a248e	-0.061070018
118	0x3d7e87dd	0.062141288
119	0x3ded7b65	0.11595801
120	0xbdc74480	-0.09729862
121	0x3dd2ac25	0.1028674
122	0x3ccac77a	0.024753321
123	0x3da81178	0.08206457
124	0x3d786c35	0.06065007
125	0xbd1248fa	-0.035714127
126	0xbd9ed77f	-0.07755946
127	0x3e057f21	0.13036777
128	0xbdab9a89	-0.083790846
129	0x3e19574d	0.14974709
130	0xbdda0024	-0.10644558
131	0xbd76d236	-0.060259067
132	0xbdb0dc23	-0.08635738
133	0xbe0f875d	-0.1401648
134	0xbdad0968	-0.0844906
135	0xbe43c98a	-0.1911985
136	0x3e3cc8a9	0.18435921
137	0xbe1e88f9	-0.15481938
138	0xbcefdc76	-0.029279929
139	0x3da8d08b	0.082429014
140	0x3e42e851	0.19033934
141	0x3dafe63f	0.08588838
142	0xbca1480c	-0.019687675
143	0x3e09ca9b	0.13456194
144	0x3d4e4d43	0.05036665
145	0x3df31a11	0.11870206
146	0x3db4aff3	0.08822622
147	0xbe52e0c0	-0.20593548
148	0x3db7aefa	0.08968921
149	0x3dabdb44	0.08391431
150	0x3da34066	0.079712674
151	0x3dd94e86	0.1061068
152	0x3dfa8cee	0.122339115
153	0x3d18b3cb	0.03728084
154	0x3dac65c9	0.084178515
155	0x3d5ddded	0.054166723
156	0xbe0919b3	-0.1338871
157	0xbcb76f51	-0.022391947
158	0xbe0f5d0c	-0.14000338
159	0xbe83a4b7	-0.25711605
160	0xbcd92b83	-0.026510006
161	0xbce73552	-0.028223667
162	0xbe5b5e13	-0.21422605
163	0x3d8bc490	0.06824601
164	0xbe2d4854	-0.16922122
165	0x3e3ffecc	0.18749541
166	0xbe16b200	-0.14716339
167	0xbe289e99	-0.1646675
168	0xbc319145	-0.010837858
169	0xbe9f2ad6	-0.3108737
170	0xbe1cd5a9	-0.1531588
171	0xbdb4c1df	-0.088260405
172	0x3d41db79	0.047328446
173	0x3d8ad991	0.06779779
174	0x3e0f1880	0.1397419
175	0x3c6ef720	0.014585286
176	0x3e07c89d	0.13260122
177	0x3bbd7d7c	0.005782781
178	0xbe238228	-0.1596762
179	0xbc82dd7f	-0.015974758
180	0xbe190766	-0.14944229
181	0x3de4a1a9	0.11163647
182	0x3e4ef113	0.2020915
183	0x3e7ffada	0.24998036
184	0x3e10ab34	0.14127809
185	0x3d5354a7	0.051594403
186	0x3df51f20	0.11968827
187	0x3ddb93ad	0.10721526
188	0xbe1362f0	-0.1439321
189	0x3e52824a	0.20557514
190	0xbc908cc1	-0.017645242
191	0x3cb0d302	0.021584991
192	0xbd0a0750	-0.03369838
193	0xbda385ed	-0.07984529
194	0xbe9dc7ca	-0.3081649
195	0x3e09f391	0.1347182
196	0x3db59341	0.08865977
197	0xbda6c7b8	-0.08143562
198	0x3d0f1abb	0.0349376
199	0x3eb9a454	0.36258185
200	0x3d692cce	0.056927495
201	0x3d18a7d6	0.037269436
202	0xbe968336	-0.2939698
203	0xbd4e84e0	-0.05041969
204	0x3b171f40	0.0023059398
205	0x3e1dbcf3	0.1540411
206	0xbe2969da	-0.16544285
207	0xbe179f6c	-0.14806908
208	0x3ddbef7b	0.10739037
209	0x3d6d0094	0.05786188
210	0x3e51e893	0.20498876
211	0x3de011c9	0.10940892
212	0xbe71d16c	-0.23615044
213	0xbe463bdd	-0.19358774
214	0xbe0ab330	-0.13544917
215	0xbe1e7683	-0.15474896
216	0xbe76d310	-0.24103951
217	0xbcb3d554	-0.021952309
218	0x3e313699	0.17305984
219	0x3de7e1e3	0.11322381
220	0x3d7b62a7	0.06137338
221	0x3e045fb3	0.12927131
222	0x3e893439	0.26797655
223	0x3cffc5d7	0.031222267
224	0xbddf03b8	-0.10889381
225	0x3e257431	0.16157605
226	0x3d9a9746	0.07548384
227	0x3dd25781	0.10270596
228	0xbdcdad6d	-0.10042844
229	0x3dba1dbc	0.09087703
230	0xbe1fa7a1	-0.15591289
231	0x3e30c7f7	0.1726378
232	0xbd597c2c	-0.053096935
233	0x3e544c94	0.20732337
234	0xbde74a83	-0.11293509
235	0xbdcd9fa1	-0.100402124
236	0x3e33e818	0.17569005
237	0xbe476eda	-0.1947588
238	0x3ecf122d	0.40443555
239	0x3e14042c	0.14454716
240	0x3e0c63fd	0.13710018
241	0xbdf41891	-0.11918748
242	0x3e25afac	0.16180295
243	0x3da14cea	0.07875998
244	0x3d32cb97	0.04365119
245	0xbe126702	-0.14297107
246	0xbdbfb264	-0.09360197
247	0x3e364083	0.17798047
248	0x3b779508	0.0037778039
249	0x3daaf2e1	0.08347107
250	0x3d14a274	0.03628774
251	0x3dc0c672	0.094128504
252	0x3d4f9828	0.050682217
253	0xbdc7daf1	-0.09758557
254	0xbe77da64	-0.24204403
255	0x3d72408c	0.059143588

lstm.bias_ih_l0 f4 [512]
0	0x3dd17651	0.10227645
1	0x3e968b42	0.2940312
2	0x3e94d10c	0.2906574
3	0x3d8c962d	0.06864581
4	0x3e22f674	0.15914327
5	0x3e1c9cb8	0.15294158
6	0x3dcf2e67	0.101162724
7	0x3d8985b3	0.06714954
8	0x3efbccd6	0.49179715
9	0x3cfec699	0.031100558
10	0x3d23888f	0.039925154
11	0x3de6d516	0.11271112
12	0x3e3ecc3d	0.18632598
13	0x3de9d676	0.11417858
14	0x3e43436d	0.1906869
15	0x3de1cd7e	0.11025523
16	0x3e03b6f7	0.12862764
17	0x3e7f0695	0.24904855
18	0x3e18ab2d	0.14909048
19	0x3dcd3305	0.10019497
20	0x3dd2589d	0.10270808
21	0x3c04a2ab	0.008095424
22	0x3ebb049e	0.3652696
23	0xbc77087f	-0.015077709
24	0x3e1d8188	0.15381444
25	0x3d57cb57	0.052684154
26	0x3d8dcac2	0.069234386
27	0x3e34c1f2	0.1765211
28	0xbb9b9843	-0.0047483756
29	0x3daac01a	0.08337422
30	0x3da02887	0.0782023
31	0x3e1cf0b3	0.15326194
32	0x3d81da16	0.06340425
33	0x3eafc433	0.34329376
34	0x3e6b9a04	0.23007971
35	0x3e0a533b	0.13508312
36	0x3e00a9f7	0.12564836
37	0x3e8f39a1	0.27973655
38	0x3e0e42c0	0.1389265
39	0x3e535a51	0.20639922
40	0x3e6d1a2d	0.23154517
41	0x3e7a870e	0.24465582
42	0x3e9903b9	0.29885653
43	0x3e08745a	0.13325635
44	0x3e064d17	0.13115345
45	0x3d4cabe9	0.049968634
46	0x3e1adc98	0.15123212
47	0x3ea174f0	0.3153453
48	0x3e180b87	0.14848147
49	0x3da0a893	0.07844653
50	0x3dc7302a	0.097259834
51	0x3c83c4fe	0.016085144
52	0x3da36aa8	0.079793274
53	0x3c93917e	0.018013712
54	0x3e2d8e81	0.16948892
55	0x3e10bc3a	0.14134303
56	0x3d18fe19	0.0373517
57	0x3d639498	0.055561632
58	0x3e4d63ff	0.20057677
59	0x3de17341	0.11008311
60	0x3e425ea9	0.18981422
61	0x3e40f8ae	0.18844864
62	0x3eade1c3	0.33961305
63	0x3ebfff9b	0.374997
64	0x3d39f32d	0.045397926
65	0x3b0ab3d3	0.0021164312
66	0x3e863b1c	0.26216972
67	0x3e478793	0.19485311
68	0x3dd57fa3	0.104247354
69	0x3e80282b	0.25030646
70	0x3df9c058	0.1219489
71	0x3eb1df59	0.34740713
72	0x3e4e42c0	0.2014265
73	0x3dcfc56c	0.10145077
74	0x3e99e836	0.30059975
75	0x3d9147d9	0.07093782
76	0x3e22c9ed	0.15897341
77	0x3ca64a70	0.020299166
78	0x3e3c222b	0.18372409
79	0x3e868388	0.26272225
80	0x3eb2038a	0.34768325
81	0x3dbf1ef2	0.09332074
82	0x3def31a5	0.11679391
83	0x3e0a75e8	0.1352154
84	0x3e716f64	0.23577648
85	0x3c51537a	0.01277625
86	0x3e01120c	0.1260454
87	0x3e049931	0.12949063
88	0x3deaed5b	0.11471053
89	0x3bcf15a4	0.0063197184
90	0x3dccd5d0	0.10001719
91	0x3e574482	0.21022227
92	0x3e692aa2	0.2277017
93	0x3d2fee3d	0.04295181
94	0x3e3cd92a	0.18442217
95	0x3d397373	0.045276117
96	0x3dea87cd	0.11451683
97	0x3e82553d	0.25455657
98	0x3e5eef43	0.21770959
99	0x3daf20e8	0.08551198
100	0x3df70944	0.12062314
101	0x3eb96122	0.3620692
102	0xbca6eef7	-0.02037762
103	0x3d4647b8	0.04840824
104	0x3db06168	0.08612329
105	0x3d55d3de	0.052204005
106	0x3df860d9	0.12127847
107	0x3debf8fa	0.11522098
108	0x3e9549ee	0.29157966
109	0x3df5d728	0.120039284
110	0x3e286182	0.16443446
111	0x3e4e9f73	0.20178013
112	0x3d77eebd	0.060530413
113	0x3e9399a8	0.28828168
114	0x3e061d78	0.13097179
115	0x3d8e905e	0.069611296
116	0x3e052f26	0.13006267
117	0x3d8836a5	0.066510476
118	0x3e192e95	0.14959176
119	0x3e280e36	0.16411671
120	0x3dd31de7	0.10308438
121	0x3e23a23b	0.15979855
122	0x3dbc94f2	0.092080966
123	0x3bd1ffa3	0.006408648
124	0x3ca1ab60	0.019735038
125	0xbbaefc73	-0.005340153
126	0x3cbf7748	0.023372307
127	0x3c76da73	0.015066731
128	0x3e30d993	0.17270498
129	0x3c30c46a	0.010789016
130	0x3dcf5b25	0.10124806
131	0x3c64b83b	0.01395994
132	0x3d9abd2b	0.07555612
133	0xbb8c8458	-0.0042882375
134	0x3d8bcb60	0.068259
135	0x3ce01080	0.027351618
136	0xbe723216	-0.23651919
137	0x3d9f404a	0.07775934
138	0x3dbce5ec	0.092235416
139	0x3d3b50b6	0.04573127
140	0xbc08aafb	-0.008341546
141	0x3e3a4481	0.18190195
142	0x3cc199ab	0.023632845
143	0xbcab8cba	-0.020941127
144	0x3e0d3ed8	0.13793504
145	0x3c348988	0.011019118
146	0x3cf3e4e7	0.029772235
147	0x3e11e9c5	0.14249332
148	0x3dd066a6	0.10175829
149	0x3db8183a	0.08988996
150	0x3e388ccc	0.1802246
151	0x3da83ab1	0.082143195
152	0xbd01580d	-0.031578112
153	0x3e089c8b	0.13340966
154	0xbcc4c011	-0.024017366
155	0x3e00bbcb	0.12571637
156	0x3e14cc24	0.14530998
157	0xbba7cdfb	-0.0051209903
158	0x3b9223a0	0.0044598132
159	0x3dc7f28f	0.09763061
160	0x3cc3d4bf	0.023905156
161	0x3d80b5ea	0.06284697
162	0x3d621258	0.055193275
163	0x3c0cae13	0.008586424
164	0x3d32fb91	0.043696944
165	0x3d967cc7	0.07348018
166	0xbbefe232	-0.0073206658
167	0x3e322126	0.17395458
168	0x3daae2c1	0.08344031
169	0x3df81020	0.121124506
170	0x3c8c4e1d	0.017127091
171	0x3d8ac7ff	0.067764275
172	0x3dc05be5	0.093925275
173	0x3da127e1	0.078689344
174	0x3d2a1ff6	0.041534387
175	0x3d057998	0.032586664
176	0x3b908f46	0.004411611
177	0x3ddff0a0	0.109345675
178	0x3c6df054	0.014522631
179	0xbc956c1e	-0.01824003
180	0x3b599ae6	0.00332039
181	0x3dd1069e	0.1020634
182	0x3e68cabe	0.2273359
183	0x3ddfe0e4	0.10931566
184	0x3cdfb78b	0.0273092
185	0x3db7246f	0.08942496
186	0x3ded61a7	0.11590891
187	0x3daecae9	0.08534796
188	0x3d907c26	0.070549294
189	0x3d9cb1e0	0.076511145
190	0x3de4f9db	0.11180469
191	0x3e49beb8	0.1970166
192	0x3dfd7c84	0.12377265
193	0x3e07dcc7	0.13267814
194	0x3c344f51	0.011005239
195	0x3e20f13b	0.15717022
196	0x3d11b547	0.03557327
197	0x3db59fa1	0.088683374
198	0xbcac0891	-0.021000179
199	0x3e0b6fa7	0.1361681
200	0x3d2eeaf9	0.042704556
201	0xbd6daa49	-0.058023725
202	0x3db8014e	0.08984624
203	0x3df13542	0.11777736
204	0xbcb060a0	-0.02153045
205	0xbc3dc3cd	-0.011582327
206	0x3e0ad6a2	0.13558438
207	0xbc9c4b78	-0.019078955
208	0x3c657531	0.014004991
209	0x3d051c0d	0.032497454
210	0x3e418c44	0.18901163
211	0x3dd3c876	0.10340969
212	0x3e4ade7a	0.1981143
213	0x3e049441	0.1294718
214	0x3e1cdd72	0.1531885
215	0x3dfad535	0.12247697
216	0x3df0e43a	0.11762281
217	0x3d0749b5	0.033029277
218	0x3de3df72	0.11126603
219	0x3e2dcc07	0.16972362
220	0x3dc444a4	0.09583405
221	0x3e089170	0.1333673
222	0xbc44bcd8	-0.0120079145
223	0x3d2b8dd8	0.04188332
224	0x3ddc96c1	0.107709415
225	0x3e050f33	0.1299408
226	0x3e137c79	0.14402951
227	0x3d22f605	0.039785404
228	0x3e84a817	0.25909492
229	0x3e2db3d6	0.16963133
230	0x3c87f737	0.016597373
231	0x3db33076	0.087494776
232	0x3d66c95b	0.05634437
233	0x3d4ed564	0.050496474
234	0xbc72c0ce	-0.014816476
235	0x3dfb1b58	0.12261075
236	0x3e3659b6	0.1780766
237	0x3e14b4ac	0.14522046
238	0x3cbbc101	0.02291918
239	0x3d1ef3ed	0.038806845
240	0x3dd88a43	0.10573246
241	0x3e133ec6	0.14379415
242	0x3e07f7d9	0.1327814
243	0xbccf7156	-0.025322597
244	0xbc7e8d8f	-0.01553668
245	0x3d975c52	0.073906556
246	0x3d81f5e9	0.06345732
247	0x3e3e4a81	0.18583108
248	0x3c2c0f57	0.010501704
249	0x3e0395a1	0.12850048
250	0xbd030fbb	-0.031997424
251	0x3d6c25e1	0.05765331
252	0x3da10e00	0.078639984
253	0xbcb4ae63	-0.02205581
254	0x3dc69aa1	0.09697462
255	0x3cbe9eb0	0.023269027

lstm.bias_hh_l0 f4 [512]
0	0x3e2b02bf	0.16700266
1	0x3e40a3d5	0.18812497
2	0x3e80219b	0.2502564
3	0x3d8c8a5b	0.06862327
4	0x3c1ac47e	0.009446261
5	0x3d9d01a8	0.076663315
6	0x3e3f9b2f	0.18711542
7	0x3c266fd0	0.010158494
8	0x3f0d2b8e	0.55144584
9	0x3e050f97	0.12994228
10	0x3db2b41c	0.087257594
11	0x3e401b8e	0.18760511
12	0x3cf96d3a	0.030447591
13	0x3e6a7eb9	0.22899903
14	0x3e9ecd3a	0.3101595
15	0x3e0101f2	0.12598398
16	0x3da1e4be	0.07904957
17	0x3e765fc6	0.24059972
18	0x3ddcf5ed	0.10789094
19	0x3e197ed9	0.14989795
20	0x3e2f9ab3	0.17148857
21	0x3d41e3bd	0.04733633
22	0x3e9055d0	0.2819047
23	0x3d87e1cb	0.066348635
24	0xbaae7d45	-0.001331248
25	0x3d641b5f	0.055690166
26	0x3df926e6	0.121656224
27	0x3e50df7f	0.20397757
28	0x3d5c8163	0.05383433
29	0x3dc71084	0.09719947
30	0x3df2d442	0.11856891
31	0x3d9116bb	0.070844136
32	0x3cf8bbf6	0.030363064
33	0x3e36e4d3	0.17860727
34	0x3e868b1c	0.26278007
35	0x3d9bdc72	0.07610406
36	0x3e21d87f	0.15805243
37	0x3e188ba1	0.14897014
38	0x3dce1411	0.10062421
39	0x3e92605f	0.2858915
40	0x3e53fcc8	0.20701897
41	0x3e50641f	0.20350693
42	0x3e541dac	0.20714444
43	0x3db878e8	0.09007436
44	0x3e5308cf	0.20608829
45	0x3e0f3d23	0.13988166
46	0x3d1324b3	0.03592367
47	0x3eea335b	0.45742306
48	0x3d3e5ed8	0.04647717
49	0x3de3a899	0.11116142
50	0x3dcfe2ea	0.10150702
51	0x3cacf580	0.021113157
52	0x3cb8e99d	0.022572333
53	0x3d6cd72e	0.0578224
54	0x3e844a04	0.2583772
55	0x3d45f93f	0.048333403
56	0x3d772ae2	0.06034363
57	0x3e1cd43a	0.15315333
58	0x3e71a707	0.23598872
59	0x3d95e468	0.07318956
60	0x3e19d863	0.15023951
61	0x3e3e06cd	0.18557282
62	0x3ebe97b1	0.37225106
63	0x3ec9be93	0.3940321
64	0x3e0303d3	0.12794428
65	0x3d770708	0.06030944
66	0x3dfc9dfe	0.12334822
67	0x3dc389dc	0.09547779
68	0x3d10cd82	0.035352238
69	0x3ebac947	0.36481687
70	0x3e33efbf	0.17571925
71	0x3e876bee	0.2644953
72	0x3de7742a	0.113014534
73	0x3e0e4c8b	0.13896386
74	0x3eac3c56	0.33639783
75	0x3e3d35fb	0.18477623
76	0x3e13afd2	0.14422539
77	0x3e0575a6	0.1303316
78	0x3e56cdee	0.20976993
79	0x3e2b5776	0.16732582
80	0x3eb3a65b	0.35087857
81	0x3d737724	0.059439793
82	0x3e086816	0.13320956
83	0x3e0a1da7	0.13487874
84	0x3e6115a0	0.21980906
85	0x3e117629	0.14205231
86	0x3c9714f3	0.018442607
87	0x3e1013c4	0.1407004
88	0xbc98bd60	-0.018644989
89	0x3c81611c	0.015793376
90	0x3dfee03a	0.124451116
91	0x3e232a57	0.1593412
92	0x3e438682	0.1909428
93	0x3db392ad	0.087682106
94	0x3e173834	0.14767534
95	0x3d42f1d4	0.047593907
96	0x3e25c676	0.16188988
97	0x3e7ebd45	0.24876888
98	0x3e751947	0.23935424
99	0x3e57c2f1	0.21070458
100	0x3e2bc157	0.16772972
101	0x3eb85944	0.36005604
102	0x3d649e0f	0.0558148
103	0x3e0d32a7	0.13788854
104	0x3c66fe47	0.01409871
105	0x3ddc1e86	0.107480094
106	0x3dc085b6	0.09400503
107	0x3df0e938	0.11763233
108	0x3e4ad71f	0.19808625
109	0x3dc42fa3	0.095793985
110	0x3e233026	0.15936336
111	0x3e386c34	0.18010026
112	0x3e30bf7b	0.17260544
113	0x3e7e37cc	0.24825972
114	0x3d80b558	0.062845886
115	0x3dd98989	0.10621936
116	0x3e01d274	0.12677938
117	0x3e4224bf	0.1895933
118	0x3d2edb84	0.042689815
119	0x3d373bd5	0.044734795
120	0x3e392ae1	0.18082763
121	0x3e68c7db	0.22732489
122	0xbc6cc0bf	-0.014450251
123	0x3db23750	0.08701956
124	0x3d03355d	0.032033313
125	0x3bb4fd97	0.0055233943
126	0x3d4456db	0.047934394
127	0x3d5c8ee5	0.053847212
128	0x3e045c99	0.12925948
129	0xbc9fb249	-0.019494193
130	0x3e1c4bb4	0.15263253
131	0x3dd8f15d	0.105929114
132	0x3e26b29c	0.16279072
133	0xbca71993	-0.020397937
134	0x3e0fd5e6	0.1404644
135	0x3dda5998	0.1066162
136	0xbdec90ee	-0.11551081
137	0x3ddcf592	0.10789026
138	0x3d4f1685	0.050558586
139	0x3ded1c64	0.11577681
140	0xbc8ff1a3	-0.017571276
141	0x3e4d2d31	0.2003677
142	0x3e40c825	0.18826349
143	0x3dc17ca9	0.09447605
144	0x3d703650	0.058645546
145	0xbd2be6ec	-0.04196827
146	0x3e131b3c	0.14365858
147	0x3e111acf	0.14170383
148	0x3de40270	0.111332774
149	0x3d98173f	0.07426309
150	0x3e73f7a4	0.23824936
151	0x3e13bb5d	0.14426942
152	0x3d8d5f40	0.06902933
153	0x3d9fa63d	0.07795379
154	0x3e0c9f2b	0.13732593
155	0x3e04cc2b	0.12968509
156	0xbc1640f2	-0.009170758
157	0x3c91a1a4	0.017777272
158	0x3d51e30e	0.051241927
159	0x3d07b666	0.033132933
160	0x3dbdf990	0.09276116
161	0x3e4bee40	0.19915104
162	0xb7a3c7b3	-1.9524106e-05
163	0xbd1803eb	-0.03711311
164	0x3e1248b2	0.14285544
165	0x3db4c890	0.08827317
166	0x3d71fb9e	0.05907785
167	0x3d95c76f	0.073134296
168	0x3e37ff0f	0.17968391
169	0x3d82e183	0.06390669
170	0x3d468152	0.048463173
171	0x3c7e832f	0.015534206
172	0x3d16efb5	0.036849696
173	0x3e1883e3	0.14894061
174	0x3dfd9c55	0.123833336
175	0x3d92d443	0.07169392
176	0x3cd667eb	0.026172599
177	0x3dc3ed5b	0.09566756
178	0x3d5d78c4	0.05407025
179	0x3c291c37	0.010321668
180	0x3dd2dac3	0.10295632
181	0x3d8bcb10	0.068258405
182	0x3de6876a	0.11256297
183	0x3d47ebb6	0.048808776
184	0x3ce2fa20	0.02770716
185	0x3e03475b	0.12820189
186	0x3d3ad59f	0.04561388
187	0x3dc67efc	0.09692189
188	0x3d55e8d0	0.05222398
189	0x3e1d98c9	0.15390314
190	0x3dd8a133	0.10577621
191	0x3dd3a483	0.103341125
192	0x3de714f8	0.11283296
193	0xbb1e75f1	-0.0024179185
194	0x3d60df29	0.054900322
195	0x3db34143	0.08752682
196	0x3e0d5858	0.13803232
197	0x3e536805	0.20645149
198	0x3dcfe8c7	0.10151821
199	0x3d6d8e95	0.057997305
200	0x3d52ca1e	0.051462285
201	0xbc9d5cfa	-0.019209374
202	0xbc8653c8	-0.016397372
203	0x3c422456	0.0118494835
204	0xbcf34b80	-0.029699087
205	0x3d90de4d	0.070736505
206	0x3da2778d	0.07932959
207	0x3d88cc34	0.06679574
208	0x3e3973b8	0.1811055
209	0x3d26f028	0.040756375
210	0x3dbd1e5e	0.09234308
211	0x3d37f460	0.04491079
212	0x3dd07b48	0.10179764
213	0x3dee1e54	0.116268784
214	0x3e16af84	0.14715391
215	0x3d65adfe	0.056074135
216	0x3d0aafb9	0.03385899
217	0xbc5c64c1	-0.013451756
218	0x3deb4784	0.1148825
219	0x3e53edf6	0.20696244
220	0x3dc94859	0.09828252
221	0xbd0eeac0	-0.034891844
222	0x3b91ceb4	0.0044496898
223	0x3ddb647f	0.107125275
224	0x3de3895c	0.111101836
225	0x3e147d3e	0.14500901
226	0x3e1b5b76	0.15171608
227	0x3d224cde	0.039624088
228	0x3dbf1968	0.09331018
229	0x3e5ac720	0.21365023
230	0x3bd1a514	0.0063978527
231	0x3d328cd5	0.04359134
232	0x3d4de355	0.05026563
233	0x3d1a230f	0.03763109
234	0x3d8385be	0.06421994
235	0x3de2797e	0.11058329
236	0x3e15e05d	0.14636369
237	0x3c819fbd	0.01582324
238	0x3e1a6acd	0.15079804
239	0x3d9acad2	0.07558216
240	0x3e1f1fba	0.15539446
241	0x3e39557e	0.18099019
242	0x3e1b91c4	0.15192324
243	0x3e1188d5	0.14212354
244	0x3ddf242c	0.10895571
245	0x3e0b6d5a	0.13615933
246	0xbd290312	-0.041262694
247	0x3e2a80c5	0.16650684
248	0x3d8ae475	0.06781856
249	0x3be33b24	0.0069345403
250	0x3cca90fe	0.02472734
251	0x3d9f09b1	0.0776552
252	0x3df2ba99	0.11851997
253	0x3dea2a57	0.11433857
254	0xbd394ad7	-0.04523739
255	0x3d35a38b	0.04434542

fc.weight f4 [18, 128]
0	0x3db13512	0.086527005
1	0xbf03476f	-0.51280874
2	0x3e81fdcc	0.25388944
3	0x3e86e98c	0.26350057
4	0x3e260d69	0.16216053
5	0x3df1ee3b	0.11813017
6	0xbbe1c0de	-0.0068894466
7	0xbd985056	-0.07437198
8	0x3f3f65dc	0.747648
9	0xbc738416	-0.014863035
10	0x3f1fa3f1	0.6235953
11	0xbe2c1c7e	-0.16807744
12	0x3d816c85	0.063195266
13	0x3e3fa80a	0.18716446
14	0xbe4bfa72	-0.19919756
15	0xbe380bae	-0.17973205
16	0x3e180f9b	0.14849703
17	0x3db62e44	0.08895543
18	0xbe8b729f	-0.27235886
19	0x3e166f69	0.14690937
20	0xbeb59506	-0.35465258
21	0x3bfa6f43	0.007642658
22	0xbe564af2	-0.20927027
23	0xbe45e1bd	-0.19324394
24	0xbd091bcf	-0.033473786
25	0xbd2f5c30	-0.042812526
26	0xbe1cb4d4	-0.15303355
27	0xbe6b56fe	-0.22982404
28	0x3e83e519	0.25760725
29	0xbd923951	-0.071398385
30	0xbe80b489	-0.25137737
31	0x3eb71385	0.3575708
32	0x3e065bb5	0.13120921
33	0xbed2f8db	-0.41205487
34	0xbdcbb978	-0.09947485
35	0x3d8a94ec	0.06766686
36	0xbe9bd4f7	-0.30435917
37	0xbe9608ce	-0.29303592
38	0x3ebf20b8	0.3732965
39	0xbe67e8dd	-0.22647424
40	0xbe40a0a6	-0.18811283
41	0xbf1dba16	-0.6161207
42	0xbe97a9f5	-0.29621854
43	0xbde14d4e	-0.11001073
44	0xbde7ed55	-0.11324564
45	0xbd5d4ffe	-0.054031365
46	0x3dc7858a	0.097422674
47	0x3f1901df	0.5976848
48	0x3e2c183f	0.16806124
49	0xbe13f5f6	-0.14449295
50	0xbe6aefb8	-0.22943008
51	0x3de1bbe0	0.110221624
52	0x3e1db18d	0.15399761
53	0x3e596321	0.21229221
54	0xbe21492a	-0.15750566
55	0x3cd470b7	0.025932653
56	0xbd471fba	-0.04861424
57	0xbe8bba5f	-0.27290627
58	0xbcc447aa	-0.023959953
59	0xbea2c0a7	-0.31787607
60	0x3d57dff1	0.0527038
61	0xbde84322	-0.113409296
62	0xbe56d56e	-0.20979854
63	0xbece0fe4	-0.402465
64	0x3d0d7494	0.034535006
65	0xbd35e81b	-0.044410806
66	0xbec8f55a	-0.39249688
67	0xbe448fc8	-0.19195473
68	0x3c6d7b9c	0.014494803
69	0x3e86a2c3	0.26296052
70	0x3dfce1de	0.12347768
71	0xbcfe3582	-0.031031374
72	0x3ddead03	0.10872843
73	0x3e03a34a	0.12855259
74	0xbf1894de	-0.59602153
75	0xbd206fa4	-0.03916897
76	0xbea9a4f3	-0.3313366
77	0xbe9c8fab	-0.3057836
78	0x3dda0a5d	0.10646508
79	0xbed23723	-0.4105769
80	0xbed1a33e	-0.40944856
81	0xbeca0731	-0.39458612
82	0xbe7c16c6	-0.24618062
83	0xbe6c4c68	-0.23076022
84	0xbdfeb2d0	-0.124364495
85	0xbe45f7b2	-0.1933277
86	0xbe2a4fd2	-0.16632012
87	0x3d40f5db	0.047109466
88	0xbd3f900a	-0.046768226
89	0x3e104ffb	0.1409301
90	0x3e91ed2b	0.28501257
91	0x3da6bfb3	0.081420325
92	0x3d8ce538	0.068796575
93	0xbd835fb9	-0.06414742
94	0x3f440e0e	0.76583946
95	0xbcce69f5	-0.025197009
96	0x3d988943	0.074480556
97	0xbe4810d6	-0.19537672
98	0xbe0d0baf	-0.13773988
99	0xbdd30689	-0.10303981
100	0x3e72125c	0.23639816
101	0x3edd9695	0.43278947
102	0xbd622d84	-0.05521919
103	0x3e0a6bc4	0.13517672
104	0xbeb199ad	-0.34687558
105	0x3e49df71	0.19714142
106	0xbce27332	-0.02764282
107	0xbe0e668d	-0.13906308
108	0xbe6ead88	-0.23308384
109	0xbdaa2a81	-0.08308888
110	0x3f5798b7	0.842174
111	0x3e3e3bb8	0.18577468
112	0xbe3b693f	-0.18301867
113	0xbca18e15	-0.01972107
114	0x3d1b630e	0.037936263
115	0xbda699c3	-0.081347965
116	0xbe2d7e5e	-0.16942737
117	0xbc93d6c4	-0.018046744
118	0xbe27f7f8	-0.16403186
119	0xbe174717	-0.14773212
120	0x3e09244e	0.13392755
121	0xbe7e803c	-0.24853605
122	0x3d7954dd	0.060871948
123	0xbe46c2d1	-0.19410254
124	0xbd5a35f4	-0.05327411
125	0x3dfe99c5	0.12431673
126	0x3e4c4566	0.19948348
127	0x3dcf9d8d	0.10137472
128	0x3d9574e1	0.072976835
129	0x3e3e1b4b	0.18565099
130	0xbd83fdb5	-0.06444875
131	0x3dafc6d5	0.08582846
132	0xbe7c4b40	-0.2463808
133	0x3d948388	0.0725165
134	0xbe3d361c	-0.18477672
135	0xbed30683	-0.41215906
136	0xbde665f5	-0.112499155
137	0xbc921aac	-0.017834984
138	0xbe4345d2	-0.19069603
139	0xbcf447f6	-0.02981947
140	0xbdea6bd7	-0.1144635
141	0xbd171cc7	-0.03689268
142	0xbe28adab	-0.16472499
143	0x3bf3c493	0.007439205
144	0x3db8795c	0.090075225
145	0x3eebe9a8	0.46076703
146	0x3dd6b3e2	0.10483529
147	0xbdf50d8d	-0.11965475
148	0xbdd4f7de	-0.103988394
149	0xbdf3771f	-0.11887955
150	0x3e946fb6	0.2899148
151	0x3e3ea7d9	0.18618716
152	0x3df83531	0.121195205
153	0x3da61e9c	0.08111307
154	0x3e7b70af	0.24554704
155	0x3da1b86f	0.07896506
156	0xbe6aa192	-0.22913197
157	0xbe0825a2	-0.13295606
158	0x3dbec8e6	0.09315662
159	0x3ce6f509	0.028193014
160	0xbe832ed5	-0.25621668
161	0xbdc77ace	-0.0974022
162	0x3e24b979	0.16086377
163	0x3ed4d037	0.41565105
164	0xbe9455c4	-0.28971684
165	0xbcbeb90e	-0.0232816
166	0xbe84408e	-0.258305
167	0x3e9e5939	0.30927446
168	0xbe945a74	-0.2897526
169	0x3f24c1fa	0.64358485
170	0x3df5d643	0.12003758
171	0x3e544539	0.20729531
172	0x3e1763f6	0.14784226
173	0x3d15bacb	0.036555093
174	0x3c26fa9c	0.010191586
175	0x3ef01fa6	0.46899146
176	0x3e090358	0.13380182
177	0x3dfb37a6	0.122664735
178	0x3e6f79ce	0.23386309
179	0xbdd1fc78	-0.10253233
180	0xbbae8c36	-0.005326773
181	0x3c9b1e76	0.018935423
182	0xbda32801	-0.079666145
183	0xbe7f1660	-0.24910879
184	0xbdf7c86b	-0.120987736
185	0xbd468ccf	-0.04847413
186	0x3df9ef38	0.122038305
187	0x3e06f445	0.13179119
188	0xbe1d74bf	-0.15376566
189	0xbe2b0499	-0.16700973
190	0x3d53cc38	0.05170843
191	0x3e515369	0.20441975
192	0xbd7f1d32	-0.062283702
193	0xbd945795	-0.072432674
194	0x3e143d69	0.14476551
195	0x3e384a07	0.17996989
196	0x3da87c5d	0.082268454
197	0xbd932e2c	-0.07186541
198	0xbe3ebcc2	-0.18626693
199	0xbe00f700	-0.12594223
200	0xbdc9cbd5	-0.09853331
201	0xbe4565d6	-0.19277129
202	0x3f434ae5	0.76286155
203	0xbe8b6b6d	-0.27230397
204	0x3e480a40	0.1953516
205	0x3d0d9afe	0.03457164
206	0xbe16a73a	-0.1471223
207	0x3e2c3042	0.16815284
208	0x3e885863	0.26629934
209	0x3e5287ac	0.20559567
210	0xbe440376	-0.19141945
211	0xbe0ed5b2	-0.13948706
212	0xbdb55ecb	-0.08855971
213	0xbe7d5598	-0.24739683
214	0xbd99e229	-0.0751384
215	0xbe986278	-0.29762626
216	0xbd932217	-0.071842365
217	0xbe197c79	-0.14988889
218	0x3e1a40f5	0.15063842
219	0xbe2b48bb	-0.16726963
220	0xbe9402a4	-0.28908265
221	0x3e7ae069	0.24499668
222	0xbf3843e8	-0.71978617
223	0x3da3906f	0.07986533
224	0x3e12779e	0.14303443
225	0x3e11de8d	0.14245053
226	0xbdf3ff53	-0.119139336
227	0x3dbce5be	0.09223507
228	0xbe4834d4	-0.19551402
229	0x3e8f9b75	0.28048292
230	0x3de0ffd8	0.10986298
231	0xbe01633f	-0.12635516
232	0x3deb2910	0.114824414
233	0xbda844d7	-0.08216255
234	0xbe48ba14	-0.19602233
235	0xbb8b8701	-0.004258037
236	0xbe05721d	-0.13031812
237	0xbe08e585	-0.13368805
238	0xbf1f8263	-0.6230833
239	0x3db4e18f	0.088320844
240	0x3e06e89f	0.13174675
241	0xbe11fb65	-0.14256056
242	0x3deb826a	0.11499484
243	0xbb6887d6	-0.0035481355
244	0xbd023baf	-0.0317952
245	0xbe445075	-0.19171317
246	0x3de6f63b	0.112774335
247	0x3dcfcbee	0.101463184
248	0x3e6e2bdb	0.23258917
249	0x3e6c9eec	0.23107499
250	0x3d70024a	0.058595933
251	0x3df13e98	0.11779517
252	0xbd5e8e8b	-0.05433516
253	0xbc9879c2	-0.018612746
254	0x3e765f21	0.24059726
255	0x3e300586	0.17189607

fc.bias f4 [18]
0	0xbdbe0ef8	-0.09280199
1	0xbd85052b	-0.06495126
2	0xbc4df110	-0.012569681
3	0xbda7f619	-0.08201236
4	0xbd63ca37	-0.05561277
5	0xbde9ed0a	-0.11422165
6	0x3e5fc727	0.21853314
7	0x3da8b456	0.08237521
8	0xbbdb3db4	-0.006690705
9	0xbdb231eb	-0.08700927
10	0xbe010984	-0.12601286
11	0x3c8474c3	0.016168958
12	0x3e4cd751	0.20004012
13	0xbb04b021	-0.0020246583
14	0xbc9a4108	-0.018829837
15	0xbcd74771	-0.026279183
16	0xbdfea9a4	-0.124347
17	0x3b0fd8b3	0.002194923
