01_rnn/logs/LSTM/LSTM_epoch_90_acc_0.8197.pth (torch, 395002 bytes, 6 tensors)

lstm.weight_ih_l0 f4 [512, 57]
-0.03098204 0.23285602 0.05327555 0.20832711 0.3078 0.3909697 0.17773643 -0.50569814
0.63478535 0.13264485 0.6600557 -0.17914915 0.20758565 0.36144215 0.19780621 0.6032011
0.4010465 -0.33003914 0.05411574 -0.58996594 0.21620323 0.16780001 -0.46582982 0.34545827
-0.15562283 -0.17824109 -0.06215937 0.2454751 0.088681124 -0.05812515 -0.14032269 0.09954543
0.29252368 -0.015545437 0.23590235 0.08566403 -0.1388191 0.808998 -0.0018100636 0.2826431
0.17500284 0.31908685 0.10233896 -0.0870462 -0.07860041 0.2043895 -0.04106222 0.25379828
0.07846414 0.6782648 0.30964708 0.19677724 -0.6988689 0.060667504 0.13956426 -0.07157242
-0.21636657 0.23015884 0.31266612 0.24407525 0.66683495 0.037660006 0.5487482 -0.48397538
0.72791183 -0.4538625 -1.3951766 0.90658337 0.18744317 0.59146416 -0.36642453 -0.3039491
0.41048858 -0.06664472 0.06518542 0.93107015 0.013969699 0.14027807 -0.2681997 0.24539264
-0.23587309 0.7068736 -0.31648096 -0.12002805 0.33418646 -0.15368582 0.03454984 0.02365782
0.021441001 0.13626866 -0.08363022 0.30115014 0.18879423 0.1269499 0.4161044 -0.06659039
0.21756884 -0.033935983 -0.10969982 0.19928595 -0.14134812 -0.12119218 0.065178476 0.5415256
0.16968541 0.26224172 -0.07559706 -0.053819027 0.022267189 0.102228574 0.07605454 -0.21809807
7.721252e-05 0.23450735 0.53843135 0.33843768 0.42394456 -0.30901158 0.37258738 0.20664273
-0.8510335 -0.32607982 -0.46899748 -0.27249384 0.010487873 0.31874606 0.40299 -0.10664153
0.5159885 0.051219553 -0.24673185 -0.37053597 0.17362206 -0.19505501 -0.26203158 0.07351686
-0.7086038 -0.16792274 -0.6711825 0.71334827 0.11305319 0.42868894 0.06780732 -0.067852736
-0.12557411 0.11808413 0.2082533 0.19943091 0.20870318 0.14582346 -0.11013447 0.36683136
0.028411454 0.0069480427 0.4233152 -0.04827649 0.46883667 0.0748003 0.03485364 -0.018360155
0.3764808 0.02974003 0.060018025 0.4888959 0.4267819 0.18861684 -0.38797513 -0.08048251
0.0066141067 0.044094816 0.45988503 -0.03184591 -0.5197864 -0.27510393 -0.27680808 -0.5139274
-0.52384925 0.4576712 0.4312315 0.01728468 -0.3563028 0.2512582 -0.08651647 -0.50707436
0.28504047 0.17874478 -0.2996637 0.18743813 0.7742979 0.16200805 0.13422251 0.6024066
0.05941195 0.21673954 0.31177762 -0.46815556 0.05244489 -0.07920502 0.38383362 -0.26045316
-0.1684355 0.015884034 0.04525876 -0.1323019 -0.02943255 -0.23570374 -0.011851607 0.51182854
0.24792837 0.22703776 0.14558 -0.073088475 0.18599163 0.07190033 0.32444054 0.12917054
-0.0277112 0.27922127 0.065695785 0.14542128 0.17715172 0.055224024 0.25280514 0.2909883
-0.008048281 0.04459581 0.021749746 0.3017618 -0.34194708 0.39801732 0.7058064 0.2630912
-0.14353204 -0.07217212 0.12311438 -0.6530204 -0.48953664 0.3039071 -0.17724974 -0.26877487
0.48616317 0.47566134 -0.5701899 -0.003940109 0.3954721 -0.12688498 0.30213192 0.23471498
-0.08733261 0.38438243 0.25572732 0.8857792 0.7524602 0.5979582 -0.091873355 0.09516116
00000000: 0cce fdbc cf71 6e3e 7737 5a3d b453 553e
00000010: f697 9d3e 2e2d c83e 8a00 363e 6f75 01bf
00000020: 4b81 223f 0dd4 073e 69f9 283f e072 37be
00000030: 5591 543e f20e b93e b68d 4a3e 636b 1a3f
00000040: f855 cd3e e4fa a8be 77a8 5d3d 0208 17bf
00000050: 6164 5d3e c4d3 2b3e 3f81 eebe e8df b03e
00000060: 975b 1fbe d584 36be d39a 7ebd d35d 7b3e
00000070: 739e b53d a314 6ebd c0b0 0fbe 79de cb3d
00000080: aac5 953e 4ab2 7ebc 6390 713e 9f70 af3d
00000090: 9826 0ebe 7e1a 4f3f a83f edba 99b6 903e
000000a0: f233 333e 5a5f a33e 1797 d13d 4745 b2bd
000000b0: 40f9 a0bd 7b4b 513e dc30 28bd d9f1 813e
000000c0: cfb1 a03d c3a2 2d3f 108a 9e3e f97f 493e
000000d0: 12e9 32bf 7d7e 783d efe9 0e3e 9094 92bd
000000e0: 338f 5dbe c2ae 6b3e c615 a03e ddee 793e
000000f0: b2b5 2a3f 6141 1a3d c37a 0c3f 9fcb f7be
00000100: 6e58 3a3f aa60 e8be 2695 b2bf d915 683f
00000110: 1af1 3f3e 326a 173f ff9b bbbe 379f 9bbe
00000120: 8f2b d23e 077d 88bd ef7f 853d 9d5a 6e3f
00000130: 2ae1 643c 0ea5 0f3e 7951 89be 3548 7b3e
00000140: b788 71be abf5 343f cb09 a2be 44d1 f5bd
00000150: 7d1a ab3e d15f 1dbe 2284 0d3d 0bce c13c
00000160: 0aa5 af3c 038a 0b3e 5246 abbd 5a30 9a3e
00000170: 4653 413e 28ff 013e a30b d53e 8b60 88bd
00000180: 5eca 5e3e 7500 0bbd 4daa e0bd 9e11 4c3e
00000190: 90bd 10be 9b33 f8bd 4b7c 853d 6ca1 0a3f
000001a0: 03c2 2d3e 8c44 863e a2d2 9abd 5771 5cbd
000001b0: ae69 b63c 375d d13d 7cc2 9b3d 1a55 5fbe
000001c0: 28ed a138 b222 703e a3d6 093f b447 ad3e
000001d0: 430f d93e c436 9ebe c6c3 be3e 279a 533e
000001e0: 55dd 59bf eff3 a6be 7020 f0be 5084 8bbe
000001f0: 54d5 2b3c af32 a33e b554 ce3e e066 dabd
00000200: d317 043f 98cb 513d 46a7 7cbe e4b6 bdbe
00000210: fbc9 313e 80bc 47be 0129 86be 0290 963d
00000220: 0f67 35bf f0f3 2bbe 9ed2 2bbf fe9d 363f
00000230: 6e88 e73d 1e7d db3e 90de 8a3d 60f6 8abd
00000240: 8096 00be 18d6 f13d 5a40 553e 9e37 4c3e
00000250: 49b6 553e bf52 153e 2e8e e1bd 52d1 bb3e
00000260: 23bf e83c 68ac e33b c5bc d83e 92bd 45bd
00000270: 5c0b f03e e630 993d b1c2 0e3d 0968 96bc
00000280: 17c2 c03e 5da1 f33c 76d5 753d 9050 fa3e
00000290: 2883 da3e c624 413e ada4 c6be 04d4 a4bd
000002a0: 26bb d83b c49c 343d 0d76 eb3e db70 02bd
000002b0: b910 05bf 6cda 8cbe cab9 8dbe bf90 03bf
000002c0: fc1a 06bf e153 ea3e 60ca dc3e 9a98 8d3c
000002d0: 526d b6be eaa4 803e 8c2f b1bd a0cf 01bf
000002e0: d3f0 913e df08 373e 856d 99be c8ef 3f3e
000002f0: 6338 463f 70e5 253e a071 093e 5237 1a3f
00000300: f259 733d f8f0 5d3e 51a1 9f3e 16b2 efbe
00000310: 74d0 563d 3e36 a2bd d785 c43e 1e5a 85be
00000320: 5b7a 2cbe 3c1f 823c 4061 393d 267a 07be
00000330: 881c f1bc 525c 71be 3e2d 42bc 3207 033f
00000340: efe0 7d3e 967c 683e ec12 153e 69af 95bd
00000350: 9774 3e3e 7b40 933d 121d a63e 4845 043e
00000360: 9902 e3bc 17f6 8e3e 838b 863d 51e9 143e
00000370: 4367 353e 9632 623d ad6f 813e 6bfc 943e
00000380: f0dc 03bc 19aa 363d 862c b23c 8680 9a3e
00000390: b013 afbe edc8 cb3e baaf 343f e4b3 863e
000003a0: 10fa 12be face 93bd 6423 fc3d 582c 27bf
000003b0: 8ca4 fabe b699 9b3e f580 35be dc9c 89be
000003c0: 61ea f83e e289 f33e f7f7 11bf 081c 81bb
000003d0: 527b ca3e 23ee 01be 09b1 9a3e 2059 703e
000003e0: 70db b2bd c6cd c43e b1ee 823e 6dc2 623f
000003f0: 3ba1 403f ca13 193f 1928 bcbd dbe3 c23d

lstm.weight_hh_l0 f4 [512, 128]
-0.24562767 0.24647279 0.014438805 -0.4357486 -0.31043148 -0.054123763 -0.05795746 -0.11193661
-0.2943066 -0.023421949 -0.031893022 0.036089677 0.11678517 0.12520596 -0.09834571 -0.20146687
0.05478869 -0.02119872 0.18556607 -0.20333768 0.246737 0.21792503 0.22994742 0.00053132867
0.07837685 -0.013504528 0.047853865 0.40602988 -0.049103104 -0.1464355 -0.07562923 -0.18575427
0.006489444 -0.08421193 -0.048852317 0.26887816 0.11459019 0.2553289 0.004604866 -0.19237247
0.11376129 0.10905067 0.49554053 -0.03669084 0.13570201 0.07702193 0.22788914 0.2796411
-0.12329939 -0.16510661 -0.043470748 -0.11262069 -0.019877294 0.20397314 0.16281484 -0.089794286
0.32551518 0.21059746 0.25815535 0.14579254 -0.29772642 0.035352796 -0.102911994 0.18879868
-0.029919926 -0.13342428 0.03923542 0.1783992 0.38977134 -0.12963654 -0.056207746 -0.077799626
0.05955244 0.07219025 0.15663646 0.037692107 0.12562327 0.048969127 -0.42103383 0.16264121
-0.15009822 0.18213445 0.52729994 -0.011320203 0.052645598 -0.0848265 -0.20979394 0.20448315
-0.06755428 0.08154957 -0.024433969 -0.053474423 -0.011333875 -0.08469946 -0.091246754 0.25435093
0.058054153 0.20067768 0.05061922 -0.30568942 -0.22114095 -0.008987969 -0.140133 0.13351984
0.0442809 0.086561725 -0.046716824 -0.16901077 0.11462931 -0.0822055 0.007656876 0.060355287
-0.02262442 -0.25199398 0.15190125 0.07375742 0.10179233 -0.059006914 0.082359746 0.104484074
-0.3404213 0.11243271 -0.23991996 0.20676838 -0.020042025 -0.009428055 -0.4003169 0.018406492
-0.32037213 0.5756931 -0.18374929 -0.17791569 -0.06766014 -0.28957665 -0.13141942 -0.19923994
0.1969117 -0.17350179 0.099630654 -0.061293066 0.3833703 -0.20990859 0.105171874 0.3379127
0.009207606 0.02592687 0.36649865 -0.36051598 0.34359556 0.22689459 0.21229276 0.026664829
0.14439268 -0.18886496 -0.0005353605 0.17417422 -0.33640823 -0.27029362 -0.20893723 -0.49187177
0.03512746 0.15410478 -0.44937596 -0.13334706 0.04711154 0.3645691 -0.16784383 -0.12544425
0.13239968 -0.6305276 0.105948634 0.057967443 0.051543582 0.09169601 0.3936262 0.0065889624
0.1285574 0.079518214 -0.32706785 -0.20739551 -0.5737769 0.3420933 0.3431417 0.7376414
0.11845919 0.2776828 0.27877647 0.105937235 -0.27748373 0.39810467 -0.005160082 0.35963878
-0.05198525 -0.02773299 -0.61254835 0.30954018 0.20405826 -0.36153612 0.24278027 0.59120536
0.21137491 0.039426185 -0.29761988 0.073884584 -0.29784715 0.11427867 -0.50265026 -0.32574728
0.1342467 0.09809622 0.63687235 0.3598617 -0.30698916 -0.27927768 -0.12960155 -0.039724167
-0.43673804 0.10305953 0.37484962 0.118185475 0.26959828 0.2806434 0.6925309 0.123261735
-0.40742475 0.21949361 0.21999271 0.43268013 0.05477107 -0.06031409 -0.3775309 0.40381715
0.09496769 0.3318827 -0.19334924 -0.3407601 0.49243867 -0.35765186 0.7773067 0.19862454
0.17803651 -0.14729969 0.35550624 0.08194054 0.27093303 -0.16271661 -0.15360568 0.3322345
-0.11178741 0.07016894 0.18188608 0.21775088 0.04280576 -0.22426632 -0.6287737 -0.093879156
00000000: d285 7bbe 5d63 7c3e bd90 6c3c 711a dfbe
00000010: e0f0 9ebe e1b0 5dbd cd64 6dbd 053f e5bd
00000020: 5baf 96be 63df bfbc 42a2 02bd c5d2 133d
00000030: 102d ef3d fe35 003e 7a69 c9bd 554d 4ebe
00000040: 1b6a 603d f0a8 adbc 0805 3e3e c137 50be
00000050: a0a8 7c3e bd27 5f3e 5677 6b3e dd48 0b3a
00000060: 0b84 a03d 1942 5dbc 6a02 443d 26e3 cf3e
00000070: 5620 49bd 30f3 15be 7fe3 9abd 5e36 3ebe
00000080: 67a5 d43b 4e77 acbd 5e19 48bd 66aa 893e
00000090: 43ae ea3d 78ba 823e 6ae4 963b 4afd 44be
000000a0: aefb e83d f555 df3d 7db7 fd3e 2249 16bd
000000b0: 78f5 0a3e acbd 9d3d c55b 693e 1e2d 8f3e
000000c0: 6484 fcbd b511 29be 620e 32bd ada5 e6bd
000000d0: b5d5 a2bc 56de 503e efb8 263e 11e6 b7bd
000000e0: eda9 a63e dca6 573e f02c 843e a44a 153e
000000f0: 996f 98be 18ce 103d 86c3 d2bd 7154 413e
00000100: a21a f5bc 60a0 08be 52b5 203d 48ae 363e
00000110: 1c90 c73e 71bf 04be 183a 66bd 6955 9fbd
00000120: 42ed 733d 7bd8 933d 4f65 203e 0a63 1a3d
00000130: 63a3 003e da93 483d bf91 d7be 6b8b 263e
00000140: 59b3 19be 7481 3a3e 21fd 063f 5f78 39bc
00000150: e9a2 573d 84b9 adbd 39d4 56be 0864 513e
00000160: e659 8abd 7603 a73d bf29 c8bc ff07 5bbd
00000170: b8b1 39bc e976 adbd 94df babd 493a 823e
00000180: 31ca 6d3d 737e 4d3e 1956 4f3d 5383 9cbe
00000190: c672 62be 4642 13bc 067f 0fbe 6db9 083e
000001a0: e45f 353d 4647 b13d 245a 3fbd 2911 2dbe
000001b0: c6c2 ea3d 5b5b a8bd 88e6 fa3b 1b37 773d
000001c0: d956 b9bc 5b05 81be 008c 1b3e 210e 973d
000001d0: 7f78 d03d 3cb1 71bd 3aac a83d bffb d53d
000001e0: b34b aebe 1f43 e63d 94ad 75be 17bb 533e
000001f0: 2c2f a4bc 2178 1abc 56f6 ccbe 36c9 963c
00000200: d107 a4be 9f60 133f c628 3cbe 882f 36be
00000210: 6691 8abd 6443 94be d092 06be 8e05 4cbe
00000220: 38a3 493e 74aa 31be 280b cc3d 700e 7bbd
00000230: 1d49 c43e 47f2 56be 5a64 d73d e502 ad3e
00000240: 80db 163c 9664 d43c b6a5 bb3e 8d95 b8be
00000250: c2eb af3e 0e57 683e 4663 593e 3370 da3c
00000260: addb 133e d165 41be 6f57 0cba ba5a 323e
00000270: b33d acbe ed63 8abe a4f3 55be 9ed6 fbbe
00000280: d0e1 0f3d a5cd 1d3e 9b14 e6be 228c 08be
00000290: 08f8 403d cda8 ba3e 41df 2bbe 7574 00be
000002a0: c893 073e 426a 21bf 99fb d83d 456f 6d3d
000002b0: 5d1f 533d 1ecb bb3d 6089 c93e 39e8 d73b
000002c0: 8da4 033e 72da a23d 7075 a7be 7d5f 54be
000002d0: 0be3 12bf da26 af3e 45b0 af3e 11d6 3c3f
000002e0: bb9a f23d 712c 8e3e cabb 8e3e 9ff5 d83d
000002f0: 5912 8ebe 60d4 cb3e e815 a9bb 9322 b83e
00000300: 7cee 54bd 4c30 e3bc f8cf 1cbf 0d7c 9e3e
00000310: a6f4 503e 431b b9be 649b 783e 3c59 173f
00000320: aa72 583e 5a7d 213d a261 98be cd50 973d
00000330: 6c7f 98be ef0a ea3d b0ad 00bf 59c8 a6be
00000340: f877 093e ace6 c83d 110a 233f cb3f b83e
00000350: af2d 9dbe 7cfd 8ebe 45b6 04be cfb5 22bd
00000360: 219c dfbe e010 d33d 4aec bf3e 3a0b f23d
00000370: c908 8a3e 7eb0 8f3e b449 313f a670 fc3d
00000380: fa99 d0be efc2 603e c545 613e 4088 dd3e
00000390: a157 603d e80b 77bd bb4b c1be 1fc1 ce3e
000003a0: 6c7e c23d 87ec a93e 58fd 45be 1c78 aebe
000003b0: ec20 fc3e 251e b7be 92fd 463f 3b64 4b3e
000003c0: 344f 363e bbd5 16be ea04 b63e 71d0 a73d
000003d0: bcb7 8a3e 2f9f 26be cf4a 1dbe a41a aa3e
000003e0: ccf0 e4bd bcb4 8f3d 5840 3a3e 16fa 5e3e
000003f0: 1855 2f3d 12a6 65be 50f7 20bf b743 c0bd

lstm.bias_ih_l0 f4 [512]
0.20592976 0.4510417 0.31905323 0.1644664 0.22685644 0.34677947 0.16443038 0.093908
0.62171924 0.19544286 0.061897337 0.24262464 0.22994241 0.31545106 0.27743804 0.29158786
0.108876824 0.44126472 0.21647763 0.1728286 0.22945932 0.06793039 0.42139208 0.09789002
0.24910693 0.18634076 0.20029926 0.50023776 0.076388985 0.23367994 0.22089362 0.28842124
0.16781327 0.45651707 0.43770507 0.24338491 0.12166699 0.385862 0.2135083 0.34614798
0.39623222 0.2953937 0.48881727 0.35731855 0.33326325 0.15549701 0.23856054 0.4057203
0.21176948 0.3223151 0.29579204 0.17537078 0.2126388 0.10309671 0.19281805 0.26473665
0.18543606 0.0942368 0.4228317 0.20427789 0.2683029 0.18574606 0.48639253 0.5220827
0.15977275 0.06919871 0.31986928 0.2652093 0.17792478 0.394613 0.35305405 0.60948676
0.2548908 0.27655473 0.3240423 0.16899064 0.22383636 0.16539116 0.20185561 0.5287484
0.41753736 0.20066592 0.14370823 0.22491685 0.20864078 0.072066434 0.32560462 0.16637467
0.13158822 0.0803183 0.31850302 0.30192173 0.31748977 0.13432372 0.3472214 0.10718318
0.17923567 0.4169927 0.25738433 0.18391086 0.2986168 0.5108547 0.090031415 0.15691693
0.27514797 0.11076426 0.23309179 0.26359114 0.44562146 0.1885545 0.252595 0.3677218
0.17731798 0.34265795 0.36571 0.1911919 0.22021022 0.14237058 0.36777976 0.2912185
0.29506472 0.37046996 0.2500556 0.0748731 0.08500972 0.111731775 0.15917204 0.13762026
0.21360861 -0.10186533 0.07358337 0.08065031 0.12910007 0.0068420935 0.06672445 0.028176194
-0.2629034 0.08443567 0.09916942 0.05939089 0.061548784 0.26278517 -0.013389808 -0.005014728
0.14589849 -0.014229671 0.07049904 0.2866306 0.19228072 0.11726485 0.18155554 0.11804906
0.01514844 0.16737485 0.0037821124 0.19765568 0.14024678 0.037446864 0.016215073 0.105467714
-0.029132014 0.08475272 0.057306144 0.01184113 0.022197623 0.17431365 0.002657505 0.13991311
0.0738753 0.12165021 0.01742658 0.13511764 0.12608778 0.17490232 0.1354758 -0.018962802
0.03836296 0.16963884 0.072309054 -0.039472643 0.020271521 0.18690766 0.2469612 0.10577493
0.049625635 0.103563145 0.16080835 0.21888795 0.08493963 0.048762057 0.08671323 0.19164981
0.14866672 0.163227 -0.012479766 0.14032057 0.07053534 0.08703292 -0.039174113 0.118971266
-0.005201196 0.030368475 0.06756522 0.136452 -0.07622199 0.02771208 0.12770236 0.0030937053
0.050109748 0.1076923 0.17541979 0.15512636 0.1889853 0.13445258 0.26382262 0.08759985
0.14091624 0.008826525 0.19716069 0.13473713 0.103297226 0.09563925 -0.035806667 0.04095238
0.12211508 0.13629094 0.12212109 0.061329205 0.3038366 0.16632159 0.049910463 0.15115924
0.07368765 0.06719164 -0.015088382 0.14897005 0.22078712 0.18097442 0.065687954 0.13312843
0.14120746 0.086182155 0.1570449 -0.023811975 -0.03375209 0.13861401 0.008218209 0.22873722
0.09224692 0.13757949 0.04144269 0.050033186 0.027716668 -0.015150292 0.1485056 0.052867524
00000000: 40df 523e f0ee e63e f25a a33e e169 283e
00000010: 0e4d 683e 148d b13e 7060 283e d652 c03d
00000020: fe28 1f3f 2c22 483e 1088 7d3d 9872 783e
00000030: 0676 6b3e cd82 a13e 5c0c 8e3e 014b 953e
00000040: d0fa de3d 73ed e13e 50ac 5d3e fbf9 303e
00000050: 62f7 6a3e 171f 8b3d b4c0 d73e 907a c83d
00000060: e315 7f3e 1dd0 3e3e 401b 4d3e 950f 003f
00000070: d471 9c3d cb49 6f3e f031 623e f3ab 933e
00000080: 3ed7 2b3e 9bbc e93e e11a e03e e539 793e
00000090: 8b2c f93d b48f c53e eba1 5a3e 4f3a b13e
000000a0: f3de ca3e d83d 973e 4246 fa3e 75f2 b63e
000000b0: 7ba1 aa3e 9c3a 1f3e 3749 743e 92ba cf3e
000000c0: 19da 583e 7c06 a53e 0e72 973e 6694 333e
000000d0: fcbd 593e 5e24 d33d 1872 453e 908b 873e
000000e0: f3e2 3d3e 39ff c03d 667d d83e 392e 513e
000000f0: ff5e 893e 3734 3e3e 7108 f93e 36a7 053f
00000100: 789b 233e 0eb8 8d3d e8c5 a33e 83c9 873e
00000110: ea31 363e b70a ca3e 80c3 b43e 5307 1c3f
00000120: 0c81 823e 9598 8d3e dfe8 a53e e20b 2d3e
00000130: 5c35 653e 4d5c 293e 3db3 4e3e 0e5c 073f
00000140: 75c7 d53e 5e7b 4d3e 4028 133e 9a50 663e
00000150: eea5 553e 9197 933d a6b5 a63e 1f5e 2a3e
00000160: 10bf 063e ec7d a43d d412 a33e 7c95 9a3e
00000170: 058e a23e 288c 093e 01c7 b13e db82 db3d
00000180: 8e89 373e 1180 d53e e1c7 833e 2153 3c3e
00000190: 4de4 983e 60c7 023f 6462 b83d d5ae 203e
000001a0: 32e0 8c3e 5fd8 e23d 9daf 6e3e 6bf5 863e
000001b0: 7f28 e43e 6e14 413e 2254 813e 0846 bc3e
000001c0: d892 353e dd70 af3e 573e bb3e cfc7 433e
000001d0: ca7e 613e 98c9 113e a14d bc3e 971a 953e
000001e0: b912 973e 3dae bd3e 4a07 803e 1157 993d
000001f0: 9319 ae3d a1d3 e43d fffd 223e 53ec 0c3e
00000200: 37bc 5a3e c59e d0bd e1b2 963d fd2b a53d
00000210: cf32 043e a433 e03b d4a6 883d c3d1 e63c
00000220: 469b 86be 9cec ac3d 5619 cb3d dd43 733d
00000230: 941a 7c3d c78b 863e ed60 5bbc 9652 a4bb
00000240: 6a66 153e 9123 69bc cd61 903d 3fc1 923e
00000250: 3de5 443e 8e28 f03d b2e9 393e b5c3 f13d
00000260: 2a31 783c 5064 2b3e 51dd 773b 4066 4a3e
00000270: da9c 0f3e e261 193d 79d5 843c 75ff d73d
00000280: 43a6 eebc d692 ad3d d9b9 6a3d 4d01 423c
00000290: cad7 b53c 477f 323e 8929 2e3b 6245 0f3e
000002a0: ef4b 973d bf23 f93d 30c2 8e3c 475c 0a3e
000002b0: 281d 013e 9819 333e 2bba 0a3e e157 9bbc
000002c0: 7b22 1d3d ceb5 2d3e c516 943d 11ae 21bd
000002d0: 7610 a63c b964 3f3e 66e3 7c3e 87a0 d83d
000002e0: 4044 4b3d ea18 d43d f2aa 243e 2a24 603e
000002f0: d4f4 ad3d b9ba 473d b596 b13d d93f 443e
00000300: 173c 183e fb24 273e ef77 4cbc 32b0 0f3e
00000310: d574 903d 513e b23d 0975 20bd 35a7 f33d
00000320: cb6e aabb 4fc7 f83c a25f 8a3d 13ba 0b3e
00000330: 461a 9cbd 7204 e33c 68c4 023e c3bf 4a3b
00000340: e13f 4d3d c88d dc3d 3fa1 333e 72d9 1e3e
00000350: 5d85 413e f0ad 093e c213 873e 8d67 b33d
00000360: 594c 103e 219d 103c 7ee4 493e 88f8 093e
00000370: 7f8d d33d 83de c33d 03aa 12bd afbd 273d
00000380: 7917 fa3d da8f 0b3e 9f1a fa3d 5534 7b3d
00000390: 7990 9b3e 3550 2a3e ea6e 4c3d 7dc9 1a3e
000003a0: 8de9 963d c59b 893d 4335 77bc 9b8b 183e
000003b0: 0516 623e 5c51 393e 6887 863d d252 083e
000003c0: b098 103e 4580 b03d 61d0 203e 5511 c3bc
000003d0: a23f 0abd d5f0 0d3e aba5 063c 173a 6a3e
000003e0: f4eb bc3d a3e1 0c3e cfbf 293d 99ef 4c3d
000003f0: 110e e33c ee38 78bc da11 183e 9e8b 583d

lstm.bias_hh_l0 f4 [512]
0.26825157 0.3490695 0.28015158 0.1644447 0.08271959 0.27333388 0.24719034 0.03903393
0.67915636 0.29061317 0.10747164 0.31473646 0.07985365 0.42600685 0.39247185 0.3067323
0.061140075 0.4331285 0.17680825 0.22068578 0.29568487 0.10571393 0.34112298 0.17629169
0.09972318 0.18923475 0.25077492 0.52667266 0.1327958 0.24699152 0.25976104 0.20906572
0.13599966 0.297946 0.46918982 0.1865972 0.15286835 0.25995287 0.17662942 0.4226856
0.37261757 0.25577256 0.40051267 0.3157408 0.40541437 0.24206974 0.12753549 0.5425267
0.11355321 0.35381517 0.29987967 0.18021192 0.15754431 0.14142686 0.27840558 0.17518115
0.20757404 0.18820317 0.45692876 0.16875485 0.23019822 0.18297666 0.5178148 0.54041475
0.23925373 0.12523037 0.18620208 0.16952337 0.11158892 0.5048739 0.40482676 0.5296619
0.16976306 0.31267506 0.35850975 0.27859938 0.20963655 0.2713365 0.22693402 0.43689752
0.42061317 0.1680434 0.1595131 0.22459318 0.1932678 0.1965412 0.2219986 0.1771671
0.0031872755 0.08944008 0.3420285 0.2529278 0.2820969 0.17739192 0.31184068 0.1094149
0.22484957 0.41142008 0.27822506 0.3044551 0.34397367 0.50891364 0.16339417 0.243073
0.20579891 0.16398631 0.20683222 0.26591402 0.35560015 0.16520968 0.24771246 0.3468478
0.28523022 0.30412257 0.30011526 0.22644016 0.21704875 0.2608816 0.264847 0.17626998
0.3699209 0.43548864 0.14748038 0.15249029 0.09685124 0.12219191 0.18282227 0.17496069
0.17177683 -0.1310237 0.12305916 0.16920319 0.21309496 -0.008669265 0.1362471 0.10449692
-0.14638987 0.11344733 0.05904051 0.1268346 0.052661892 0.28056452 0.14512496 0.106115475
0.069553845 -0.06524901 0.18015538 0.2858717 0.20149992 0.10221822 0.23742525 0.17786755
0.11201865 0.11397807 0.15913235 0.20147638 -0.008495881 0.059494566 0.061259847 0.043365598
0.037166286 0.21599503 0.004144242 -0.032160994 0.11767318 0.1885581 0.066589795 0.042837024
0.16654392 0.06655772 0.047598764 0.08482749 0.07113188 0.24254437 0.21471854 0.018691933
0.05931566 0.15646885 0.11038781 -0.0119719505 0.11620703 0.15435901 0.13645095 0.047515374
0.05000886 0.14089917 0.09312464 0.23003282 0.06729494 0.12327994 0.080908604 0.101453654
0.13813318 0.03314854 0.029784687 0.07326479 0.16918904 0.20042644 0.07879315 0.043703835
0.0032310802 0.067741044 -0.03473217 0.03445888 -0.08408712 0.10697335 0.0735371 0.08577864
0.21100293 0.11564449 0.0823419 0.0988004 0.096245445 0.12173975 0.25801176 0.023663621
0.06026369 -0.03592802 0.20064363 0.17059219 0.10565478 -0.06637032 -0.019960415 0.10377144
0.12538095 0.15079984 0.12952232 0.0611736 0.14421093 0.20870583 0.04008982 0.108886555
0.06783474 0.054803886 0.061012056 0.13738947 0.1902521 0.05638381 0.18881758 0.16853753
0.18902352 0.121996514 0.17547606 0.13741475 0.08611618 0.19855452 -0.09261189 0.21013045
0.14743584 0.020529093 0.09606078 0.06929222 0.06611565 0.116177574 0.011575937 0.07316121
00000000: 4558 893e 3db9 b23e 0770 8f3e 3164 283e
00000010: e368 a93d 6bf2 8b3e 771f 7d3e 0be2 1f3d
00000020: 31dd 2d3f 40cb 943e 171a dc3d 2325 a13e
00000030: 4f8a a33d 921d da3e 12f2 c83e 040c 9d3e
00000040: 046e 7a3d 05c3 dd3e 390d 353e 74fb 613e
00000050: 0264 973e 8c80 d83d aca7 ae3e cf85 343e
00000060: ab3b cc3d c1c6 413e 9265 803e 05d4 063f
00000070: 9ffb 073e 58eb 7c3e 66ff 843e 5315 563e
00000080: 7f43 0b3e 618c 983e a639 f03e 5613 3f3e
00000090: 8589 1c3e 8b18 853e 58de 343e 3f6a d83e
000000a0: bbc7 be3e 9ff4 823e ff0f cd3e c7a8 a13e
000000b0: 7992 cf3e 21e1 773e aa98 023e 08e3 0a3f
000000c0: 968e e83d 4327 b53e d489 993e 7989 383e
000000d0: 4c53 213e 34d2 103e 2d8b 8e3e b062 333e
000000e0: 4a8e 543e 55b8 403e 91f2 e93e 12ce 2c3e
000000f0: 15b9 6b3e 3c5e 3b3e 838f 043f 9f58 0a3f
00000100: eefe 743e 643c 003e c2ab 3e3e 8997 2d3e
00000110: bb88 e43d 6a3f 013f 7445 cf3e ec97 073f
00000120: 5ed6 2d3e f216 a03e 978e b73e 94a4 8e3e
00000130: f7aa 563e 9eec 8a3e 6461 683e 08b1 df3e
00000140: 9c5a d73e 9213 2c3e 6757 233e c1fb 653e
00000150: ffe7 453e 1942 493e 9a53 633e 4b6b 353e
00000160: 9ce1 503b 5c2c b73d 5c1e af3e c17f 813e
00000170: 016f 903e 3aa6 353e 95a9 9f3e eb14 e03d
00000180: f73e 663e a7a5 d23e 8473 8e3e 8ae1 9b3e
00000190: 511d b03e 2a48 023f cd50 273e 21e8 783e
000001a0: f3bc 523e 07ec 273e d3cb 533e e225 883e
000001b0: 3911 b63e ba2c 293e 56a8 7d3e 0996 b13e
000001c0: b209 923e f4b5 9b3e b5a8 993e eedf 673e
000001d0: 0742 5e3e 4692 853e 079a 873e 1e80 343e
000001e0: 4666 bd3e 5ef8 de3e 1905 173e 6a26 1c3e
000001f0: f159 c63d c13f fa3d c335 3b3e e528 333e
00000200: 44e6 2f3e 142b 06be 7106 fc3d 9a43 2d3e
00000210: 9135 5a3e 8809 0ebc 5c84 0b3e 7b02 d63d
00000220: 3ae7 15be 1357 e83d 76d4 713d eee0 013e
00000230: ffb3 573d 27a6 8f3e a39b 143e 1253 d93d
00000240: 3f72 8e3d 46a1 85bd a77a 383e c75d 923e
00000250: ff55 4e3e c957 d13d 9b1f 733e e922 363e
00000260: 096a e53d 566d e93d 97f3 223e d34f 4e3e
00000270: 4f32 0bbc 93b0 733d 9beb 7a3d 20a0 313d
00000280: ad3b 183d cd2d 5d3e 6ccc 873b 3fbb 03bd
00000290: a3fe f03d 6015 413e 3b60 883d e075 2f3d
000002a0: 7d8a 2a3e 6a4f 883d ecf6 423d 09ba ad3d
000002b0: 97ad 913d 8d5d 783e 2ddf 5b3e d31f 993c
000002c0: faf4 723d 5f39 203e 0113 e23d 0026 44bc
000002d0: f4fd ed3d 4a10 1e3e ccb9 0b3e 7b9f 423d
000002e0: 17d6 4c3d df47 103e 22b8 be3d b98d 6b3e
000002f0: eed1 893d 317a fc3d 69b3 a53d efc6 cf3d
00000300: c972 0d3e c3c6 073d 04ff f33c da0b 963d
00000310: e43f 2d3e 973c 4d3e 4e5e a13d cb02 333d
00000320: 88c0 533b d1bb 8a3d 5243 0ebd c124 0d3d
00000330: de35 acbd d814 db3d 9e9a 963d b6ac af3d
00000340: 2711 583e 05d7 ec3d dfa2 a83d dd57 ca3d
00000350: 551c c53d b152 f93d 1e1a 843e 36da c13c
00000360: 0fd7 763d 4229 13bd 8675 4d3e b8af 2e3e
00000370: 8961 d83d 2aed 87bd 0684 a3bc 1f86 d43d
00000380: dd63 003e 466b 1a3e 80a1 043e 2b91 7a3d
00000390: 08ac 133e fbb6 553e 3935 243d eaff de3d
000003a0: f1ec 8a3d 0a7a 603d c7e7 793d d3af 0c3e
000003b0: 72d1 423e b6f2 663d 6559 413e 1a95 2c3e
000003c0: 628f 413e 4fd9 f93d ffaf 333e 74b6 0c3e
000003d0: ae5d b03d e051 4b3e 4dab bdbd 702c 573e
000003e0: 6cf9 163e a12c a83c 84bb c43d 14e9 8d3d
000003f0: a467 873d 82ee ed3d 00a9 3d3c 8bd5 953d

fc.weight f4 [18, 128]
0.48641378 -0.9901377 0.4521368 0.54711086 0.15412384 0.20957953 -0.06961188 -0.14093679
1.05906 -0.07980677 0.9961864 -0.7401953 0.1467055 0.23927224 -0.294351 -0.5349206
0.2587849 -0.059836783 -0.46989024 0.13353567 -0.8068928 -0.038588088 -0.2979594 -0.34848484
-0.11570683 0.004676252 -0.19508119 -0.69378006 0.48430127 -0.07541373 -0.3870929 0.564907
0.30767936 -0.5870157 -0.5385558 0.31816888 -0.44246823 -0.50884914 0.55459267 -0.40451434
-0.36465356 -0.9426848 -0.37811255 -0.26463598 -0.16605674 -0.105669856 0.21077584 0.842735
0.06948794 -0.36587438 -0.4143386 0.29611284 0.22340909 0.29628888 -0.1937776 -0.044036657
-0.22265917 -0.45643812 0.07470393 -0.5622713 0.06759002 -0.11251133 -0.23946647 -0.6298984
0.17540891 -0.023182027 -0.38498715 -0.260021 -0.06010506 0.38752803 0.28482866 -0.23607263
0.02854135 0.1462145 -0.9086333 -0.03492457 -0.5468225 -0.42328495 0.105578505 -0.69025224
-0.585798 -0.6462717 -0.48384142 -0.29349017 -0.23961484 -0.27190542 -0.34814903 -0.042345736
-0.25397483 0.3776192 0.51121175 0.27299318 0.108194366 -0.27788764 0.9742084 -0.101193264
0.0030851227 -0.25185677 -0.1256179 0.007352473 0.47567657 0.7384666 -0.08363542 0.26894483
-0.72012275 0.35518473 -0.00057663844 -0.25605956 -0.22443496 -0.14610401 1.427415 0.41376328
-0.16679776 -0.1312258 0.13111542 -0.23797022 -0.0675259 -0.06438203 -0.33439136 -0.12367779
0.3253025 -0.34487918 0.05485206 -0.2284301 -0.18543951 0.16204801 0.27219912 0.1518016
-0.18049863 0.27825403 -0.22063716 -0.004071818 -0.38001308 0.30809343 -0.33557102 -0.5253118
-0.10200761 -0.32486203 -0.331356 -0.041963775 -0.24072914 -0.1536688 -0.36196208 0.026612245
0.06382539 0.97790027 0.12767586 -0.122588 -0.363706 -0.13864763 0.46254647 0.19439255
0.18135393 0.066556975 0.3663113 0.2905364 -0.34145558 -0.27794695 0.24285693 0.12488171
-0.40650684 -0.03856626 0.14296387 0.92411065 -0.35221493 0.032697648 -0.3901904 0.49691784
-0.7806596 0.8197937 0.26565647 0.41255328 0.2254261 0.045610636 0.041524474 0.69859713
0.17345929 0.14502384 0.42902115 -0.20119672 0.093235135 0.08263717 -0.06733447 -0.5087328
-0.3427313 -0.11570699 0.21498336 0.121007025 -0.41980806 -0.33101815 0.13584901 0.30643803
-0.14824311 -0.27462652 0.2981003 0.21215977 0.12406483 -0.21744747 -0.291532 0.040793817
-0.15152414 -0.47218764 1.2921294 -0.44932964 0.36273888 -0.059908852 -0.19243789 0.2049346
0.48326644 0.26815265 -0.3325145 -0.15789895 -0.15053445 -0.40077755 -0.15851438 -0.5893844
-0.101581685 -0.23859088 0.35690552 -0.2867081 -0.3732066 0.4500785 -1.0370253 0.1290461
0.16395994 0.09039806 -0.048080023 0.2164722 -0.20149146 0.84635276 0.19078918 -0.19372909
0.051716864 0.04972566 -0.3754919 0.08670111 -0.084127 -0.2547008 -0.80641484 -0.034341864
0.23187396 -0.3392887 0.23881164 -0.18895379 0.016076187 -0.23665425 0.30302086 0.112920195
0.72131574 0.28514883 0.05276646 0.30150402 0.07424359 -0.10888262 0.385163 0.39882976
00000000: 3a0b f93e aa79 7dbf 7a7e e73e 750f 0c3f
00000010: a4d2 1d3e 049c 563e ac90 8ebd bc51 10be
00000020: 478f 873f bb71 a3bd 1206 7f3f 707d 3dbf
00000030: f739 163e c803 753e 2db5 96be 8ef0 08bf
00000040: 747f 843e 6a17 75bd 7495 f0be 93bd 083e
00000050: 8790 4ebf 8b0e 1ebd 228e 98be 9b6c b2be
00000060: b4f7 ecbd 3f3b 993b 5dc3 47be 929b 31bf
00000070: 56f6 f73e 8472 9abd 0a31 c6be bf9d 103f
00000080: 2688 9d3e a946 16bf cbde 09bf 08e7 a23e
00000090: 328b e2be f043 02bf c9f9 0d3f 811c cfbe
000000a0: dfb3 babe cb53 71bf f897 c1be 5e7e 87be
000000b0: c70a 2abe 7069 d8bd 9fd5 573e 7bbd 573f
000000c0: b14f 8e3d e353 bbbe 3024 d4be 1a9c 973e
000000d0: 5ac5 643e 2db3 973e a36d 46be c85f 34bd
000000e0: c400 64be 42b2 e9be 60fe 983d 03f1 0fbf
000000f0: a36c 8a3d 576c e6bd b336 75be 0641 21bf
00000100: 659e 333e 3ce8 bdbc 091d c5be 7921 85be
00000110: b930 76bd 136a c63e 10d5 913e 06bd 71be
00000120: 8dcf e93c 41b9 153e 319c 68bf 110d 0fbd
00000130: 8ffc 0bbf ceb8 d8be 8b39 d83d 5fb4 30bf
00000140: dcf6 15bf 1072 25bf 10ba f7be 5844 96be
00000150: 985d 75be 3037 8bbe 9740 b2be b972 2dbd
00000160: fd08 82be 4e57 c13e c6de 023f c3c5 8b3e
00000170: 0295 dd3d 4a47 8ebe b965 793f 6a3e cfbd
00000180: c52f 4a3b 5ff3 80be fba1 00be 04ed f03b
00000190: e18b f33e 260c 3d3f 0c49 abbd 23b3 893e
000001a0: f759 38bf c6da b53e 8d29 17ba 3d1a 83be
000001b0: 47d2 65be 4a9c 15be 89b5 b63f c8d8 d33e
000001c0: 08cd 2abe 0e60 06be 1f43 063e 77ae 73be
000001d0: 054b 8abd bada 83bd 5835 abbe c84a fdbd
000001e0: 0d8e a63e 0194 b0be 8eac 603d 95e9 69be
000001f0: dbe3 3dbe eaef 253e af5d 8b3e e171 1b3e
00000200: a2d4 38be 5077 8e3e b5ee 61be e36c 85bb
00000210: 1391 c2be 6cbe 9d3e f7cf abbe d67a 06bf
00000220: 5ee9 d0bd 5154 a6be 7ea7 a9be 35e2 2bbd
00000230: b381 76be 5b5b 1dbe 1853 b9be ec01 da3c
00000240: e3b6 823d ac57 7a3f 76bd 023e 6b0f fbbd
00000250: ac37 babe a5f9 0dbe e4d2 ec3e d70e 473e
00000260: d8b4 393e 064f 883d 288d bb3e 30c1 943e
00000270: 44d3 aebe 104f 8ebe 7daf 783e fbc1 ff3d
00000280: aa21 d0be a8f7 1dbd 1f65 123e 8492 6c3f
00000290: 8455 b4be f8ed 053d 09c7 c7be 046c fe3e
000002a0: 4fd9 47bf 00de 513f 2004 883e 2f3a d33e
000002b0: 19d6 663e 38d2 3a3d 9115 2a3d 43d7 323f
000002c0: 509f 313e 2181 143e a9a8 db3e 8306 4ebe
000002d0: 10f2 be3d ad3d a93d a8e6 89bd 503c 02bf
000002e0: 7a7a afbe c9f7 ecbd 9924 5c3e 88d2 f73d
000002f0: 15f1 d6be 367b a9be 011c 0b3e 72e5 9c3e
00000300: 0bcd 17be d99b 8cbe 9aa0 983e 6940 593e
00000310: b415 fe3d 8daa 5ebe af43 95be 6b17 273d
00000320: 2529 1bbe 94c2 f1be 7f64 a53f 890e e6be
00000330: e9b8 b93e fc62 75bd 700e 45be 60da 513e
00000340: b36e f73e 4e4b 893e 573f aabe 43b0 21be
00000350: b425 1abe b732 cdbe 9851 22be e5e1 16bf
00000360: 0f0a d0bd 2b51 74be 52bc b63e 67cb 92be
00000370: ef14 bfbe b070 e63e 3fbd 84bf a924 043e
00000380: 1de5 273e 9e22 b93d 8fef 44bd e3aa 5d3e
00000390: c753 4ebe 93aa 583f 3d5e 433e eb60 46be
000003a0: 10d5 533d 22ad 4b3d 7940 c0be 5a90 b13d
000003b0: c74a acbd 2568 82be 3471 4ebf 0eaa 0cbd
000003c0: 5e70 6d3e 40b7 adbe 0a8b 743e 1a7d 41be
000003d0: 35b2 833c 7e55 72be 8d25 9b3e b442 e73d
000003e0: 26a8 383f 07ff 913e a521 583d bc5e 9a3e
000003f0: 060d 983d dafd debd 1634 c53e 6a33 cc3e

fc.bias f4 [18]
-0.11130743 -0.10558718 -0.14111821 -0.054043174 -0.038678825 -0.13395041 0.056754787 0.27954596
-0.075169034 -0.038952246 -0.2013853 0.14875944 0.40466958 0.051846094 -0.027359417 -0.044293694
-0.1471419 0.073206544
00000000: 26f5 e3bd 173e d8bd 4b81 10be 605c 5dbd
00000010: b06d 1ebd 4c2a 09be b577 683d a620 8f3e
00000020: 39f2 99bd 648c 1fbd f337 4ebe 6554 183e
00000030: da30 cf3e 925c 543d db20 e0bc 4e6d 35bd
00000040: 5eac 16be 50ed 953d
