01_rnn/logs/LSTM/LSTM_epoch_70_acc_0.8242.pth (torch, 395002 bytes, 6 tensors)

lstm.weight_ih_l0 f4 [512, 57]
0	0xbd64985a	-0.055809356
1	0x3e8a87a0	0.270566
2	0xbb35b6f3	-0.0027727454
3	0x3e2bb611	0.16768672
4	0x3e8f202b	0.2795423
5	0x3eaa8499	0.3330429
6	0x3e04298e	0.12906477
7	0xbed8aff4	-0.42321742
8	0x3f1d9fbf	0.6157188
9	0x3dec17dd	0.11527989
10	0x3f16005b	0.5859429
11	0xbe171dc1	-0.14757444
12	0x3e0bf3c1	0.13667203
13	0x3e527f43	0.20556359
14	0x3e10b2a4	0.14130646
15	0x3f057876	0.52136934
16	0x3eda5905	0.42646042
17	0xbe987b69	-0.29781654
18	0x3d9e968b	0.077435575
19	0xbf154bd8	-0.58318853
20	0x3e78f628	0.24312651
21	0x3e78f1a8	0.24310935
22	0xbed7f91f	-0.42182252
23	0x3ed20e61	0.41026595
24	0x3d6a3e65	0.05718841
25	0xbdddfbb9	-0.10839028
26	0xbd60e0b0	-0.05490178
27	0x3e672ad2	0.22574928
28	0x3daf5c6e	0.085625514
29	0xbc5cd618	-0.013478778
30	0xbe05329c	-0.13007587
31	0x3dbe4536	0.09290545
32	0x3ea8a6d9	0.32939795
33	0x3af0989b	0.0018356027
34	0x3e32d95a	0.17465726
35	0x3e008b5a	0.12553158
36	0xbe054502	-0.13014606
37	0x3f3fc451	0.7490893
38	0xbc83826a	-0.016053397
39	0x3e87e342	0.2654057
40	0x3e31205b	0.17297499
41	0x3e97f8df	0.2968206
42	0x3d9587bb	0.07301279
43	0xbda3094d	-0.07960758
44	0xbd8d7a26	-0.069080636
45	0x3e1b6e83	0.15178876
46	0xbccfeede	-0.025382455
47	0x3e89b535	0.26896062
48	0x3d667696	0.056265436
49	0x3f2c3df8	0.67282057
50	0x3eae9d0a	0.34104186
51	0x3e55f54a	0.20894352
52	0xbf1d4513	-0.61433524
53	0x3d7ba630	0.061437786
54	0x3e106c49	0.14103808
55	0xbd9470bd	-0.072480656
56	0xbe85d0f6	-0.26135987
57	0x3e4502ea	0.19239393
58	0x3e69ba5e	0.22825
59	0x3e5e9eff	0.2174034
60	0x3f2aaf62	0.6667386
61	0x3d9dad19	0.076990314
62	0x3f0ccd79	0.55001026
63	0xbeeef618	-0.4667213
64	0x3f24be51	0.643529
65	0xbed303b8	-0.41213775
66	0xbf93e497	-1.1554135
67	0x3f479c21	0.7797261
68	0x3e64ab72	0.22331026
69	0x3f03011b	0.5117356
70	0xbe8f393e	-0.2797336
71	0xbeb1e5fb	-0.34745774
72	0x3e7e5846	0.24838361
73	0xbda97b59	-0.0827548
74	0x3d549b61	0.051905993
75	0x3f4006c2	0.7501031
76	0x3dde0da7	0.10842448
77	0x3e36979a	0.17831269
78	0xbe99adb9	-0.30015352
79	0x3e7ed673	0.24886493
80	0xbd96fd92	-0.073725834
81	0x3f18b3e8	0.59649515
82	0xbe310620	-0.17287493
83	0xbdc556ee	-0.09635721
84	0x3ea2db27	0.31807825
85	0xbe2b8617	-0.1675037
86	0x3c135e34	0.008994628
87	0x3d3f03b3	0.046634387
88	0x3c88c29d	0.016694361
89	0x3e02cf4d	0.12774391
90	0xbda6bd2d	-0.08141551
91	0x3ea25432	0.3170486
92	0x3df8cd02	0.12148477
93	0x3e032dd1	0.12810446
94	0x3eb51a6c	0.3537172
95	0xbd60355a	-0.05473838
96	0x3e4654ac	0.19368237
97	0xbb48b940	-0.0030627996
98	0xbde59022	-0.11209132
99	0x3e62d74b	0.2215244
100	0xbe0c72f5	-0.13715728
101	0xbdd63108	-0.10458571
102	0x3dbbee74	0.09176341
103	0x3ee84ca9	0.45370987
104	0x3e2f0a08	0.1709367
105	0x3e7f53d3	0.2493432
106	0xbd7b47f5	-0.06134792
107	0xbd107ebf	-0.035277124
108	0x3ca59e0f	0.02021697
109	0x3dda3822	0.10655238
110	0x3d9dbc6a	0.07701953
111	0xbe6a3cf2	-0.22874811
112	0x38a3fb57	7.8192614e-05
113	0x3e92e2d2	0.28688675
114	0x3f044d1e	0.5168017
115	0x3ea3997e	0.31953043
116	0x3eaf1011	0.34191945
117	0xbeab7ecd	-0.3349518
118	0x3eb64644	0.35600483
119	0x3e59f69c	0.2128548
120	0xbf4ba4e0	-0.79548454
121	0xbe9a034e	-0.30080646
122	0xbef37f68	-0.4755814
123	0xbe226493	-0.15858679
124	0x3d418d06	0.04725363
125	0x3e9ed337	0.3102052
126	0x3ea4fddb	0.32224926
127	0xbdaffe0b	-0.08593377
128	0x3f0ba6d1	0.54551417
129	0x3e259e83	0.16173749
130	0xbe51ac74	-0.20475942
131	0xbeba991a	-0.36444932
132	0x3dd64bd3	0.10463681
133	0xbe04ce61	-0.12969352
134	0xbe6c7c20	-0.23094225
135	0x3d7818e9	0.06057063
136	0xbf0bdad4	-0.5463078
137	0xbe2f059c	-0.17091984
138	0xbefdaa38	-0.4954393
139	0x3f1901eb	0.5976855
140	0x3de1df3b	0.11028906
141	0x3ed56454	0.41678107
142	0x3da67a04	0.081287414
143	0xbd53176a	-0.051536
144	0xbe1cfd82	-0.1533108
145	0x3dff3200	0.124607086
146	0x3e4e5db8	0.20152938
147	0x3e50ca97	0.20389782
148	0x3e4443aa	0.19166437
149	0x3e048b29	0.1294371
150	0xbdd4e507	-0.10395246
151	0x3eaab6e7	0.33342668
152	0x3c3314b0	0.010930225
153	0x3ca6aacf	0.02034512
154	0x3edb7816	0.42865056
155	0xbd86f2e5	-0.06589297
156	0x3ee30b8e	0.44344753
157	0x3dae67a3	0.08515861
158	0x3d42332e	0.04741209
159	0xbc3f253a	-0.01166659
160	0x3ec8c929	0.39215973
161	0x3d41698f	0.04721981
162	0x3d9a8523	0.07544925
163	0x3ef9d01f	0.48791596
164	0x3edefaf6	0.43550843
165	0x3e409721	0.18807651
166	0xbebd59c7	-0.36982557
167	0xbda6eb74	-0.08150378
168	0x3bd3c975	0.0064632245
169	0x3d36e834	0.04465504
170	0x3f03f344	0.5154307
171	0xbb19ea02	-0.0023485427
172	0xbf13d23e	-0.5774268
173	0xbeba1065	-0.36340633
174	0xbe84181f	-0.25799653
175	0xbf02a2f1	-0.5102988
176	0xbecc803c	-0.39941585
177	0x3ee23434	0.44180453
178	0x3ec5d005	0.3863527
179	0x3bad627d	0.0052912817
180	0xbec8c6a2	-0.39214045
181	0x3e8d9373	0.27651557
182	0xbddbfbe7	-0.10741406
183	0xbf0111b1	-0.5041762
184	0x3e96b0d0	0.29431772
185	0x3e1b20d3	0.1514924
186	0xbe3b7ec9	-0.18310083
187	0x3e3a5298	0.1819557
188	0x3f2a6eec	0.66575503
189	0x3e23e961	0.16006996
190	0x3db36bf6	0.08760826
191	0x3f0cc511	0.549882
192	0x3dcad039	0.099029966
193	0x3e5afc83	0.21385388
194	0x3e9c2d57	0.30503342
195	0xbea43d98	-0.32078242
196	0x3d6a6a35	0.057230193
197	0xbdc1a367	-0.09454995
198	0x3ecd1a7e	0.40059274
199	0xbe5bc3fa	-0.21461478
200	0xbdf8863e	-0.1213498
201	0x3b333261	0.002734326
202	0x3d0f7fcf	0.035033997
203	0xbde7b88c	-0.113144964
204	0xbce6fa71	-0.028195592
205	0xbe858286	-0.26076144
206	0x3c52831c	0.012848642
207	0x3ef45f80	0.4772911
208	0x3e7347ed	0.23757906
209	0x3e6f4c47	0.23368941
210	0x3dbabce8	0.09118062
211	0xbd847126	-0.06466894
212	0x3e1ca374	0.15296727
213	0x3d26a3c8	0.040683538
214	0x3e887a26	0.26655692
215	0x3e0854b5	0.13313563
216	0xbdb4b114	-0.088228375
217	0x3e8ca091	0.27466252
218	0x3d840ec3	0.06448128
219	0x3e1b95b5	0.15193827
220	0x3e265e96	0.16247019
221	0x3d7cf5e3	0.061757933
222	0x3e67c5bf	0.22634028
223	0x3e553d16	0.20824084
224	0xbc0589bd	-0.008150515
225	0x3d3851a3	0.04499973
226	0x3cb46f65	0.022025773
227	0x3e94d3e6	0.29067916
228	0xbea38b89	-0.31942394
229	0x3ed73078	0.42029166
230	0x3f1e56c0	0.6185112
231	0x3e790129	0.24316849
232	0xbe09de8b	-0.134638
233	0xbe395793	-0.18099813
234	0x3d539b43	0.05166174
235	0xbf200fc4	-0.62524056
236	0xbeebada6	-0.4603092
237	0x3ea8e05d	0.32983676
238	0xbe15ed40	-0.14641285
239	0xbe7cdab4	-0.24692804
240	0x3f188fd8	0.5959449
241	0x3ef3b891	0.4760175
242	0xbeff608e	-0.49878353
243	0x3d1a122f	0.037614997
244	0x3e91a939	0.2844942
245	0xbd97bda1	-0.07409216
246	0x3e3395f4	0.17537671
247	0x3e551ce7	0.20811807
248	0xbddc1581	-0.10746289
249	0x3e969a4e	0.294146
250	0x3e852093	0.26001415
251	0x3f522beb	0.82098264
252	0x3f241a80	0.64102936
253	0x3f0f42ad	0.55961114
254	0xbda9f5c0	-0.08298826
255	0x3dbcd3d8	0.092200935

lstm.weight_hh_l0 f4 [512, 128]
0	0xbe2efcf0	-0.17088675
1	0x3e66f625	0.22554834
2	0x3d8088d4	0.06276098
3	0xbea78a4a	-0.32722694
4	0xbe9791bb	-0.2960337
5	0xbdcf0263	-0.10107877
6	0xbdb046ab	-0.08607229
7	0xbe165aed	-0.14683123
8	0xbea5da40	-0.32393074
9	0xbc9270e6	-0.0178761
10	0xbcf9105b	-0.030403307
11	0xb9ba69ed	-0.00035555605
12	0x3dbd429d	0.09241221
13	0x3dbb719d	0.091525294
14	0xbdc36cce	-0.09542237
15	0xbe15ae6c	-0.14617318
16	0x3c8e9361	0.01740426
17	0xbd50ca9f	-0.050974485
18	0x3e344cef	0.17607473
19	0xbe380b82	-0.1797314
20	0x3e520bdb	0.20512335
21	0x3e4e533c	0.20148939
22	0x3e4a3035	0.19744952
23	0x3953a428	0.00020183681
24	0x3d93d9c8	0.07219273
25	0x3d5e402b	0.054260414
26	0x3d6c544f	0.05769759
27	0x3eb07ba3	0.34469327
28	0xbdab1308	-0.08353239
29	0xbe17441c	-0.14772075
30	0xbd6e4a1f	-0.058176156
31	0xbe0e19ad	-0.13876982
32	0xbcc83fb8	-0.024444446
33	0xbdb70b74	-0.089377314
34	0xbcd7881d	-0.026310021
35	0x3e54ef0b	0.20794313
36	0x3dd36da9	0.103236504
37	0x3e6b5c70	0.22984481
38	0x3d18cc8d	0.03730445
39	0xbe25b1e5	-0.16181143
40	0x3e080751	0.13284041
41	0x3e210d6d	0.15727778
42	0x3ef32496	0.4748885
43	0xbd3bbbc5	-0.045833368
44	0x3d9d2b89	0.07674319
45	0x3d87219d	0.06598208
46	0x3e34b2e6	0.1764637
47	0x3e80ecd8	0.25180697
48	0xbddb6600	-0.10712814
49	0xbe1da77e	-0.15395924
50	0xbd8b5e6f	-0.06805121
51	0xbdac82f5	-0.084234156
52	0x3d0b8f25	0.03407206
53	0x3e4aa71c	0.1979031
54	0x3df92c4d	0.12166653
55	0xbd093775	-0.033500154
56	0x3e80fd43	0.25193223
57	0x3e29df15	0.16589005
58	0x3e4710d2	0.1944001
59	0x3e067919	0.13132133
60	0xbe8fc733	-0.28081664
61	0xbb507816	-0.0031809858
62	0xbd9a6b0a	-0.07539947
63	0x3e4478a9	0.19186653
64	0xbcfe2e63	-0.031027978
65	0xbe080516	-0.1328319
66	0xba84b17f	-0.0010123699
67	0x3e1f2fe5	0.15545614
68	0x3ea0807e	0.31348032
69	0xbdd5bc22	-0.10436274
70	0xbdd862be	-0.105657086
71	0xbda63ca8	-0.08117038
72	0x3dad6a7a	0.084675744
73	0x3c9ab701	0.018886091
74	0x3df9f545	0.122049846
75	0x3d63539c	0.055499658
76	0x3db37107	0.08761793
77	0xbc77e0dc	-0.015129294
78	0xbeb0da11	-0.3454137
79	0x3dd2d841	0.102951534
80	0xbe362535	-0.17787631
81	0x3e453155	0.192571
82	0x3eeb9a42	0.46016127
83	0x3b61de08	0.0034464616
84	0x3db426d6	0.0879647
85	0xbdc1245e	-0.094307646
86	0xbddcbb7a	-0.10777946
87	0x3df1850c	0.11792955
88	0xbdb64f30	-0.089018226
89	0xbbaee195	-0.00533695
90	0xbd2b8446	-0.041874193
91	0xbcf3ce3b	-0.029761424
92	0xbaad40d3	-0.0013218172
93	0xbd605ed5	-0.05477794
94	0xbe184b89	-0.14872564
95	0x3e82a2b9	0.25514773
96	0x3d8d5543	0.06901028
97	0x3e38399a	0.17990723
98	0x3c62a991	0.013834373
99	0xbe795988	-0.2435056
100	0xbe52f66e	-0.20601818
101	0x3dc6f254	0.09714189
102	0xbdccbd70	-0.0999707
103	0x3de555ce	0.111980066
104	0xbb7ba6b8	-0.0038398933
105	0x3d32d675	0.043661553
106	0xbdee9448	-0.11649376
107	0xbe143155	-0.14471944
108	0x3d627953	0.055291485
109	0xbd7171ce	-0.058946423
110	0x3cf374fd	0.02971887
111	0x3d946cbd	0.07247303
112	0x3c91f37e	0.017816301
113	0xbe3f19e6	-0.18662223
114	0x3da96a88	0.08272272
115	0x3dcfb00b	0.101409994
116	0x3de532c6	0.11191325
117	0xbd5de30d	-0.05417161
118	0x3dcbe320	0.0995543
119	0x3e20f8cc	0.15719908
120	0xbea20f23	-0.31652173
121	0x3de02d61	0.10946155
122	0xbe204e61	-0.15654899
123	0x3e3c9d57	0.18419395
124	0x3d119172	0.035539098
125	0xbd38cc13	-0.045116495
126	0xbeac09d1	-0.3360124
127	0x3da8bd91	0.08239282
128	0xbe8ad5ac	-0.27116144
129	0x3ee3af9f	0.44469926
130	0xbe4fa92a	-0.20279375
131	0xbe363389	-0.17793097
132	0xbd99b946	-0.07506041
133	0xbe7b7a6c	-0.24558419
134	0xbdfc6f11	-0.12325872
135	0xbe5df703	-0.21676259
136	0x3e33e786	0.17568788
137	0xbe38070a	-0.17971435
138	0x3d9d9e73	0.076962374
139	0xbcd02eb0	-0.025412887
140	0x3eb00cbb	0.34384713
141	0xbdf365d5	-0.11884657
142	0x3dc5e806	0.096633956
143	0x3e75b673	0.2399538
144	0xbce0a71a	-0.02742343
145	0x3bbb7bec	0.0057215597
146	0x3e91bf60	0.2846632
147	0xbebe3eec	-0.3715738
148	0x3e9a905c	0.30188262
149	0x3e80b6b5	0.25139394
150	0x3e67ae39	0.22625054
151	0x3dcaf100	0.09909248
152	0x3e2378d6	0.15964064
153	0xbda78a6d	-0.081806995
154	0x3c78b5b7	0.015180043
155	0x3e0529ab	0.13004176
156	0xbe783ddb	-0.24242346
157	0xbe511c0d	-0.20420857
158	0xbe5d79f4	-0.21628553
159	0xbedd2778	-0.43194175
160	0x3b360b30	0.0027777664
161	0x3db048ff	0.08607673
162	0xbecb8e7a	-0.39757138
163	0xbda2bfe0	-0.079467535
164	0xbd0bacaf	-0.03410023
165	0x3ea55a42	0.32295424
166	0xbdfed677	-0.1244325
167	0xbe04f763	-0.12984996
168	0x3dbbd4bf	0.091714375
169	0xbf108322	-0.5645009
170	0x3a11be9a	0.0005559713
171	0xbb302140	-0.0026875287
172	0x3d9d5c21	0.07683588
173	0x3d637399	0.055530164
174	0x3eb5bbe2	0.35494906
175	0x3d375215	0.044756014
176	0x3e2ba9bf	0.16763972
177	0x3d9975e7	0.07493191
178	0xbe6b7635	-0.22994311
179	0xbdeeceb0	-0.11660516
180	0xbecee127	-0.40406153
181	0x3e917eed	0.2841715
182	0x3ea97f94	0.33105147
183	0x3f038f92	0.51390946
184	0x3e095305	0.13410576
185	0x3e52be66	0.20580444
186	0x3e483cdb	0.19554465
187	0x3df3b6f4	0.1190013
188	0xbea978b9	-0.33099917
189	0x3ec7633a	0.3894289
190	0xbd438b36	-0.047740184
191	0x3e9bbf28	0.30419278
192	0xbd69f69d	-0.057119954
193	0xbda496d0	-0.08036578
194	0xbf0a7703	-0.5408785
195	0x3e96f133	0.29480895
196	0x3e28a5d1	0.16469504
197	0xbe8cceea	-0.27501613
198	0x3e567177	0.20941721
199	0x3f0ae0ed	0.5424946
200	0x3e16c3ab	0.14723079
201	0x3bc2ecd6	0.005948643
202	0xbea03a5a	-0.3129452
203	0x3d1f7014	0.038925245
204	0xbe4f8cfc	-0.20268625
205	0x3e13dd9a	0.14440003
206	0xbed501ba	-0.4160288
207	0xbea80296	-0.32814473
208	0x3deb9bc0	0.11504316
209	0x3de41fc4	0.11138871
210	0x3f01187a	0.50427973
211	0x3ea065d9	0.31327704
212	0xbea252e4	-0.31703866
213	0xbe8d3ea8	-0.27586865
214	0xbdfa29ac	-0.122149795
215	0xbdb06aa0	-0.08614087
216	0xbedfa856	-0.43683118
217	0x3d2d0362	0.042239554
218	0x3e94caba	0.29060918
219	0x3dc73db5	0.097285666
220	0x3e4d9fb3	0.20080452
221	0x3e819c6f	0.25314662
222	0x3f1c0e9e	0.60959804
223	0x3e04b58d	0.12959881
224	0xbebe7a07	-0.37202474
225	0x3e25c52a	0.16188493
226	0x3e50ed38	0.20402992
227	0x3ea4e9c3	0.32209596
228	0x3b39d1dc	0.0028353846
229	0x3c38fa96	0.011290213
230	0xbeabd96c	-0.33564317
231	0x3eba4498	0.36380458
232	0xbbfdea75	-0.0077488967
233	0x3e699207	0.22809611
234	0xbe3a09ee	-0.1816785
235	0xbea20221	-0.3164225
236	0x3ecb816e	0.39747185
237	0xbe99c965	-0.30036464
238	0x3f44c2c8	0.7685971
239	0x3e7a1c30	0.24424815
240	0x3e6bbe86	0.23021898
241	0xbe047740	-0.12936115
242	0x3eb506c5	0.35356727
243	0x3da4e1be	0.080508694
244	0x3e55042a	0.2080237
245	0xbe3874c5	-0.18013294
246	0xbdfc78b2	-0.12327708
247	0x3ea136d4	0.31487143
248	0xbddb21b4	-0.10699788
249	0x3dc77d7e	0.097407326
250	0x3e0dd4bf	0.13850687
251	0x3e7d7906	0.24753198
252	0x3d15b143	0.036546003
253	0xbe3bab6e	-0.18327114
254	0xbf12b7bc	-0.57311606
255	0x3caab5ad	0.020838583

lstm.bias_ih_l0 f4 [512]
0	0x3e38de52	0.18053558
1	0x3ed5baf0	0.41744184
2	0x3ea2d783	0.31805047
3	0x3e047cc5	0.12938221
4	0x3e5dc74f	0.21658061
5	0x3e9eb942	0.31000715
6	0x3e1e96e9	0.15487255
7	0x3da71b5e	0.08159517
8	0x3f143784	0.5789721
9	0x3e43c9ad	0.19119902
10	0x3d98fea3	0.07470443
11	0x3e69794b	0.22800176
12	0x3e65a736	0.22427067
13	0x3e8e6d43	0.27817735
14	0x3e8d8c65	0.27646175
15	0x3e72107a	0.23639098
16	0x3dee5b07	0.11638456
17	0x3ed51120	0.41614628
18	0x3e4d6924	0.20059639
19	0x3e295d0c	0.16539401
20	0x3e4ee3a1	0.20204021
21	0x3d44b5d1	0.048024956
22	0x3ecb31c7	0.39686415
23	0x3d398cb1	0.04530019
24	0x3e65e8a0	0.2245202
25	0x3e1d69e9	0.15372433
26	0x3e0bc46b	0.13649146
27	0x3eeecb5a	0.4663952
28	0x3d1d9888	0.038475543
29	0x3e47f837	0.1952828
30	0x3e3cad63	0.18425517
31	0x3e85ec23	0.2615672
32	0x3e0ea7f9	0.13931264
33	0x3ed90973	0.42390022
34	0x3ec9ec00	0.39437866
35	0x3e5ec6f3	0.2175558
36	0x3de7f2e6	0.11325626
37	0x3ec7f282	0.39052206
38	0x3e4407f5	0.1914366
39	0x3e9f2714	0.31084502
40	0x3eafcf4d	0.34337845
41	0x3e889143	0.26673326
42	0x3ee635d9	0.44962958
43	0x3e9d7637	0.30754253
44	0x3e9bc046	0.3042013
45	0x3e099940	0.13437366
46	0x3e6197e4	0.22030598
47	0x3ec490d4	0.38391745
48	0x3e559dfa	0.20861045
49	0x3e8d8798	0.27642512
50	0x3e85a005	0.26098648
51	0x3e0304bd	0.12794776
52	0x3e540be4	0.20707661
53	0x3dc21c1a	0.09478016
54	0x3e43315d	0.190618
55	0x3e77a72a	0.24184862
56	0x3e1c2a78	0.15250576
57	0x3db1f418	0.08689135
58	0x3ec632f9	0.38710764
59	0x3e3a8c76	0.18217644
60	0x3e742ead	0.2384593
61	0x3e3625cf	0.1778786
62	0x3eeef3cd	0.4667038
63	0x3ef741ce	0.48292392
64	0x3dfa78c7	0.12230068
65	0x3d488d3a	0.04896281
66	0x3e961e77	0.29320118
67	0x3e7bb138	0.24579322
68	0x3e19437a	0.14967147
69	0x3ec43e92	0.38328987
70	0x3ea17b5c	0.31539428
71	0x3f0e3646	0.55551565
72	0x3e7dfff6	0.24804673
73	0x3e810535	0.25199285
74	0x3ea5d5ce	0.32389683
75	0x3e0aa23b	0.13538449
76	0x3e4d0cac	0.20024365
77	0x3de627d4	0.11238065
78	0x3e52e474	0.2059496
79	0x3ef10b6e	0.47079033
80	0x3ecc0514	0.39847624
81	0x3e3e4ede	0.18584773
82	0x3e0a5b18	0.13511312
83	0x3e4ca931	0.19986416
84	0x3e6ef44e	0.23335382
85	0x3d2120f9	0.039338086
86	0x3e8e58e7	0.27802202
87	0x3e239490	0.15974641
88	0x3e110fa3	0.14166121
89	0x3d65578a	0.055991687
90	0x3e898606	0.26860064
91	0x3e8ec370	0.27883482
92	0x3e9d70c2	0.3075009
93	0x3deee2b5	0.11664335
94	0x3e9dad3e	0.30796236
95	0x3dc8a0de	0.09796308
96	0x3e1b6aee	0.15177509
97	0x3eca8833	0.39557037
98	0x3e7a44a4	0.24440247
99	0x3e1b7f66	0.15185317
100	0x3e812dfa	0.2523039
101	0x3f004ca9	0.50116974
102	0x3ceeb45d	0.029138738
103	0x3e0c3dae	0.13695404
104	0x3e76d96a	0.24106374
105	0x3dd30765	0.10304145
106	0x3e68e1e4	0.2274242
107	0x3e5c3940	0.21506214
108	0x3ed23373	0.41054878
109	0x3e327dfb	0.1743087
110	0x3e62250c	0.22084445
111	0x3ea6c822	0.32574564
112	0x3e13dd1d	0.14439817
113	0x3eabd6dd	0.33562365
114	0x3e9ddb84	0.3083154
115	0x3e33705f	0.17523335
116	0x3e5da68e	0.21645567
117	0x3e01b66b	0.12667243
118	0x3ea48bb4	0.32137835
119	0x3e83542c	0.25650156
120	0x3e84f2b1	0.2596641
121	0x3ea9247e	0.33035654
122	0x3e4f1a52	0.20224884
123	0x3d480dd0	0.048841298
124	0x3d8ada44	0.06779912
125	0x3da6e77c	0.08149621
126	0x3dfc2b45	0.123129405
127	0x3e08dab3	0.13364677
128	0x3e5595fb	0.20857994
129	0xbda2d491	-0.079507
130	0x3d9db941	0.0770135
131	0x3d8ca8ca	0.068681315
132	0x3df4ec66	0.11959152
133	0x3c94341d	0.018091256
134	0x3d800c2b	0.06252321
135	0x3cb90fd5	0.022590557
136	0xbe8267cc	-0.25469816
137	0x3dbee9aa	0.09321912
138	0x3ddc5fde	0.10760473
139	0x3d82da8c	0.06389341
140	0x3d27d3fb	0.040973645
141	0x3e6b6594	0.22987968
142	0xbc207ae8	-0.009794928
143	0x3b8e969d	0.0043514506
144	0x3e16406c	0.14673012
145	0x3c943e8b	0.018096229
146	0x3d87d709	0.066328116
147	0x3e836144	0.25660145
148	0x3e26279f	0.16226052
149	0x3dd6e6c4	0.10493234
150	0x3e422a7c	0.18961519
151	0x3de9cc83	0.11415961
152	0xbbbe3b6b	-0.005805423
153	0x3e227862	0.15866235
154	0xbb715471	-0.0036824013
155	0x3e47881d	0.19485517
156	0x3e176b94	0.14787132
157	0x3cd34421	0.025789322
158	0x3cbc10cb	0.022957226
159	0x3de72605	0.112865485
160	0xbc8433f8	-0.016138062
161	0x3da49334	0.08035889
162	0x3d8599a6	0.06523447
163	0x3c6a592c	0.014303487
164	0x3cb3d70d	0.02195313
165	0x3e22fbd9	0.15916385
166	0x3c9f548b	0.019449493
167	0x3e2b1d06	0.1671029
168	0x3d9805a5	0.074229516
169	0x3e0c4d2e	0.13701317
170	0x3c4f53ce	0.012654258
171	0x3e06d554	0.13167316
172	0x3dfc3104	0.123140365
173	0x3e20ea96	0.15714487
174	0x3dd6f54c	0.104960054
175	0xbc2ce49c	-0.010552552
176	0x3cf4ec7e	0.029897925
177	0x3e275126	0.1633955
178	0x3d853567	0.06504326
179	0xbc627d45	-0.013823812
180	0x3cb8796c	0.022518836
181	0x3e31e016	0.17370638
182	0x3e7856e1	0.24251892
183	0x3e0b5622	0.13607076
184	0x3d639175	0.05555864
185	0x3de19b46	0.11015944
186	0x3e279619	0.16365851
187	0x3e37fdac	0.17967862
188	0x3d9f5294	0.077794224
189	0x3d4a1b08	0.049342185
190	0x3db2cb4f	0.08730184
191	0x3e4cbf22	0.19994786
192	0x3e148dde	0.14507243
193	0x3e201506	0.1563302
194	0xbc5f74a0	-0.013638645
195	0x3e089cc4	0.13341051
196	0x3d842428	0.06452209
197	0x3dc7a0ea	0.09747489
198	0xbcf99939	-0.03046857
199	0x3df1d698	0.11808509
200	0x3b6468d3	0.003485252
201	0x3c0f3577	0.008740774
202	0x3da5f2c1	0.08102942
203	0x3e01663b	0.12636654
204	0xbd8ebe15	-0.06969849
205	0x3c768882	0.015047194
206	0x3e004c2d	0.12529059
207	0x3b185fe0	0.0023250505
208	0x3d3b8b6a	0.045787252
209	0x3db81ac2	0.08989479
210	0x3e417992	0.18894032
211	0x3e168d5b	0.1470236
212	0x3e4c875e	0.19973513
213	0x3e03e290	0.12879395
214	0x3e80dae5	0.25167003
215	0x3db98100	0.09057808
216	0x3e0c6aa0	0.13712549
217	0x3c570025	0.013122593
218	0x3e48e48a	0.1961843
219	0x3e10854c	0.14113349
220	0x3dc52918	0.09626979
221	0x3dfa97a3	0.12235954
222	0xbce19c54	-0.027540363
223	0x3d878743	0.06617596
224	0x3df2a572	0.118479624
225	0x3e17a40e	0.14808676
226	0x3e1039c5	0.14084537
227	0x3d775ed6	0.060393177
228	0x3e97d600	0.29655457
229	0x3e33dab2	0.17563894
230	0x3d1cb9e0	0.0382632
231	0x3e0ba4c7	0.13637076
232	0x3da245d3	0.07923474
233	0x3d9efa07	0.07762533
234	0xbc037eda	-0.008025849
235	0x3e09e7de	0.13467357
236	0x3e56c3dd	0.20973153
237	0x3e3ac483	0.18239026
238	0x3d6b691b	0.057473283
239	0x3dd3b37b	0.103369676
240	0x3e161ed5	0.14660199
241	0x3dbe961b	0.09305974
242	0x3e1ae7ae	0.15127441
243	0x3ad616ff	0.0016333758
244	0xbca42455	-0.020036856
245	0x3df2bb23	0.118521
246	0x3ceecd15	0.029150525
247	0x3e7515f8	0.23934162
248	0x3d904ebe	0.07046269
249	0x3e11bd93	0.14232473
250	0x3c96707c	0.018364184
251	0x3d481f6d	0.048858095
252	0x3d841514	0.06449333
253	0xbc2ad241	-0.010426105
254	0x3e069cc5	0.1314574
255	0x3d85a657	0.065258674

lstm.bias_hh_l0 f4 [512]
0	0x3e797f25	0.24364908
1	0x3ea0db9b	0.31417546
2	0x3e8eabe3	0.27865514
3	0x3e0476ff	0.12936018
4	0x3d909d9d	0.07061312
5	0x3e714890	0.23562837
6	0x3e74696c	0.2386834
7	0x3cd530d8	0.026024267
8	0x3f231b5e	0.63713634
9	0x3e933d78	0.28757834
10	0x3df78418	0.12085742
11	0x3e9a2083	0.3010293
12	0x3d940589	0.07227618
13	0x3ec7c005	0.39013687
14	0x3ec93178	0.39295554
15	0x3e80e264	0.25172722
16	0x3d8b5970	0.06804168
17	0x3ed0d939	0.40790728
18	0x3e24460a	0.16042343
19	0x3e5afdd3	0.21385889
20	0x3e89c85c	0.26910675
21	0x3db0b7c8	0.086288035
22	0x3ea19317	0.31557533
23	0x3dff6179	0.12469763
24	0x3d95fecc	0.07323989
25	0x3e206a41	0.15665533
26	0x3e401c2c	0.18760747
27	0x3efc8088	0.49316812
28	0x3dc3c929	0.09559853
29	0x3e55c615	0.20876344
30	0x3e64fb85	0.22361572
31	0x3e398d7b	0.18120377
32	0x3ddb5471	0.10709465
33	0x3e86d15c	0.26331604
34	0x3eda3f36	0.4262635
35	0x3e23e340	0.16004658
36	0x3e145480	0.14485359
37	0x3e86a9c5	0.263014
38	0x3e1dc99d	0.1540894
39	0x3ec6d67f	0.38835523
40	0x3ea390b9	0.31946352
41	0x3e680c09	0.22660841
42	0x3eb86c92	0.36020333
43	0x3e87e76a	0.26543742
44	0x3ec1296e	0.3772692
45	0x3e636006	0.22204599
46	0x3ddceba0	0.107871294
47	0x3f05bfd8	0.52245855
48	0x3ddf8899	0.10914726
49	0x3e9ddca2	0.30832392
50	0x3e87bebc	0.26512706
51	0x3e080a03	0.13285069
52	0x3e1ae9ac	0.15128201
53	0x3e08cdab	0.13359706
54	0x3e8df8fe	0.27729028
55	0x3e1ac8d1	0.15115668
56	0x3e331f80	0.17492485
57	0x3e3a6b7d	0.18205066
58	0x3ed7e101	0.42163852
59	0x3e15b615	0.1462024
60	0x3e4cab15	0.19987138
61	0x3e3346af	0.17507432
62	0x3eff3ef6	0.49852723
63	0x3f00615f	0.50148576
64	0x3e4fa86f	0.20279096
65	0x3dd87c3f	0.10570573
66	0x3e21a06d	0.15783854
67	0x3e1877a9	0.14889397
68	0x3da8f1fe	0.08249281
69	0x3efd69ee	0.4949488
70	0x3ebc538d	0.36782494
71	0x3ef30856	0.47467297
72	0x3e25b8ea	0.1618382
73	0x3e93bfbc	0.2885722
74	0x3eb7b4d3	0.35880145
75	0x3e7c4c95	0.24638589
76	0x3e3e52f5	0.18586333
77	0x3e60f180	0.21967125
78	0x3e6ce616	0.23134646
79	0x3ec16b6c	0.3777727
80	0x3ecd9d67	0.4015915
81	0x3e1c7a84	0.15281111
82	0x3e1abf13	0.15111952
83	0x3e4c5339	0.19953622
84	0x3e5f0307	0.21778499
85	0x3e295cc2	0.1653929
86	0x3e31411e	0.17309996
87	0x3e2ec5d1	0.17067648
88	0x3c3e88d1	0.011629299
89	0x3d8596f3	0.06522932
90	0x3e95b8c0	0.29242516
91	0x3e6ab899	0.22921981
92	0x3e8b16d7	0.27165863
93	0x3e241ac6	0.16025838
94	0x3e8b54e4	0.27213204
95	0x3dcd41c0	0.100223064
96	0x3e4ab81a	0.19796792
97	0x3ec7a477	0.38992664
98	0x3e87f0a9	0.26550797
99	0x3e8c402e	0.27392715
100	0x3e98b251	0.29823545
101	0x3eff97cb	0.49920496
102	0x3dd3d45c	0.10343239
103	0x3e6595c9	0.2242042
104	0x3e2eef2f	0.17083429
105	0x3e20b4b5	0.15693934
106	0x3e4da693	0.20083074
107	0x3e5ea1c4	0.21741396
108	0x3ea3868a	0.31938583
109	0x3e1a488f	0.15066741
110	0x3e5d14fa	0.21590033
111	0x3e9bf566	0.30460662
112	0x3e81e266	0.2536804
113	0x3e97dbde	0.29659933
114	0x3e77b114	0.24188644
115	0x3e57fdbe	0.21092889
116	0x3e5a5f33	0.21325378
117	0x3e7c9bd3	0.24668817
118	0x3e5e59e3	0.21713977
119	0x3e0f74b8	0.14009368
120	0x3eabc2ac	0.3354696
121	0x3ecadacb	0.3962005
122	0x3dc9773a	0.09837194
123	0x3e028089	0.12744345
124	0x3da36971	0.07979096
125	0x3dbc993c	0.09208915
126	0x3e169c14	0.14707977
127	0x3e2f936a	0.17146078
128	0x3e2a34d4	0.16621715
129	0xbddf4e14	-0.10903564
130	0x3e022b13	0.12711744
131	0x3e2228c8	0.1583587
132	0x3e51907c	0.20465273
133	0x3b1c2b4c	0.0023829518
134	0x3e081e80	0.13292885
135	0x3dcc8df8	0.09988016
136	0xbe0bfcb7	-0.13670622
137	0x3dfb1550	0.122599244
138	0x3d8925a0	0.066966295
139	0x3e075dad	0.13219328
140	0x3d02f70c	0.031973884
141	0x3e7dd5a2	0.24788526
142	0x3e1a59bb	0.15073292
143	0x3def655f	0.11689257
144	0x3d8e2a05	0.06941608
145	0xbd0981aa	-0.033570923
146	0x3e35a25e	0.1773772
147	0x3e82fc63	0.2558318
148	0x3e2fb6ff	0.17159651
149	0x3db7b1dc	0.08969471
150	0x3e7c1a69	0.2461945
151	0x3e32ee7e	0.1747379
152	0x3dbd0510	0.09229481
153	0x3dd63251	0.10458816
154	0x3e1d53d5	0.1536401
155	0x3e4b7e6a	0.19872442
156	0xbb34e546	-0.0027602478
157	0x3d451645	0.04811694
158	0x3d8c7064	0.06857374
159	0x3d4cb269	0.049974833
160	0x3d50e796	0.051002108
161	0x3e5a62bb	0.21326725
162	0x3c3abc67	0.011397458
163	0xbcf7de12	-0.030257259
164	0x3df2fa2e	0.11864124
165	0x3e31c136	0.1735886
166	0x3dac6d9e	0.08419345
167	0x3d8ce431	0.068794616
168	0x3e2c1bc2	0.16807464
169	0x3da6571a	0.08122082
170	0x3d30fc6d	0.043209482
171	0x3da55d7d	0.08074472
172	0x3d8a3640	0.067486286
173	0x3e670fbb	0.22564594
174	0x3e3da753	0.1852086
175	0x3ce1f01b	0.027580312
176	0x3d515faa	0.051116623
177	0x3e19a8dd	0.15005822
178	0x3dd42f2c	0.1036056
179	0x3c65cdf6	0.014026156
180	0x3df516d7	0.11967247
181	0x3e101f3c	0.14074415
182	0x3e05bd75	0.13060553
183	0x3d9dd7ac	0.07707152
184	0x3d652859	0.05594668
185	0x3e178566	0.14796981
186	0x3dc2cbe6	0.09511547
187	0x3e438c41	0.19096471
188	0x3d7574c1	0.0599258
189	0x3dff9a63	0.12480619
190	0x3da6c16c	0.08142361
191	0x3dde6d39	0.10860676
192	0x3e09a177	0.134405
193	0x3cc984ff	0.02459955
194	0x3ceee62a	0.029162485
195	0x3d862652	0.06550278
196	0x3e285ff1	0.16442849
197	0x3e596735	0.21230777
198	0x3db643e0	0.08899665
199	0x3d2b7784	0.041862026
200	0x3c4502ed	0.012024623
201	0x3d3ed2f2	0.046587892
202	0xbcb8ddac	-0.022566639
203	0x3cbd0eee	0.023078408
204	0xbd9f0e15	-0.07766358
205	0x3dc3345a	0.0953147
206	0x3d90418d	0.07043753
207	0x3db04014	0.08605972
208	0x3e55bba1	0.20872356
209	0x3dc898f8	0.097948015
210	0x3dc1e7d0	0.09468043
211	0x3db848c4	0.08998254
212	0x3dd8b72d	0.10581813
213	0x3ded676d	0.115919925
214	0x3e7baf20	0.24578524
215	0x3cd3999f	0.025830088
216	0x3d631e52	0.055448838
217	0xbd03e461	-0.03220022
218	0x3e4c8109	0.19971098
219	0x3e35b38f	0.17744277
220	0x3dca0ccb	0.09865721
221	0xbd2ad50a	-0.041707076
222	0xbc3c4c97	-0.01149287
223	0x3e04e85b	0.12979262
224	0x3df96ba5	0.12178735
225	0x3e26afad	0.16277952
226	0x3e17e693	0.14834051
227	0x3d76b9c7	0.060235765
228	0x3e0a2386	0.13490114
229	0x3e5fce62	0.21856073
230	0x3ce7faee	0.028317895
231	0x3dbf9d3e	0.093561634
232	0x3d962243	0.07330754
233	0x3d8548ec	0.06508049
234	0x3d8d6560	0.06904101
235	0x3dfbcaef	0.12294566
236	0x3e3719ca	0.17880931
237	0x3d66446a	0.05621759
238	0x3e3a89dd	0.18216653
239	0x3e0e91dc	0.13922828
240	0x3e47b4d4	0.19502574
241	0x3e046ed5	0.12932904
242	0x3e2e0495	0.16993935
243	0x3e28dd5d	0.16490693
244	0x3dcf9252	0.1013533
245	0x3e378613	0.17922239
246	0xbd956bf9	-0.07295985
247	0x3e61ca54	0.22049838
248	0x3e016253	0.12635164
249	0x3cc2dfac	0.023788296
250	0x3d96e32b	0.073675476
251	0x3d8c0131	0.06836165
252	0x3dd3b8e8	0.103380024
253	0x3dfb0598	0.12256926
254	0xbbec4bb4	-0.007211173
255	0x3dafbd0f	0.08580982

fc.weight f4 [18, 128]
0	0x3ebb4f64	0.36584008
1	0xbf5a9844	-0.8538859
2	0x3ed449bc	0.41462505
3	0x3ee2a310	0.44265032
4	0x3e2b7563	0.16743998
5	0x3e515b6d	0.20445032
6	0xbd0bfbd6	-0.034175716
7	0xbdff6cec	-0.12471947
8	0x3f793ebc	0.9736135
9	0xbd606e2c	-0.054792568
10	0x3f5ab9c1	0.8543969
11	0xbf0c5481	-0.5481644
12	0x3e051a85	0.12998398
13	0x3e651856	0.22372565
14	0xbe83ca47	-0.25740263
15	0xbedd3d05	-0.43210617
16	0x3e593df0	0.21215034
17	0xbd084bc7	-0.033275392
18	0xbebc877c	-0.36822116
19	0x3e1074e9	0.14107098
20	0xbf2dbd8e	-0.6786736
21	0xbc0356ed	-0.00801633
22	0xbe96f014	-0.2948004
23	0xbe9b3940	-0.30317116
24	0xbda59e7b	-0.080868684
25	0xba9ace1f	-0.0011810696
26	0xbe34b1bf	-0.1764593
27	0xbf0d9c12	-0.5531627
28	0x3eddb9b0	0.4330573
29	0xbdb32d6f	-0.087489
30	0xbeafad25	-0.34311786
31	0x3f05fd4d	0.5233963
32	0x3e81a819	0.2532356
33	0xbf041226	-0.5159019
34	0xbedce7df	-0.43145654
35	0x3e7a1927	0.24423657
36	0xbecde358	-0.40212512
37	0xbee0e31a	-0.43923265
38	0x3efbeddd	0.49204913
39	0xbebbec4b	-0.36703715
40	0xbea0a14e	-0.31373066
41	0xbf564e2d	-0.83713037
42	0xbebc5739	-0.36785296
43	0xbe69ca8e	-0.22831175
44	0xbe0257a2	-0.12728742
45	0xbdb6a7c2	-0.08918716
46	0x3e32b28d	0.17450924
47	0x3f457f31	0.77147204
48	0x3d786df3	0.06065173
49	0xbe920a7d	-0.28523627
50	0xbeb923bf	-0.36160085
51	0x3e50f6f3	0.20406704
52	0x3e4fe0db	0.2030062
53	0x3e8a8564	0.27054894
54	0xbe2f60f2	-0.17126825
55	0xbd165e65	-0.036711115
56	0xbe31c3ee	-0.17359897
57	0xbecd46e8	-0.4009316
58	0x3d0f5b21	0.034999017
59	0xbee78ac1	-0.45223048
60	0x3da527f3	0.0806426
61	0xbdc9d665	-0.09855346
62	0xbe6ee5fe	-0.23329923
63	0xbf14f200	-0.5818176
64	0x3df088cb	0.11744841
65	0xbd197172	-0.037461706
66	0xbebc7d51	-0.3681436
67	0xbe73affd	-0.23797603
68	0xb9b0bbb5	-0.0003370919
69	0x3ea44d98	0.3209045
70	0x3e48da91	0.19614626
71	0xbe4d99a1	-0.20078136
72	0x3cfec8fd	0.031101698
73	0x3e0104b5	0.12599452
74	0xbf56972d	-0.83824426
75	0xbd1e2ad8	-0.038615078
76	0xbef2bc4b	-0.4740928
77	0xbec07929	-0.37592438
78	0x3dc40818	0.09571856
79	0xbf190083	-0.59766406
80	0xbf02c774	-0.5108559
81	0xbf085a54	-0.5326283
82	0xbec56bde	-0.3855886
83	0xbe8642f1	-0.26222947
84	0xbe4cfdbb	-0.20018665
85	0xbe891f6f	-0.26781794
86	0xbe97c174	-0.2963978
87	0xbc9899af	-0.01862797
88	0xbe4615bd	-0.1934423
89	0x3e9fc4a4	0.31204712
90	0x3ee131a2	0.4398318
91	0x3e5c9d31	0.21544339
92	0x3dbc553a	0.09195943
93	0xbe4fd144	-0.20294672
94	0x3f6519e4	0.8949263
95	0xbd88d7c5	-0.0668178
96	0x3d275409	0.040851627
97	0xbe8045f0	-0.25053358
98	0xbe041861	-0.12899925
99	0xbcb52685	-0.022113094
100	0x3eca73f1	0.3954158
101	0x3f213cef	0.629836
102	0xbdb16030	-0.086609244
103	0x3e83a803	0.2571412
104	0xbf0868f3	-0.5328514
105	0x3e88eae6	0.26741713
106	0xbb9f5f96	-0.0048636897
107	0xbe609aa7	-0.21933995
108	0xbe86fd96	-0.26365346
109	0xbddb4ae7	-0.10707646
110	0x3f9e8c67	1.2386597
111	0x3eb36d60	0.35044384
112	0xbe16daa0	-0.14731836
113	0xbdc1295e	-0.09431718
114	0x3dddcccd	0.10830078
115	0xbe34bfb3	-0.17651252
116	0xbdc7d0cb	-0.09756621
117	0xbd6e8eac	-0.05824153
118	0xbe8e1d81	-0.27756885
119	0xbdde58c1	-0.10856772
120	0x3e7d4ad8	0.24735582
121	0xbe9a312c	-0.3011564
122	0x3d824a70	0.06361854
123	0xbe6aeb2f	-0.22941278
124	0xbe1b7ea9	-0.15185036
125	0x3e106abb	0.14103214
126	0x3e88cbb5	0.26717916
127	0x3e0039b4	0.12522012
128	0xbdd3c18f	-0.10339653
129	0x3e7cd31c	0.24689907
130	0xbe2166a5	-0.15761812
131	0x3d8cefdf	0.06881689
132	0xbeaddb12	-0.339562
133	0x3e5a7cc5	0.21336658
134	0xbe95140a	-0.2911685
135	0xbefbc0dc	-0.49170578
136	0xbdf5640f	-0.11981975
137	0xbe620a03	-0.22074132
138	0xbe8ed132	-0.27893978
139	0xbd2256a3	-0.039633404
140	0xbe32fff7	-0.17480455
141	0xbdf740f2	-0.12072934
142	0xbe9ab0df	-0.30213067
143	0x3c37b2a9	0.0112120295
144	0x3daec1a0	0.08533025
145	0x3f533729	0.8250604
146	0x3df31612	0.11869444
147	0xbe0cfcc4	-0.13768297
148	0xbe9a0949	-0.3008521
149	0xbe0a71ac	-0.13519925
150	0x3ecc628c	0.39918935
151	0x3e4eb7da	0.20187321
152	0x3e1caa70	0.15299392
153	0x3d4a6b84	0.04941894
154	0x3ea45b03	0.32100686
155	0x3e4b0dba	0.19829455
156	0xbe9622a8	-0.29323316
157	0xbe595b18	-0.21226156
158	0x3e577b40	0.2104311
159	0x3dc69572	0.09696473
160	0xbeb1652f	-0.3464751
161	0xbd87431d	-0.06604598
162	0x3e1eccc3	0.15507798
163	0x3f411bab	0.7543284
164	0xbead1605	-0.33805862
165	0x3c05c594	0.008164782
166	0xbeadbf5e	-0.33935064
167	0x3ee75695	0.45183244
168	0xbf1f77d9	-0.6229225
169	0x3f4388fe	0.7638091
170	0x3e6d90fe	0.23199841
171	0x3ead4379	0.3384054
172	0x3e5ff51d	0.21870847
173	0x3d430133	0.047608566
174	0x3c7be36d	0.015374047
175	0x3f1ea985	0.61977416
176	0x3e256888	0.16153157
177	0x3e0ff2ac	0.14057416
178	0x3ebd8f3e	0.37023348
179	0xbe2a05fc	-0.16603845
180	0x3d3c3d5c	0.045956954
181	0x3d527922	0.051385053
182	0xbd9c9ffd	-0.07647703
183	0xbec5691a	-0.3855675
184	0xbe762ccc	-0.24040526
185	0xbd9f71a2	-0.077853456
186	0x3e36d8ed	0.17856188
187	0x3e128d6d	0.14311762
188	0xbea947cc	-0.3306259
189	0xbe9346bb	-0.287649
190	0x3dde0c26	0.10842161
191	0x3e909dbd	0.28245345
192	0xbe004503	-0.12526326
193	0xbe51f389	-0.20503058
194	0x3e8ba130	0.27271414
195	0x3e525a6c	0.20542306
196	0x3dcebe41	0.10094882
197	0xbe36e45e	-0.17860553
198	0xbe8894c9	-0.26676014
199	0xbbaec45f	-0.005333468
200	0xbe0eecdf	-0.13957547
201	0xbec1d32b	-0.3785642
202	0x3f8bd181	1.092331
203	0xbec25582	-0.37955862
204	0x3ea077e2	0.31341463
205	0xbd1d397d	-0.038384903
206	0xbe3dc19c	-0.18530887
207	0x3e526bdc	0.20548958
208	0x3ed12bbf	0.40853688
209	0x3e81cc2c	0.25351083
210	0xbe93d606	-0.28874224
211	0xbe1f3017	-0.15545689
212	0xbe049d0a	-0.1295053
213	0xbeb73037	-0.35778973
214	0xbde91053	-0.11380067
215	0xbefe1d53	-0.49631748
216	0xbdbcc651	-0.09217513
217	0xbe5244e4	-0.20534092
218	0x3e9047b0	0.28179693
219	0xbe859f75	-0.2609822
220	0xbeae0ead	-0.33995572
221	0x3ec356d5	0.38152185
222	0xbf6efe96	-0.9335722
223	0x3e0508c2	0.12991622
224	0x3e2655fd	0.1624374
225	0x3dca53f7	0.09879296
226	0xbda62f2f	-0.08114468
227	0x3e3041ba	0.17212573
228	0xbe4563f5	-0.19276412
229	0x3f294eae	0.6613568
230	0x3e2254de	0.15852687
231	0xbe35f010	-0.17767358
232	0x3d96d404	0.073646575
233	0xbc1024eb	-0.008797864
234	0xbe949533	-0.2902008
235	0x3d12cdb3	0.0358407
236	0xbdc4e4c6	-0.096139476
237	0xbe5b3c98	-0.21409833
238	0xbf3c76e2	-0.736189
239	0x3c212b45	0.009836976
240	0x3e4983a2	0.1967912
241	0xbe8b51fc	-0.27210987
242	0x3e4abcc0	0.19798565
243	0xbe029a34	-0.12754136
244	0x3c3709ae	0.011171741
245	0xbe5a9591	-0.21346118
246	0x3e7c8e3e	0.24663636
247	0x3deca7ed	0.11555467
248	0x3f0fd5c4	0.56185555
249	0x3e8510d4	0.259894
250	0x3d58b683	0.05290843
251	0x3e80b6f6	0.25139588
252	0x3c8061bb	0.015671602
253	0xbd416612	-0.047216482
254	0x3eaeef00	0.34166718
255	0x3ea36d47	0.3191931

fc.bias f4 [18]
0	0xbdd34700	-0.103162766
1	0xbda4c289	-0.08044917
2	0xbdd219e8	-0.102588475
3	0xbd748555	-0.059697468
4	0xbd87fcdf	-0.06640028
5	0xbe148dde	-0.14507243
6	0x3dcc725e	0.09982751
7	0x3e64444a	0.22291675
8	0xbd57c195	-0.05267485
9	0xbd6d5832	-0.057945438
10	0xbe344217	-0.17603336
11	0x3df41152	0.11917366
12	0x3eac975f	0.33709237
13	0x3cb2cde7	0.021826698
14	0xbcebc0aa	-0.028778393
15	0xbcf7dde7	-0.030257178
16	0xbe079c17	-0.13243137
17	0x3d3905bc	0.045171484
