01_rnn/logs/LSTM/LSTM_epoch_80_acc_0.8232.pth (torch, 395002 bytes, 6 tensors)

lstm.weight_ih_l0 f4 [512, 57]
000000 57 1d 3f bd f4 17 80 3e fb 0b fe 3c dd af 3a 3e
       -0.04665884 0.25018275 0.031011572 0.18231149
000010 62 54 98 3e 6e 8e bd 3e f5 41 31 3e c7 c5 eb be
       0.2975188 0.37022728 0.17310317 -0.4604933
000020 15 3f 21 3f 2a c4 ff 3d 8e d0 1f 3f 45 cb 2d be
       0.6298688 0.12488587 0.62427604 -0.16972072
000030 4a 4d 39 3e 7b 6f 90 3e b7 9b 24 3e f9 9d 10 3f
       0.1809589 0.28210053 0.16075025 0.5649105
000040 be 04 d3 3e 9b 29 9e be 41 73 6d 3d 06 15 17 bf
       0.41214556 -0.30891117 0.057971243 -0.59016454
000050 7a eb 69 3e ea 04 48 3e 44 3d e0 be 4f d6 bc 3e
       0.22843733 0.19533125 -0.43796742 0.36882254
000060 f1 84 ff bc 03 d6 06 be 6e 2d 6b bd 3e 9d 7a 3e
       -0.031191321 -0.13167576 -0.057416372 0.24474046
000070 0d da a6 3d 4c 1a 06 bd 06 f3 09 be ae 21 c8 3d
       0.08147059 -0.032739922 -0.13471612 0.09772049
000080 ce 55 a3 3e 34 0c b3 bb 7b a8 5f 3e 67 56 df 3d
       0.319014 -0.005464101 0.21841614 0.10905152
000090 56 34 0c be d8 04 46 3f 84 1e 2b bc 50 35 8e 3e
       -0.1369184 0.7735114 -0.010444287 0.2777505
0000a0 c2 52 36 3e e3 69 9c 3e c0 03 bb 3d b0 9c b5 bd
       0.17805007 0.30549535 0.09131575 -0.088677764
0000b0 44 4d a2 bd 10 6d 3c 3e fe 6c 17 bd 86 81 85 3e
       -0.079248935 0.18400979 -0.036969177 0.2607538
0000c0 e4 ef 85 3d e4 74 2d 3f 79 0d a8 3e 66 58 4b 3e
       0.06539896 0.67756486 0.3282278 0.1985794
0000d0 03 58 27 bf 11 11 7a 3d b5 c8 0f 3e 07 82 93 bd
       -0.6536867 0.061051432 0.14041407 -0.07202535
0000e0 e9 4f 79 be 51 03 58 3e ef e5 8e 3e b5 1e 73 3e
       -0.2434689 0.21095015 0.279098 0.23742183
0000f0 69 cd 2a 3f 10 47 7b 3d 8e d7 0d 3f 39 b6 f3 be
       0.6671968 0.061347067 0.55407035 -0.47599962
000100 14 b3 31 3f 7e 8a dd be 61 03 a7 bf 8f 70 5b 3f
       0.69413877 -0.43269724 -1.3047906 0.85718626
000110 0a c9 57 3e 17 a8 0d 3f 7e 09 aa be 40 a6 a1 be
       0.21072784 0.5533461 -0.33210367 -0.3157215
000120 eb 49 a8 3e 91 3e 95 bd 2a 39 6a 3d c6 a7 5a 3f
       0.32868895 -0.07287324 0.057183422 0.8541225
000130 93 82 6f 3d 8e c8 25 3e b8 c8 93 be dc 17 76 3e
       0.058474135 0.16189787 -0.28864074 0.24032539
000140 ed 23 1c be 72 f9 24 3f b2 25 81 be 7f 8e e0 bd
       -0.1524808 0.64443123 -0.25224072 -0.10964679
000150 50 af a4 3e be 57 2e be 6a 2e be 3c a5 22 2b 3d
       0.32165003 -0.17025658 0.023215491 0.041781086
000160 eb 15 54 3c 1f 9d 11 3e 44 44 a3 bd 6d a6 9e 3e
       0.012944679 0.14220093 -0.07972005 0.30986348
000170 c6 52 27 3e d5 cf 03 3e 08 c1 c6 3e ff dc 78 bd
       0.1634017 0.1287225 0.38819146 -0.060757633
000180 b6 b8 52 3e 19 a5 91 bc bf 1d e6 bd 28 4e 5a 3e
       0.20578274 -0.01777892 -0.11236142 0.21318877
000190 04 67 13 be ff 84 e8 bd 13 3c 95 3d fd 33 00 3f
       -0.14394766 -0.11353492 0.07286849 0.5007933
0001a0 c2 e3 31 3e 66 92 7d 3e 70 06 91 bd ef 63 21 bd
       0.17372039 0.24762878 -0.07081306 -0.039401945
0001b0 03 68 d5 3c c4 bb d1 3d e2 be 9c 3d ee 6d 63 be
       0.026050573 0.102408916 0.076535955 -0.22209904
0001c0 9c f3 a2 38 02 4f 85 3e 0a 13 08 3f d4 d4 aa 3e
       7.770138e-05 0.2603684 0.5315405 0.333655
0001d0 f8 b8 c2 3e 42 88 a1 be d9 da be 3e b3 ed 4b 3e
       0.38031745 -0.3154927 0.37276343 0.19914894
0001e0 88 03 57 bf 87 2f a1 be 6d de f2 be 30 8f 5a be
       -0.83989763 -0.31481573 -0.47435322 -0.21343684
0001f0 ad 73 2c 3d 35 f2 a3 3e c6 66 b8 3e 97 37 c2 bd
       0.042102505 0.32020727 0.3601591 -0.09483259
000200 ad 8f 08 3f 33 eb e0 3d d6 93 6d be 43 b9 b8 be
       0.5334423 0.10982361 -0.23200926 -0.36078843
000210 9d 8f 14 3e b2 d9 1f be e7 4d 85 be bd b4 5c 3d
       0.14507909 -0.15610388 -0.26035997 0.053883303
000220 a7 e6 22 bf b5 d9 29 be fc b3 15 bf 32 f1 27 3f
       -0.636332 -0.16586955 -0.5847776 0.6560241
000230 83 2f e4 3d a2 42 da 3e bd cf 98 3d 69 d8 6d bd
       0.11141875 0.42628962 0.07461498 -0.058067713
000240 97 18 08 be ac e7 f8 3d a9 9d 57 3e fa 85 4d 3e
       -0.1329063 0.12153563 0.21056236 0.20070639
000250 a0 5e 4e 3e a7 f2 07 3e 7b 9c dd bd b8 cb b0 3e
       0.20153284 0.13276158 -0.10820862 0.34530425
000260 04 5b b5 3c 7a e5 65 3c aa 6f dc 3e 42 12 6d bd
       0.022138126 0.014031762 0.43053943 -0.05787874
000270 8e a8 e8 3e 0f a6 a2 3d f8 8e 20 3d 7b 6f 8e bc
       0.45441097 0.079418294 0.039198846 -0.017387142
000280 55 35 c6 3e fe d5 19 3d 8b 6e 8b 3d 7f bc fd 3e
       0.38712564 0.037557594 0.06808194 0.49557874
000290 2a bf dd 3e 54 8e 3c 3e 8b 68 c1 be 10 df a5 bd
       0.4330991 0.18413669 -0.37775072 -0.080991864
0002a0 b8 11 d9 3b 9e c1 35 3d fd c3 f9 3e d8 50 42 bc
       0.0066244267 0.0443741 0.4878234 -0.011860095
0002b0 da 36 0f bf 25 5f a9 be 09 d8 85 be 20 0a 04 bf
       -0.5594307 -0.33080402 -0.26141384 -0.5157795
0002c0 cc bc ea be e1 92 e1 3e 11 7e d0 3e eb a5 f6 3b
       -0.45847166 0.44057372 0.4072118 0.007527103
0002d0 f0 fa bf be ce e7 86 3e 71 d8 d8 bd c7 a1 02 bf
       -0.37496138 0.26348728 -0.10588158 -0.510281
0002e0 57 a2 95 3e 3f 9f 2d 3e aa b3 81 be f8 ff 33 3e
       0.29225418 0.16955279 -0.25332385 0.17578113
0002f0 bb 74 3a 3f 46 77 1d 3e 2f 85 f8 3d 96 a7 14 3f
       0.72834367 0.1537753 0.12134778 0.58068216
000300 a9 26 a1 3d ac 3f 69 3e 20 9a a1 3e a8 e8 cf be
       0.07868702 0.22778195 0.315629 -0.4060719
000310 96 c9 20 3d 84 52 c6 bd 3d db c6 3e 2f b6 77 be
       0.039254747 -0.09683707 0.3883914 -0.24190591
000320 e7 7e 13 be 35 30 02 3c d9 44 29 3d a8 36 03 be
       -0.14403878 0.007946064 0.041325424 -0.12813818
000330 63 5f ce bc 88 0b 79 be 7c 5c 44 3b fa db 00 3f
       -0.025191968 -0.24320805 0.0029962352 0.5033566
000340 80 1f 79 3e 99 08 69 3e 6b 78 e6 3d 5c a9 96 bd
       0.24328423 0.22757186 0.11253437 -0.073565215
000350 58 69 2f 3e fd 90 7c 3d 2e 52 99 3e 1e d4 00 3e
       0.17130029 0.06166171 0.2994551 0.12580916
000360 c4 04 65 bd 76 75 8c 3e 83 b9 83 3d 2c b9 19 3e
       -0.055912748 0.27433366 0.06431868 0.15012044
000370 a3 c5 2d 3e 0d a7 62 3d 7f d3 75 3e 1b 4b 85 3e
       0.16969924 0.055335093 0.2400646 0.26033863
000380 0a b3 04 bc 0e 99 37 3d 01 4d b3 3c b5 35 96 3e
       -0.008099327 0.0448237 0.021887304 0.2933785
000390 e1 c5 aa be e0 f9 cf 3e d2 c8 2a 3f 97 a9 82 3e
       -0.33354095 0.40620327 0.6671268 0.25520012
0003a0 f6 92 11 be 8d ff f3 bd a0 bf b8 3d 77 f8 26 bf
       -0.14216217 -0.11913977 0.090209246 -0.6522288
0003b0 6a 24 f0 be 12 ea a5 3e 7e 44 25 be 79 01 88 be
       -0.46902782 0.32405144 -0.16139409 -0.26563624
0003c0 12 37 0d 3f 16 d7 e8 3e da 41 0a bf d4 4b 8b 3c
       0.55162156 0.45476598 -0.5400673 0.017003931
0003d0 58 07 b2 3e 70 54 cc bd 31 db 7a 3e 96 47 72 3e
       0.34771228 -0.09977043 0.24497677 0.2366012
0003e0 10 f0 c8 bd 12 15 b1 3e d0 37 84 3e 9b cb 5a 3f
       -0.09811413 0.34586388 0.25823832 0.8546693
0003f0 11 ec 34 3f 56 a6 13 3f 0c ce af bd 8a 39 cd 3d
       0.7067271 0.57675683 -0.08584222 0.1002074

lstm.weight_hh_l0 f4 [512, 128]
000000 43 8d 54 be 2f cf 75 3e 1f a7 2b 3d 4a fc c2 be
       -0.20757012 0.24004816 0.041907426 -0.38083106
000010 19 af a0 be c3 35 a9 bd a1 1e 96 bd 58 08 0a be
       -0.3138359 -0.08262207 -0.07330061 -0.13479745
000020 fe 64 a3 be 19 cf d6 bc 83 46 18 bd 4a 79 a1 3c
       -0.31912988 -0.026221799 -0.03717662 0.019711155
000030 f1 eb da 3d 06 95 e8 3d 96 a1 d3 bd a5 fd 30 be
       0.106895335 0.11356549 -0.103335544 -0.17284258
000040 60 d2 2b 3d 34 94 1a bd 9e 33 46 3e 94 a8 46 be
       0.041948676 -0.037738994 0.19355628 -0.19400245
000050 df 46 66 3e f5 54 57 3e ed 63 5e 3e 3b e8 17 bb
       0.22487973 0.21028502 0.21717806 -0.0023179192
000060 b0 85 ae 3d 61 ed a2 3c 08 36 56 3d 28 9f c1 3e
       0.085215926 0.019888582 0.052297622 0.3781674
000070 0c ce 8b bd 4e f3 1b be 0a 1f 86 bd a7 c0 29 be
       -0.0682641 -0.15229532 -0.06548889 -0.16577397
000080 0f 42 86 bc 7c 2e b8 bd 01 53 14 bd ad 6c 74 3e
       -0.016388921 -0.08993241 -0.03621197 0.23869582
000090 42 6e c8 3d 8c 59 79 3e 4c 40 bd 3c 72 3a 2f be
       0.09786655 0.24350566 0.023101948 -0.17112139
0000a0 bf 7f f6 3d c4 43 12 3e 13 70 f7 3e f1 31 2d bd
       0.120360844 0.14283663 0.48327693 -0.042283956
0000b0 33 14 e3 3d 4e e1 91 3d 3a 9f 5a 3e 20 91 8d 3e
       0.11087837 0.071230516 0.21349803 0.27649784
0000c0 90 f9 ef bd f0 e4 28 be ec 3e 81 bd 05 91 db bd
       -0.11717522 -0.16493583 -0.063108295 -0.1072102
0000d0 9e 13 6e 3c a3 ac 4e 3e 92 da 0f 3e 8b 07 8c bd
       0.014531044 0.20183043 0.14048222 -0.06837376
0000e0 06 29 94 3e 3a c4 3b 3e 2e 3c 6a 3e 3e 23 12 3e
       0.28937548 0.18336573 0.22874519 0.14271256
0000f0 fd 2e 98 be ed cc 99 3c 9a b9 b0 bd b7 56 4a 3e
       -0.2972335 0.018774474 -0.08629151 0.19759642
000100 f9 67 22 bd ae 69 10 be df 8c ba 3c 9d 21 2b 3e
       -0.039649937 -0.14102814 0.02277225 0.16712041
000110 cc 29 b6 3e 50 d9 eb bd 6b 75 b2 bd 16 f4 9c bd
       0.35578763 -0.115160584 -0.08713802 -0.07663743
000120 75 1a 9b 3d 0d af 23 3d 9d e8 10 3e d0 bf 48 3d
       0.07573406 0.039961863 0.14151235 0.04901105
000130 3a ea d3 3d 7f 0b a2 3c 4e 27 c7 be 60 aa 08 3e
       0.103474095 0.019780872 -0.38897175 0.13346243
000140 02 bf 2b be 8e fa 49 3e 71 bd 00 3f 90 26 93 bb
       -0.16772082 0.19724485 0.50289065 -0.004490681
000150 e6 e3 8a 3d ca 49 d1 bd 25 b2 26 be 69 64 25 3e
       0.067817494 -0.10219152 -0.16278894 0.16151585
000160 58 43 b1 bd e1 dd 09 3d 99 36 17 bd b0 f5 0f bd
       -0.08655423 0.033658866 -0.036917303 -0.035146415
000170 97 78 0c bb 90 17 86 bd 58 29 06 be 63 c1 87 3e
       -0.0021434182 -0.06547463 -0.13101709 0.2651473
000180 66 cb 80 3d 55 c3 41 3e 78 4f e5 3c a9 10 8a be
       0.06288795 0.1892217 0.027991995 -0.26965836
000190 c0 05 68 be 5c d9 2a 3d a2 38 e0 bd de f3 fc 3d
       -0.22658443 0.041711196 -0.10948302 0.123512015
0001a0 bd cd 23 3c 20 12 81 3d 9f 08 b2 bd e6 5b 27 be
       0.009997782 0.06302285 -0.086930506 -0.1634365
0001b0 d7 a0 aa 3d da 0a 97 bd 8d 34 80 3c cd ed 97 3d
       0.08331459 -0.07375117 0.015650058 0.07418404
0001c0 87 42 0b 3b bf 0e 65 be 97 2b ee 3d aa 05 d6 3d
       0.002124937 -0.22368906 0.11629408 0.10450299
0001d0 6b 45 e6 3d 56 a2 70 bd 85 81 c8 3d c3 17 16 3e
       0.11243709 -0.058748566 0.09790329 0.14657502
0001e0 ce 28 a7 be 4a 98 eb 3d 9d 94 53 be 01 a7 4c 3e
       -0.3264832 0.11503656 -0.2066216 0.19985582
0001f0 85 68 13 3c 58 f7 0b bd 97 98 ba be b5 30 42 3d
       0.008997087 -0.034171432 -0.36444542 0.047409732
000200 3d 70 9e be ae 14 01 3f 17 9f 45 be db e5 43 be
       -0.30945006 0.5042218 -0.19298969 -0.19130652
000210 d1 ed 91 bd 40 61 8b be 83 47 06 be be 0a 5b be
       -0.07125438 -0.27222633 -0.13113217 -0.21390817
000220 15 78 3a 3e 5a 4d 35 be ad 57 b8 3d 98 ef 24 bd
       0.1820987 -0.17705289 0.09001098 -0.040267557
000230 2c a5 bf 3e 0e 50 2c be 90 21 df 3d b1 79 92 3e
       0.37430704 -0.16827413 0.108950734 0.28608468
000240 e1 ce 37 bb 5d ee 94 3c 80 b1 ad 3e f9 40 bf be
       -0.0028046893 0.018180067 0.33924484 -0.37354258
000250 26 32 a6 3e e8 88 76 3e d5 83 6a 3e b0 54 88 3d
       0.32460135 0.24075663 0.22901852 0.06656778
000260 fd 3a 23 3e 3a 51 05 be 56 10 d7 3b ad eb 23 3e
       0.15940471 -0.13019267 0.0065632267 0.16007872
000270 1f 61 8e be 38 3d 80 be 8f da 63 be 4e c7 ee be
       -0.27808473 -0.25046706 -0.22251342 -0.46636432
000280 68 9d d7 3c 64 f2 00 3e 3e 78 d8 be 2e b6 d1 bd
       0.026320174 0.12592465 -0.42279238 -0.10239826
000290 b1 ae 4f ba 77 96 ab 3e 31 e1 15 be 5f 10 fa bd
       -0.00079224544 0.33513233 -0.14636685 -0.12210154
0002a0 49 2d ff 3d b9 09 17 bf ad 8f 8a 3d f4 3f 0e 3d
       0.12459809 -0.5899921 0.06765685 0.03472896
0002b0 11 ab 9f 3d 32 cb a9 3d 93 c3 c7 3e f0 ce 21 3d
       0.077963 0.082907096 0.390164 0.03950399
0002c0 80 c6 20 3e bf 29 a6 3d 1e 26 89 be 22 f6 1a be
       0.15700722 0.08113431 -0.26786894 -0.15132955
0002d0 3d 0d f9 be b4 33 a8 3e 28 60 ae 3e 73 d8 19 3f
       -0.48642913 0.32851946 0.34057736 0.600959
0002e0 95 d4 fe 3d 8e b5 80 3e 73 f9 7a 3e 1a 3f 03 3e
       0.124428906 0.25138515 0.2450922 0.1281704
0002f0 69 88 aa be ff d6 c4 3e de 40 02 bd 29 77 ab 3e
       -0.33307198 0.3844528 -0.031800143 0.3348935
000300 dc 99 41 bd d4 61 86 bd 16 f5 11 bf 51 d3 9d 3e
       -0.047265872 -0.06561628 -0.57014596 0.30825284
000310 d8 fb 43 3e 78 36 ab be 04 34 61 3e f8 4b 10 3f
       0.1913904 -0.33439994 0.21992499 0.5636592
000320 17 aa 31 3e b4 5c b4 3c 7e 77 9d be 21 11 79 3d
       0.1735004 0.02201686 -0.30755228 0.06080735
000330 ba ef 7e be bf ca 05 3e 93 fb f8 be 3e af a5 be
       -0.24896136 0.13065623 -0.48629436 -0.32360262
000340 9f 3b 09 3e 7c c3 fb 3d 7c f0 12 3f 14 86 ad 3e
       0.1340165 0.12293145 0.573982 0.33891356
000350 77 b4 a0 be 5d 5a 90 be 3e e1 0b be 4b 82 79 bd
       -0.31387684 -0.28193942 -0.13660142 -0.060915273
000360 c8 7f ea be ed 57 91 3d a9 36 ae 3e d4 6c da 3d
       -0.45800614 0.07096849 0.34026077 0.106652886
000370 61 6c 64 3e 8e fe 8a 3e b4 e9 23 3f a7 32 0f 3e
       0.22306968 0.27147335 0.6402848 0.13984166
000380 45 b1 c6 be eb 15 46 3e 45 ec 55 3e f3 76 c3 3e
       -0.3880712 0.19344299 0.20890911 0.3817669
000390 51 f5 04 3d ac 94 b5 bc 8d df bd be 64 cb c8 3e
       0.032460514 -0.022165619 -0.37084618 0.39217675
0003a0 8e 1e 47 3d c8 ae 8b 3e 82 66 55 be e5 94 ad be
       0.048613124 0.27281785 -0.20839885 -0.3390266
0003b0 c6 55 e4 3e 45 7c ae be 46 c0 44 3f 14 36 6d 3e
       0.4459669 -0.34079185 0.76855886 0.2316516
0003c0 20 3c 5f 3e 06 ac 0c be 0e 38 bb 3e fd 83 91 3d
       0.2180028 -0.13737497 0.36566204 0.07105253
0003d0 10 3b 79 3e 02 eb 3c be 0f 10 17 be 0d d4 ac 3e
       0.24338937 -0.18449023 -0.1475222 0.33755532
0003e0 4e 5a ea bd 95 54 b8 3d 95 52 37 3e 05 66 85 3e
       -0.114430055 0.09000508 0.17902596 0.26054397
0003f0 2d 3c ee 3c f8 8c 5c be 73 e9 1c bf ea e2 21 bd
       0.029081428 -0.2153815 -0.61293715 -0.039523043

lstm.bias_ih_l0 f4 [512]
000000 90 ad 47 3e e7 b8 e1 3e b0 96 a5 3e 32 14 13 3e
       0.19499803 0.44086382 0.32341528 0.14363173
000010 2f a9 63 3e 5e 54 a8 3e 15 88 25 3e 8a 2e b5 3d
       0.22232507 0.32876867 0.16165192 0.08846767
000020 00 34 18 3f f3 bb 48 3e 77 f6 82 3d f5 b3 73 3e
       0.59454346 0.19602947 0.06394666 0.23799117
000030 7a 71 6c 3e 92 f2 94 3e 91 9e 90 3e df 22 89 3e
       0.23090163 0.29091316 0.28245977 0.26784417
000040 38 5a e6 3d 77 a0 dc 3e 9a bb 58 3e 42 8f 2a 3e
       0.112476766 0.43091175 0.21165314 0.16656211
000050 df 67 61 3e a2 9a 6b 3d 84 5b cf 3e 61 ed 96 3d
       0.2201228 0.057520516 0.40499508 0.07369495
000060 9e 16 75 3e d9 90 34 3e f1 4e 2f 3e da c9 f7 3e
       0.23934409 0.1763338 0.17119958 0.48396188
000070 e0 2f 5a 3d f7 d3 5c 3e ce 10 4f 3e 40 4e 8f 3e
       0.053268313 0.21565233 0.20221254 0.27989388
000080 c4 2b 20 3e d4 1e e3 3e fd 9e d7 3e c4 9e 6c 3e
       0.15641695 0.44359457 0.42113486 0.2310744
000090 cd f6 ee 3d f4 c9 c5 3e 11 5c 53 3e af fd ac 3e
       0.11668167 0.3863064 0.2064059 0.33787295
0000a0 57 ee bf 3e 13 30 91 3e ff 8b f5 3e 4c d9 aa 3e
       0.37486526 0.2835699 0.4795837 0.3336891
0000b0 a2 bd a7 3e 16 f1 1a 3e b6 85 6d 3e b7 f7 c9 3e
       0.32761866 0.1513103 0.23195538 0.39446804
0000c0 8d 6a 58 3e 50 0c 9c 3e 02 cd 90 3e fc 5c 13 3e
       0.21134396 0.30478144 0.2828141 0.1439094
0000d0 07 09 5b 3e 23 66 ca 3d e0 45 42 3e cc 1c 84 3e
       0.21390162 0.09882762 0.18971968 0.2580322
0000e0 74 db 33 3e 8f 7f bc 3d aa 65 d1 3e 3c 72 48 3e
       0.17564183 0.09204017 0.40897876 0.19574827
0000f0 06 13 83 3e ce 38 3d 3e 86 2f f2 3e f0 f0 00 3f
       0.2560045 0.184787 0.47301883 0.5036764
000100 37 0f 16 3e 71 8a 71 3d 48 c2 9b 3e f5 b2 85 3e
       0.14654242 0.05896992 0.30421662 0.26113096
000110 3e 6b 29 3e c1 b6 c8 3e 35 89 ab 3e 8d 66 16 3f
       0.16544816 0.3920193 0.33503118 0.5875023
000120 8e 94 81 3e 6b fa 89 3e 50 e2 a7 3e 1e 04 1b 3e
       0.2530865 0.26948866 0.3278985 0.1513829
000130 14 61 58 3e 10 12 0e 3e bb aa 53 3e 7e b8 00 3f
       0.21130782 0.13874078 0.20670597 0.5028151
000140 bb 39 d1 3e d4 0c 46 3e 23 b6 0c 3e 66 45 5e 3e
       0.40864357 0.19340831 0.13741355 0.21706161
000150 0a 1a 67 3e 49 ba 59 3d 50 d8 9f 3e 53 0c 2c 3e
       0.22568527 0.05315617 0.3121972 0.16801576
000160 fd 2f 0d 3e 5b eb 87 3d 1d d9 97 3e 74 ce 94 3e
       0.13787837 0.06636687 0.29657832 0.2906376
000170 bf ea 9d 3e 2d f4 02 3e 0d ea a7 3e 0a 13 cc 3d
       0.3084316 0.12788458 0.32795754 0.09964569
000180 d5 6e 2b 3e 34 a6 d0 3e 16 f9 80 3e b0 1a 2c 3e
       0.16741498 0.40751803 0.25190037 0.16807055
000190 6b 72 8e 3e d8 1c 02 3f 5d 4b 73 3d 51 cd 14 3e
       0.2782167 0.5082526 0.059398044 0.14531447
0001a0 72 6f 87 3e 36 9f d9 3d ab e9 6b 3e 91 50 75 3e
       0.26452214 0.1062607 0.23038356 0.23956515
0001b0 a8 ee da 3e 44 c0 38 3e 76 64 73 3e c9 31 b4 3e
       0.42760205 0.18042094 0.23768792 0.35194233
0001c0 3d 67 25 3e 2b d0 ad 3e 6f fa ab 3e f0 78 3b 3e
       0.16152664 0.33947882 0.33589503 0.18307853
0001d0 75 99 61 3e 54 18 0b 3e 9a ea b1 3e f4 86 8e 3e
       0.22031195 0.13583499 0.347493 0.27837336
0001e0 6b 18 92 3e a8 63 b3 3e 5e aa 65 3e 69 11 82 3d
       0.28534254 0.3503697 0.22428271 0.06350977
0001f0 15 ee 9d 3d bb 8a cc 3d 66 0c 11 3e 0a 6c 0b 3e
       0.07711426 0.09987398 0.14164886 0.13615432
000200 2d b2 59 3e cc e5 bf bd 88 45 9f 3d 45 4d 94 3d
       0.21259375 -0.09370002 0.07776934 0.072413005
000210 47 b0 01 3e aa 8b 55 3c 8e a0 81 3d 40 86 d1 3c
       0.126649 0.013033787 0.063294515 0.02557671
000220 9d 5e 83 be d2 f6 b7 3d 55 29 d3 3d 7e c9 82 3d
       -0.25658122 0.08982624 0.10310618 0.06386088
000230 06 c6 56 3d a1 a0 74 3e 3a 3c c6 bb 82 40 12 bb
       0.052434944 0.238894 -0.00604966 -0.0022316282
000240 ab 14 14 3e f3 b7 93 3b 37 fc 96 3d 3c 0a 8c 3e
       0.14461009 0.0045080124 0.07372325 0.27351558
000250 df 36 38 3e e3 9c e1 3d ac b8 37 3e ad bf ee 3d
       0.17989682 0.11016252 0.1794154 0.11657653
000260 d1 3b bc 3b d5 ff 1f 3e 0f 22 e6 3a 91 9d 4e 3e
       0.0057444354 0.15624936 0.0017557758 0.20177294
000270 03 c2 10 3e a6 51 05 3d f1 3a af 3c 58 b9 e3 3d
       0.1413651 0.03254857 0.02139041 0.11119336
000280 12 d3 b6 bc 00 00 aa 3d 6f 41 7e 3d fd fb 5e 3c
       -0.022317443 0.08300781 0.06207412 0.013609883
000290 cc de b7 3c e6 14 2d 3e b4 85 5b 3c 77 1e 1e 3e
       0.022445105 0.16902503 0.0133985765 0.15441309
0002a0 ca ac 98 3d 7f 77 08 3e 65 90 81 3c 29 4a 0e 3e
       0.07454832 0.13326834 0.015815923 0.13895477
0002b0 97 33 02 3e b7 52 2f 3e 90 36 fa 3d df 25 8c bc
       0.12714992 0.17121397 0.12217438 -0.017107902
0002c0 06 ed 0d 3d 01 22 2d 3e b2 3a 84 3d 03 48 fa bc
       0.03464987 0.16907503 0.06456508 -0.030551916
0002d0 16 67 9c 3c 7b 1c 3d 3e 7b 5e 79 3e 61 33 03 3e
       0.019092124 0.18467896 0.24352448 0.12812568
0002e0 28 df 6c 3d d5 62 d9 3d b9 fc 27 3e c6 07 4d 3e
       0.057830006 0.10614554 0.16405 0.20022497
0002f0 c8 e9 a4 3d 91 25 46 3d ee 45 ac 3d fc ee 49 3e
       0.08052403 0.04837567 0.084117755 0.19720072
000300 de 5a 1a 3e 08 03 27 3e 54 54 4d bc e2 d8 0e 3e
       0.15073726 0.1630975 -0.012532312 0.13949922
000310 c0 6d 8b 3d 78 92 b4 3d 43 96 12 bd 20 9e ea 3d
       0.068080425 0.08816999 -0.035787832 0.11455941
000320 a0 5c e1 3a 44 51 df 3c 12 56 9a 3d ec a0 05 3e
       0.0017193742 0.02726043 0.07535948 0.13049668
000330 c9 87 9e bd 07 c9 9e 3c 28 df 01 3e a8 b7 a8 3a
       -0.07740743 0.019382967 0.12682784 0.0012872117
000340 5d d3 49 3d 24 4e d4 3d af 2f 38 3e fb dc 1b 3e
       0.049273837 0.10366467 0.1798694 0.15221016
000350 02 4c 46 3e d2 5d 05 3e 0e 0c 8a 3e f6 6b b3 3d
       0.19364932 0.13024071 0.26962322 0.08760826
000360 81 a6 10 3e 48 53 09 3c 27 4d 48 3e 2e 82 0d 3e
       0.14126016 0.008381672 0.19560681 0.13819191
000370 b7 f9 cc 3d d4 e8 de 3d 27 a1 1b bd 8a 50 61 3d
       0.10008567 0.10884252 -0.037995484 0.05500845
000380 ed 4a 01 3e 81 bf 10 3e b8 da 0a 3e 1b 28 6f 3d
       0.12626238 0.14135553 0.13559997 0.058387857
000390 5e 51 9b 3e bc 9a 2f 3e d6 bb 47 3d 18 13 13 3e
       0.30335516 0.1714887 0.04876312 0.14362752
0003a0 c5 3f 9d 3d 55 03 97 3d 8c 65 47 bc 8f d6 14 3e
       0.07678179 0.073736824 -0.012170207 0.14534973
0003b0 68 e7 5e 3e ca 99 37 3e b0 23 7b 3d b2 f9 fb 3d
       0.21767962 0.1792976 0.06131333 0.12303485
0003c0 7e 9f 17 3e c3 f4 ad 3d fd 29 1c 3e bf aa 3e bc
       0.14806935 0.0849395 0.15250392 -0.011637389
0003d0 74 c3 e2 bc 0d f7 05 3e 7a 27 6a 3c 6a 05 75 3e
       -0.02768109 0.13082524 0.0142916385 0.23927847
0003e0 46 8d b3 3d 52 18 0f 3e e8 52 00 3d 0a 81 50 3d
       0.0876718 0.13974121 0.031329066 0.05090431
0003f0 e7 14 3d 3d 0b 9f 43 bc ee 5c 0f 3e 0b 50 73 3d
       0.046162512 -0.011939774 0.14000294 0.059402507

lstm.bias_hh_l0 f4 [512]
000000 3b f3 83 3e 9f 2e ad 3e 7b 8b 91 3e 78 0e 13 3e
       0.25771508 0.33824632 0.28426728 0.14360988
000010 ca 42 9e 3d b8 7c 82 3e 67 d0 7a 3e 53 2d 08 3d
       0.07727583 0.25485778 0.24493562 0.03324635
000020 e6 ff 26 3f 2f 67 95 3e b7 e3 e0 3d a1 01 9f 3e
       0.6523422 0.29180285 0.10980933 0.3105593
000030 52 8f a3 3d 0c e9 cd 3e 99 e3 cb 3e 6c f0 90 3e
       0.079863206 0.40216863 0.3982208 0.28308427
000040 0e f8 83 3d 5f 6f d8 3e b8 da 2f 3e 1a e0 5b 3e
       0.06443797 0.4227247 0.17173278 0.21472207
000050 36 d3 92 3e 0b ac c3 3d ca ff a5 3e 56 41 1c 3e
       0.28676766 0.09554299 0.32421714 0.15259299
000060 9e 4d b6 3d 52 8c 37 3e 83 52 63 3e 4b b4 02 3f
       0.08901523 0.17924622 0.22199444 0.51056355
000070 7a 58 e1 3d 96 8b 6a 3e 1f 1e 77 3e 44 d6 4c 3e
       0.11003204 0.2290481 0.24132584 0.20003611
000080 78 c6 fe 3d 0b 6b 91 3e e0 d7 e7 3e 06 1a 32 3e
       0.12440199 0.2840198 0.45281887 0.1739274
000090 64 a2 17 3e 66 ea 84 3e 53 5b 2d 3e 37 6d d4 3e
       0.14808041 0.25960082 0.16929369 0.41489574
0000a0 7c c3 b3 3e ec 8b 79 3e 70 0c c8 3e 24 6d 95 3e
       0.3511008 0.24369782 0.3907199 0.2918483
0000b0 66 ea cc 3e 44 27 74 3e e8 39 f6 3d 29 3a 08 3f
       0.40022582 0.23843104 0.120227635 0.53213745
0000c0 b5 69 e6 3d 34 47 ac 3e 37 e8 92 3e 31 5a 18 3e
       0.11250631 0.33648074 0.2869279 0.14878155
0000d0 db 42 22 3e ad b2 0c 3e 03 3c 8d 3e a2 f0 2b 3e
       0.15845816 0.13740034 0.27584848 0.16791013
0000e0 84 ab 4a 3e 6e 14 3f 3e 3d f7 e2 3e 27 d7 23 3e
       0.1979199 0.18660137 0.44329253 0.16000043
0000f0 1a e2 5e 3e 39 5e 3a 3e 12 30 01 3f e5 a9 05 3f
       0.21765938 0.18200006 0.50463974 0.52212363
000100 a2 f6 67 3e d7 3f ec 3d 13 c7 2d 3e be cb 28 3e
       0.22652677 0.11535614 0.16970472 0.16483971
000110 26 1f ca 3d 2b c3 00 3f 16 36 c6 3e c3 d5 01 3f
       0.09869222 0.502978 0.3871314 0.507168
000120 6a 70 2b 3e d7 96 9c 3e 97 a4 b9 3e a0 fb 85 3e
       0.16742101 0.30583832 0.36258385 0.26168537
000130 09 bf 49 3e b2 3e 7b 3e 74 82 6d 3e 96 1d d2 3e
       0.1970178 0.24535635 0.23194295 0.41038197
000140 70 cf d2 3e e7 6e 24 3e aa ff 1c 3e 13 f0 5d 3e
       0.41173887 0.16057931 0.15331903 0.21673612
000150 83 42 57 3e 55 b3 36 3e 07 ed 54 3e 8a 2b 37 3e
       0.21021466 0.17841847 0.20793544 0.17887703
000160 3e f5 0d 3c 02 b8 9a 3d 3a f8 a3 3e 3b 20 77 3e
       0.008664427 0.07554628 0.3202532 0.24133389
000170 59 ae 8b 3e b4 55 2f 3e 3e af 95 3e 82 ac d0 3d
       0.27281454 0.17122537 0.29235262 0.10189153
000180 db 6f 5a 3e 27 c7 cd 3e 0a b6 8b 3e 3f 29 94 3e
       0.21331732 0.40191004 0.27287322 0.28937718
000190 f4 d0 a5 3e a5 9c 01 3f 08 6c 08 3e 8a 95 6d 3e
       0.3238598 0.50629646 0.1332246 0.23201576
0001a0 6a 68 47 3e c3 a7 23 3e 43 da 50 3e 63 b5 77 3e
       0.19473425 0.15981965 0.2039576 0.24190287
0001b0 da 8c ac 3e e1 b1 20 3e 88 5c 6e 3e 78 70 a9 3e
       0.3370121 0.15692855 0.23277485 0.3309362
0001c0 5b 4d 8a 3e 4d f5 99 3e 45 2e 8a 3e 81 cb 5f 3e
       0.27012143 0.30069962 0.26988426 0.21854974
0001d0 67 57 5e 3e ee 9b 82 3e a3 c3 79 3e fa 99 26 3e
       0.21713029 0.2550959 0.24391036 0.16269675
0001e0 13 aa b8 3e a3 e3 d4 3e 9f ed f7 3d 53 04 11 3e
       0.36067256 0.41579923 0.121058695 0.14161806
0001f0 b7 55 b6 3d 8e 19 e2 3d 65 6b 29 3e 8a e6 31 3e
       0.089030676 0.110400304 0.16544874 0.173731
000200 df 96 2e 3e f4 fd fb bd 93 9e 02 3e 29 67 25 3e
       0.1704974 -0.12304297 0.12755804 0.16152634
000210 57 3e 58 3e d4 cd 28 bb 8c 74 08 3e d2 ac d1 3d
       0.21117531 -0.0025757449 0.13325709 0.10238041
000220 be ac 0e be 99 c1 f3 3d 08 75 80 3d 9d e4 06 3e
       -0.13933083 0.1190216 0.06272322 0.13173147
000230 75 24 32 3d 82 79 83 3e d4 26 1d 3e e6 76 e0 3d
       0.0434918 0.2567864 0.15346843 0.10960178
000240 8a d1 8a 3d 3b d5 3f bd df 7d 3c 3e 05 a6 8b 3e
       0.06778248 -0.04683421 0.18407391 0.272751
000250 dd b6 41 3e 38 9a c2 3d 55 4b 71 3e 1e 04 35 3e
       0.18917413 0.09502071 0.23563893 0.17677352
000260 12 69 d3 3d 64 f3 d1 3d 1b e2 21 3e 84 8d 52 3e
       0.10322775 0.10251501 0.15808909 0.20561796
000270 cd 4c 08 bc 9f 32 60 3d 9b a4 88 3d d6 77 47 3d
       -0.008319092 0.054735776 0.06672021 0.04869827
000280 3e dd 35 3d 26 3e 5c 3e 92 81 0c 3c 13 41 fb bc
       0.044400446 0.21508083 0.008575814 -0.030670678
000290 3e bd f2 3d 91 c2 3b 3e b4 33 9f 3d 14 56 68 3d
       0.11852501 0.1833594 0.077735335 0.056722715
0002a0 9c d4 2b 3e bd 63 9f 3d 42 26 3d 3d f1 ee b4 3d
       0.16780323 0.077826954 0.046179064 0.08834637
0002b0 12 24 93 3d e3 06 75 3e b9 c3 4e 3e 9f 45 aa 3c
       0.07184614 0.23928408 0.2019185 0.020785151
0002c0 80 4a 64 3d b7 8f 1f 3e 46 b5 d2 3d 14 8e 3c bb
       0.05573511 0.15582167 0.102884814 -0.0028771209
0002d0 e7 d1 ec 3d 01 92 1b 3e 88 7d 07 3e b6 54 8e 3d
       0.11563473 0.15192415 0.1323148 0.06949751
0002e0 88 73 6e 3d d7 2a 13 3e 28 7b c4 3d c0 83 58 3e
       0.058215648 0.14371811 0.09593803 0.21144009
0002f0 67 8c 80 3d da a6 fc 3d 6b 4f a0 3d 1b fa d9 3d
       0.062767796 0.12336512 0.07827648 0.10643407
000300 15 80 0f 3e 83 df 03 3d e6 c1 f5 3c 79 7e 93 3d
       0.14013703 0.03219558 0.029999685 0.07201857
000310 ff 5f 2b 3e be 22 4f 3e 17 d5 a9 3d 3f fd 1e 3d
       0.16735838 0.20228097 0.08292597 0.038815733
000320 ed 32 27 3c 55 da 84 3d 46 fa e1 bc 10 36 e4 3c
       0.010205013 0.06486956 -0.02758516 0.02785781
000330 6b bd ae bd f7 0c cb 3d 47 1c 94 3d f0 0b ad 3d
       -0.08532222 0.09914582 0.07231956 0.084495425
000340 f4 40 58 3e c0 b1 e4 3d fb 8a b0 3d fd a3 c3 3d
       0.21118528 0.111667156 0.086202584 0.09552763
000350 f3 75 cd 3d 45 88 f0 3d 9a 0d 87 3e 49 9b be 3c
       0.10032263 0.11744741 0.26377565 0.023267405
000360 62 28 76 3d bd 24 16 bd 00 e4 4b 3e bc 74 32 3e
       0.060097106 -0.03665613 0.19911194 0.17427343
000370 8d d5 d1 3d de f8 5d bd 03 a0 b4 bc 0c 20 f2 3d
       0.1024581 -0.054192416 -0.022048956 0.11822519
000380 82 a8 04 3e fa b2 1f 3e 2e 7b 12 3e 14 84 6e 3d
       0.12954906 0.15595618 0.14304802 0.05823143
000390 f3 24 12 3e c4 47 5b 3e 03 41 1f 3d f7 06 cf 3d
       0.14271908 0.21414095 0.03888036 0.1010875
0003a0 c8 2f 91 3d 17 f7 7a 3d 58 ea 83 3d 82 e7 08 3e
       0.07089192 0.0612708 0.06441182 0.13369563
0003b0 32 70 3f 3e 7b d9 5c 3d f3 aa 3d 3e e4 79 22 3e
       0.18695143 0.053918343 0.18522243 0.1586681
0003c0 8d e5 48 3e b6 c4 f7 3d 1f 28 2f 3e 5d 39 1a 3e
       0.19618817 0.120980665 0.17105149 0.15060945
0003d0 48 5a be 3d 67 bb 43 3e a4 89 b2 bd d9 d8 61 3e
       0.092945635 0.19114457 -0.08717659 0.22055377
0003e0 83 a5 12 3e a6 d0 b3 3c 33 ba b0 3d ac f1 8f 3d
       0.1432095 0.021950077 0.08629265 0.07028517
0003f0 08 ae ad 3d 7d 35 f6 3d 1a 9a 10 3b 11 7b a3 3d
       0.084804595 0.12021921 0.0022064508 0.079824574

fc.weight f4 [18, 128]
000000 dd a6 df 3e 54 40 6c bf d1 f8 df 3e da fa fc 3e
       0.43681994 -0.92285657 0.4374452 0.49410135
000010 a9 b0 24 3e f5 9f 56 3e b8 e6 6b bd d7 48 09 be
       0.16083016 0.20959456 -0.057593077 -0.13406692
000020 e8 ee 82 3f a4 04 8a bd aa 6e 6d 3f ac 40 25 bf
       1.0229158 -0.067391664 0.92746985 -0.64551806
000030 ad b1 14 3e 89 fb 6f 3e 62 90 8c be aa cc fa be
       0.14520903 0.23435797 -0.27453905 -0.4898427
000040 df 77 72 3e de ec 37 bd 27 c0 d2 be da d1 09 3e
       0.2367854 -0.04490363 -0.41162226 0.13458958
000050 83 96 3f bf c7 30 b4 bc 39 99 97 be f9 1a a7 be
       -0.7483904 -0.021995915 -0.29609087 -0.32637766
000060 40 a9 c5 bd d5 f2 3a 3a c8 38 3a be f9 94 1e bf
       -0.096514225 0.00071315217 -0.18185723 -0.61946064
000070 ac 42 ec 3e df 52 a7 bd a5 02 bb be 9a dd 0b 3f
       0.46144617 -0.08170103 -0.36525455 0.5463501
000080 93 af 8e 3e 87 a0 0d bf fa b8 fc be e7 e3 91 3e
       0.27868327 -0.5532307 -0.49359876 0.28494188
000090 15 20 d9 be 21 19 f1 be c2 1a 06 3f 51 f0 c7 be
       -0.4240729 -0.47089484 0.5238458 -0.39050534
0000a0 f7 d3 ad be 98 cd 64 bf 9d 7a c1 be 88 7e 7c be
       -0.3395078 -0.8937621 -0.3778886 -0.24657643
0000b0 e9 35 14 be 14 92 c7 bd 28 63 47 3e 33 79 4f 3f
       -0.1447369 -0.09744659 0.19471419 0.8104431
0000c0 a5 ca 86 3d 1b 0b a8 be 47 57 c6 be 6d 82 7e 3e
       0.0658162 -0.32820973 -0.38738462 0.24854441
0000d0 fe f8 5d 3e 7b 34 93 3e df 5e 3d be 9a e3 38 bd
       0.21677014 0.28750977 -0.18493222 -0.045138933
0000e0 a7 d8 4d be 0c 76 dc be 76 b4 66 3d 6e 89 01 bf
       -0.20102178 -0.43058813 0.056324445 -0.50600326
0000f0 df 6a 96 3d eb cf d0 bd 13 0e 70 be 1f 84 1b bf
       0.07344603 -0.10195907 -0.23442869 -0.60748476
000100 97 cb 14 3e 0b de e3 bc 97 ec bf be 5e ce 80 be
       0.14530788 -0.02781584 -0.3748519 -0.25157446
000110 2d d3 e2 bc b7 98 b7 3e 40 21 76 3e ae db 5d be
       -0.027688587 0.358587 0.24036121 -0.21665832
000120 0d b2 da 3c cb b2 0d 3e 57 23 61 bf da 09 13 bd
       0.02669623 0.13837735 -0.8794455 -0.035898067
000130 b7 cb 03 bf 59 ec cb be f1 c0 c7 3d 7e ff 24 bf
       -0.5148272 -0.39828756 0.097535975 -0.6445235
000140 9d 5c 0c bf 02 51 16 bf 88 2c e0 be 22 4f 8f be
       -0.54828817 -0.5871736 -0.43783975 -0.2799006
000150 62 1d 61 be 6a 50 8a be b0 2a a6 be 65 a8 cd bc
       -0.21983865 -0.27014476 -0.32454443 -0.02510471
000160 4d 9e 67 be 75 e8 b1 3e 46 53 f4 3e ea 29 7f 3e
       -0.2261898 0.34747663 0.47719783 0.24918333
000170 a9 cf c8 3d 77 8a 79 be 13 c4 6f 3f d7 c3 a8 bd
       0.09805233 -0.24369226 0.9365856 -0.082404785
000180 49 86 a7 3c 14 6c 82 be 32 93 02 be b8 75 04 bc
       0.020449774 -0.25473082 -0.12751463 -0.008084707
000190 50 18 de 3e 05 a1 2f 3f 17 66 b3 bd 76 0f 89 3e
       0.43377924 0.6860507 -0.087597065 0.26769608
0001a0 35 c9 1f bf 67 7b 9f 3e 49 48 ac 3a 96 68 78 be
       -0.6241639 0.31148836 0.0013144101 -0.24258646
0001b0 17 18 74 be 37 3b 04 be 59 98 ab 3f 26 f4 c5 3e
       -0.23837315 -0.12913214 1.3405868 0.38662833
0001c0 7e 81 1c be a9 03 ec bd 17 74 ea 3d ef fd 57 be
       -0.15283772 -0.115241356 0.11447924 -0.21092962
0001d0 13 96 a3 bd 5f 91 84 bd 24 52 9d be 44 7d e6 bd
       -0.07987609 -0.0647304 -0.3072673 -0.11254361
0001e0 d1 70 92 3e ec 52 a7 be f7 2a 69 3d b9 8f 68 be
       0.28601697 -0.32680452 0.05692574 -0.22711076
0001f0 4f 2c 2c be e1 5f 18 3e 13 ad 8a 3e a1 75 0c 3e
       -0.16813777 0.14880325 0.2708517 0.13716747
000200 e1 58 15 be 3a a6 86 3e fe 3f 42 be dd d9 06 3d
       -0.14584686 0.26298696 -0.18969724 0.032922614
000210 ff f7 b5 be fd d5 86 3e ec d7 9f be 5d 1f 02 bf
       -0.35540769 0.26335135 -0.31219423 -0.50829107
000220 6f cb e1 bd 7b e4 8d be 45 cf 9d be a7 88 2f bd
       -0.1102513 -0.2771338 -0.30822197 -0.04285493
000230 42 d3 58 be 11 9d 0f be ed b0 a9 be 3e d2 9a 3c
       -0.21174338 -0.1402476 -0.33142796 0.01889908
000240 f2 70 99 3d 31 57 66 3f 63 94 00 3e 41 e6 04 be
       0.07492246 0.89976794 0.12556605 -0.1297846
000250 46 19 ac be 1d 9a 09 be 5c d1 db 3e c3 b3 4d 3e
       -0.33613032 -0.13437696 0.42933166 0.20088105
000260 47 53 2b 3e 42 15 68 3d 25 49 b0 3e 07 e5 78 3e
       0.16730987 0.056660898 0.34430805 0.24306117
000270 08 11 a4 be 7d b5 77 be d5 4b 6a 3e 76 b9 e8 3d
       -0.32044244 -0.24190326 0.2288049 0.11363499
000280 be 9c c0 be ed 86 55 bd 74 0b 17 3e 3e 07 58 3f
       -0.37619585 -0.05213063 0.14750463 0.8438605
000290 34 cc b0 be 80 74 ab 3c 53 06 bb be a4 33 f3 3e
       -0.34530795 0.020929575 -0.36528262 0.47500336
0002a0 4f 06 34 bf 8b 26 4c 3f ee 12 7c 3e 00 1f c0 3e
       -0.70322126 0.7974631 0.24616596 0.3752365
0002b0 a6 14 62 3e fc c1 3b 3d b8 e4 f1 3c 6b 27 28 3f
       0.22078189 0.045839295 0.029528007 0.6568515
0002c0 fb af 2a 3e 45 29 11 3e ff 53 cc 3e 5a cc 38 be
       0.16668694 0.141759 0.39907834 -0.18046704
0002d0 0e f3 89 3d c7 d7 84 3d 88 46 90 bd 02 b5 df be
       0.06735812 0.06486469 -0.07044703 -0.43692786
0002e0 65 8b 94 be fe d6 bd bd 9d 16 4d 3e 1f f2 07 3e
       -0.290126 -0.09269522 0.20028158 0.13275956
0002f0 95 52 c0 be 77 79 9c be 6c bb f9 3d f5 eb 96 3e
       -0.37563005 -0.3056142 0.12193951 0.29476896
000300 a8 70 0f be 23 20 78 be 60 54 91 3e 1c b6 55 3e
       -0.14007819 -0.24231009 0.28384686 0.2087025
000310 b0 ee ea 3d 62 9f 4b be ed ef 8e be c2 66 ad 3c
       0.11471307 -0.19885018 -0.27917424 0.021167163
000320 7e 9c 16 be 19 48 db be 21 68 98 3f d8 cd d2 be
       -0.14708135 -0.42828444 1.1906778 -0.4117267
000330 51 0a ae 3e 0b 0b 55 bd 71 46 42 be 68 cf 4e 3e
       0.33992246 -0.052012485 -0.18972184 0.20196307
000340 09 9f e5 3e ce 46 86 3e 6c 72 a0 be 1d 49 20 be
       0.44847897 0.26225895 -0.31337297 -0.1565289
000350 b8 57 12 be b9 67 c5 be e7 35 08 be de a5 0a bf
       -0.14291275 -0.38555697 -0.13301812 -0.54159343
000360 d7 81 c9 bd c1 e5 62 be 85 c1 a3 3e 66 de 8e be
       -0.09839218 -0.22157957 0.3198358 -0.27904052
000370 01 08 b6 be 16 71 d6 3e 81 c5 7b bf 1d d2 05 3e
       -0.35552981 0.41883153 -0.9834824 0.13068433
000380 90 00 26 3e 4f 52 bb 3d fa 1b 82 bd da eb 48 3e
       0.16211152 0.091465585 -0.06352992 0.1962122
000390 e7 05 49 be 79 7e 41 3f e7 f1 30 3e 12 90 41 be
       -0.19631158 0.75583607 0.17279778 -0.18902615
0003a0 ca 07 7e 3d 05 65 ae 3c 5f 05 aa be 61 0a 80 3d
       0.062019147 0.021288404 -0.33207223 0.062519796
0003b0 80 4b ba bd cd 6a 6f be 49 2b 45 bf c7 97 43 bc
       -0.09096432 -0.23380585 -0.7701917 -0.011938042
0003c0 52 31 5c 3e b4 8e 9e be 0e b5 60 3e fa 2b 26 be
       0.21503189 -0.3096825 0.21944067 -0.16227713
0003d0 9b 1b 7c 3c 87 ef 62 be e4 2c 8d 3e 99 db e8 3d
       0.015387441 -0.22161685 0.2757331 0.1137001
0003e0 c0 ea 25 3f 18 c2 8b 3e 3c 03 53 3d ed 72 8f 3e
       0.64811325 0.2729652 0.051516756 0.2801737
0003f0 19 4e 35 3d 15 ea 9c bd 99 50 ba 3e c3 e0 b8 3e
       0.044263933 -0.07661835 0.36389616 0.3610898

fc.bias f4 [18]
000000 3e 3b d8 bd 68 73 be bd 83 66 f8 bd 77 00 73 bd
       -0.105581746 -0.09299356 -0.121289276 -0.059326615
000010 81 dd 57 bd 92 16 0e be 4f 39 a0 3d 63 34 80 3e
       -0.052701477 -0.13875797 0.07823431 0.25039968
000020 f7 2f 87 bd 8e 4b 3c bd 89 2e 40 be 0f a9 0a 3e
       -0.066009454 -0.045970492 -0.18767752 0.13541053
000030 08 bb bd 3e 3c de 13 3d f6 32 df bc a5 38 18 bd
       0.37056756 0.03610061 -0.02724598 -0.037163395
000040 08 e2 0e be 8d 25 74 3d
       -0.13953412 0.059606124
