01_rnn/logs/LSTM/LSTM_epoch_60_acc_0.8291.pth (torch, 395002 bytes, 6 tensors)

lstm.weight_ih_l0 f4 [512, 57]
-0.07152399 0.2647747 -0.034529883 0.1537203 0.2492781 0.2702128 0.0789348 -0.35973173
0.60601985 0.108422965 0.5509859 -0.1146718 0.10439566 0.12706625 0.13166736 0.48646456
0.4286831 -0.29170918 0.059777845 -0.5662904 0.27265942 0.2901586 -0.40468886 0.44941273
0.11748839 -0.10658739 -0.052561168 0.20852776 0.095190376 0.00049391144 -0.12268617 0.096346684
0.33699107 0.0035035892 0.14688411 0.13228796 -0.11979318 0.71172404 -0.020380832 0.2660983
0.14934196 0.28499356 0.054518566 -0.056823093 -0.05087822 0.11185558 -0.00028777076 0.2839209
0.05346715 0.66708815 0.35186893 0.21704602 -0.5737861 0.06182658 0.14143778 -0.07294
-0.24187063 0.17004411 0.1931011 0.18604292 0.65356284 0.11263789 0.5532565 -0.4707534
0.6115621 -0.3764834 -1.0046055 0.70184374 0.20891023 0.50909555 -0.2071038 -0.36896697
0.16372886 -0.10065976 0.06665975 0.6264662 0.16798899 0.20044327 -0.3256838 0.2447941
-0.030564833 0.5470449 -0.106346615 -0.087805375 0.30760205 -0.17636733 -0.0056435955 0.059591435
0.025815198 0.099518694 -0.07989408 0.3364477 0.067384146 0.13751696 0.30497146 -0.04547024
0.18953036 0.019002529 -0.108840786 0.2389531 -0.123803996 -0.101249434 0.11271959 0.420954
0.17112283 0.23879954 -0.04481112 -0.034872297 0.009110661 0.11258015 0.07750769 -0.22455537
7.868767e-05 0.31054774 0.48514387 0.30261785 0.30301264 -0.32942957 0.33406246 0.21312505
-0.7367583 -0.27740255 -0.4601701 -0.05524162 0.026712386 0.28980577 0.29762796 -0.05883847
0.5656768 0.20844378 -0.17734757 -0.37671325 0.050770756 -0.0856551 -0.18379551 0.0794028
-0.4577714 -0.18962869 -0.41883498 0.54733974 0.10240221 0.41138574 0.080691084 -0.03735773
-0.1660317 0.12905298 0.19061692 0.1953935 0.19871114 0.12395148 -0.095393196 0.31916997
-0.00031932033 0.03231978 0.42724463 -0.076250836 0.44368216 0.094023034 0.055460263 -0.0006671365
0.398583 0.056911703 0.087972105 0.47157475 0.43749368 0.19115748 -0.3554225 -0.082020104
0.006340277 0.044937573 0.5332253 -0.003120565 -0.5496411 -0.37808624 -0.26986912 -0.4867772
-0.34599954 0.42709804 0.3165601 -0.00034817812 -0.3913569 0.27058682 -0.08809826 -0.47643465
0.33396387 0.12682047 -0.1158959 0.13497408 0.58414346 0.15865894 0.044193536 0.51159686
0.119031586 0.20893158 0.27802286 -0.25083333 0.062760025 -0.12865658 0.3977652 -0.1837824
-0.099707514 -0.008864801 0.017214458 -0.09950511 -0.030491224 -0.2625608 0.03237468 0.4704151
0.22523922 0.23567237 0.07871136 -0.048536506 0.118522055 -0.01881188 0.20630106 0.13785604
-0.1051032 0.27254355 0.07276322 0.15003444 0.15592599 0.087181605 0.21876031 0.15104508
-0.008202148 0.04524494 0.022165276 0.27516127 -0.3144315 0.43326944 0.5541068 0.2268076
-0.11611843 -0.22883388 0.019251093 -0.5679739 -0.43454498 0.32527936 -0.11965834 -0.21749513
0.6510831 0.4921891 -0.4589772 0.055993613 0.20849815 -0.043728475 0.10397456 0.17094058
-0.11801103 0.24685596 0.25626305 0.76485497 0.5345065 0.54842347 -0.07817006 0.09870575
00000000: 2b7b 92bd 8d90 873e 356f 0dbd db68 1d3e
00000010: c242 7f3e 5559 8a3e 92a8 a13d c22e b8be
00000020: 1e24 1b3f dc0c de3d 690d 0d3f 0cd9 eabd
00000030: 64cd d53d a81d 023e cfd3 063e e211 f93e
00000040: 5a7c db3e e85a 95be 9dd9 743d 68f8 10bf
00000050: 049a 8b3e ab8f 943e 6133 cfbe 6d19 e63e
00000060: c19d f03d 7d4a dabd 614a 57bd 4d88 553e
00000070: 2cf3 c23d d679 013a e342 fbbd 6951 c53d
00000080: 188a ac3e 799c 653b ca68 163e 7f76 073e
00000090: 2056 f5bd 8c33 363f b4f5 a6bc 093e 883e
000000a0: 19ed 183e adea 913e dc4e 5f3d 55bf 68bd
000000b0: ae65 50bd 8a14 e53d f0df 96b9 155e 913e
000000c0: 5f00 5b3d 4ac6 2a3f 2a28 b43e 5041 5e3e
000000d0: a5e3 12bf de3d 7d3d 11d5 103e 9161 95bd
000000e0: efac 77be 0b20 2e3e 4bbc 453e 0982 3e3e
000000f0: e54f 273f b2ae e63d 38a2 0d3f 9706 f1be
00000100: 558f 1c3f 6fc2 c0be ea96 80bf 08ac 333f
00000110: 90ec 553e 1654 023f 0513 54be 3de9 bcbe
00000120: 8aa8 273e b426 cebd e884 883d 1760 203f
00000130: 4e05 2c3e 0041 4d3e 07c0 a6be 4eab 7a3e
00000140: 1a63 fabc 220b 0c3f 41cc d9bd 4ed3 b3bd
00000150: 047e 9d3e a399 34be e9ed b8bb 2616 743d
00000160: 657a d33c 75d0 cb3d 829f a3bd df42 ac3e
00000170: b300 8a3d 3fd1 0c3e 3825 9c3e 013f 3abd
00000180: 3f14 423e 31ab 9b3c ebe7 debd 1fb0 743e
00000190: f38c fdbd dd5b cfbd 87d9 e63d 4887 d73e
000001a0: d33a 2f3e de87 743e dd8b 37bd 41d6 0ebd
000001b0: e244 153c 6c90 e63d 5abc 9e3d d8f1 65be
000001c0: 1f05 a538 1d00 9f3e c764 f83e baf0 9a3e
000001d0: 7924 9b3e feaa a8be 3c0a ab3e 743d 5a3e
000001e0: 319c 3cbf b507 8ebe 6a9b ebbe 0945 62bd
000001f0: efd3 da3c 6c61 943e b162 983e 9c00 71bd
00000200: 32d0 103f 4972 553e 9a9a 35be 8fe0 c0be
00000210: fff4 4f3d f16b afbd e434 3cbe ef9d a23d
00000220: 0361 eabe 062e 42be 8a71 d6be 751e 0c3f
00000230: 40b8 d13d 27a1 d23e 5e41 a53d 6b04 19bd
00000240: 3704 2abe 7726 043e 1531 433e 3c15 483e
00000250: ef7a 4b3e 46da fd3d 825d c3bd 3f6a a33e
00000260: 736a a7b9 bf61 043d cfbf da3e 6629 9cbd
00000270: 4f2a e33e 268f c03d 4d2a 633d c6e2 2eba
00000280: 1213 cc3e 3f1c 693d b82a b43d 3f72 f13e
00000290: 2cff df3e c9be 433e f0f9 b5be 28fa a7bd
000002a0: 19c2 cf3b 7610 383d 7481 083f 6582 4cbb
000002b0: 47b5 0cbf 8594 c1be 492c 8abe dc3a f9be
000002c0: da26 b1be 98ac da3e 2a14 a23e ad8b b6b9
000002d0: ee5f c8be 5b8a 8a3e dc6c b4bd 3eef f3be
000002e0: 50fd aa3e 3add 013e d45a edbd a536 0a3e
000002f0: 6d8a 153f 7d77 223e 4804 353d 03f8 023f
00000300: d5c6 f33d 29f2 553e 0359 8e3e 3a6d 80be
00000310: 5488 803d 8dbe 03be e1a7 cb3e 7431 3cbe
00000320: 7433 ccbd ac3d 11bc 5605 8d3c 56c9 cbbd
00000330: bbc8 f9bc 5f6e 86be 509b 043d 3fda f03e
00000340: 1ca5 663e 1954 713e 6c33 a13d 37ce 46bd
00000350: b1bb f23d 5f1b 9abc 9640 533e 222a 0d3e
00000360: 5940 d7bd d48a 8b3e e204 953d a1a2 193e
00000370: 10ab 1f3e 458c b23d b402 603e 90ab 1a3e
00000380: 4d62 06bc c252 393d f493 b53c f0e1 8c3e
00000390: 2afd a0be 7ed5 dd3e f1d9 0d3f 4040 683e
000003a0: 80cf edbd 6e53 6abe 78b4 9d3c bd66 11bf
000003b0: ae7c debe 048b a63e 6f0f f5bd 0bb7 5ebe
000003c0: 62ad 263f 3600 fc3e 0fff eabe 8f59 653d
000003d0: 8a80 553e a11c 33bd 9df0 d43d 0c0b 2f3e
000003e0: c4af f1bd cfc7 7c3e e934 833e 89cd 433f
000003f0: 6bd5 083f 7b65 0c3f a017 a0bd 3e26 ca3d

lstm.weight_hh_l0 f4 [512, 128]
-0.13111863 0.1931919 0.084218755 -0.25220677 -0.29031777 -0.118697606 -0.093782425 -0.1433782
-0.34025458 -0.018571636 -0.012094015 -0.0083217025 0.074628204 0.058929406 -0.079965144 -0.122594096
0.0028859002 -0.060214534 0.14565977 -0.16526257 0.18643802 0.17690665 0.18064758 0.0011963168
0.058476735 0.07406274 0.05685823 0.3214052 -0.0970065 -0.13226582 -0.040722184 -0.10361054
-0.041593198 -0.08538348 -0.015039509 0.15756582 0.10429914 0.213604 0.05438748 -0.12918423
0.13507809 0.178595 0.4521384 -0.042114284 0.034141354 0.038949016 0.13083285 0.2276237
-0.08648931 -0.14308086 -0.06799992 -0.038936805 0.030881716 0.17029367 0.0931537 0.004078093
0.20520584 0.13948405 0.14828916 0.11748652 -0.24611016 -0.021090077 -0.06843177 0.17281502
-0.017721143 -0.12281338 -0.015306649 0.14275977 0.25301066 -0.08494866 -0.11800367 -0.0797729
0.09364579 0.003693426 0.11804068 0.06564149 0.06059375 -0.043119323 -0.27990672 0.08332128
-0.16903973 0.18120177 0.38238335 0.004834097 0.08663705 -0.09113675 -0.046747122 0.07380941
-0.076617025 -0.05489044 -0.04416852 -0.02153616 0.011025993 -0.050057314 -0.18153237 0.23104902
0.08216517 0.15917891 0.005271193 -0.19780096 -0.16615303 0.15038677 -0.08598959 0.090150245
-0.0064832065 0.0039597102 -0.13335697 -0.10657742 0.015754445 -0.039795488 0.041096393 0.0642558
0.026740965 -0.14522277 0.060084246 0.089602485 0.121857226 -0.047209106 0.10140608 0.15889397
-0.28986034 0.10342219 -0.107441925 0.16969994 0.05114676 -0.05040313 -0.2865254 0.11960211
-0.22022524 0.34997603 -0.20360054 -0.18167882 -0.09886772 -0.21396093 -0.12579939 -0.22031026
0.18080583 -0.1967325 0.05036602 -0.0012952024 0.31724378 -0.045795396 0.06643255 0.18834081
-0.02284809 0.002192284 0.22917697 -0.35678968 0.27229798 0.22602685 0.19742084 0.13229603
0.17109624 -0.044094697 0.039043248 0.12669072 -0.20129254 -0.15093023 -0.21925135 -0.39725298
-0.015082995 0.041661292 -0.3713712 -0.053846065 -0.07718153 0.28515178 -0.12190657 -0.13934822
0.053130712 -0.5361926 -0.03201264 -0.030462371 0.07299837 0.053218447 0.32261443 0.056732707
0.17299695 0.054839153 -0.19393155 -0.098169856 -0.31968164 0.24224581 0.3044881 0.43192193
0.15694724 0.17570585 0.15908295 0.12990353 -0.30506334 0.35482973 -0.04748894 0.2679147
-0.08698654 -0.09701181 -0.49610722 0.26311532 0.15739173 -0.21550585 0.16646205 0.49531046
0.12848586 0.009965139 -0.32357895 0.018739032 -0.12806134 0.16407108 -0.34816825 -0.31345084
0.0965273 0.10108481 0.4351326 0.25882936 -0.3057781 -0.2439758 -0.12514314 -0.10732414
-0.39875612 0.0053882143 0.24055734 0.09592767 0.17066213 0.23318686 0.56813365 0.10897573
-0.3243413 0.13258219 0.17312405 0.24998544 -0.043356605 0.03538683 -0.29820976 0.332121
-0.047176745 0.1989908 -0.16766723 -0.28372413 0.3336178 -0.2628483 0.7342839 0.24299765
0.23820844 -0.118629694 0.31278074 0.08566048 0.16613616 -0.17741582 -0.085704796 0.2840948
-0.104950376 0.09644525 0.098814495 0.2254406 0.043627247 -0.16305019 -0.5157898 0.06268123
00000000: f643 06be 19d4 453e e27a ac3d 3f21 81be
00000010: 88a4 94be bb17 f3bd 0011 c0bd bcd1 12be
00000020: d935 aebe 8b23 98bc fa25 46bc c057 08bc
00000030: acd6 983d f65f 713d c4c4 a3bd 9d12 fbbd
00000040: 5f21 3d3b 84a3 76bd d627 153e 973a 29be
00000050: 9ce9 3e3e 0427 353e aefb 383e bbcd 9c3a
00000060: 4d85 6f3d 35ae 973d 2de4 683d 398f a43e
00000070: 58ab c6bd b170 07be 4ecc 26bd c331 d4bd
00000080: a15d 2abd 89dd aebd 4668 76bc ef58 213e
00000090: ca9a d53d 02bb 5a3e 68c5 5e3d df48 04be
000000a0: e951 0a3e 9ce1 363e af7e e73e 0780 2cbd
000000b0: ced7 0b3d 0189 1f3d 0cf9 053e 3016 693e
000000c0: 4f21 b1bd ca83 12be 8b43 8bbd 337c 1fbd
000000d0: a7fb fc3c 7761 2e3e 5ec7 be3d 86a1 853b
000000e0: 7b21 523e e8d4 0e3e 1dd9 173e c69c f03d
000000f0: 4d04 7cbe 19c5 acbc f525 8cbd 6cf6 303e
00000100: ee2b 91bc 9585 fbbd bdc8 7abc 9e2f 123e
00000110: 9d8a 813e 90f9 adbd e8ab f1bd f95f a3bd
00000120: 5dc9 bf3d 680d 723b 50bf f13d 0c6f 863d
00000130: 2731 783d e39d 30bd ef4f 8fbe 59a4 aa3d
00000140: c018 2dbe f58c 393e c0c7 c33e 5867 9e3b
00000150: c46e b13d e8a5 babd e979 3fbd 6329 973d
00000160: 63e9 9cbd ccd4 60bd 0dea 34bd 9a6c b0bc
00000170: 5ea6 343c e608 4dbd 9fe3 39be 1d98 6c3e
00000180: 3646 a83d ccff 223e f9b9 ac3b 568c 4abe
00000190: 0524 2abe fdfe 193e 4f1b b0bd b1a0 b83d
000001a0: 1471 d4bb 75c0 813b bb8e 08be 4345 dabd
000001b0: 770f 813c 9800 23bd b154 283d 8b98 833d
000001c0: de0f db3c 47b5 14be e61a 763d 8281 b73d
000001d0: 4890 f93d 565e 41bd fead cf3d 1ab5 223e
000001e0: 9368 94be 03cf d33d 830a dcbd d2c5 2d3e
000001f0: 447f 513d 8373 4ebd 75b3 92be f3f1 f43d
00000200: ba82 61be 0f30 b33e a97c 50be 030a 3abe
00000210: 297b cabd 9318 5bbe 8ed1 00be 0399 61be
00000220: 2a25 393e 3f74 49be 9a4c 4e3d c8c3 a9ba
00000230: c76d a23e f493 3bbd ca0d 883d 6adc 403e
00000240: eb2b bbbc 6cac 0f3b 5ead 6a3e 23ad b6be
00000250: a46a 8b3e 9573 673e b028 4a3e 9c78 073e
00000260: da33 2f3e a49c 34bd d0eb 1f3d 36bb 013e
00000270: a21f 4ebe 748d 1abe 6d83 60be be64 cbbe
00000280: ab1e 77bc 08a5 2a3d 5e24 bebe b18d 5cbd
00000290: 5a11 9ebd 6aff 913e 27aa f9bd 4db1 0ebe
000002a0: 979f 593d eb43 09bf b01f 03bd 398c f9bc
000002b0: 2b80 953d 96fb 593d b82d a53e 8e60 683d
000002c0: 1d26 313e 059f 603d fe95 46be 470d c9bd
000002d0: 50ad a3be 490f 783e dde5 9b3e df24 dd3e
000002e0: c7b6 203e 3cec 333e a4e6 223e 6e05 053e
000002f0: 4331 9cbe 3eac b53e c383 42bd 1e2c 893e
00000300: 0026 b2bd 21ae c6bd c401 febe 0db7 863e
00000310: 4c2b 213e 91ad 5cbe 0775 2a3e 5599 fd3e
00000320: cc91 033e d344 233c 24ac a5be 9982 993c
00000330: 8322 03be 4002 283e 1c43 b2be a17c a0be
00000340: 1bb0 c53d 8e05 cf3d b3c9 de3e 4885 843e
00000350: f28e 9cbe cbd4 79be 8625 00be c2cc dbbd
00000360: c329 ccbe 9e8f b03b aa54 763e ba75 c43d
00000370: 0ec2 2e3e 89c8 6e3e 3571 113f ab2e df3d
00000380: 1010 a6be a0c3 073e 6e47 313e 2ffc 7f3e
00000390: b296 31bd c8f1 103d f3ae 98be c40b aa3e
000003a0: 673c 41bd 3fc4 4b3e f5b0 2bbe 4a44 91be
000003b0: f4cf aa3e 0d94 86be 08fa 3b3f 60d4 783e
000003c0: eaec 733e 20f4 f2bd cc24 a03e c36e af3d
000003d0: 991f 2a3e 7eac 35be ff85 afbd e074 913e
000003e0: 39f0 d6bd 1685 c53d 415f ca3d e7d9 663e
000003f0: 7cb2 323d a1f6 26be cd0a 04bf 045f 803d

lstm.bias_ih_l0 f4 [512]
0.16319206 0.4018396 0.31512818 0.10789016 0.21270749 0.2917926 0.14671223 0.07533254
0.5614509 0.18755738 0.080108054 0.21134423 0.21058978 0.2577283 0.26925662 0.19802842
0.12104903 0.39398292 0.1919784 0.15546885 0.18582012 0.03760092 0.3814385 0.024398977
0.2026807 0.13668394 0.11279884 0.42628413 0.022120267 0.16331765 0.15996362 0.24073479
0.12214037 0.40266857 0.3599829 0.20271385 0.10892577 0.38106418 0.17848037 0.29021102
0.31139344 0.2587437 0.42294225 0.2698744 0.28189418 0.12352775 0.20618245 0.36664814
0.19712938 0.24116033 0.234595 0.09456654 0.18750462 0.08457426 0.18989378 0.22698237
0.122830234 0.08055645 0.35257843 0.16646084 0.23194316 0.17770055 0.46249196 0.46972248
0.10151763 0.044286046 0.28765896 0.23769923 0.13513376 0.36067945 0.3003491 0.51699966
0.24433824 0.21563782 0.3202681 0.12226505 0.18854082 0.09208881 0.20563729 0.43321663
0.38323933 0.1697383 0.1289743 0.18938194 0.243636 0.02775309 0.24296711 0.15824905
0.1399341 0.03645404 0.22974151 0.26515675 0.28769553 0.10473413 0.28655803 0.08703408
0.14124419 0.37819177 0.24120563 0.12490571 0.23656748 0.4941225 0.007106611 0.119078726
0.19067557 0.09127433 0.212287 0.18591195 0.39101073 0.16217293 0.2014689 0.29918388
0.12588635 0.333672 0.27061188 0.16443937 0.20703812 0.11362586 0.29169747 0.23302792
0.22845526 0.3010277 0.17221892 0.034381907 0.060760714 0.0544788 0.09281536 0.11938175
0.2074985 -0.061505657 0.07813758 0.055297174 0.10918254 0.027920192 0.063345075 0.022572527
-0.2628979 0.1022798 0.10469237 0.073577486 0.025755834 0.22404666 0.001264826 -0.003039711
0.14995062 0.026197545 0.05794661 0.23585273 0.14474423 0.103477724 0.1884842 0.10540147
-0.01803058 0.15919624 -0.008917843 0.185072 0.1471231 0.007148442 0.023222364 0.11631447
-0.0014697742 0.07220781 0.07208771 0.014481101 0.021694722 0.14732961 0.012689887 0.18251404
0.0763357 0.13643003 0.009770811 0.12626417 0.12734282 0.14726952 0.085531406 -0.002805023
0.024143238 0.16528204 0.04484506 -0.012108793 0.020795645 0.15563025 0.23764823 0.13485631
0.051329173 0.109968744 0.15844078 0.1563653 0.0867829 0.053969078 0.101042114 0.20305447
0.15205148 0.15765694 -0.007660905 0.1383015 0.057868965 0.09910491 -0.012853484 0.12294633
0.007837217 -0.017000068 0.08369626 0.12049223 -0.0637113 0.014852298 0.1330182 0.0011739235
0.03870031 0.073652476 0.19514956 0.14078511 0.20371005 0.12508577 0.23868696 0.09713362
0.13168617 0.016493442 0.18595235 0.15131089 0.093657866 0.1280087 -0.019942923 0.062035415
0.12128351 0.1654456 0.1428542 0.055280033 0.29342514 0.18614225 0.031123854 0.1277273
0.07631574 0.07184866 -0.0053169155 0.12484501 0.20474899 0.1800387 0.04477814 0.08992335
0.14206888 0.1004037 0.14838271 0.015913552 -0.009668042 0.105989106 0.036956083 0.23851918
0.05482339 0.14375564 0.002256238 0.049883645 0.088247485 -0.012150341 0.114306495 0.06926224
00000000: d21b 273e ecbd cd3e 7b58 a13e 84f5 dc3d
00000010: fecf 593e d765 953e bb3b 163e f247 9a3d
00000020: 3fbb 0f3f 0b0f 403e b10f a43d 9f6a 583e
00000030: d9a4 573e f7f4 833e 01dc 893e f6c7 4a3e
00000040: 8ee8 f73d 21b8 c93e fc95 443e 3a33 1f3e
00000050: a147 3e3e 6c03 1a3d e84b c33e 5de0 c73c
00000060: 888b 4f3e e0f6 0b3e 1403 e73d ea41 da3e
00000070: 9035 b53c be3c 273e 81cd 233e 2e83 763e
00000080: bb24 fa3d 932a ce3e ae4f b83e 3894 4f3e
00000090: 7914 df3d d81a c33e 8fc3 363e 8a96 943e
000000a0: f66e 9f3e 0e7a 843e e38b d83e fa2c 8a3e
000000b0: 6f54 903e 1efc fc3d 7e21 533e 4eb9 bb3e
000000c0: 49dc 493e bcf2 763e ac39 703e 1aac c13d
000000d0: 3601 403e 4535 ad3d 8473 423e 116e 683e
000000e0: 6b8e fb3d c8fa a43d 2985 b43e b674 2a3e
000000f0: 8282 6d3e 22f7 353e bfcb ec3e 777f f03e
00000100: 7ae8 cf3d 4965 353d 0948 933e 6d67 733e
00000110: 8160 0a3e faaa b83e 5bc7 993e 175a 043f
00000120: ce33 7a3e 29d0 5c3e 2efa a33e 1966 fa3d
00000130: d810 413e 0f99 bc3d 9592 523e 92ce dd3e
00000140: f237 c43e e0cf 2d3e d711 043e 57ed 413e
00000150: b77b 793e 735a e33c 5fcc 783e 0a0c 223e
00000160: e24a 0f3e d550 153d 5c41 6b3e a0c2 873e
00000170: d44c 933e d97e d63d bcb7 923e ec3e b23d
00000180: 51a2 103e 5aa2 c13e 9cfe 763e 91ce ff3d
00000190: bf3e 723e a0fd fc3e 93de e83b 8cdf f33d
000001a0: 7540 433e 09ee ba3d c361 593e b45f 3e3e
000001b0: 8f32 c83e a910 263e dd4d 4e3e a12e 993e
000001c0: 5ae8 003e 0ed7 aa3e a48d 8a3e cb62 283e
000001d0: cd01 543e adb4 e83d 5f59 953e df9e 6e3e
000001e0: 2df0 693e 4d20 9a3e 285a 303e 0bd4 0c3d
000001f0: 3ae0 783d 2a25 5f3d fb15 be3d 6b7e f43d
00000200: 7d7a 543e 5bed 7bbd 9806 a03d 4a7f 623d
00000210: 189b df3d e3b8 e43c 10bb 813d 05ea b83c
00000220: 8e9a 86be 1278 d13d f468 d63d cbaf 963d
00000230: e6fd d23c 7d6c 653e 85c8 a53a e335 47bb
00000240: a88c 193e 3c9c d63c 6d59 6d3d 6183 713e
00000250: d537 143e 21ec d33d 0102 413e badc d73d
00000260: deb4 93bc 5704 233e 251c 12bc 8483 3d3e
00000270: 70a7 163e 7a3d ea3b d43c be3c 4836 ee3d
00000280: 70a5 c0ba b0e1 933d b9a2 933d 2442 6d3c
00000290: 21b9 b13c 93dd 163e 3ee9 4f3c f6e4 3a3e
000002a0: e455 9c3d 50b4 0b3e c015 203c 654b 013e
000002b0: 2866 023e d2cd 163e 172b af3d 7ad4 37bb
000002c0: 0ac8 c53c b23f 293e 74af 373d f563 46bc
000002d0: a15b aa3c 895d 1f3e 0f5a 733e c617 0a3e
000002e0: 8a3e 523d 4b37 e13d 4d3e 223e 3a1e 203e
000002f0: 3cbb b13d ae0e 5d3d 2bef ce3d 83ed 4f3e
00000300: 62b3 1b3e d270 213e 5408 fbbb e99e 0d3e
00000310: 0208 6d3d 84f7 ca3d 6b97 52bc 49cb fb3d
00000320: ac67 003c ba43 8bbc f268 ab3d a1c4 f63d
00000330: 127b 82bd 0e57 733c ec35 083e 56de 993a
00000340: 3784 1e3d 1cd7 963d 49d5 473e f929 103e
00000350: 5e99 503e 7c16 003e 5b6a 743e feed c63d
00000360: bdd8 063e 411d 873c 4b6a 3e3e 3ef1 1a3e
00000370: b2cf bf3d b614 033e 575f a3bc d918 7e3d
00000380: 7d63 f83d 926a 293e 5f48 123e 516d 623d
00000390: d23b 963e 139c 3e3e 74f7 fe3c f2ca 023e
000003a0: 6d4b 9c3d 6425 933d 8539 aebb beae ff3d
000003b0: b8a9 513e 115c 383e 4869 373d bc29 b83d
000003c0: 817a 113e 74a0 cd3d a3f1 173e 235d 823c
000003d0: b566 1ebc d110 d93d 435f 173d 5f3e 743e
000003e0: 7e8e 603d ae34 133e 64dd 133b cb52 4c3d
000003f0: 19bb b43d 3912 47bc 8619 ea3d 5cd9 8d3d

lstm.bias_hh_l0 f4 [512]
0.22670475 0.29791906 0.2754837 0.10786801 0.06581653 0.2169434 0.23105353 0.019409837
0.6199828 0.28454718 0.12655295 0.28483516 0.057632994 0.37039638 0.38648725 0.21346194
0.07240016 0.38569143 0.15155137 0.20424016 0.25331092 0.07610615 0.2996362 0.10429863
0.050443236 0.1396334 0.16423827 0.4532263 0.07960463 0.17688361 0.1995736 0.15986225
0.08971872 0.24106763 0.3920706 0.14484067 0.14072308 0.25274953 0.14089651 0.36821213
0.28732687 0.2183655 0.33295026 0.22750226 0.35542434 0.21175489 0.093036085 0.5060657
0.09703696 0.27326116 0.23876211 0.09950033 0.13135667 0.12363669 0.27711496 0.13571636
0.14539117 0.1763184 0.38732857 0.13025883 0.1931111 0.17487861 0.49451748 0.48840034
0.18251698 0.101388074 0.15144004 0.14018668 0.06752983 0.47304457 0.35311094 0.43564418
0.15758431 0.2524479 0.3553943 0.23396891 0.1740696 0.20005855 0.23119469 0.33960983
0.38637477 0.13649265 0.14508201 0.18905158 0.22796842 0.15460585 0.13738136 0.1692487
0.0090788165 0.04575009 0.25371698 0.21522829 0.25162646 0.14862515 0.25050098 0.08930839
0.18772931 0.37251273 0.2624444 0.24775171 0.28279024 0.4921473 0.08187062 0.2068815
0.12000156 0.14551349 0.18552507 0.18827875 0.2992712 0.13838203 0.19649345 0.27791074
0.23586017 0.29440066 0.2037629 0.20036069 0.20381631 0.23440108 0.18679917 0.11588403
0.3047411 0.36728802 0.067684405 0.11348155 0.07282848 0.065138765 0.116916865 0.157435
0.16486761 -0.091221094 0.12855828 0.14554201 0.19478217 0.012112488 0.13419664 0.10035104
-0.1441592 0.1318457 0.06379687 0.14230989 0.016699139 0.24216603 0.16280867 0.11021358
0.0721474 -0.025796551 0.16969842 0.23507811 0.15413947 0.08814377 0.24542144 0.16636312
0.08069047 0.1047798 0.1494003 0.18896559 -0.0044615697 0.029617365 0.069127694 0.05302583
0.06609529 0.20595735 0.01790999 -0.030361667 0.11899473 0.16184577 0.077843584 0.08358376
0.17077468 0.080284655 0.040519383 0.07501336 0.07133691 0.21620391 0.1662877 0.03556915
0.04549625 0.15186036 0.08365143 0.01591744 0.118564084 0.12245926 0.12502682 0.07548393
0.051719666 0.1480181 0.08946423 0.1677225 0.06880124 0.12991047 0.09512663 0.11113589
0.1413162 0.025093008 0.035411138 0.069963954 0.1584075 0.21466482 0.1073677 0.0462409
0.016430644 0.021086616 -0.020555465 0.016550224 -0.07172696 0.09562774 0.07781809 0.08543856
0.20266768 0.08175655 0.1002931 0.08338277 0.10919894 0.11213009 0.23276551 0.031975895
0.04949261 -0.029116213 0.18950137 0.18785088 0.09606029 -0.03709612 -0.003793876 0.1260544
0.124612175 0.18023145 0.15039682 0.05512167 0.13074851 0.22933571 0.02111552 0.084647
0.07035101 0.059224397 0.072237566 0.11304291 0.17363101 0.05306742 0.17026033 0.12600921
0.19079909 0.13690248 0.1671655 0.18022034 0.112490274 0.16707473 -0.06580057 0.21955676
0.11106587 0.024468644 0.057917513 0.06951048 0.12738019 0.12168682 -0.02523946 0.089943424
00000000: 4a25 683e d988 983e 330c 8d3e e7e9 dc3d
00000010: d1ca 863d 6926 5e3e 4c99 6c3e 6101 9f3c
00000020: 31b7 1e3f 2bb0 913e 1997 013e ead5 913e
00000030: 9310 6c3d 98a4 bd3e a8e1 c53e c495 5a3e
00000040: 8946 943d 5979 c53e 4830 1b3e 5524 513e
00000050: f8b1 813e 8bdd 9b3d ea69 993e 859a d53d
00000060: 919d 4e3d 0ffc 0e3e 142e 283e 470d e83e
00000070: c107 a33d fa20 353e 065d 4c3e eeb2 233e
00000080: 73be b73d 6fda 763e 7abd c83e 1d51 143e
00000090: b619 103e 6368 813e 2d47 103e 4d86 bc3e
000000a0: 821c 933e 359b 5f3e 7578 aa3e 5af6 683e
000000b0: 2efa b53e 46d6 583e b489 be3d 868d 013f
000000c0: 50bb c63d e3e8 8b3e 0e7e 743e d4c6 cb3d
000000d0: 5d82 063e 3c35 fd3d 03e2 8d3e 3bf9 0a3e
000000e0: 6ce1 143e d08c 343e ee4f c63e 9262 053e
000000f0: ebbe 453e 6113 333e 6531 fd3e 9c0f fa3e
00000100: bbe5 3a3e 8da4 cf3d 1913 1b3e 198d 0f3e
00000110: 144d 8a3d e632 f23e f5ca b43e c10c df3e
00000120: c85d 213e da40 813e 3ef6 b53e 8c95 6f3e
00000130: 4d3f 323e 26dc 4c3e 4dbe 6c3e 57e1 ad3e
00000140: ead2 c53e bbc4 0b3e 6190 143e bd96 413e
00000150: 8e70 693e ff50 1e3e b3ad 0c3e 884f 2d3e
00000160: 51bf 143c 7264 3b3d 31e7 813e ce64 5c3e
00000170: 2fd5 803e 3131 183e aa41 803e 51e7 b63d
00000180: 1d3c 403e fdb9 be3e 1d5f 863e a0b2 7d3e
00000190: e2c9 903e bbfa fb3e c9ab a73d bed8 533e
000001a0: 61c3 f53d 7d01 153e 49fa 3d3e 25cc 403e
000001b0: 133a 993e 05b4 0d3e 9435 493e 514a 8e3e
000001c0: 5485 713e afbb 963e 39a7 503e 5a2b 4d3e
000001d0: 39b5 503e d606 703e 4848 3f3e 9b54 ed3d
000001e0: 0707 9c3e 2d0d bc3e 1f9e 8a3d 0469 e83d
000001f0: 1927 953d 7967 853d 1c72 ef3d a436 213e
00000200: 0ed3 283e 20d2 babd c8a4 033e f708 153e
00000210: fa74 473e 7573 463c d86a 093e d984 cd3d
00000220: 789e 13be 8f02 073e efa7 823d afb9 113e
00000230: a2cc 883c 5ffa 773e 51b7 263e a8b7 e13d
00000240: 04c2 933d 4a53 d3bc 6cc5 2d3e 51b8 703e
00000250: bdd6 1d3e b984 b43d c24f 7b3e 185b 2a3e
00000260: 0c41 a53d cb96 d63d 64fc 183e 3280 413e
00000270: 5c32 92bb 1ea0 f23c d292 8d3d 9d31 593d
00000280: f85c 873d 7ce6 523e f9b7 923c 08b9 f8bc
00000290: 82b3 f33d e6ba 253e 756c 9f3d f62d ab3d
000002a0: 8fdf 2e3e 486c a43d a7f7 253d 9ba0 993d
000002b0: 1619 923d 8f64 5d3e 5347 2a3e f5b0 113d
000002c0: 475a 3a3d 4881 1b3e 7151 ab3d 4b65 823c
000002d0: bad1 f23d eccb fa3d 0807 003e 5297 9a3d
000002e0: 00d8 533d 0f92 173e 0639 b73d 72bf 2b3e
000002f0: aae7 8c3d 4007 053e c0d1 c23d 379b e33d
00000300: 32b5 103e da8f cd3c 450b 113d 4349 8f3d
00000310: 9335 223e 18d1 5b3e 99e3 db3d 1967 3d3d
00000320: 8f99 863c d7bd ac3c ef63 a8bc 5694 873c
00000330: 96e5 92bd 7ad8 c33d 175f 9f3d 69fa ae3d
00000340: 1e88 4f3e fa6f a73d 7866 cd3d 96c4 aa3d
00000350: b2a3 df3d 76a4 e53d 155a 6e3e 28f9 023d
00000360: c3b8 4a3d 2085 eebc a60c 423e fb5b 403e
00000370: 42bb c43d 1af2 17bd ada2 78bb 6814 013e
00000380: ab34 ff3d 988e 383e a001 1a3e 43c7 613d
00000390: f0e2 053e fbd6 6a3e 74fa ac3c 685b ad3d
000003a0: 3114 903d 4895 723d 4af1 933d 0b83 e73d
000003b0: 54cc 313e 395d 593d b958 2e3e 8f08 013e
000003c0: d660 433e 2a30 0c3e 6f2d 2b3e ae8b 383e
000003d0: 4d61 e63d a315 2b3e 73c2 86bd 7dd3 603e
000003e0: 8176 e33d 7772 c83c ea3a 6d3d 835b 8e3d
000003f0: f46f 023e f136 f93d fcc2 cebc 4234 b83d

fc.weight f4 [18, 128]
0.29235306 -0.7859467 0.38120762 0.40050417 0.16434687 0.18682747 -0.01698175 -0.11849395
0.92280614 -0.049948197 0.7770098 -0.4481584 0.11268769 0.21372041 -0.24178731 -0.36424604
0.18942294 -0.018462824 -0.33714953 0.14227861 -0.60761863 -0.0003454328 -0.29264048 -0.27976286
-0.070563905 -0.011627342 -0.17158069 -0.48973748 0.39588568 -0.09517512 -0.32318878 0.490892
0.22544228 -0.48742306 -0.36028495 0.19902508 -0.3776235 -0.40426627 0.4537847 -0.33695093
-0.28908405 -0.78198415 -0.34869534 -0.20194215 -0.115305565 -0.077838086 0.15010485 0.72922516
0.0649116 -0.2416849 -0.32545465 0.158101 0.19528688 0.25975212 -0.15786216 -0.022525014
-0.14985915 -0.37035802 0.02001944 -0.4033917 0.082764946 -0.09977976 -0.22723764 -0.5436025
0.089762315 -0.04528087 -0.37282047 -0.23014827 0.019910855 0.29219046 0.1655878 -0.17711991
0.04693789 0.11742563 -0.78338814 -0.04799297 -0.439647 -0.35857928 0.088526726 -0.5513145
-0.4822689 -0.48541424 -0.3436787 -0.24857128 -0.18231127 -0.26330078 -0.269656 -0.003227887
-0.15382053 0.27098116 0.40581024 0.17875424 0.08313646 -0.156092 0.85682726 -0.040914685
0.059573404 -0.24235666 -0.13081066 -0.04280603 0.36070246 0.58371115 -0.083102435 0.23387177
-0.4564386 0.22853285 -0.017020904 -0.19785438 -0.2756814 -0.09462639 1.1366198 0.31454128
-0.14510725 -0.08149415 0.098882295 -0.15843794 -0.11610973 -0.051271547 -0.24851058 -0.117860064
0.21592799 -0.28165543 0.07166534 -0.23302968 -0.13414541 0.13171412 0.2675915 0.12007186
-0.05796577 0.2255529 -0.13171043 0.094124 -0.31574294 0.16674395 -0.26910463 -0.46985665
-0.13242012 -0.15619709 -0.2517258 -0.03544839 -0.14164203 -0.098543495 -0.26847064 0.0057683988
0.09225157 0.7389548 0.10906982 -0.14242458 -0.26568577 -0.13547589 0.36689276 0.20190044
0.14531623 0.056002527 0.30150887 0.15441804 -0.2676015 -0.18282978 0.18266128 0.08640387
-0.31840262 -0.07959566 0.16376062 0.66460156 -0.32839394 -0.009185162 -0.31046516 0.41746032
-0.53257734 0.7339527 0.20441192 0.305104 0.2072151 0.049192097 0.012267115 0.5697614
0.159253 0.1325836 0.34008846 -0.15300745 0.025019662 0.039652728 -0.082589194 -0.33154047
-0.19750245 -0.06013648 0.1543684 0.14971207 -0.28749672 -0.26892743 0.092691876 0.263129
-0.110791445 -0.17663512 0.25696048 0.20438972 0.095314644 -0.15676014 -0.250434 -0.039368797
-0.13269027 -0.32476872 1.0000007 -0.34845793 0.28628564 -0.019086976 -0.18334015 0.20379418
0.37113503 0.2402445 -0.25405815 -0.1506494 -0.11200726 -0.3287299 -0.10558623 -0.453989
-0.09016547 -0.18177293 0.24183853 -0.2358214 -0.32516786 0.34678274 -0.88422954 0.123145014
0.16131994 0.108495444 -0.09545614 0.1472998 -0.18813013 0.5586887 0.13367873 -0.15679061
0.08592623 -0.036361385 -0.25487354 0.013698126 -0.11930276 -0.18885903 -0.7074348 0.03436979
0.17226222 -0.23174696 0.18104169 -0.09521123 -0.0030606424 -0.2085771 0.20922267 0.11628473
0.47615057 0.25304908 0.060033504 0.2240142 -0.011651544 -0.037284505 0.31816882 0.2754217
00000000: 4daf 953e ce33 49bf a52d c33e e20e cd3e
00000010: 8c4a 283e b34f 3f3e 501d 8bbc f5ac f2bd
00000020: 063d 6c3f 7b96 4cbd 1dea 463f 0575 e5be
00000030: cec8 e63d 86d9 5a3e 1897 77be 757e babe
00000040: 16f8 413e 593f 97bc dd9e acbe 7cb1 113e
00000050: e58c 1bbf 351b b5b9 f9d4 95be 143d 8fbe
00000060: cf83 90bd 9b80 3ebc d9b2 2fbe dfbe fabe
00000070: 87b1 ca3e 2ceb c2bd 0079 a5be 3256 fb3e
00000080: 57da 663e 848f f9be 4577 b8be 3bcd 4b3e
00000090: de57 c1be fdfb cebe 7856 e83e d584 acbe
000000a0: d302 94be 1d30 48bf 3288 b2be ecc9 4ebe
000000b0: 5325 ecbd 9369 9fbd 16b5 193e 80ae 3a3f
000000c0: 5ff0 843d 3f7c 77be fea1 a6be 3be5 213e
000000d0: 49f9 473e 3bfe 843e 9ea6 21be 6186 b8bc
000000e0: ad74 19be 919f bdbe cfff a33c 5b89 cebe
000000f0: ab80 a93d 5559 ccbd fcb0 68be 8929 0bbf
00000100: 4ed5 b73d 6f78 39bd 53e2 bebe fdab 6bbe
00000110: 171c a33c fd99 953e d98f 293e ec5e 35be
00000120: f241 403d d97c f03d 208c 48bf 4794 44bd
00000130: 6919 e1be b497 b7be 804d b53d f222 0dbf
00000140: f3eb f6be 3788 f8be a8f6 afbe 7889 7ebe
00000150: ceaf 3abe 5ccf 86be 5a10 8abe f58a 53bb
00000160: 2183 1dbe 0bbe 8a3e 5cc6 cf3e 5a0b 373e
00000170: 7343 aa3d 95d6 1fbe 0859 5b3f 2896 27bd
00000180: 3e03 743d 582c 78be 3bf3 05be 6055 2fbd
00000190: fead b83e 186e 153f 9c31 aabd 157c 6f3e
000001a0: 52b2 e9be 8404 6a3e 6c6f 8bbc 579a 4abe
000001b0: 1d26 8dbe 7bcb c1bd c27c 913f 8e0b a13e
000001c0: ff96 14be 68e6 a6bd cd82 ca3d 8e3d 22be
000001d0: f0ca edbd 1d02 52bd 8f79 7ebe 9e60 f1bd
000001e0: 3a1c 5d3e 2435 90be 47c5 923d 559f 6ebe
000001f0: 6a5d 09be 11e0 063e c101 893e 3ce8 f53d
00000200: 846d 6dbd 57f7 663e 19df 06be 15c4 c03d
00000210: 0fa9 a1be edbe 2a3e 15c8 89be 0d91 f0be
00000220: 2499 07be 21f2 1fbe 34e2 80be 5532 11bd
00000230: 9c0a 11be 2cd1 c9bd fc74 89be d604 bd3b
00000240: 64ee bc3d 242c 3d3f ff5f df3d c0d7 11be
00000250: f707 88be 31ba 0abe 5ed9 bb3e fdbe 4e3e
00000260: c7cd 143e e862 653d 5f5f 9a3e c31f 1e3e
00000270: 1003 89be bb37 3bbe 8f0b 3b3e 83f4 b03d
00000280: ab05 a3be 0d03 a3bd ddb0 273e 5423 2a3f
00000290: 4023 a8be 5d7d 16bc 4af5 9ebe 5cbd d53e
000002a0: fd56 08bf 53e4 3b3f 5c51 513e 9736 9c3e
000002b0: 3230 543e a77d 493d 02fc 483c e2db 113f
000002c0: 3813 233e ffc3 073e 1320 ae3e fcad 1cbe
000002d0: 09f6 cc3c e66a 223d 8624 a9bd acbf a9be
000002e0: 153e 4abe ab51 76bd c012 1e3e 1f4e 193e
000002f0: c532 93be dbb0 89be 3dd5 bd3d d8b8 863e
00000300: a0e6 e2bd d6df 34be 5390 833e 8a4b 513e
00000310: 5334 c33d bb85 20be e338 80be 2d41 21bd
00000320: f5df 07be 1648 a6be 0600 803f 1469 b2be
00000330: 0894 923e 4a5c 9cbc 85bd 3bbe 6caf 503e
00000340: 6905 be3e a702 763e e913 82be d643 1abe
00000350: 1064 e5bd 494f a8be 983d d8bd 3f71 e8be
00000360: ada8 b8bd af22 3abe 85a4 773e 2a7b 71be
00000370: 677c a6be 828d b13e de5c 62bf 7433 fc3d
00000380: 0e31 253e dc32 de3d 827e c3bd c2d5 163e
00000390: 2fa5 40be 3906 0f3f 14e3 083e b88d 20be
000003a0: 17fa af3d adef 14bd c97e 82be 1b6e 603c
000003b0: 0155 f4bd 4364 41be 721a 35bf 56c7 0c3d
000003c0: 8265 303e 134f 6dbe fe62 393e 1bfe c2bd
000003d0: 0f95 48bb 3c95 55be 783e 563e b026 ee3d
000003e0: 02ca f33e a68f 813e b1e5 753d fa63 653e
000003f0: 1ee6 3ebc a3b7 18bd 06e7 a23e 1304 8d3e

fc.bias f4 [18]
-0.0990399 -0.06959446 -0.08305345 -0.0654734 -0.073217295 -0.14419073 0.12587047 0.1905082
-0.038875602 -0.07218135 -0.15862474 0.09159074 0.2992014 0.014771322 -0.034676444 -0.024560953
-0.12589955 0.03238463
00000000: 6ed5 cabd 8a87 8ebd ed17 aabd eb16 86bd
00000010: f3f2 95bd bca6 13be 30e4 003e 9514 433e
00000020: 063c 1fbd d1d3 93bd 866e 22be ed93 bb3d
00000030: ed30 993e 6a03 723c e308 0ebd 0d34 c9bc
00000040: d0eb 00be bfa5 043d
